TelechatModel(
  (word_embeddings): Embedding(120000, 5120)
  (h): ModuleList(
    (0-37): 38 x TelechatBlock(
      (input_layernorm): MixedFusedRMSNorm()
      (self_attention): TelechatAttention(
        (query): Linear(in_features=5120, out_features=5120, bias=False)
        (key_value): Linear(in_features=5120, out_features=10240, bias=False)
        (dense): Linear(in_features=5120, out_features=5120, bias=True)
        (attention_dropout): Dropout(p=0.0, inplace=False)
        (rotary_emb): RotaryEmbedding()
      )
      (post_attention_layernorm): MixedFusedRMSNorm()
      (mlp): TelechatMLP(
        (gate_proj): Linear(in_features=5120, out_features=12288, bias=False)
        (up_proj): Linear(in_features=5120, out_features=12288, bias=False)
        (down_proj): Linear(in_features=12288, out_features=5120, bias=True)
      )
    )
  )
  (ln_f): MixedFusedRMSNorm()
)
<class 'telechat_src.modeling_telechat.TelechatModel'>
inputs: tensor([[ 23509, 113348, 112103,  77755,  32185, 112203]])
input_ids of TelechatModel forward tensor([[ 23509, 113348, 112103,  77755,  32185, 112203]])
inputs_embeds None
use_cache True
output_attentions False
output_hidden_states False
past_key_values None
attention_mask None
src_length 6
combined_attention_mask tensor([[[[False,  True,  True,  True,  True,  True],
          [False, False,  True,  True,  True,  True],
          [False, False, False,  True,  True,  True],
          [False, False, False, False,  True,  True],
          [False, False, False, False, False,  True],
          [False, False, False, False, False, False]]]])
return_dict True
responese:

tensor([], size=(0, 6, 5120), dtype=torch.float16, grad_fn=<SliceBackward0>)
ExportedProgram:
    class GraphModule(torch.nn.Module):
        def forward(self, p_h_0_input_layernorm_weight: "f32[5120]", p_h_0_post_attention_layernorm_weight: "f32[5120]", p_h_1_input_layernorm_weight: "f32[5120]", p_h_1_post_attention_layernorm_weight: "f32[5120]", p_h_2_input_layernorm_weight: "f32[5120]", p_h_2_post_attention_layernorm_weight: "f32[5120]", p_h_3_input_layernorm_weight: "f32[5120]", p_h_3_post_attention_layernorm_weight: "f32[5120]", p_h_4_input_layernorm_weight: "f32[5120]", p_h_4_post_attention_layernorm_weight: "f32[5120]", p_h_5_input_layernorm_weight: "f32[5120]", p_h_5_post_attention_layernorm_weight: "f32[5120]", p_h_6_input_layernorm_weight: "f32[5120]", p_h_6_post_attention_layernorm_weight: "f32[5120]", p_h_7_input_layernorm_weight: "f32[5120]", p_h_7_post_attention_layernorm_weight: "f32[5120]", p_h_8_input_layernorm_weight: "f32[5120]", p_h_8_post_attention_layernorm_weight: "f32[5120]", p_h_9_input_layernorm_weight: "f32[5120]", p_h_9_post_attention_layernorm_weight: "f32[5120]", p_h_10_input_layernorm_weight: "f32[5120]", p_h_10_post_attention_layernorm_weight: "f32[5120]", p_h_11_input_layernorm_weight: "f32[5120]", p_h_11_post_attention_layernorm_weight: "f32[5120]", p_h_12_input_layernorm_weight: "f32[5120]", p_h_12_post_attention_layernorm_weight: "f32[5120]", p_h_13_input_layernorm_weight: "f32[5120]", p_h_13_post_attention_layernorm_weight: "f32[5120]", p_h_14_input_layernorm_weight: "f32[5120]", p_h_14_post_attention_layernorm_weight: "f32[5120]", p_h_15_input_layernorm_weight: "f32[5120]", p_h_15_post_attention_layernorm_weight: "f32[5120]", p_h_16_input_layernorm_weight: "f32[5120]", p_h_16_post_attention_layernorm_weight: "f32[5120]", p_h_17_input_layernorm_weight: "f32[5120]", p_h_17_post_attention_layernorm_weight: "f32[5120]", p_h_18_input_layernorm_weight: "f32[5120]", p_h_18_post_attention_layernorm_weight: "f32[5120]", p_h_19_input_layernorm_weight: "f32[5120]", p_h_19_post_attention_layernorm_weight: "f32[5120]", p_h_20_input_layernorm_weight: "f32[5120]", p_h_20_post_attention_layernorm_weight: "f32[5120]", p_h_21_input_layernorm_weight: "f32[5120]", p_h_21_post_attention_layernorm_weight: "f32[5120]", p_h_22_input_layernorm_weight: "f32[5120]", p_h_22_post_attention_layernorm_weight: "f32[5120]", p_h_23_input_layernorm_weight: "f32[5120]", p_h_23_post_attention_layernorm_weight: "f32[5120]", p_h_24_input_layernorm_weight: "f32[5120]", p_h_24_post_attention_layernorm_weight: "f32[5120]", p_h_25_input_layernorm_weight: "f32[5120]", p_h_25_post_attention_layernorm_weight: "f32[5120]", p_h_26_input_layernorm_weight: "f32[5120]", p_h_26_post_attention_layernorm_weight: "f32[5120]", p_h_27_input_layernorm_weight: "f32[5120]", p_h_27_post_attention_layernorm_weight: "f32[5120]", p_h_28_input_layernorm_weight: "f32[5120]", p_h_28_post_attention_layernorm_weight: "f32[5120]", p_h_29_input_layernorm_weight: "f32[5120]", p_h_29_post_attention_layernorm_weight: "f32[5120]", p_h_30_input_layernorm_weight: "f32[5120]", p_h_30_post_attention_layernorm_weight: "f32[5120]", p_h_31_input_layernorm_weight: "f32[5120]", p_h_31_post_attention_layernorm_weight: "f32[5120]", p_h_32_input_layernorm_weight: "f32[5120]", p_h_32_post_attention_layernorm_weight: "f32[5120]", p_h_33_input_layernorm_weight: "f32[5120]", p_h_33_post_attention_layernorm_weight: "f32[5120]", p_h_34_input_layernorm_weight: "f32[5120]", p_h_34_post_attention_layernorm_weight: "f32[5120]", p_h_35_input_layernorm_weight: "f32[5120]", p_h_35_post_attention_layernorm_weight: "f32[5120]", p_h_36_input_layernorm_weight: "f32[5120]", p_h_36_post_attention_layernorm_weight: "f32[5120]", p_h_37_input_layernorm_weight: "f32[5120]", p_h_37_post_attention_layernorm_weight: "f32[5120]", p_ln_f_weight: "f32[5120]", p_word_embeddings_weight: "f32[120000, 5120]", p_h_0_self_attention_query_weight: "f32[5120, 5120]", p_h_0_self_attention_key_value_weight: "f32[10240, 5120]", p_h_0_self_attention_dense_weight: "f32[5120, 5120]", p_h_0_self_attention_dense_bias: "f32[5120]", p_h_0_mlp_gate_proj_weight: "f32[12288, 5120]", p_h_0_mlp_up_proj_weight: "f32[12288, 5120]", p_h_0_mlp_down_proj_weight: "f32[5120, 12288]", p_h_0_mlp_down_proj_bias: "f32[5120]", p_h_1_self_attention_query_weight: "f32[5120, 5120]", p_h_1_self_attention_key_value_weight: "f32[10240, 5120]", p_h_1_self_attention_dense_weight: "f32[5120, 5120]", p_h_1_self_attention_dense_bias: "f32[5120]", p_h_1_mlp_gate_proj_weight: "f32[12288, 5120]", p_h_1_mlp_up_proj_weight: "f32[12288, 5120]", p_h_1_mlp_down_proj_weight: "f32[5120, 12288]", p_h_1_mlp_down_proj_bias: "f32[5120]", p_h_2_self_attention_query_weight: "f32[5120, 5120]", p_h_2_self_attention_key_value_weight: "f32[10240, 5120]", p_h_2_self_attention_dense_weight: "f32[5120, 5120]", p_h_2_self_attention_dense_bias: "f32[5120]", p_h_2_mlp_gate_proj_weight: "f32[12288, 5120]", p_h_2_mlp_up_proj_weight: "f32[12288, 5120]", p_h_2_mlp_down_proj_weight: "f32[5120, 12288]", p_h_2_mlp_down_proj_bias: "f32[5120]", p_h_3_self_attention_query_weight: "f32[5120, 5120]", p_h_3_self_attention_key_value_weight: "f32[10240, 5120]", p_h_3_self_attention_dense_weight: "f32[5120, 5120]", p_h_3_self_attention_dense_bias: "f32[5120]", p_h_3_mlp_gate_proj_weight: "f32[12288, 5120]", p_h_3_mlp_up_proj_weight: "f32[12288, 5120]", p_h_3_mlp_down_proj_weight: "f32[5120, 12288]", p_h_3_mlp_down_proj_bias: "f32[5120]", p_h_4_self_attention_query_weight: "f32[5120, 5120]", p_h_4_self_attention_key_value_weight: "f32[10240, 5120]", p_h_4_self_attention_dense_weight: "f32[5120, 5120]", p_h_4_self_attention_dense_bias: "f32[5120]", p_h_4_mlp_gate_proj_weight: "f32[12288, 5120]", p_h_4_mlp_up_proj_weight: "f32[12288, 5120]", p_h_4_mlp_down_proj_weight: "f32[5120, 12288]", p_h_4_mlp_down_proj_bias: "f32[5120]", p_h_5_self_attention_query_weight: "f32[5120, 5120]", p_h_5_self_attention_key_value_weight: "f32[10240, 5120]", p_h_5_self_attention_dense_weight: "f32[5120, 5120]", p_h_5_self_attention_dense_bias: "f32[5120]", p_h_5_mlp_gate_proj_weight: "f32[12288, 5120]", p_h_5_mlp_up_proj_weight: "f32[12288, 5120]", p_h_5_mlp_down_proj_weight: "f32[5120, 12288]", p_h_5_mlp_down_proj_bias: "f32[5120]", p_h_6_self_attention_query_weight: "f32[5120, 5120]", p_h_6_self_attention_key_value_weight: "f32[10240, 5120]", p_h_6_self_attention_dense_weight: "f32[5120, 5120]", p_h_6_self_attention_dense_bias: "f32[5120]", p_h_6_mlp_gate_proj_weight: "f32[12288, 5120]", p_h_6_mlp_up_proj_weight: "f32[12288, 5120]", p_h_6_mlp_down_proj_weight: "f32[5120, 12288]", p_h_6_mlp_down_proj_bias: "f32[5120]", p_h_7_self_attention_query_weight: "f32[5120, 5120]", p_h_7_self_attention_key_value_weight: "f32[10240, 5120]", p_h_7_self_attention_dense_weight: "f32[5120, 5120]", p_h_7_self_attention_dense_bias: "f32[5120]", p_h_7_mlp_gate_proj_weight: "f32[12288, 5120]", p_h_7_mlp_up_proj_weight: "f32[12288, 5120]", p_h_7_mlp_down_proj_weight: "f32[5120, 12288]", p_h_7_mlp_down_proj_bias: "f32[5120]", p_h_8_self_attention_query_weight: "f32[5120, 5120]", p_h_8_self_attention_key_value_weight: "f32[10240, 5120]", p_h_8_self_attention_dense_weight: "f32[5120, 5120]", p_h_8_self_attention_dense_bias: "f32[5120]", p_h_8_mlp_gate_proj_weight: "f32[12288, 5120]", p_h_8_mlp_up_proj_weight: "f32[12288, 5120]", p_h_8_mlp_down_proj_weight: "f32[5120, 12288]", p_h_8_mlp_down_proj_bias: "f32[5120]", p_h_9_self_attention_query_weight: "f32[5120, 5120]", p_h_9_self_attention_key_value_weight: "f32[10240, 5120]", p_h_9_self_attention_dense_weight: "f32[5120, 5120]", p_h_9_self_attention_dense_bias: "f32[5120]", p_h_9_mlp_gate_proj_weight: "f32[12288, 5120]", p_h_9_mlp_up_proj_weight: "f32[12288, 5120]", p_h_9_mlp_down_proj_weight: "f32[5120, 12288]", p_h_9_mlp_down_proj_bias: "f32[5120]", p_h_10_self_attention_query_weight: "f32[5120, 5120]", p_h_10_self_attention_key_value_weight: "f32[10240, 5120]", p_h_10_self_attention_dense_weight: "f32[5120, 5120]", p_h_10_self_attention_dense_bias: "f32[5120]", p_h_10_mlp_gate_proj_weight: "f32[12288, 5120]", p_h_10_mlp_up_proj_weight: "f32[12288, 5120]", p_h_10_mlp_down_proj_weight: "f32[5120, 12288]", p_h_10_mlp_down_proj_bias: "f32[5120]", p_h_11_self_attention_query_weight: "f32[5120, 5120]", p_h_11_self_attention_key_value_weight: "f32[10240, 5120]", p_h_11_self_attention_dense_weight: "f32[5120, 5120]", p_h_11_self_attention_dense_bias: "f32[5120]", p_h_11_mlp_gate_proj_weight: "f32[12288, 5120]", p_h_11_mlp_up_proj_weight: "f32[12288, 5120]", p_h_11_mlp_down_proj_weight: "f32[5120, 12288]", p_h_11_mlp_down_proj_bias: "f32[5120]", p_h_12_self_attention_query_weight: "f32[5120, 5120]", p_h_12_self_attention_key_value_weight: "f32[10240, 5120]", p_h_12_self_attention_dense_weight: "f32[5120, 5120]", p_h_12_self_attention_dense_bias: "f32[5120]", p_h_12_mlp_gate_proj_weight: "f32[12288, 5120]", p_h_12_mlp_up_proj_weight: "f32[12288, 5120]", p_h_12_mlp_down_proj_weight: "f32[5120, 12288]", p_h_12_mlp_down_proj_bias: "f32[5120]", p_h_13_self_attention_query_weight: "f32[5120, 5120]", p_h_13_self_attention_key_value_weight: "f32[10240, 5120]", p_h_13_self_attention_dense_weight: "f32[5120, 5120]", p_h_13_self_attention_dense_bias: "f32[5120]", p_h_13_mlp_gate_proj_weight: "f32[12288, 5120]", p_h_13_mlp_up_proj_weight: "f32[12288, 5120]", p_h_13_mlp_down_proj_weight: "f32[5120, 12288]", p_h_13_mlp_down_proj_bias: "f32[5120]", p_h_14_self_attention_query_weight: "f32[5120, 5120]", p_h_14_self_attention_key_value_weight: "f32[10240, 5120]", p_h_14_self_attention_dense_weight: "f32[5120, 5120]", p_h_14_self_attention_dense_bias: "f32[5120]", p_h_14_mlp_gate_proj_weight: "f32[12288, 5120]", p_h_14_mlp_up_proj_weight: "f32[12288, 5120]", p_h_14_mlp_down_proj_weight: "f32[5120, 12288]", p_h_14_mlp_down_proj_bias: "f32[5120]", p_h_15_self_attention_query_weight: "f32[5120, 5120]", p_h_15_self_attention_key_value_weight: "f32[10240, 5120]", p_h_15_self_attention_dense_weight: "f32[5120, 5120]", p_h_15_self_attention_dense_bias: "f32[5120]", p_h_15_mlp_gate_proj_weight: "f32[12288, 5120]", p_h_15_mlp_up_proj_weight: "f32[12288, 5120]", p_h_15_mlp_down_proj_weight: "f32[5120, 12288]", p_h_15_mlp_down_proj_bias: "f32[5120]", p_h_16_self_attention_query_weight: "f32[5120, 5120]", p_h_16_self_attention_key_value_weight: "f32[10240, 5120]", p_h_16_self_attention_dense_weight: "f32[5120, 5120]", p_h_16_self_attention_dense_bias: "f32[5120]", p_h_16_mlp_gate_proj_weight: "f32[12288, 5120]", p_h_16_mlp_up_proj_weight: "f32[12288, 5120]", p_h_16_mlp_down_proj_weight: "f32[5120, 12288]", p_h_16_mlp_down_proj_bias: "f32[5120]", p_h_17_self_attention_query_weight: "f32[5120, 5120]", p_h_17_self_attention_key_value_weight: "f32[10240, 5120]", p_h_17_self_attention_dense_weight: "f32[5120, 5120]", p_h_17_self_attention_dense_bias: "f32[5120]", p_h_17_mlp_gate_proj_weight: "f32[12288, 5120]", p_h_17_mlp_up_proj_weight: "f32[12288, 5120]", p_h_17_mlp_down_proj_weight: "f32[5120, 12288]", p_h_17_mlp_down_proj_bias: "f32[5120]", p_h_18_self_attention_query_weight: "f32[5120, 5120]", p_h_18_self_attention_key_value_weight: "f32[10240, 5120]", p_h_18_self_attention_dense_weight: "f32[5120, 5120]", p_h_18_self_attention_dense_bias: "f32[5120]", p_h_18_mlp_gate_proj_weight: "f32[12288, 5120]", p_h_18_mlp_up_proj_weight: "f32[12288, 5120]", p_h_18_mlp_down_proj_weight: "f32[5120, 12288]", p_h_18_mlp_down_proj_bias: "f32[5120]", p_h_19_self_attention_query_weight: "f32[5120, 5120]", p_h_19_self_attention_key_value_weight: "f32[10240, 5120]", p_h_19_self_attention_dense_weight: "f32[5120, 5120]", p_h_19_self_attention_dense_bias: "f32[5120]", p_h_19_mlp_gate_proj_weight: "f32[12288, 5120]", p_h_19_mlp_up_proj_weight: "f32[12288, 5120]", p_h_19_mlp_down_proj_weight: "f32[5120, 12288]", p_h_19_mlp_down_proj_bias: "f32[5120]", p_h_20_self_attention_query_weight: "f32[5120, 5120]", p_h_20_self_attention_key_value_weight: "f32[10240, 5120]", p_h_20_self_attention_dense_weight: "f32[5120, 5120]", p_h_20_self_attention_dense_bias: "f32[5120]", p_h_20_mlp_gate_proj_weight: "f32[12288, 5120]", p_h_20_mlp_up_proj_weight: "f32[12288, 5120]", p_h_20_mlp_down_proj_weight: "f32[5120, 12288]", p_h_20_mlp_down_proj_bias: "f32[5120]", p_h_21_self_attention_query_weight: "f32[5120, 5120]", p_h_21_self_attention_key_value_weight: "f32[10240, 5120]", p_h_21_self_attention_dense_weight: "f32[5120, 5120]", p_h_21_self_attention_dense_bias: "f32[5120]", p_h_21_mlp_gate_proj_weight: "f32[12288, 5120]", p_h_21_mlp_up_proj_weight: "f32[12288, 5120]", p_h_21_mlp_down_proj_weight: "f32[5120, 12288]", p_h_21_mlp_down_proj_bias: "f32[5120]", p_h_22_self_attention_query_weight: "f32[5120, 5120]", p_h_22_self_attention_key_value_weight: "f32[10240, 5120]", p_h_22_self_attention_dense_weight: "f32[5120, 5120]", p_h_22_self_attention_dense_bias: "f32[5120]", p_h_22_mlp_gate_proj_weight: "f32[12288, 5120]", p_h_22_mlp_up_proj_weight: "f32[12288, 5120]", p_h_22_mlp_down_proj_weight: "f32[5120, 12288]", p_h_22_mlp_down_proj_bias: "f32[5120]", p_h_23_self_attention_query_weight: "f32[5120, 5120]", p_h_23_self_attention_key_value_weight: "f32[10240, 5120]", p_h_23_self_attention_dense_weight: "f32[5120, 5120]", p_h_23_self_attention_dense_bias: "f32[5120]", p_h_23_mlp_gate_proj_weight: "f32[12288, 5120]", p_h_23_mlp_up_proj_weight: "f32[12288, 5120]", p_h_23_mlp_down_proj_weight: "f32[5120, 12288]", p_h_23_mlp_down_proj_bias: "f32[5120]", p_h_24_self_attention_query_weight: "f32[5120, 5120]", p_h_24_self_attention_key_value_weight: "f32[10240, 5120]", p_h_24_self_attention_dense_weight: "f32[5120, 5120]", p_h_24_self_attention_dense_bias: "f32[5120]", p_h_24_mlp_gate_proj_weight: "f32[12288, 5120]", p_h_24_mlp_up_proj_weight: "f32[12288, 5120]", p_h_24_mlp_down_proj_weight: "f32[5120, 12288]", p_h_24_mlp_down_proj_bias: "f32[5120]", p_h_25_self_attention_query_weight: "f32[5120, 5120]", p_h_25_self_attention_key_value_weight: "f32[10240, 5120]", p_h_25_self_attention_dense_weight: "f32[5120, 5120]", p_h_25_self_attention_dense_bias: "f32[5120]", p_h_25_mlp_gate_proj_weight: "f32[12288, 5120]", p_h_25_mlp_up_proj_weight: "f32[12288, 5120]", p_h_25_mlp_down_proj_weight: "f32[5120, 12288]", p_h_25_mlp_down_proj_bias: "f32[5120]", p_h_26_self_attention_query_weight: "f32[5120, 5120]", p_h_26_self_attention_key_value_weight: "f32[10240, 5120]", p_h_26_self_attention_dense_weight: "f32[5120, 5120]", p_h_26_self_attention_dense_bias: "f32[5120]", p_h_26_mlp_gate_proj_weight: "f32[12288, 5120]", p_h_26_mlp_up_proj_weight: "f32[12288, 5120]", p_h_26_mlp_down_proj_weight: "f32[5120, 12288]", p_h_26_mlp_down_proj_bias: "f32[5120]", p_h_27_self_attention_query_weight: "f32[5120, 5120]", p_h_27_self_attention_key_value_weight: "f32[10240, 5120]", p_h_27_self_attention_dense_weight: "f32[5120, 5120]", p_h_27_self_attention_dense_bias: "f32[5120]", p_h_27_mlp_gate_proj_weight: "f32[12288, 5120]", p_h_27_mlp_up_proj_weight: "f32[12288, 5120]", p_h_27_mlp_down_proj_weight: "f32[5120, 12288]", p_h_27_mlp_down_proj_bias: "f32[5120]", p_h_28_self_attention_query_weight: "f32[5120, 5120]", p_h_28_self_attention_key_value_weight: "f32[10240, 5120]", p_h_28_self_attention_dense_weight: "f32[5120, 5120]", p_h_28_self_attention_dense_bias: "f32[5120]", p_h_28_mlp_gate_proj_weight: "f32[12288, 5120]", p_h_28_mlp_up_proj_weight: "f32[12288, 5120]", p_h_28_mlp_down_proj_weight: "f32[5120, 12288]", p_h_28_mlp_down_proj_bias: "f32[5120]", p_h_29_self_attention_query_weight: "f32[5120, 5120]", p_h_29_self_attention_key_value_weight: "f32[10240, 5120]", p_h_29_self_attention_dense_weight: "f32[5120, 5120]", p_h_29_self_attention_dense_bias: "f32[5120]", p_h_29_mlp_gate_proj_weight: "f32[12288, 5120]", p_h_29_mlp_up_proj_weight: "f32[12288, 5120]", p_h_29_mlp_down_proj_weight: "f32[5120, 12288]", p_h_29_mlp_down_proj_bias: "f32[5120]", p_h_30_self_attention_query_weight: "f32[5120, 5120]", p_h_30_self_attention_key_value_weight: "f32[10240, 5120]", p_h_30_self_attention_dense_weight: "f32[5120, 5120]", p_h_30_self_attention_dense_bias: "f32[5120]", p_h_30_mlp_gate_proj_weight: "f32[12288, 5120]", p_h_30_mlp_up_proj_weight: "f32[12288, 5120]", p_h_30_mlp_down_proj_weight: "f32[5120, 12288]", p_h_30_mlp_down_proj_bias: "f32[5120]", p_h_31_self_attention_query_weight: "f32[5120, 5120]", p_h_31_self_attention_key_value_weight: "f32[10240, 5120]", p_h_31_self_attention_dense_weight: "f32[5120, 5120]", p_h_31_self_attention_dense_bias: "f32[5120]", p_h_31_mlp_gate_proj_weight: "f32[12288, 5120]", p_h_31_mlp_up_proj_weight: "f32[12288, 5120]", p_h_31_mlp_down_proj_weight: "f32[5120, 12288]", p_h_31_mlp_down_proj_bias: "f32[5120]", p_h_32_self_attention_query_weight: "f32[5120, 5120]", p_h_32_self_attention_key_value_weight: "f32[10240, 5120]", p_h_32_self_attention_dense_weight: "f32[5120, 5120]", p_h_32_self_attention_dense_bias: "f32[5120]", p_h_32_mlp_gate_proj_weight: "f32[12288, 5120]", p_h_32_mlp_up_proj_weight: "f32[12288, 5120]", p_h_32_mlp_down_proj_weight: "f32[5120, 12288]", p_h_32_mlp_down_proj_bias: "f32[5120]", p_h_33_self_attention_query_weight: "f32[5120, 5120]", p_h_33_self_attention_key_value_weight: "f32[10240, 5120]", p_h_33_self_attention_dense_weight: "f32[5120, 5120]", p_h_33_self_attention_dense_bias: "f32[5120]", p_h_33_mlp_gate_proj_weight: "f32[12288, 5120]", p_h_33_mlp_up_proj_weight: "f32[12288, 5120]", p_h_33_mlp_down_proj_weight: "f32[5120, 12288]", p_h_33_mlp_down_proj_bias: "f32[5120]", p_h_34_self_attention_query_weight: "f32[5120, 5120]", p_h_34_self_attention_key_value_weight: "f32[10240, 5120]", p_h_34_self_attention_dense_weight: "f32[5120, 5120]", p_h_34_self_attention_dense_bias: "f32[5120]", p_h_34_mlp_gate_proj_weight: "f32[12288, 5120]", p_h_34_mlp_up_proj_weight: "f32[12288, 5120]", p_h_34_mlp_down_proj_weight: "f32[5120, 12288]", p_h_34_mlp_down_proj_bias: "f32[5120]", p_h_35_self_attention_query_weight: "f32[5120, 5120]", p_h_35_self_attention_key_value_weight: "f32[10240, 5120]", p_h_35_self_attention_dense_weight: "f32[5120, 5120]", p_h_35_self_attention_dense_bias: "f32[5120]", p_h_35_mlp_gate_proj_weight: "f32[12288, 5120]", p_h_35_mlp_up_proj_weight: "f32[12288, 5120]", p_h_35_mlp_down_proj_weight: "f32[5120, 12288]", p_h_35_mlp_down_proj_bias: "f32[5120]", p_h_36_self_attention_query_weight: "f32[5120, 5120]", p_h_36_self_attention_key_value_weight: "f32[10240, 5120]", p_h_36_self_attention_dense_weight: "f32[5120, 5120]", p_h_36_self_attention_dense_bias: "f32[5120]", p_h_36_mlp_gate_proj_weight: "f32[12288, 5120]", p_h_36_mlp_up_proj_weight: "f32[12288, 5120]", p_h_36_mlp_down_proj_weight: "f32[5120, 12288]", p_h_36_mlp_down_proj_bias: "f32[5120]", p_h_37_self_attention_query_weight: "f32[5120, 5120]", p_h_37_self_attention_key_value_weight: "f32[10240, 5120]", p_h_37_self_attention_dense_weight: "f32[5120, 5120]", p_h_37_self_attention_dense_bias: "f32[5120]", p_h_37_mlp_gate_proj_weight: "f32[12288, 5120]", p_h_37_mlp_up_proj_weight: "f32[12288, 5120]", p_h_37_mlp_down_proj_weight: "f32[5120, 12288]", p_h_37_mlp_down_proj_bias: "f32[5120]", c_lifted_tensor_0: "i64[1, 6]", input_ids: "f32[10, 10]", past_key_values: "f32[10, 10]"):
             # File: /home/liuyang/project/rvbisai/telechat_src/modeling_telechat.py:664 in forward, code: input_ids = torch.tensor([[23509, 113348, 112103, 77755, 32185, 112203]])
            lift_fresh_copy: "i64[1, 6]" = torch.ops.aten.lift_fresh_copy.default(c_lifted_tensor_0);  c_lifted_tensor_0 = None
            detach: "i64[1, 6]" = torch.ops.aten.detach.default(lift_fresh_copy);  lift_fresh_copy = None
            
             # File: /home/liuyang/project/rvbisai/telechat_src/modeling_telechat.py:679 in forward, code: inputs_embeds = self.word_embeddings(input_ids)
            embedding: "f32[1, 6, 5120]" = torch.ops.aten.embedding.default(p_word_embeddings_weight, detach);  p_word_embeddings_weight = detach = None
            
             # File: /home/liuyang/project/rvbisai/telechat_src/modeling_telechat.py:717 in forward, code: attention_mask = torch.ones((batch_size, seq_length_with_past), device=hidden_states.device)
            ones: "f32[1, 6]" = torch.ops.aten.ones.default([1, 6], device = device(type='cpu'), pin_memory = False)
            
             # File: /home/liuyang/project/rvbisai/telechat_src/modeling_telechat.py:221 in _make_causal_mask, code: mask = torch.empty((target_length, target_length + past_key_values_length), dtype=torch.bool, device=device)
            empty: "b8[6, 6]" = torch.ops.aten.empty.memory_format([6, 6], dtype = torch.bool, device = device(type='cpu'), pin_memory = False)
            
             # File: /home/liuyang/project/rvbisai/telechat_src/modeling_telechat.py:223 in _make_causal_mask, code: seq_ids = torch.arange(target_length, device=device)
            arange: "i64[6]" = torch.ops.aten.arange.default(6, device = device(type='cpu'), pin_memory = False)
            
             # File: /home/liuyang/project/rvbisai/telechat_src/modeling_telechat.py:224 in _make_causal_mask, code: mask[:, past_key_values_length:] = seq_ids[:, None] < seq_ids[None, :]
            slice_1: "i64[6]" = torch.ops.aten.slice.Tensor(arange, 0, 0, 9223372036854775807)
            unsqueeze: "i64[6, 1]" = torch.ops.aten.unsqueeze.default(slice_1, 1);  slice_1 = None
            unsqueeze_1: "i64[1, 6]" = torch.ops.aten.unsqueeze.default(arange, 0);  arange = None
            slice_2: "i64[1, 6]" = torch.ops.aten.slice.Tensor(unsqueeze_1, 1, 0, 9223372036854775807);  unsqueeze_1 = None
            lt: "b8[6, 6]" = torch.ops.aten.lt.Tensor(unsqueeze, slice_2);  unsqueeze = slice_2 = None
            slice_3: "b8[6, 6]" = torch.ops.aten.slice.Tensor(empty, 0, 0, 9223372036854775807)
            slice_4: "b8[6, 6]" = torch.ops.aten.slice.Tensor(slice_3, 1, 0, 9223372036854775807);  slice_3 = None
            copy: "b8[6, 6]" = torch.ops.aten.copy.default(slice_4, lt);  slice_4 = lt = None
            slice_5: "b8[6, 6]" = torch.ops.aten.slice.Tensor(empty, 0, 0, 9223372036854775807)
            slice_scatter: "b8[6, 6]" = torch.ops.aten.slice_scatter.default(slice_5, copy, 1, 0, 9223372036854775807);  slice_5 = copy = None
            slice_scatter_1: "b8[6, 6]" = torch.ops.aten.slice_scatter.default(empty, slice_scatter, 0, 0, 9223372036854775807);  empty = slice_scatter = None
            
             # File: /home/liuyang/project/rvbisai/telechat_src/modeling_telechat.py:240 in _expand_mask, code: expanded_mask = ~(mask[:, None, None, :].to(torch.bool))
            slice_10: "f32[1, 6]" = torch.ops.aten.slice.Tensor(ones, 0, 0, 9223372036854775807);  ones = None
            unsqueeze_4: "f32[1, 1, 6]" = torch.ops.aten.unsqueeze.default(slice_10, 1);  slice_10 = None
            unsqueeze_5: "f32[1, 1, 1, 6]" = torch.ops.aten.unsqueeze.default(unsqueeze_4, 2);  unsqueeze_4 = None
            slice_11: "f32[1, 1, 1, 6]" = torch.ops.aten.slice.Tensor(unsqueeze_5, 3, 0, 9223372036854775807);  unsqueeze_5 = None
            _to_copy: "b8[1, 1, 1, 6]" = torch.ops.aten._to_copy.default(slice_11, dtype = torch.bool);  slice_11 = None
            bitwise_not: "b8[1, 1, 1, 6]" = torch.ops.aten.bitwise_not.default(_to_copy);  _to_copy = None
            
             # File: /home/liuyang/project/rvbisai/telechat_src/modeling_telechat.py:241 in _expand_mask, code: return expanded_mask.expand(batch_size, 1, tgt_length, src_length)
            expand_1: "b8[1, 1, 6, 6]" = torch.ops.aten.expand.default(bitwise_not, [1, 1, 6, 6]);  bitwise_not = None
            
             # File: /home/liuyang/project/rvbisai/telechat_src/modeling_telechat.py:628 in _prepare_attn_mask, code: combined_attention_mask = ( expanded_attn_mask | combined_attention_mask
            unsqueeze_6: "b8[1, 6, 6]" = torch.ops.aten.unsqueeze.default(slice_scatter_1, 0);  slice_scatter_1 = None
            unsqueeze_7: "b8[1, 1, 6, 6]" = torch.ops.aten.unsqueeze.default(unsqueeze_6, 1);  unsqueeze_6 = None
            slice_12: "b8[1, 1, 6, 6]" = torch.ops.aten.slice.Tensor(unsqueeze_7, 2, 0, 9223372036854775807);  unsqueeze_7 = None
            slice_13: "b8[1, 1, 6, 6]" = torch.ops.aten.slice.Tensor(slice_12, 3, 0, 9223372036854775807);  slice_12 = None
            expand_2: "b8[1, 1, 6, 6]" = torch.ops.aten.expand.default(slice_13, [1, 1, 6, 6]);  slice_13 = None
            or_1: "b8[1, 1, 6, 6]" = torch.ops.aten.__or__.Tensor(expand_1, expand_2);  expand_1 = expand_2 = None
            
             # File: /home/liuyang/project/rvbisai/telechat_src/modeling_telechat.py:146 in forward, code: hidden_states = hidden_states.to(torch.float32)
            _to_copy_1: "f32[1, 6, 5120]" = torch.ops.aten._to_copy.default(embedding, dtype = torch.float32)
            
             # File: /home/liuyang/project/rvbisai/telechat_src/modeling_telechat.py:147 in forward, code: variance = hidden_states.pow(2).mean(-1, keepdim=True)
            pow_1: "f32[1, 6, 5120]" = torch.ops.aten.pow.Tensor_Scalar(_to_copy_1, 2)
            mean: "f32[1, 6, 1]" = torch.ops.aten.mean.dim(pow_1, [-1], True);  pow_1 = None
            
             # File: /home/liuyang/project/rvbisai/telechat_src/modeling_telechat.py:148 in forward, code: hidden_states = hidden_states * torch.rsqrt(variance + self.variance_epsilon)
            add: "f32[1, 6, 1]" = torch.ops.aten.add.Tensor(mean, 1e-05);  mean = None
            rsqrt: "f32[1, 6, 1]" = torch.ops.aten.rsqrt.default(add);  add = None
            mul: "f32[1, 6, 5120]" = torch.ops.aten.mul.Tensor(_to_copy_1, rsqrt);  _to_copy_1 = rsqrt = None
            
             # File: /home/liuyang/project/rvbisai/telechat_src/modeling_telechat.py:149 in forward, code: return self.weight * hidden_states.to(input_dtype)
            _to_copy_2: "f32[1, 6, 5120]" = torch.ops.aten._to_copy.default(mul, dtype = torch.float32);  mul = None
            mul_1: "f32[1, 6, 5120]" = torch.ops.aten.mul.Tensor(p_h_0_input_layernorm_weight, _to_copy_2);  p_h_0_input_layernorm_weight = _to_copy_2 = None
            
             # File: /home/liuyang/project/rvbisai/telechat_src/modeling_telechat.py:404 in forward, code: hidden_states = hidden_states.transpose(1, 0)
            transpose: "f32[6, 1, 5120]" = torch.ops.aten.transpose.int(mul_1, 1, 0);  mul_1 = None
            
             # File: /home/liuyang/project/rvbisai/telechat_src/modeling_telechat.py:405 in forward, code: query_layer = self.query(hidden_states)
            linear: "f32[6, 1, 5120]" = torch.ops.aten.linear.default(transpose, p_h_0_self_attention_query_weight);  p_h_0_self_attention_query_weight = None
            
             # File: /home/liuyang/project/rvbisai/telechat_src/modeling_telechat.py:409 in forward, code: query_layer = query_layer.view(*new_tensor_shape)
            view: "f32[6, 1, 32, 160]" = torch.ops.aten.view.default(linear, [6, 1, 32, 160]);  linear = None
            
             # File: /home/liuyang/project/rvbisai/telechat_src/modeling_telechat.py:411 in forward, code: mixed_kv_layer = self.key_value(hidden_states)
            linear_1: "f32[6, 1, 10240]" = torch.ops.aten.linear.default(transpose, p_h_0_self_attention_key_value_weight);  transpose = p_h_0_self_attention_key_value_weight = None
            
             # File: /home/liuyang/project/rvbisai/telechat_src/modeling_telechat.py:415 in forward, code: mixed_kv_layer = mixed_kv_layer.view(*new_tensor_shape)
            view_1: "f32[6, 1, 32, 320]" = torch.ops.aten.view.default(linear_1, [6, 1, 32, 320]);  linear_1 = None
            
             # File: /home/liuyang/project/rvbisai/telechat_src/modeling_telechat.py:381 in split_tensor_along_last_dim, code: tensor_list = torch.split(tensor, last_dim_size, dim=last_dim)
            split = torch.ops.aten.split.Tensor(view_1, 160, 3);  view_1 = None
            getitem: "f32[6, 1, 32, 160]" = split[0]
            getitem_1: "f32[6, 1, 32, 160]" = split[1];  split = None
            
             # File: /home/liuyang/project/rvbisai/telechat_src/modeling_telechat.py:423 in forward, code: query_layer = query_layer.view(output_size[2], output_size[0] * output_size[1], -1)
            view_2: "f32[6, 32, 160]" = torch.ops.aten.view.default(view, [6, 32, -1]);  view = None
            
             # File: /home/liuyang/project/rvbisai/telechat_src/modeling_telechat.py:424 in forward, code: key_layer = key_layer.view(output_size[3], output_size[0] * output_size[1], -1)
            view_3: "f32[6, 32, 160]" = torch.ops.aten.view.default(getitem, [6, 32, -1]);  getitem = None
            
             # File: /home/liuyang/project/rvbisai/telechat_src/modeling_telechat.py:112 in forward, code: self.inv_freq = 1.0 / (base ** (torch.arange(0, self.dim, 2, device=x.device).float() / self.dim))
            arange_1: "i64[80]" = torch.ops.aten.arange.start_step(0, 160, 2, device = device(type='cpu'), pin_memory = False)
            _to_copy_3: "f32[80]" = torch.ops.aten._to_copy.default(arange_1, dtype = torch.float32);  arange_1 = None
            div: "f32[80]" = torch.ops.aten.div.Tensor(_to_copy_3, 160);  _to_copy_3 = None
            pow_2: "f32[80]" = torch.ops.aten.pow.Scalar(30420.108888514722, div);  div = None
            reciprocal: "f32[80]" = torch.ops.aten.reciprocal.default(pow_2);  pow_2 = None
            mul_2: "f32[80]" = torch.ops.aten.mul.Tensor(reciprocal, 1.0);  reciprocal = None
            
             # File: /home/liuyang/project/rvbisai/telechat_src/modeling_telechat.py:114 in forward, code: t = torch.arange(self.max_seq_len_cached, device=x.device, dtype=self.inv_freq.dtype)
            arange_2: "f32[8192]" = torch.ops.aten.arange.default(8192, dtype = torch.float32, device = device(type='cpu'), pin_memory = False)
            
             # File: /home/liuyang/project/rvbisai/telechat_src/modeling_telechat.py:115 in forward, code: freqs = torch.einsum('i,j->ij', t, self.inv_freq)
            einsum: "f32[8192, 80]" = torch.ops.aten.einsum.default('i,j->ij', [arange_2, mul_2]);  arange_2 = mul_2 = None
            
             # File: /home/liuyang/project/rvbisai/telechat_src/modeling_telechat.py:117 in forward, code: emb = torch.cat((freqs, freqs), dim=-1).to(x.device)
            cat: "f32[8192, 160]" = torch.ops.aten.cat.default([einsum, einsum], -1);  einsum = None
            _to_copy_4: "f32[8192, 160]" = torch.ops.aten._to_copy.default(cat, dtype = torch.float32, layout = torch.strided, device = device(type='cpu'));  cat = None
            
             # File: /home/liuyang/project/rvbisai/telechat_src/modeling_telechat.py:121 in forward, code: self.cos_cached = self.mscale * emb.cos()[:, None, :].to(dtype)
            cos: "f32[8192, 160]" = torch.ops.aten.cos.default(_to_copy_4)
            slice_14: "f32[8192, 160]" = torch.ops.aten.slice.Tensor(cos, 0, 0, 9223372036854775807);  cos = None
            unsqueeze_8: "f32[8192, 1, 160]" = torch.ops.aten.unsqueeze.default(slice_14, 1);  slice_14 = None
            slice_15: "f32[8192, 1, 160]" = torch.ops.aten.slice.Tensor(unsqueeze_8, 2, 0, 9223372036854775807);  unsqueeze_8 = None
            _to_copy_5: "f32[8192, 1, 160]" = torch.ops.aten._to_copy.default(slice_15, dtype = torch.float32);  slice_15 = None
            mul_3: "f32[8192, 1, 160]" = torch.ops.aten.mul.Tensor(_to_copy_5, 1.0);  _to_copy_5 = None
            
             # File: /home/liuyang/project/rvbisai/telechat_src/modeling_telechat.py:122 in forward, code: self.sin_cached = self.mscale * emb.sin()[:, None, :].to(dtype)
            sin: "f32[8192, 160]" = torch.ops.aten.sin.default(_to_copy_4);  _to_copy_4 = None
            slice_16: "f32[8192, 160]" = torch.ops.aten.slice.Tensor(sin, 0, 0, 9223372036854775807);  sin = None
            unsqueeze_9: "f32[8192, 1, 160]" = torch.ops.aten.unsqueeze.default(slice_16, 1);  slice_16 = None
            slice_17: "f32[8192, 1, 160]" = torch.ops.aten.slice.Tensor(unsqueeze_9, 2, 0, 9223372036854775807);  unsqueeze_9 = None
            _to_copy_6: "f32[8192, 1, 160]" = torch.ops.aten._to_copy.default(slice_17, dtype = torch.float32);  slice_17 = None
            mul_4: "f32[8192, 1, 160]" = torch.ops.aten.mul.Tensor(_to_copy_6, 1.0);  _to_copy_6 = None
            
             # File: /home/liuyang/project/rvbisai/telechat_src/modeling_telechat.py:123 in forward, code: return self.cos_cached[:seq_len, ...], self.sin_cached[:seq_len, ...]
            alias: "f32[8192, 1, 160]" = torch.ops.aten.alias.default(mul_3);  mul_3 = None
            alias_1: "f32[8192, 1, 160]" = torch.ops.aten.alias.default(mul_4);  mul_4 = None
            
             # File: /home/liuyang/project/rvbisai/telechat_src/modeling_telechat.py:133 in apply_rotary_pos_emb_torch, code: cos, sin = cos[offset:q.shape[0] + offset, ...], sin[offset:q.shape[0] + offset, ...]
            slice_18: "f32[6, 1, 160]" = torch.ops.aten.slice.Tensor(alias, 0, 0, 6);  alias = None
            slice_19: "f32[6, 1, 160]" = torch.ops.aten.slice.Tensor(alias_1, 0, 0, 6);  alias_1 = None
            
             # File: /home/liuyang/project/rvbisai/telechat_src/modeling_telechat.py:134 in apply_rotary_pos_emb_torch, code: return (q * cos) + (rotate_half(q) * sin), (k * cos) + (rotate_half(k) * sin)
            mul_5: "f32[6, 32, 160]" = torch.ops.aten.mul.Tensor(view_2, slice_18)
            
             # File: /home/liuyang/project/rvbisai/telechat_src/modeling_telechat.py:128 in rotate_half, code: x1, x2 = x[..., :x.shape[-1] // 2], x[..., x.shape[-1] // 2:]
            slice_20: "f32[6, 32, 80]" = torch.ops.aten.slice.Tensor(view_2, 2, 0, 80)
            slice_21: "f32[6, 32, 80]" = torch.ops.aten.slice.Tensor(view_2, 2, 80, 9223372036854775807);  view_2 = None
            
             # File: /home/liuyang/project/rvbisai/telechat_src/modeling_telechat.py:129 in rotate_half, code: return torch.cat((-x2, x1), dim=x1.ndim - 1)  # dim=-1 triggers a bug in earlier torch versions
            neg: "f32[6, 32, 80]" = torch.ops.aten.neg.default(slice_21);  slice_21 = None
            cat_1: "f32[6, 32, 160]" = torch.ops.aten.cat.default([neg, slice_20], 2);  neg = slice_20 = None
            
             # File: /home/liuyang/project/rvbisai/telechat_src/modeling_telechat.py:134 in apply_rotary_pos_emb_torch, code: return (q * cos) + (rotate_half(q) * sin), (k * cos) + (rotate_half(k) * sin)
            mul_6: "f32[6, 32, 160]" = torch.ops.aten.mul.Tensor(cat_1, slice_19);  cat_1 = None
            add_1: "f32[6, 32, 160]" = torch.ops.aten.add.Tensor(mul_5, mul_6);  mul_5 = mul_6 = None
            mul_7: "f32[6, 32, 160]" = torch.ops.aten.mul.Tensor(view_3, slice_18);  slice_18 = None
            
             # File: /home/liuyang/project/rvbisai/telechat_src/modeling_telechat.py:128 in rotate_half, code: x1, x2 = x[..., :x.shape[-1] // 2], x[..., x.shape[-1] // 2:]
            slice_22: "f32[6, 32, 80]" = torch.ops.aten.slice.Tensor(view_3, 2, 0, 80)
            slice_23: "f32[6, 32, 80]" = torch.ops.aten.slice.Tensor(view_3, 2, 80, 9223372036854775807);  view_3 = None
            
             # File: /home/liuyang/project/rvbisai/telechat_src/modeling_telechat.py:129 in rotate_half, code: return torch.cat((-x2, x1), dim=x1.ndim - 1)  # dim=-1 triggers a bug in earlier torch versions
            neg_1: "f32[6, 32, 80]" = torch.ops.aten.neg.default(slice_23);  slice_23 = None
            cat_2: "f32[6, 32, 160]" = torch.ops.aten.cat.default([neg_1, slice_22], 2);  neg_1 = slice_22 = None
            
             # File: /home/liuyang/project/rvbisai/telechat_src/modeling_telechat.py:134 in apply_rotary_pos_emb_torch, code: return (q * cos) + (rotate_half(q) * sin), (k * cos) + (rotate_half(k) * sin)
            mul_8: "f32[6, 32, 160]" = torch.ops.aten.mul.Tensor(cat_2, slice_19);  cat_2 = slice_19 = None
            add_2: "f32[6, 32, 160]" = torch.ops.aten.add.Tensor(mul_7, mul_8);  mul_7 = mul_8 = None
            
             # File: /home/liuyang/project/rvbisai/telechat_src/modeling_telechat.py:448 in forward, code: query_layer = query_layer.reshape((s_query, bz, head, dim))
            view_4: "f32[6, 1, 32, 160]" = torch.ops.aten.view.default(add_1, [6, 1, 32, 160]);  add_1 = None
            
             # File: /home/liuyang/project/rvbisai/telechat_src/modeling_telechat.py:449 in forward, code: key_layer = key_layer.reshape((s_key, bz, head, dim))
            view_5: "f32[6, 1, 32, 160]" = torch.ops.aten.view.default(add_2, [6, 1, 32, 160]);  add_2 = None
            
             # File: /home/liuyang/project/rvbisai/telechat_src/modeling_telechat.py:458 in forward, code: query_layer = query_layer.reshape(s_query, bz * self.num_heads, dim)
            view_6: "f32[6, 32, 160]" = torch.ops.aten.view.default(view_4, [6, 32, 160]);  view_4 = None
            
             # File: /home/liuyang/project/rvbisai/telechat_src/modeling_telechat.py:460 in forward, code: key_layer = key_layer.reshape(s_key, bz * self.num_heads, dim)
            view_7: "f32[6, 32, 160]" = torch.ops.aten.view.default(view_5, [6, 32, 160]);  view_5 = None
            
             # File: /home/liuyang/project/rvbisai/telechat_src/modeling_telechat.py:461 in forward, code: matmul_result = self.inv_norm_factor * torch.einsum('bik,bkj->bij', query_layer.transpose(0, 1),
            transpose_1: "f32[32, 6, 160]" = torch.ops.aten.transpose.int(view_6, 0, 1);  view_6 = None
            
             # File: /home/liuyang/project/rvbisai/telechat_src/modeling_telechat.py:462 in forward, code: key_layer.transpose(0, 1).transpose(1, 2))
            transpose_2: "f32[32, 6, 160]" = torch.ops.aten.transpose.int(view_7, 0, 1);  view_7 = None
            transpose_3: "f32[32, 160, 6]" = torch.ops.aten.transpose.int(transpose_2, 1, 2);  transpose_2 = None
            
             # File: /home/liuyang/project/rvbisai/telechat_src/modeling_telechat.py:461 in forward, code: matmul_result = self.inv_norm_factor * torch.einsum('bik,bkj->bij', query_layer.transpose(0, 1),
            einsum_1: "f32[32, 6, 6]" = torch.ops.aten.einsum.default('bik,bkj->bij', [transpose_1, transpose_3]);  transpose_1 = transpose_3 = None
            mul_9: "f32[32, 6, 6]" = torch.ops.aten.mul.Tensor(einsum_1, 0.07905694150420949);  einsum_1 = None
            
             # File: /home/liuyang/project/rvbisai/telechat_src/modeling_telechat.py:464 in forward, code: attention_scores = matmul_result.view(bz, self.num_heads, s_query, s_key)
            view_8: "f32[1, 32, 6, 6]" = torch.ops.aten.view.default(mul_9, [1, 32, 6, 6]);  mul_9 = None
            
             # File: /home/liuyang/project/rvbisai/telechat_src/modeling_telechat.py:469 in forward, code: attn_weights = torch.masked_fill(attention_scores, attention_mask, torch.finfo(attention_scores.dtype).min)
            masked_fill: "f32[1, 32, 6, 6]" = torch.ops.aten.masked_fill.Scalar(view_8, or_1, -3.4028234663852886e+38);  view_8 = None
            
             # File: /home/liuyang/project/rvbisai/telechat_src/modeling_telechat.py:470 in forward, code: attention_probs = F.softmax(attn_weights, dim=-1).to(input_dtype)  ##dtype = torch.float32
            softmax: "f32[1, 32, 6, 6]" = torch.ops.aten.softmax.int(masked_fill, -1);  masked_fill = None
            _to_copy_7: "f32[1, 32, 6, 6]" = torch.ops.aten._to_copy.default(softmax, dtype = torch.float32);  softmax = None
            
             # File: /home/liuyang/project/rvbisai/telechat_src/modeling_telechat.py:471 in forward, code: attention_probs = self.attention_dropout(attention_probs)
            dropout: "f32[1, 32, 6, 6]" = torch.ops.aten.dropout.default(_to_copy_7, 0.0, False);  _to_copy_7 = None
            
             # File: /home/liuyang/project/rvbisai/telechat_src/modeling_telechat.py:472 in forward, code: attention_probs_reshaped = attention_probs.view(bz * self.num_heads, s_query, s_key)
            view_9: "f32[32, 6, 6]" = torch.ops.aten.view.default(dropout, [32, 6, 6]);  dropout = None
            
             # File: /home/liuyang/project/rvbisai/telechat_src/modeling_telechat.py:474 in forward, code: value_layer = value_layer.reshape(s_key, bz * self.num_heads, dim)
            view_10: "f32[6, 32, 160]" = torch.ops.aten.view.default(getitem_1, [6, 32, 160]);  getitem_1 = None
            
             # File: /home/liuyang/project/rvbisai/telechat_src/modeling_telechat.py:475 in forward, code: context_layer = torch.bmm(attention_probs_reshaped, value_layer.transpose(0, 1))
            transpose_4: "f32[32, 6, 160]" = torch.ops.aten.transpose.int(view_10, 0, 1);  view_10 = None
            bmm: "f32[32, 6, 160]" = torch.ops.aten.bmm.default(view_9, transpose_4);  view_9 = transpose_4 = None
            
             # File: /home/liuyang/project/rvbisai/telechat_src/modeling_telechat.py:391 in _merge_heads, code: x = x.view(batch_size, self.num_heads, seq_length, self.head_dim)
            view_11: "f32[1, 32, 6, 160]" = torch.ops.aten.view.default(bmm, [1, 32, 6, 160]);  bmm = None
            
             # File: /home/liuyang/project/rvbisai/telechat_src/modeling_telechat.py:392 in _merge_heads, code: x = x.permute(0, 2, 1, 3)
            permute: "f32[1, 6, 32, 160]" = torch.ops.aten.permute.default(view_11, [0, 2, 1, 3]);  view_11 = None
            
             # File: /home/liuyang/project/rvbisai/telechat_src/modeling_telechat.py:393 in _merge_heads, code: return x.reshape(batch_size, seq_length, self.num_heads * self.head_dim)
            clone: "f32[1, 6, 32, 160]" = torch.ops.aten.clone.default(permute, memory_format = torch.contiguous_format);  permute = None
            _unsafe_view: "f32[1, 6, 5120]" = torch.ops.aten._unsafe_view.default(clone, [1, 6, 5120]);  clone = None
            
             # File: /home/liuyang/project/rvbisai/telechat_src/modeling_telechat.py:478 in forward, code: output_tensor = self.dense(context_layer)
            linear_2: "f32[1, 6, 5120]" = torch.ops.aten.linear.default(_unsafe_view, p_h_0_self_attention_dense_weight, p_h_0_self_attention_dense_bias);  _unsafe_view = p_h_0_self_attention_dense_weight = p_h_0_self_attention_dense_bias = None
            
             # File: /home/liuyang/project/rvbisai/telechat_src/modeling_telechat.py:258 in dropout_add, code: out = F.dropout(x, p=prob, training=training)
            dropout_1: "f32[1, 6, 5120]" = torch.ops.aten.dropout.default(linear_2, 0.0, False);  linear_2 = None
            
             # File: /home/liuyang/project/rvbisai/telechat_src/modeling_telechat.py:259 in dropout_add, code: out = residual + out
            add_3: "f32[1, 6, 5120]" = torch.ops.aten.add.Tensor(embedding, dropout_1);  embedding = dropout_1 = None
            
             # File: /home/liuyang/project/rvbisai/telechat_src/modeling_telechat.py:146 in forward, code: hidden_states = hidden_states.to(torch.float32)
            _to_copy_8: "f32[1, 6, 5120]" = torch.ops.aten._to_copy.default(add_3, dtype = torch.float32)
            
             # File: /home/liuyang/project/rvbisai/telechat_src/modeling_telechat.py:147 in forward, code: variance = hidden_states.pow(2).mean(-1, keepdim=True)
            pow_3: "f32[1, 6, 5120]" = torch.ops.aten.pow.Tensor_Scalar(_to_copy_8, 2)
            mean_1: "f32[1, 6, 1]" = torch.ops.aten.mean.dim(pow_3, [-1], True);  pow_3 = None
            
             # File: /home/liuyang/project/rvbisai/telechat_src/modeling_telechat.py:148 in forward, code: hidden_states = hidden_states * torch.rsqrt(variance + self.variance_epsilon)
            add_4: "f32[1, 6, 1]" = torch.ops.aten.add.Tensor(mean_1, 1e-05);  mean_1 = None
            rsqrt_1: "f32[1, 6, 1]" = torch.ops.aten.rsqrt.default(add_4);  add_4 = None
            mul_10: "f32[1, 6, 5120]" = torch.ops.aten.mul.Tensor(_to_copy_8, rsqrt_1);  _to_copy_8 = rsqrt_1 = None
            
             # File: /home/liuyang/project/rvbisai/telechat_src/modeling_telechat.py:149 in forward, code: return self.weight * hidden_states.to(input_dtype)
            _to_copy_9: "f32[1, 6, 5120]" = torch.ops.aten._to_copy.default(mul_10, dtype = torch.float32);  mul_10 = None
            mul_11: "f32[1, 6, 5120]" = torch.ops.aten.mul.Tensor(p_h_0_post_attention_layernorm_weight, _to_copy_9);  p_h_0_post_attention_layernorm_weight = _to_copy_9 = None
            
             # File: /home/liuyang/project/rvbisai/telechat_src/modeling_telechat.py:499 in forward, code: intermediate_output = self.down_proj(F.silu(self.gate_proj(hidden_states)) * self.up_proj(hidden_states))
            linear_3: "f32[1, 6, 12288]" = torch.ops.aten.linear.default(mul_11, p_h_0_mlp_gate_proj_weight);  p_h_0_mlp_gate_proj_weight = None
            silu: "f32[1, 6, 12288]" = torch.ops.aten.silu.default(linear_3);  linear_3 = None
            linear_4: "f32[1, 6, 12288]" = torch.ops.aten.linear.default(mul_11, p_h_0_mlp_up_proj_weight);  mul_11 = p_h_0_mlp_up_proj_weight = None
            mul_12: "f32[1, 6, 12288]" = torch.ops.aten.mul.Tensor(silu, linear_4);  silu = linear_4 = None
            linear_5: "f32[1, 6, 5120]" = torch.ops.aten.linear.default(mul_12, p_h_0_mlp_down_proj_weight, p_h_0_mlp_down_proj_bias);  mul_12 = p_h_0_mlp_down_proj_weight = p_h_0_mlp_down_proj_bias = None
            
             # File: /home/liuyang/project/rvbisai/telechat_src/modeling_telechat.py:258 in dropout_add, code: out = F.dropout(x, p=prob, training=training)
            dropout_2: "f32[1, 6, 5120]" = torch.ops.aten.dropout.default(linear_5, 0.0, False);  linear_5 = None
            
             # File: /home/liuyang/project/rvbisai/telechat_src/modeling_telechat.py:259 in dropout_add, code: out = residual + out
            add_5: "f32[1, 6, 5120]" = torch.ops.aten.add.Tensor(add_3, dropout_2);  add_3 = dropout_2 = None
            
             # File: /home/liuyang/project/rvbisai/telechat_src/modeling_telechat.py:146 in forward, code: hidden_states = hidden_states.to(torch.float32)
            _to_copy_10: "f32[1, 6, 5120]" = torch.ops.aten._to_copy.default(add_5, dtype = torch.float32)
            
             # File: /home/liuyang/project/rvbisai/telechat_src/modeling_telechat.py:147 in forward, code: variance = hidden_states.pow(2).mean(-1, keepdim=True)
            pow_4: "f32[1, 6, 5120]" = torch.ops.aten.pow.Tensor_Scalar(_to_copy_10, 2)
            mean_2: "f32[1, 6, 1]" = torch.ops.aten.mean.dim(pow_4, [-1], True);  pow_4 = None
            
             # File: /home/liuyang/project/rvbisai/telechat_src/modeling_telechat.py:148 in forward, code: hidden_states = hidden_states * torch.rsqrt(variance + self.variance_epsilon)
            add_6: "f32[1, 6, 1]" = torch.ops.aten.add.Tensor(mean_2, 1e-05);  mean_2 = None
            rsqrt_2: "f32[1, 6, 1]" = torch.ops.aten.rsqrt.default(add_6);  add_6 = None
            mul_13: "f32[1, 6, 5120]" = torch.ops.aten.mul.Tensor(_to_copy_10, rsqrt_2);  _to_copy_10 = rsqrt_2 = None
            
             # File: /home/liuyang/project/rvbisai/telechat_src/modeling_telechat.py:149 in forward, code: return self.weight * hidden_states.to(input_dtype)
            _to_copy_11: "f32[1, 6, 5120]" = torch.ops.aten._to_copy.default(mul_13, dtype = torch.float32);  mul_13 = None
            mul_14: "f32[1, 6, 5120]" = torch.ops.aten.mul.Tensor(p_h_1_input_layernorm_weight, _to_copy_11);  p_h_1_input_layernorm_weight = _to_copy_11 = None
            
             # File: /home/liuyang/project/rvbisai/telechat_src/modeling_telechat.py:404 in forward, code: hidden_states = hidden_states.transpose(1, 0)
            transpose_5: "f32[6, 1, 5120]" = torch.ops.aten.transpose.int(mul_14, 1, 0);  mul_14 = None
            
             # File: /home/liuyang/project/rvbisai/telechat_src/modeling_telechat.py:405 in forward, code: query_layer = self.query(hidden_states)
            linear_6: "f32[6, 1, 5120]" = torch.ops.aten.linear.default(transpose_5, p_h_1_self_attention_query_weight);  p_h_1_self_attention_query_weight = None
            
             # File: /home/liuyang/project/rvbisai/telechat_src/modeling_telechat.py:409 in forward, code: query_layer = query_layer.view(*new_tensor_shape)
            view_12: "f32[6, 1, 32, 160]" = torch.ops.aten.view.default(linear_6, [6, 1, 32, 160]);  linear_6 = None
            
             # File: /home/liuyang/project/rvbisai/telechat_src/modeling_telechat.py:411 in forward, code: mixed_kv_layer = self.key_value(hidden_states)
            linear_7: "f32[6, 1, 10240]" = torch.ops.aten.linear.default(transpose_5, p_h_1_self_attention_key_value_weight);  transpose_5 = p_h_1_self_attention_key_value_weight = None
            
             # File: /home/liuyang/project/rvbisai/telechat_src/modeling_telechat.py:415 in forward, code: mixed_kv_layer = mixed_kv_layer.view(*new_tensor_shape)
            view_13: "f32[6, 1, 32, 320]" = torch.ops.aten.view.default(linear_7, [6, 1, 32, 320]);  linear_7 = None
            
             # File: /home/liuyang/project/rvbisai/telechat_src/modeling_telechat.py:381 in split_tensor_along_last_dim, code: tensor_list = torch.split(tensor, last_dim_size, dim=last_dim)
            split_1 = torch.ops.aten.split.Tensor(view_13, 160, 3);  view_13 = None
            getitem_2: "f32[6, 1, 32, 160]" = split_1[0]
            getitem_3: "f32[6, 1, 32, 160]" = split_1[1];  split_1 = None
            
             # File: /home/liuyang/project/rvbisai/telechat_src/modeling_telechat.py:423 in forward, code: query_layer = query_layer.view(output_size[2], output_size[0] * output_size[1], -1)
            view_14: "f32[6, 32, 160]" = torch.ops.aten.view.default(view_12, [6, 32, -1]);  view_12 = None
            
             # File: /home/liuyang/project/rvbisai/telechat_src/modeling_telechat.py:424 in forward, code: key_layer = key_layer.view(output_size[3], output_size[0] * output_size[1], -1)
            view_15: "f32[6, 32, 160]" = torch.ops.aten.view.default(getitem_2, [6, 32, -1]);  getitem_2 = None
            
             # File: /home/liuyang/project/rvbisai/telechat_src/modeling_telechat.py:112 in forward, code: self.inv_freq = 1.0 / (base ** (torch.arange(0, self.dim, 2, device=x.device).float() / self.dim))
            arange_3: "i64[80]" = torch.ops.aten.arange.start_step(0, 160, 2, device = device(type='cpu'), pin_memory = False)
            _to_copy_12: "f32[80]" = torch.ops.aten._to_copy.default(arange_3, dtype = torch.float32);  arange_3 = None
            div_1: "f32[80]" = torch.ops.aten.div.Tensor(_to_copy_12, 160);  _to_copy_12 = None
            pow_5: "f32[80]" = torch.ops.aten.pow.Scalar(30420.108888514722, div_1);  div_1 = None
            reciprocal_1: "f32[80]" = torch.ops.aten.reciprocal.default(pow_5);  pow_5 = None
            mul_15: "f32[80]" = torch.ops.aten.mul.Tensor(reciprocal_1, 1.0);  reciprocal_1 = None
            
             # File: /home/liuyang/project/rvbisai/telechat_src/modeling_telechat.py:114 in forward, code: t = torch.arange(self.max_seq_len_cached, device=x.device, dtype=self.inv_freq.dtype)
            arange_4: "f32[8192]" = torch.ops.aten.arange.default(8192, dtype = torch.float32, device = device(type='cpu'), pin_memory = False)
            
             # File: /home/liuyang/project/rvbisai/telechat_src/modeling_telechat.py:115 in forward, code: freqs = torch.einsum('i,j->ij', t, self.inv_freq)
            einsum_2: "f32[8192, 80]" = torch.ops.aten.einsum.default('i,j->ij', [arange_4, mul_15]);  arange_4 = mul_15 = None
            
             # File: /home/liuyang/project/rvbisai/telechat_src/modeling_telechat.py:117 in forward, code: emb = torch.cat((freqs, freqs), dim=-1).to(x.device)
            cat_3: "f32[8192, 160]" = torch.ops.aten.cat.default([einsum_2, einsum_2], -1);  einsum_2 = None
            _to_copy_13: "f32[8192, 160]" = torch.ops.aten._to_copy.default(cat_3, dtype = torch.float32, layout = torch.strided, device = device(type='cpu'));  cat_3 = None
            
             # File: /home/liuyang/project/rvbisai/telechat_src/modeling_telechat.py:121 in forward, code: self.cos_cached = self.mscale * emb.cos()[:, None, :].to(dtype)
            cos_1: "f32[8192, 160]" = torch.ops.aten.cos.default(_to_copy_13)
            slice_24: "f32[8192, 160]" = torch.ops.aten.slice.Tensor(cos_1, 0, 0, 9223372036854775807);  cos_1 = None
            unsqueeze_10: "f32[8192, 1, 160]" = torch.ops.aten.unsqueeze.default(slice_24, 1);  slice_24 = None
            slice_25: "f32[8192, 1, 160]" = torch.ops.aten.slice.Tensor(unsqueeze_10, 2, 0, 9223372036854775807);  unsqueeze_10 = None
            _to_copy_14: "f32[8192, 1, 160]" = torch.ops.aten._to_copy.default(slice_25, dtype = torch.float32);  slice_25 = None
            mul_16: "f32[8192, 1, 160]" = torch.ops.aten.mul.Tensor(_to_copy_14, 1.0);  _to_copy_14 = None
            
             # File: /home/liuyang/project/rvbisai/telechat_src/modeling_telechat.py:122 in forward, code: self.sin_cached = self.mscale * emb.sin()[:, None, :].to(dtype)
            sin_1: "f32[8192, 160]" = torch.ops.aten.sin.default(_to_copy_13);  _to_copy_13 = None
            slice_26: "f32[8192, 160]" = torch.ops.aten.slice.Tensor(sin_1, 0, 0, 9223372036854775807);  sin_1 = None
            unsqueeze_11: "f32[8192, 1, 160]" = torch.ops.aten.unsqueeze.default(slice_26, 1);  slice_26 = None
            slice_27: "f32[8192, 1, 160]" = torch.ops.aten.slice.Tensor(unsqueeze_11, 2, 0, 9223372036854775807);  unsqueeze_11 = None
            _to_copy_15: "f32[8192, 1, 160]" = torch.ops.aten._to_copy.default(slice_27, dtype = torch.float32);  slice_27 = None
            mul_17: "f32[8192, 1, 160]" = torch.ops.aten.mul.Tensor(_to_copy_15, 1.0);  _to_copy_15 = None
            
             # File: /home/liuyang/project/rvbisai/telechat_src/modeling_telechat.py:123 in forward, code: return self.cos_cached[:seq_len, ...], self.sin_cached[:seq_len, ...]
            alias_2: "f32[8192, 1, 160]" = torch.ops.aten.alias.default(mul_16);  mul_16 = None
            alias_3: "f32[8192, 1, 160]" = torch.ops.aten.alias.default(mul_17);  mul_17 = None
            
             # File: /home/liuyang/project/rvbisai/telechat_src/modeling_telechat.py:133 in apply_rotary_pos_emb_torch, code: cos, sin = cos[offset:q.shape[0] + offset, ...], sin[offset:q.shape[0] + offset, ...]
            slice_28: "f32[6, 1, 160]" = torch.ops.aten.slice.Tensor(alias_2, 0, 0, 6);  alias_2 = None
            slice_29: "f32[6, 1, 160]" = torch.ops.aten.slice.Tensor(alias_3, 0, 0, 6);  alias_3 = None
            
             # File: /home/liuyang/project/rvbisai/telechat_src/modeling_telechat.py:134 in apply_rotary_pos_emb_torch, code: return (q * cos) + (rotate_half(q) * sin), (k * cos) + (rotate_half(k) * sin)
            mul_18: "f32[6, 32, 160]" = torch.ops.aten.mul.Tensor(view_14, slice_28)
            
             # File: /home/liuyang/project/rvbisai/telechat_src/modeling_telechat.py:128 in rotate_half, code: x1, x2 = x[..., :x.shape[-1] // 2], x[..., x.shape[-1] // 2:]
            slice_30: "f32[6, 32, 80]" = torch.ops.aten.slice.Tensor(view_14, 2, 0, 80)
            slice_31: "f32[6, 32, 80]" = torch.ops.aten.slice.Tensor(view_14, 2, 80, 9223372036854775807);  view_14 = None
            
             # File: /home/liuyang/project/rvbisai/telechat_src/modeling_telechat.py:129 in rotate_half, code: return torch.cat((-x2, x1), dim=x1.ndim - 1)  # dim=-1 triggers a bug in earlier torch versions
            neg_2: "f32[6, 32, 80]" = torch.ops.aten.neg.default(slice_31);  slice_31 = None
            cat_4: "f32[6, 32, 160]" = torch.ops.aten.cat.default([neg_2, slice_30], 2);  neg_2 = slice_30 = None
            
             # File: /home/liuyang/project/rvbisai/telechat_src/modeling_telechat.py:134 in apply_rotary_pos_emb_torch, code: return (q * cos) + (rotate_half(q) * sin), (k * cos) + (rotate_half(k) * sin)
            mul_19: "f32[6, 32, 160]" = torch.ops.aten.mul.Tensor(cat_4, slice_29);  cat_4 = None
            add_7: "f32[6, 32, 160]" = torch.ops.aten.add.Tensor(mul_18, mul_19);  mul_18 = mul_19 = None
            mul_20: "f32[6, 32, 160]" = torch.ops.aten.mul.Tensor(view_15, slice_28);  slice_28 = None
            
             # File: /home/liuyang/project/rvbisai/telechat_src/modeling_telechat.py:128 in rotate_half, code: x1, x2 = x[..., :x.shape[-1] // 2], x[..., x.shape[-1] // 2:]
            slice_32: "f32[6, 32, 80]" = torch.ops.aten.slice.Tensor(view_15, 2, 0, 80)
            slice_33: "f32[6, 32, 80]" = torch.ops.aten.slice.Tensor(view_15, 2, 80, 9223372036854775807);  view_15 = None
            
             # File: /home/liuyang/project/rvbisai/telechat_src/modeling_telechat.py:129 in rotate_half, code: return torch.cat((-x2, x1), dim=x1.ndim - 1)  # dim=-1 triggers a bug in earlier torch versions
            neg_3: "f32[6, 32, 80]" = torch.ops.aten.neg.default(slice_33);  slice_33 = None
            cat_5: "f32[6, 32, 160]" = torch.ops.aten.cat.default([neg_3, slice_32], 2);  neg_3 = slice_32 = None
            
             # File: /home/liuyang/project/rvbisai/telechat_src/modeling_telechat.py:134 in apply_rotary_pos_emb_torch, code: return (q * cos) + (rotate_half(q) * sin), (k * cos) + (rotate_half(k) * sin)
            mul_21: "f32[6, 32, 160]" = torch.ops.aten.mul.Tensor(cat_5, slice_29);  cat_5 = slice_29 = None
            add_8: "f32[6, 32, 160]" = torch.ops.aten.add.Tensor(mul_20, mul_21);  mul_20 = mul_21 = None
            
             # File: /home/liuyang/project/rvbisai/telechat_src/modeling_telechat.py:448 in forward, code: query_layer = query_layer.reshape((s_query, bz, head, dim))
            view_16: "f32[6, 1, 32, 160]" = torch.ops.aten.view.default(add_7, [6, 1, 32, 160]);  add_7 = None
            
             # File: /home/liuyang/project/rvbisai/telechat_src/modeling_telechat.py:449 in forward, code: key_layer = key_layer.reshape((s_key, bz, head, dim))
            view_17: "f32[6, 1, 32, 160]" = torch.ops.aten.view.default(add_8, [6, 1, 32, 160]);  add_8 = None
            
             # File: /home/liuyang/project/rvbisai/telechat_src/modeling_telechat.py:458 in forward, code: query_layer = query_layer.reshape(s_query, bz * self.num_heads, dim)
            view_18: "f32[6, 32, 160]" = torch.ops.aten.view.default(view_16, [6, 32, 160]);  view_16 = None
            
             # File: /home/liuyang/project/rvbisai/telechat_src/modeling_telechat.py:460 in forward, code: key_layer = key_layer.reshape(s_key, bz * self.num_heads, dim)
            view_19: "f32[6, 32, 160]" = torch.ops.aten.view.default(view_17, [6, 32, 160]);  view_17 = None
            
             # File: /home/liuyang/project/rvbisai/telechat_src/modeling_telechat.py:461 in forward, code: matmul_result = self.inv_norm_factor * torch.einsum('bik,bkj->bij', query_layer.transpose(0, 1),
            transpose_6: "f32[32, 6, 160]" = torch.ops.aten.transpose.int(view_18, 0, 1);  view_18 = None
            
             # File: /home/liuyang/project/rvbisai/telechat_src/modeling_telechat.py:462 in forward, code: key_layer.transpose(0, 1).transpose(1, 2))
            transpose_7: "f32[32, 6, 160]" = torch.ops.aten.transpose.int(view_19, 0, 1);  view_19 = None
            transpose_8: "f32[32, 160, 6]" = torch.ops.aten.transpose.int(transpose_7, 1, 2);  transpose_7 = None
            
             # File: /home/liuyang/project/rvbisai/telechat_src/modeling_telechat.py:461 in forward, code: matmul_result = self.inv_norm_factor * torch.einsum('bik,bkj->bij', query_layer.transpose(0, 1),
            einsum_3: "f32[32, 6, 6]" = torch.ops.aten.einsum.default('bik,bkj->bij', [transpose_6, transpose_8]);  transpose_6 = transpose_8 = None
            mul_22: "f32[32, 6, 6]" = torch.ops.aten.mul.Tensor(einsum_3, 0.07905694150420949);  einsum_3 = None
            
             # File: /home/liuyang/project/rvbisai/telechat_src/modeling_telechat.py:464 in forward, code: attention_scores = matmul_result.view(bz, self.num_heads, s_query, s_key)
            view_20: "f32[1, 32, 6, 6]" = torch.ops.aten.view.default(mul_22, [1, 32, 6, 6]);  mul_22 = None
            
             # File: /home/liuyang/project/rvbisai/telechat_src/modeling_telechat.py:469 in forward, code: attn_weights = torch.masked_fill(attention_scores, attention_mask, torch.finfo(attention_scores.dtype).min)
            masked_fill_1: "f32[1, 32, 6, 6]" = torch.ops.aten.masked_fill.Scalar(view_20, or_1, -3.4028234663852886e+38);  view_20 = None
            
             # File: /home/liuyang/project/rvbisai/telechat_src/modeling_telechat.py:470 in forward, code: attention_probs = F.softmax(attn_weights, dim=-1).to(input_dtype)  ##dtype = torch.float32
            softmax_1: "f32[1, 32, 6, 6]" = torch.ops.aten.softmax.int(masked_fill_1, -1);  masked_fill_1 = None
            _to_copy_16: "f32[1, 32, 6, 6]" = torch.ops.aten._to_copy.default(softmax_1, dtype = torch.float32);  softmax_1 = None
            
             # File: /home/liuyang/project/rvbisai/telechat_src/modeling_telechat.py:471 in forward, code: attention_probs = self.attention_dropout(attention_probs)
            dropout_3: "f32[1, 32, 6, 6]" = torch.ops.aten.dropout.default(_to_copy_16, 0.0, False);  _to_copy_16 = None
            
             # File: /home/liuyang/project/rvbisai/telechat_src/modeling_telechat.py:472 in forward, code: attention_probs_reshaped = attention_probs.view(bz * self.num_heads, s_query, s_key)
            view_21: "f32[32, 6, 6]" = torch.ops.aten.view.default(dropout_3, [32, 6, 6]);  dropout_3 = None
            
             # File: /home/liuyang/project/rvbisai/telechat_src/modeling_telechat.py:474 in forward, code: value_layer = value_layer.reshape(s_key, bz * self.num_heads, dim)
            view_22: "f32[6, 32, 160]" = torch.ops.aten.view.default(getitem_3, [6, 32, 160]);  getitem_3 = None
            
             # File: /home/liuyang/project/rvbisai/telechat_src/modeling_telechat.py:475 in forward, code: context_layer = torch.bmm(attention_probs_reshaped, value_layer.transpose(0, 1))
            transpose_9: "f32[32, 6, 160]" = torch.ops.aten.transpose.int(view_22, 0, 1);  view_22 = None
            bmm_1: "f32[32, 6, 160]" = torch.ops.aten.bmm.default(view_21, transpose_9);  view_21 = transpose_9 = None
            
             # File: /home/liuyang/project/rvbisai/telechat_src/modeling_telechat.py:391 in _merge_heads, code: x = x.view(batch_size, self.num_heads, seq_length, self.head_dim)
            view_23: "f32[1, 32, 6, 160]" = torch.ops.aten.view.default(bmm_1, [1, 32, 6, 160]);  bmm_1 = None
            
             # File: /home/liuyang/project/rvbisai/telechat_src/modeling_telechat.py:392 in _merge_heads, code: x = x.permute(0, 2, 1, 3)
            permute_1: "f32[1, 6, 32, 160]" = torch.ops.aten.permute.default(view_23, [0, 2, 1, 3]);  view_23 = None
            
             # File: /home/liuyang/project/rvbisai/telechat_src/modeling_telechat.py:393 in _merge_heads, code: return x.reshape(batch_size, seq_length, self.num_heads * self.head_dim)
            clone_1: "f32[1, 6, 32, 160]" = torch.ops.aten.clone.default(permute_1, memory_format = torch.contiguous_format);  permute_1 = None
            _unsafe_view_1: "f32[1, 6, 5120]" = torch.ops.aten._unsafe_view.default(clone_1, [1, 6, 5120]);  clone_1 = None
            
             # File: /home/liuyang/project/rvbisai/telechat_src/modeling_telechat.py:478 in forward, code: output_tensor = self.dense(context_layer)
            linear_8: "f32[1, 6, 5120]" = torch.ops.aten.linear.default(_unsafe_view_1, p_h_1_self_attention_dense_weight, p_h_1_self_attention_dense_bias);  _unsafe_view_1 = p_h_1_self_attention_dense_weight = p_h_1_self_attention_dense_bias = None
            
             # File: /home/liuyang/project/rvbisai/telechat_src/modeling_telechat.py:258 in dropout_add, code: out = F.dropout(x, p=prob, training=training)
            dropout_4: "f32[1, 6, 5120]" = torch.ops.aten.dropout.default(linear_8, 0.0, False);  linear_8 = None
            
             # File: /home/liuyang/project/rvbisai/telechat_src/modeling_telechat.py:259 in dropout_add, code: out = residual + out
            add_9: "f32[1, 6, 5120]" = torch.ops.aten.add.Tensor(add_5, dropout_4);  add_5 = dropout_4 = None
            
             # File: /home/liuyang/project/rvbisai/telechat_src/modeling_telechat.py:146 in forward, code: hidden_states = hidden_states.to(torch.float32)
            _to_copy_17: "f32[1, 6, 5120]" = torch.ops.aten._to_copy.default(add_9, dtype = torch.float32)
            
             # File: /home/liuyang/project/rvbisai/telechat_src/modeling_telechat.py:147 in forward, code: variance = hidden_states.pow(2).mean(-1, keepdim=True)
            pow_6: "f32[1, 6, 5120]" = torch.ops.aten.pow.Tensor_Scalar(_to_copy_17, 2)
            mean_3: "f32[1, 6, 1]" = torch.ops.aten.mean.dim(pow_6, [-1], True);  pow_6 = None
            
             # File: /home/liuyang/project/rvbisai/telechat_src/modeling_telechat.py:148 in forward, code: hidden_states = hidden_states * torch.rsqrt(variance + self.variance_epsilon)
            add_10: "f32[1, 6, 1]" = torch.ops.aten.add.Tensor(mean_3, 1e-05);  mean_3 = None
            rsqrt_3: "f32[1, 6, 1]" = torch.ops.aten.rsqrt.default(add_10);  add_10 = None
            mul_23: "f32[1, 6, 5120]" = torch.ops.aten.mul.Tensor(_to_copy_17, rsqrt_3);  _to_copy_17 = rsqrt_3 = None
            
             # File: /home/liuyang/project/rvbisai/telechat_src/modeling_telechat.py:149 in forward, code: return self.weight * hidden_states.to(input_dtype)
            _to_copy_18: "f32[1, 6, 5120]" = torch.ops.aten._to_copy.default(mul_23, dtype = torch.float32);  mul_23 = None
            mul_24: "f32[1, 6, 5120]" = torch.ops.aten.mul.Tensor(p_h_1_post_attention_layernorm_weight, _to_copy_18);  p_h_1_post_attention_layernorm_weight = _to_copy_18 = None
            
             # File: /home/liuyang/project/rvbisai/telechat_src/modeling_telechat.py:499 in forward, code: intermediate_output = self.down_proj(F.silu(self.gate_proj(hidden_states)) * self.up_proj(hidden_states))
            linear_9: "f32[1, 6, 12288]" = torch.ops.aten.linear.default(mul_24, p_h_1_mlp_gate_proj_weight);  p_h_1_mlp_gate_proj_weight = None
            silu_1: "f32[1, 6, 12288]" = torch.ops.aten.silu.default(linear_9);  linear_9 = None
            linear_10: "f32[1, 6, 12288]" = torch.ops.aten.linear.default(mul_24, p_h_1_mlp_up_proj_weight);  mul_24 = p_h_1_mlp_up_proj_weight = None
            mul_25: "f32[1, 6, 12288]" = torch.ops.aten.mul.Tensor(silu_1, linear_10);  silu_1 = linear_10 = None
            linear_11: "f32[1, 6, 5120]" = torch.ops.aten.linear.default(mul_25, p_h_1_mlp_down_proj_weight, p_h_1_mlp_down_proj_bias);  mul_25 = p_h_1_mlp_down_proj_weight = p_h_1_mlp_down_proj_bias = None
            
             # File: /home/liuyang/project/rvbisai/telechat_src/modeling_telechat.py:258 in dropout_add, code: out = F.dropout(x, p=prob, training=training)
            dropout_5: "f32[1, 6, 5120]" = torch.ops.aten.dropout.default(linear_11, 0.0, False);  linear_11 = None
            
             # File: /home/liuyang/project/rvbisai/telechat_src/modeling_telechat.py:259 in dropout_add, code: out = residual + out
            add_11: "f32[1, 6, 5120]" = torch.ops.aten.add.Tensor(add_9, dropout_5);  add_9 = dropout_5 = None
            
             # File: /home/liuyang/project/rvbisai/telechat_src/modeling_telechat.py:146 in forward, code: hidden_states = hidden_states.to(torch.float32)
            _to_copy_19: "f32[1, 6, 5120]" = torch.ops.aten._to_copy.default(add_11, dtype = torch.float32)
            
             # File: /home/liuyang/project/rvbisai/telechat_src/modeling_telechat.py:147 in forward, code: variance = hidden_states.pow(2).mean(-1, keepdim=True)
            pow_7: "f32[1, 6, 5120]" = torch.ops.aten.pow.Tensor_Scalar(_to_copy_19, 2)
            mean_4: "f32[1, 6, 1]" = torch.ops.aten.mean.dim(pow_7, [-1], True);  pow_7 = None
            
             # File: /home/liuyang/project/rvbisai/telechat_src/modeling_telechat.py:148 in forward, code: hidden_states = hidden_states * torch.rsqrt(variance + self.variance_epsilon)
            add_12: "f32[1, 6, 1]" = torch.ops.aten.add.Tensor(mean_4, 1e-05);  mean_4 = None
            rsqrt_4: "f32[1, 6, 1]" = torch.ops.aten.rsqrt.default(add_12);  add_12 = None
            mul_26: "f32[1, 6, 5120]" = torch.ops.aten.mul.Tensor(_to_copy_19, rsqrt_4);  _to_copy_19 = rsqrt_4 = None
            
             # File: /home/liuyang/project/rvbisai/telechat_src/modeling_telechat.py:149 in forward, code: return self.weight * hidden_states.to(input_dtype)
            _to_copy_20: "f32[1, 6, 5120]" = torch.ops.aten._to_copy.default(mul_26, dtype = torch.float32);  mul_26 = None
            mul_27: "f32[1, 6, 5120]" = torch.ops.aten.mul.Tensor(p_h_2_input_layernorm_weight, _to_copy_20);  p_h_2_input_layernorm_weight = _to_copy_20 = None
            
             # File: /home/liuyang/project/rvbisai/telechat_src/modeling_telechat.py:404 in forward, code: hidden_states = hidden_states.transpose(1, 0)
            transpose_10: "f32[6, 1, 5120]" = torch.ops.aten.transpose.int(mul_27, 1, 0);  mul_27 = None
            
             # File: /home/liuyang/project/rvbisai/telechat_src/modeling_telechat.py:405 in forward, code: query_layer = self.query(hidden_states)
            linear_12: "f32[6, 1, 5120]" = torch.ops.aten.linear.default(transpose_10, p_h_2_self_attention_query_weight);  p_h_2_self_attention_query_weight = None
            
             # File: /home/liuyang/project/rvbisai/telechat_src/modeling_telechat.py:409 in forward, code: query_layer = query_layer.view(*new_tensor_shape)
            view_24: "f32[6, 1, 32, 160]" = torch.ops.aten.view.default(linear_12, [6, 1, 32, 160]);  linear_12 = None
            
             # File: /home/liuyang/project/rvbisai/telechat_src/modeling_telechat.py:411 in forward, code: mixed_kv_layer = self.key_value(hidden_states)
            linear_13: "f32[6, 1, 10240]" = torch.ops.aten.linear.default(transpose_10, p_h_2_self_attention_key_value_weight);  transpose_10 = p_h_2_self_attention_key_value_weight = None
            
             # File: /home/liuyang/project/rvbisai/telechat_src/modeling_telechat.py:415 in forward, code: mixed_kv_layer = mixed_kv_layer.view(*new_tensor_shape)
            view_25: "f32[6, 1, 32, 320]" = torch.ops.aten.view.default(linear_13, [6, 1, 32, 320]);  linear_13 = None
            
             # File: /home/liuyang/project/rvbisai/telechat_src/modeling_telechat.py:381 in split_tensor_along_last_dim, code: tensor_list = torch.split(tensor, last_dim_size, dim=last_dim)
            split_2 = torch.ops.aten.split.Tensor(view_25, 160, 3);  view_25 = None
            getitem_4: "f32[6, 1, 32, 160]" = split_2[0]
            getitem_5: "f32[6, 1, 32, 160]" = split_2[1];  split_2 = None
            
             # File: /home/liuyang/project/rvbisai/telechat_src/modeling_telechat.py:423 in forward, code: query_layer = query_layer.view(output_size[2], output_size[0] * output_size[1], -1)
            view_26: "f32[6, 32, 160]" = torch.ops.aten.view.default(view_24, [6, 32, -1]);  view_24 = None
            
             # File: /home/liuyang/project/rvbisai/telechat_src/modeling_telechat.py:424 in forward, code: key_layer = key_layer.view(output_size[3], output_size[0] * output_size[1], -1)
            view_27: "f32[6, 32, 160]" = torch.ops.aten.view.default(getitem_4, [6, 32, -1]);  getitem_4 = None
            
             # File: /home/liuyang/project/rvbisai/telechat_src/modeling_telechat.py:112 in forward, code: self.inv_freq = 1.0 / (base ** (torch.arange(0, self.dim, 2, device=x.device).float() / self.dim))
            arange_5: "i64[80]" = torch.ops.aten.arange.start_step(0, 160, 2, device = device(type='cpu'), pin_memory = False)
            _to_copy_21: "f32[80]" = torch.ops.aten._to_copy.default(arange_5, dtype = torch.float32);  arange_5 = None
            div_2: "f32[80]" = torch.ops.aten.div.Tensor(_to_copy_21, 160);  _to_copy_21 = None
            pow_8: "f32[80]" = torch.ops.aten.pow.Scalar(30420.108888514722, div_2);  div_2 = None
            reciprocal_2: "f32[80]" = torch.ops.aten.reciprocal.default(pow_8);  pow_8 = None
            mul_28: "f32[80]" = torch.ops.aten.mul.Tensor(reciprocal_2, 1.0);  reciprocal_2 = None
            
             # File: /home/liuyang/project/rvbisai/telechat_src/modeling_telechat.py:114 in forward, code: t = torch.arange(self.max_seq_len_cached, device=x.device, dtype=self.inv_freq.dtype)
            arange_6: "f32[8192]" = torch.ops.aten.arange.default(8192, dtype = torch.float32, device = device(type='cpu'), pin_memory = False)
            
             # File: /home/liuyang/project/rvbisai/telechat_src/modeling_telechat.py:115 in forward, code: freqs = torch.einsum('i,j->ij', t, self.inv_freq)
            einsum_4: "f32[8192, 80]" = torch.ops.aten.einsum.default('i,j->ij', [arange_6, mul_28]);  arange_6 = mul_28 = None
            
             # File: /home/liuyang/project/rvbisai/telechat_src/modeling_telechat.py:117 in forward, code: emb = torch.cat((freqs, freqs), dim=-1).to(x.device)
            cat_6: "f32[8192, 160]" = torch.ops.aten.cat.default([einsum_4, einsum_4], -1);  einsum_4 = None
            _to_copy_22: "f32[8192, 160]" = torch.ops.aten._to_copy.default(cat_6, dtype = torch.float32, layout = torch.strided, device = device(type='cpu'));  cat_6 = None
            
             # File: /home/liuyang/project/rvbisai/telechat_src/modeling_telechat.py:121 in forward, code: self.cos_cached = self.mscale * emb.cos()[:, None, :].to(dtype)
            cos_2: "f32[8192, 160]" = torch.ops.aten.cos.default(_to_copy_22)
            slice_34: "f32[8192, 160]" = torch.ops.aten.slice.Tensor(cos_2, 0, 0, 9223372036854775807);  cos_2 = None
            unsqueeze_12: "f32[8192, 1, 160]" = torch.ops.aten.unsqueeze.default(slice_34, 1);  slice_34 = None
            slice_35: "f32[8192, 1, 160]" = torch.ops.aten.slice.Tensor(unsqueeze_12, 2, 0, 9223372036854775807);  unsqueeze_12 = None
            _to_copy_23: "f32[8192, 1, 160]" = torch.ops.aten._to_copy.default(slice_35, dtype = torch.float32);  slice_35 = None
            mul_29: "f32[8192, 1, 160]" = torch.ops.aten.mul.Tensor(_to_copy_23, 1.0);  _to_copy_23 = None
            
             # File: /home/liuyang/project/rvbisai/telechat_src/modeling_telechat.py:122 in forward, code: self.sin_cached = self.mscale * emb.sin()[:, None, :].to(dtype)
            sin_2: "f32[8192, 160]" = torch.ops.aten.sin.default(_to_copy_22);  _to_copy_22 = None
            slice_36: "f32[8192, 160]" = torch.ops.aten.slice.Tensor(sin_2, 0, 0, 9223372036854775807);  sin_2 = None
            unsqueeze_13: "f32[8192, 1, 160]" = torch.ops.aten.unsqueeze.default(slice_36, 1);  slice_36 = None
            slice_37: "f32[8192, 1, 160]" = torch.ops.aten.slice.Tensor(unsqueeze_13, 2, 0, 9223372036854775807);  unsqueeze_13 = None
            _to_copy_24: "f32[8192, 1, 160]" = torch.ops.aten._to_copy.default(slice_37, dtype = torch.float32);  slice_37 = None
            mul_30: "f32[8192, 1, 160]" = torch.ops.aten.mul.Tensor(_to_copy_24, 1.0);  _to_copy_24 = None
            
             # File: /home/liuyang/project/rvbisai/telechat_src/modeling_telechat.py:123 in forward, code: return self.cos_cached[:seq_len, ...], self.sin_cached[:seq_len, ...]
            alias_4: "f32[8192, 1, 160]" = torch.ops.aten.alias.default(mul_29);  mul_29 = None
            alias_5: "f32[8192, 1, 160]" = torch.ops.aten.alias.default(mul_30);  mul_30 = None
            
             # File: /home/liuyang/project/rvbisai/telechat_src/modeling_telechat.py:133 in apply_rotary_pos_emb_torch, code: cos, sin = cos[offset:q.shape[0] + offset, ...], sin[offset:q.shape[0] + offset, ...]
            slice_38: "f32[6, 1, 160]" = torch.ops.aten.slice.Tensor(alias_4, 0, 0, 6);  alias_4 = None
            slice_39: "f32[6, 1, 160]" = torch.ops.aten.slice.Tensor(alias_5, 0, 0, 6);  alias_5 = None
            
             # File: /home/liuyang/project/rvbisai/telechat_src/modeling_telechat.py:134 in apply_rotary_pos_emb_torch, code: return (q * cos) + (rotate_half(q) * sin), (k * cos) + (rotate_half(k) * sin)
            mul_31: "f32[6, 32, 160]" = torch.ops.aten.mul.Tensor(view_26, slice_38)
            
             # File: /home/liuyang/project/rvbisai/telechat_src/modeling_telechat.py:128 in rotate_half, code: x1, x2 = x[..., :x.shape[-1] // 2], x[..., x.shape[-1] // 2:]
            slice_40: "f32[6, 32, 80]" = torch.ops.aten.slice.Tensor(view_26, 2, 0, 80)
            slice_41: "f32[6, 32, 80]" = torch.ops.aten.slice.Tensor(view_26, 2, 80, 9223372036854775807);  view_26 = None
            
             # File: /home/liuyang/project/rvbisai/telechat_src/modeling_telechat.py:129 in rotate_half, code: return torch.cat((-x2, x1), dim=x1.ndim - 1)  # dim=-1 triggers a bug in earlier torch versions
            neg_4: "f32[6, 32, 80]" = torch.ops.aten.neg.default(slice_41);  slice_41 = None
            cat_7: "f32[6, 32, 160]" = torch.ops.aten.cat.default([neg_4, slice_40], 2);  neg_4 = slice_40 = None
            
             # File: /home/liuyang/project/rvbisai/telechat_src/modeling_telechat.py:134 in apply_rotary_pos_emb_torch, code: return (q * cos) + (rotate_half(q) * sin), (k * cos) + (rotate_half(k) * sin)
            mul_32: "f32[6, 32, 160]" = torch.ops.aten.mul.Tensor(cat_7, slice_39);  cat_7 = None
            add_13: "f32[6, 32, 160]" = torch.ops.aten.add.Tensor(mul_31, mul_32);  mul_31 = mul_32 = None
            mul_33: "f32[6, 32, 160]" = torch.ops.aten.mul.Tensor(view_27, slice_38);  slice_38 = None
            
             # File: /home/liuyang/project/rvbisai/telechat_src/modeling_telechat.py:128 in rotate_half, code: x1, x2 = x[..., :x.shape[-1] // 2], x[..., x.shape[-1] // 2:]
            slice_42: "f32[6, 32, 80]" = torch.ops.aten.slice.Tensor(view_27, 2, 0, 80)
            slice_43: "f32[6, 32, 80]" = torch.ops.aten.slice.Tensor(view_27, 2, 80, 9223372036854775807);  view_27 = None
            
             # File: /home/liuyang/project/rvbisai/telechat_src/modeling_telechat.py:129 in rotate_half, code: return torch.cat((-x2, x1), dim=x1.ndim - 1)  # dim=-1 triggers a bug in earlier torch versions
            neg_5: "f32[6, 32, 80]" = torch.ops.aten.neg.default(slice_43);  slice_43 = None
            cat_8: "f32[6, 32, 160]" = torch.ops.aten.cat.default([neg_5, slice_42], 2);  neg_5 = slice_42 = None
            
             # File: /home/liuyang/project/rvbisai/telechat_src/modeling_telechat.py:134 in apply_rotary_pos_emb_torch, code: return (q * cos) + (rotate_half(q) * sin), (k * cos) + (rotate_half(k) * sin)
            mul_34: "f32[6, 32, 160]" = torch.ops.aten.mul.Tensor(cat_8, slice_39);  cat_8 = slice_39 = None
            add_14: "f32[6, 32, 160]" = torch.ops.aten.add.Tensor(mul_33, mul_34);  mul_33 = mul_34 = None
            
             # File: /home/liuyang/project/rvbisai/telechat_src/modeling_telechat.py:448 in forward, code: query_layer = query_layer.reshape((s_query, bz, head, dim))
            view_28: "f32[6, 1, 32, 160]" = torch.ops.aten.view.default(add_13, [6, 1, 32, 160]);  add_13 = None
            
             # File: /home/liuyang/project/rvbisai/telechat_src/modeling_telechat.py:449 in forward, code: key_layer = key_layer.reshape((s_key, bz, head, dim))
            view_29: "f32[6, 1, 32, 160]" = torch.ops.aten.view.default(add_14, [6, 1, 32, 160]);  add_14 = None
            
             # File: /home/liuyang/project/rvbisai/telechat_src/modeling_telechat.py:458 in forward, code: query_layer = query_layer.reshape(s_query, bz * self.num_heads, dim)
            view_30: "f32[6, 32, 160]" = torch.ops.aten.view.default(view_28, [6, 32, 160]);  view_28 = None
            
             # File: /home/liuyang/project/rvbisai/telechat_src/modeling_telechat.py:460 in forward, code: key_layer = key_layer.reshape(s_key, bz * self.num_heads, dim)
            view_31: "f32[6, 32, 160]" = torch.ops.aten.view.default(view_29, [6, 32, 160]);  view_29 = None
            
             # File: /home/liuyang/project/rvbisai/telechat_src/modeling_telechat.py:461 in forward, code: matmul_result = self.inv_norm_factor * torch.einsum('bik,bkj->bij', query_layer.transpose(0, 1),
            transpose_11: "f32[32, 6, 160]" = torch.ops.aten.transpose.int(view_30, 0, 1);  view_30 = None
            
             # File: /home/liuyang/project/rvbisai/telechat_src/modeling_telechat.py:462 in forward, code: key_layer.transpose(0, 1).transpose(1, 2))
            transpose_12: "f32[32, 6, 160]" = torch.ops.aten.transpose.int(view_31, 0, 1);  view_31 = None
            transpose_13: "f32[32, 160, 6]" = torch.ops.aten.transpose.int(transpose_12, 1, 2);  transpose_12 = None
            
             # File: /home/liuyang/project/rvbisai/telechat_src/modeling_telechat.py:461 in forward, code: matmul_result = self.inv_norm_factor * torch.einsum('bik,bkj->bij', query_layer.transpose(0, 1),
            einsum_5: "f32[32, 6, 6]" = torch.ops.aten.einsum.default('bik,bkj->bij', [transpose_11, transpose_13]);  transpose_11 = transpose_13 = None
            mul_35: "f32[32, 6, 6]" = torch.ops.aten.mul.Tensor(einsum_5, 0.07905694150420949);  einsum_5 = None
            
             # File: /home/liuyang/project/rvbisai/telechat_src/modeling_telechat.py:464 in forward, code: attention_scores = matmul_result.view(bz, self.num_heads, s_query, s_key)
            view_32: "f32[1, 32, 6, 6]" = torch.ops.aten.view.default(mul_35, [1, 32, 6, 6]);  mul_35 = None
            
             # File: /home/liuyang/project/rvbisai/telechat_src/modeling_telechat.py:469 in forward, code: attn_weights = torch.masked_fill(attention_scores, attention_mask, torch.finfo(attention_scores.dtype).min)
            masked_fill_2: "f32[1, 32, 6, 6]" = torch.ops.aten.masked_fill.Scalar(view_32, or_1, -3.4028234663852886e+38);  view_32 = None
            
             # File: /home/liuyang/project/rvbisai/telechat_src/modeling_telechat.py:470 in forward, code: attention_probs = F.softmax(attn_weights, dim=-1).to(input_dtype)  ##dtype = torch.float32
            softmax_2: "f32[1, 32, 6, 6]" = torch.ops.aten.softmax.int(masked_fill_2, -1);  masked_fill_2 = None
            _to_copy_25: "f32[1, 32, 6, 6]" = torch.ops.aten._to_copy.default(softmax_2, dtype = torch.float32);  softmax_2 = None
            
             # File: /home/liuyang/project/rvbisai/telechat_src/modeling_telechat.py:471 in forward, code: attention_probs = self.attention_dropout(attention_probs)
            dropout_6: "f32[1, 32, 6, 6]" = torch.ops.aten.dropout.default(_to_copy_25, 0.0, False);  _to_copy_25 = None
            
             # File: /home/liuyang/project/rvbisai/telechat_src/modeling_telechat.py:472 in forward, code: attention_probs_reshaped = attention_probs.view(bz * self.num_heads, s_query, s_key)
            view_33: "f32[32, 6, 6]" = torch.ops.aten.view.default(dropout_6, [32, 6, 6]);  dropout_6 = None
            
             # File: /home/liuyang/project/rvbisai/telechat_src/modeling_telechat.py:474 in forward, code: value_layer = value_layer.reshape(s_key, bz * self.num_heads, dim)
            view_34: "f32[6, 32, 160]" = torch.ops.aten.view.default(getitem_5, [6, 32, 160]);  getitem_5 = None
            
             # File: /home/liuyang/project/rvbisai/telechat_src/modeling_telechat.py:475 in forward, code: context_layer = torch.bmm(attention_probs_reshaped, value_layer.transpose(0, 1))
            transpose_14: "f32[32, 6, 160]" = torch.ops.aten.transpose.int(view_34, 0, 1);  view_34 = None
            bmm_2: "f32[32, 6, 160]" = torch.ops.aten.bmm.default(view_33, transpose_14);  view_33 = transpose_14 = None
            
             # File: /home/liuyang/project/rvbisai/telechat_src/modeling_telechat.py:391 in _merge_heads, code: x = x.view(batch_size, self.num_heads, seq_length, self.head_dim)
            view_35: "f32[1, 32, 6, 160]" = torch.ops.aten.view.default(bmm_2, [1, 32, 6, 160]);  bmm_2 = None
            
             # File: /home/liuyang/project/rvbisai/telechat_src/modeling_telechat.py:392 in _merge_heads, code: x = x.permute(0, 2, 1, 3)
            permute_2: "f32[1, 6, 32, 160]" = torch.ops.aten.permute.default(view_35, [0, 2, 1, 3]);  view_35 = None
            
             # File: /home/liuyang/project/rvbisai/telechat_src/modeling_telechat.py:393 in _merge_heads, code: return x.reshape(batch_size, seq_length, self.num_heads * self.head_dim)
            clone_2: "f32[1, 6, 32, 160]" = torch.ops.aten.clone.default(permute_2, memory_format = torch.contiguous_format);  permute_2 = None
            _unsafe_view_2: "f32[1, 6, 5120]" = torch.ops.aten._unsafe_view.default(clone_2, [1, 6, 5120]);  clone_2 = None
            
             # File: /home/liuyang/project/rvbisai/telechat_src/modeling_telechat.py:478 in forward, code: output_tensor = self.dense(context_layer)
            linear_14: "f32[1, 6, 5120]" = torch.ops.aten.linear.default(_unsafe_view_2, p_h_2_self_attention_dense_weight, p_h_2_self_attention_dense_bias);  _unsafe_view_2 = p_h_2_self_attention_dense_weight = p_h_2_self_attention_dense_bias = None
            
             # File: /home/liuyang/project/rvbisai/telechat_src/modeling_telechat.py:258 in dropout_add, code: out = F.dropout(x, p=prob, training=training)
            dropout_7: "f32[1, 6, 5120]" = torch.ops.aten.dropout.default(linear_14, 0.0, False);  linear_14 = None
            
             # File: /home/liuyang/project/rvbisai/telechat_src/modeling_telechat.py:259 in dropout_add, code: out = residual + out
            add_15: "f32[1, 6, 5120]" = torch.ops.aten.add.Tensor(add_11, dropout_7);  add_11 = dropout_7 = None
            
             # File: /home/liuyang/project/rvbisai/telechat_src/modeling_telechat.py:146 in forward, code: hidden_states = hidden_states.to(torch.float32)
            _to_copy_26: "f32[1, 6, 5120]" = torch.ops.aten._to_copy.default(add_15, dtype = torch.float32)
            
             # File: /home/liuyang/project/rvbisai/telechat_src/modeling_telechat.py:147 in forward, code: variance = hidden_states.pow(2).mean(-1, keepdim=True)
            pow_9: "f32[1, 6, 5120]" = torch.ops.aten.pow.Tensor_Scalar(_to_copy_26, 2)
            mean_5: "f32[1, 6, 1]" = torch.ops.aten.mean.dim(pow_9, [-1], True);  pow_9 = None
            
             # File: /home/liuyang/project/rvbisai/telechat_src/modeling_telechat.py:148 in forward, code: hidden_states = hidden_states * torch.rsqrt(variance + self.variance_epsilon)
            add_16: "f32[1, 6, 1]" = torch.ops.aten.add.Tensor(mean_5, 1e-05);  mean_5 = None
            rsqrt_5: "f32[1, 6, 1]" = torch.ops.aten.rsqrt.default(add_16);  add_16 = None
            mul_36: "f32[1, 6, 5120]" = torch.ops.aten.mul.Tensor(_to_copy_26, rsqrt_5);  _to_copy_26 = rsqrt_5 = None
            
             # File: /home/liuyang/project/rvbisai/telechat_src/modeling_telechat.py:149 in forward, code: return self.weight * hidden_states.to(input_dtype)
            _to_copy_27: "f32[1, 6, 5120]" = torch.ops.aten._to_copy.default(mul_36, dtype = torch.float32);  mul_36 = None
            mul_37: "f32[1, 6, 5120]" = torch.ops.aten.mul.Tensor(p_h_2_post_attention_layernorm_weight, _to_copy_27);  p_h_2_post_attention_layernorm_weight = _to_copy_27 = None
            
             # File: /home/liuyang/project/rvbisai/telechat_src/modeling_telechat.py:499 in forward, code: intermediate_output = self.down_proj(F.silu(self.gate_proj(hidden_states)) * self.up_proj(hidden_states))
            linear_15: "f32[1, 6, 12288]" = torch.ops.aten.linear.default(mul_37, p_h_2_mlp_gate_proj_weight);  p_h_2_mlp_gate_proj_weight = None
            silu_2: "f32[1, 6, 12288]" = torch.ops.aten.silu.default(linear_15);  linear_15 = None
            linear_16: "f32[1, 6, 12288]" = torch.ops.aten.linear.default(mul_37, p_h_2_mlp_up_proj_weight);  mul_37 = p_h_2_mlp_up_proj_weight = None
            mul_38: "f32[1, 6, 12288]" = torch.ops.aten.mul.Tensor(silu_2, linear_16);  silu_2 = linear_16 = None
            linear_17: "f32[1, 6, 5120]" = torch.ops.aten.linear.default(mul_38, p_h_2_mlp_down_proj_weight, p_h_2_mlp_down_proj_bias);  mul_38 = p_h_2_mlp_down_proj_weight = p_h_2_mlp_down_proj_bias = None
            
             # File: /home/liuyang/project/rvbisai/telechat_src/modeling_telechat.py:258 in dropout_add, code: out = F.dropout(x, p=prob, training=training)
            dropout_8: "f32[1, 6, 5120]" = torch.ops.aten.dropout.default(linear_17, 0.0, False);  linear_17 = None
            
             # File: /home/liuyang/project/rvbisai/telechat_src/modeling_telechat.py:259 in dropout_add, code: out = residual + out
            add_17: "f32[1, 6, 5120]" = torch.ops.aten.add.Tensor(add_15, dropout_8);  add_15 = dropout_8 = None
            
             # File: /home/liuyang/project/rvbisai/telechat_src/modeling_telechat.py:146 in forward, code: hidden_states = hidden_states.to(torch.float32)
            _to_copy_28: "f32[1, 6, 5120]" = torch.ops.aten._to_copy.default(add_17, dtype = torch.float32)
            
             # File: /home/liuyang/project/rvbisai/telechat_src/modeling_telechat.py:147 in forward, code: variance = hidden_states.pow(2).mean(-1, keepdim=True)
            pow_10: "f32[1, 6, 5120]" = torch.ops.aten.pow.Tensor_Scalar(_to_copy_28, 2)
            mean_6: "f32[1, 6, 1]" = torch.ops.aten.mean.dim(pow_10, [-1], True);  pow_10 = None
            
             # File: /home/liuyang/project/rvbisai/telechat_src/modeling_telechat.py:148 in forward, code: hidden_states = hidden_states * torch.rsqrt(variance + self.variance_epsilon)
            add_18: "f32[1, 6, 1]" = torch.ops.aten.add.Tensor(mean_6, 1e-05);  mean_6 = None
            rsqrt_6: "f32[1, 6, 1]" = torch.ops.aten.rsqrt.default(add_18);  add_18 = None
            mul_39: "f32[1, 6, 5120]" = torch.ops.aten.mul.Tensor(_to_copy_28, rsqrt_6);  _to_copy_28 = rsqrt_6 = None
            
             # File: /home/liuyang/project/rvbisai/telechat_src/modeling_telechat.py:149 in forward, code: return self.weight * hidden_states.to(input_dtype)
            _to_copy_29: "f32[1, 6, 5120]" = torch.ops.aten._to_copy.default(mul_39, dtype = torch.float32);  mul_39 = None
            mul_40: "f32[1, 6, 5120]" = torch.ops.aten.mul.Tensor(p_h_3_input_layernorm_weight, _to_copy_29);  p_h_3_input_layernorm_weight = _to_copy_29 = None
            
             # File: /home/liuyang/project/rvbisai/telechat_src/modeling_telechat.py:404 in forward, code: hidden_states = hidden_states.transpose(1, 0)
            transpose_15: "f32[6, 1, 5120]" = torch.ops.aten.transpose.int(mul_40, 1, 0);  mul_40 = None
            
             # File: /home/liuyang/project/rvbisai/telechat_src/modeling_telechat.py:405 in forward, code: query_layer = self.query(hidden_states)
            linear_18: "f32[6, 1, 5120]" = torch.ops.aten.linear.default(transpose_15, p_h_3_self_attention_query_weight);  p_h_3_self_attention_query_weight = None
            
             # File: /home/liuyang/project/rvbisai/telechat_src/modeling_telechat.py:409 in forward, code: query_layer = query_layer.view(*new_tensor_shape)
            view_36: "f32[6, 1, 32, 160]" = torch.ops.aten.view.default(linear_18, [6, 1, 32, 160]);  linear_18 = None
            
             # File: /home/liuyang/project/rvbisai/telechat_src/modeling_telechat.py:411 in forward, code: mixed_kv_layer = self.key_value(hidden_states)
            linear_19: "f32[6, 1, 10240]" = torch.ops.aten.linear.default(transpose_15, p_h_3_self_attention_key_value_weight);  transpose_15 = p_h_3_self_attention_key_value_weight = None
            
             # File: /home/liuyang/project/rvbisai/telechat_src/modeling_telechat.py:415 in forward, code: mixed_kv_layer = mixed_kv_layer.view(*new_tensor_shape)
            view_37: "f32[6, 1, 32, 320]" = torch.ops.aten.view.default(linear_19, [6, 1, 32, 320]);  linear_19 = None
            
             # File: /home/liuyang/project/rvbisai/telechat_src/modeling_telechat.py:381 in split_tensor_along_last_dim, code: tensor_list = torch.split(tensor, last_dim_size, dim=last_dim)
            split_3 = torch.ops.aten.split.Tensor(view_37, 160, 3);  view_37 = None
            getitem_6: "f32[6, 1, 32, 160]" = split_3[0]
            getitem_7: "f32[6, 1, 32, 160]" = split_3[1];  split_3 = None
            
             # File: /home/liuyang/project/rvbisai/telechat_src/modeling_telechat.py:423 in forward, code: query_layer = query_layer.view(output_size[2], output_size[0] * output_size[1], -1)
            view_38: "f32[6, 32, 160]" = torch.ops.aten.view.default(view_36, [6, 32, -1]);  view_36 = None
            
             # File: /home/liuyang/project/rvbisai/telechat_src/modeling_telechat.py:424 in forward, code: key_layer = key_layer.view(output_size[3], output_size[0] * output_size[1], -1)
            view_39: "f32[6, 32, 160]" = torch.ops.aten.view.default(getitem_6, [6, 32, -1]);  getitem_6 = None
            
             # File: /home/liuyang/project/rvbisai/telechat_src/modeling_telechat.py:112 in forward, code: self.inv_freq = 1.0 / (base ** (torch.arange(0, self.dim, 2, device=x.device).float() / self.dim))
            arange_7: "i64[80]" = torch.ops.aten.arange.start_step(0, 160, 2, device = device(type='cpu'), pin_memory = False)
            _to_copy_30: "f32[80]" = torch.ops.aten._to_copy.default(arange_7, dtype = torch.float32);  arange_7 = None
            div_3: "f32[80]" = torch.ops.aten.div.Tensor(_to_copy_30, 160);  _to_copy_30 = None
            pow_11: "f32[80]" = torch.ops.aten.pow.Scalar(30420.108888514722, div_3);  div_3 = None
            reciprocal_3: "f32[80]" = torch.ops.aten.reciprocal.default(pow_11);  pow_11 = None
            mul_41: "f32[80]" = torch.ops.aten.mul.Tensor(reciprocal_3, 1.0);  reciprocal_3 = None
            
             # File: /home/liuyang/project/rvbisai/telechat_src/modeling_telechat.py:114 in forward, code: t = torch.arange(self.max_seq_len_cached, device=x.device, dtype=self.inv_freq.dtype)
            arange_8: "f32[8192]" = torch.ops.aten.arange.default(8192, dtype = torch.float32, device = device(type='cpu'), pin_memory = False)
            
             # File: /home/liuyang/project/rvbisai/telechat_src/modeling_telechat.py:115 in forward, code: freqs = torch.einsum('i,j->ij', t, self.inv_freq)
            einsum_6: "f32[8192, 80]" = torch.ops.aten.einsum.default('i,j->ij', [arange_8, mul_41]);  arange_8 = mul_41 = None
            
             # File: /home/liuyang/project/rvbisai/telechat_src/modeling_telechat.py:117 in forward, code: emb = torch.cat((freqs, freqs), dim=-1).to(x.device)
            cat_9: "f32[8192, 160]" = torch.ops.aten.cat.default([einsum_6, einsum_6], -1);  einsum_6 = None
            _to_copy_31: "f32[8192, 160]" = torch.ops.aten._to_copy.default(cat_9, dtype = torch.float32, layout = torch.strided, device = device(type='cpu'));  cat_9 = None
            
             # File: /home/liuyang/project/rvbisai/telechat_src/modeling_telechat.py:121 in forward, code: self.cos_cached = self.mscale * emb.cos()[:, None, :].to(dtype)
            cos_3: "f32[8192, 160]" = torch.ops.aten.cos.default(_to_copy_31)
            slice_44: "f32[8192, 160]" = torch.ops.aten.slice.Tensor(cos_3, 0, 0, 9223372036854775807);  cos_3 = None
            unsqueeze_14: "f32[8192, 1, 160]" = torch.ops.aten.unsqueeze.default(slice_44, 1);  slice_44 = None
            slice_45: "f32[8192, 1, 160]" = torch.ops.aten.slice.Tensor(unsqueeze_14, 2, 0, 9223372036854775807);  unsqueeze_14 = None
            _to_copy_32: "f32[8192, 1, 160]" = torch.ops.aten._to_copy.default(slice_45, dtype = torch.float32);  slice_45 = None
            mul_42: "f32[8192, 1, 160]" = torch.ops.aten.mul.Tensor(_to_copy_32, 1.0);  _to_copy_32 = None
            
             # File: /home/liuyang/project/rvbisai/telechat_src/modeling_telechat.py:122 in forward, code: self.sin_cached = self.mscale * emb.sin()[:, None, :].to(dtype)
            sin_3: "f32[8192, 160]" = torch.ops.aten.sin.default(_to_copy_31);  _to_copy_31 = None
            slice_46: "f32[8192, 160]" = torch.ops.aten.slice.Tensor(sin_3, 0, 0, 9223372036854775807);  sin_3 = None
            unsqueeze_15: "f32[8192, 1, 160]" = torch.ops.aten.unsqueeze.default(slice_46, 1);  slice_46 = None
            slice_47: "f32[8192, 1, 160]" = torch.ops.aten.slice.Tensor(unsqueeze_15, 2, 0, 9223372036854775807);  unsqueeze_15 = None
            _to_copy_33: "f32[8192, 1, 160]" = torch.ops.aten._to_copy.default(slice_47, dtype = torch.float32);  slice_47 = None
            mul_43: "f32[8192, 1, 160]" = torch.ops.aten.mul.Tensor(_to_copy_33, 1.0);  _to_copy_33 = None
            
             # File: /home/liuyang/project/rvbisai/telechat_src/modeling_telechat.py:123 in forward, code: return self.cos_cached[:seq_len, ...], self.sin_cached[:seq_len, ...]
            alias_6: "f32[8192, 1, 160]" = torch.ops.aten.alias.default(mul_42);  mul_42 = None
            alias_7: "f32[8192, 1, 160]" = torch.ops.aten.alias.default(mul_43);  mul_43 = None
            
             # File: /home/liuyang/project/rvbisai/telechat_src/modeling_telechat.py:133 in apply_rotary_pos_emb_torch, code: cos, sin = cos[offset:q.shape[0] + offset, ...], sin[offset:q.shape[0] + offset, ...]
            slice_48: "f32[6, 1, 160]" = torch.ops.aten.slice.Tensor(alias_6, 0, 0, 6);  alias_6 = None
            slice_49: "f32[6, 1, 160]" = torch.ops.aten.slice.Tensor(alias_7, 0, 0, 6);  alias_7 = None
            
             # File: /home/liuyang/project/rvbisai/telechat_src/modeling_telechat.py:134 in apply_rotary_pos_emb_torch, code: return (q * cos) + (rotate_half(q) * sin), (k * cos) + (rotate_half(k) * sin)
            mul_44: "f32[6, 32, 160]" = torch.ops.aten.mul.Tensor(view_38, slice_48)
            
             # File: /home/liuyang/project/rvbisai/telechat_src/modeling_telechat.py:128 in rotate_half, code: x1, x2 = x[..., :x.shape[-1] // 2], x[..., x.shape[-1] // 2:]
            slice_50: "f32[6, 32, 80]" = torch.ops.aten.slice.Tensor(view_38, 2, 0, 80)
            slice_51: "f32[6, 32, 80]" = torch.ops.aten.slice.Tensor(view_38, 2, 80, 9223372036854775807);  view_38 = None
            
             # File: /home/liuyang/project/rvbisai/telechat_src/modeling_telechat.py:129 in rotate_half, code: return torch.cat((-x2, x1), dim=x1.ndim - 1)  # dim=-1 triggers a bug in earlier torch versions
            neg_6: "f32[6, 32, 80]" = torch.ops.aten.neg.default(slice_51);  slice_51 = None
            cat_10: "f32[6, 32, 160]" = torch.ops.aten.cat.default([neg_6, slice_50], 2);  neg_6 = slice_50 = None
            
             # File: /home/liuyang/project/rvbisai/telechat_src/modeling_telechat.py:134 in apply_rotary_pos_emb_torch, code: return (q * cos) + (rotate_half(q) * sin), (k * cos) + (rotate_half(k) * sin)
            mul_45: "f32[6, 32, 160]" = torch.ops.aten.mul.Tensor(cat_10, slice_49);  cat_10 = None
            add_19: "f32[6, 32, 160]" = torch.ops.aten.add.Tensor(mul_44, mul_45);  mul_44 = mul_45 = None
            mul_46: "f32[6, 32, 160]" = torch.ops.aten.mul.Tensor(view_39, slice_48);  slice_48 = None
            
             # File: /home/liuyang/project/rvbisai/telechat_src/modeling_telechat.py:128 in rotate_half, code: x1, x2 = x[..., :x.shape[-1] // 2], x[..., x.shape[-1] // 2:]
            slice_52: "f32[6, 32, 80]" = torch.ops.aten.slice.Tensor(view_39, 2, 0, 80)
            slice_53: "f32[6, 32, 80]" = torch.ops.aten.slice.Tensor(view_39, 2, 80, 9223372036854775807);  view_39 = None
            
             # File: /home/liuyang/project/rvbisai/telechat_src/modeling_telechat.py:129 in rotate_half, code: return torch.cat((-x2, x1), dim=x1.ndim - 1)  # dim=-1 triggers a bug in earlier torch versions
            neg_7: "f32[6, 32, 80]" = torch.ops.aten.neg.default(slice_53);  slice_53 = None
            cat_11: "f32[6, 32, 160]" = torch.ops.aten.cat.default([neg_7, slice_52], 2);  neg_7 = slice_52 = None
            
             # File: /home/liuyang/project/rvbisai/telechat_src/modeling_telechat.py:134 in apply_rotary_pos_emb_torch, code: return (q * cos) + (rotate_half(q) * sin), (k * cos) + (rotate_half(k) * sin)
            mul_47: "f32[6, 32, 160]" = torch.ops.aten.mul.Tensor(cat_11, slice_49);  cat_11 = slice_49 = None
            add_20: "f32[6, 32, 160]" = torch.ops.aten.add.Tensor(mul_46, mul_47);  mul_46 = mul_47 = None
            
             # File: /home/liuyang/project/rvbisai/telechat_src/modeling_telechat.py:448 in forward, code: query_layer = query_layer.reshape((s_query, bz, head, dim))
            view_40: "f32[6, 1, 32, 160]" = torch.ops.aten.view.default(add_19, [6, 1, 32, 160]);  add_19 = None
            
             # File: /home/liuyang/project/rvbisai/telechat_src/modeling_telechat.py:449 in forward, code: key_layer = key_layer.reshape((s_key, bz, head, dim))
            view_41: "f32[6, 1, 32, 160]" = torch.ops.aten.view.default(add_20, [6, 1, 32, 160]);  add_20 = None
            
             # File: /home/liuyang/project/rvbisai/telechat_src/modeling_telechat.py:458 in forward, code: query_layer = query_layer.reshape(s_query, bz * self.num_heads, dim)
            view_42: "f32[6, 32, 160]" = torch.ops.aten.view.default(view_40, [6, 32, 160]);  view_40 = None
            
             # File: /home/liuyang/project/rvbisai/telechat_src/modeling_telechat.py:460 in forward, code: key_layer = key_layer.reshape(s_key, bz * self.num_heads, dim)
            view_43: "f32[6, 32, 160]" = torch.ops.aten.view.default(view_41, [6, 32, 160]);  view_41 = None
            
             # File: /home/liuyang/project/rvbisai/telechat_src/modeling_telechat.py:461 in forward, code: matmul_result = self.inv_norm_factor * torch.einsum('bik,bkj->bij', query_layer.transpose(0, 1),
            transpose_16: "f32[32, 6, 160]" = torch.ops.aten.transpose.int(view_42, 0, 1);  view_42 = None
            
             # File: /home/liuyang/project/rvbisai/telechat_src/modeling_telechat.py:462 in forward, code: key_layer.transpose(0, 1).transpose(1, 2))
            transpose_17: "f32[32, 6, 160]" = torch.ops.aten.transpose.int(view_43, 0, 1);  view_43 = None
            transpose_18: "f32[32, 160, 6]" = torch.ops.aten.transpose.int(transpose_17, 1, 2);  transpose_17 = None
            
             # File: /home/liuyang/project/rvbisai/telechat_src/modeling_telechat.py:461 in forward, code: matmul_result = self.inv_norm_factor * torch.einsum('bik,bkj->bij', query_layer.transpose(0, 1),
            einsum_7: "f32[32, 6, 6]" = torch.ops.aten.einsum.default('bik,bkj->bij', [transpose_16, transpose_18]);  transpose_16 = transpose_18 = None
            mul_48: "f32[32, 6, 6]" = torch.ops.aten.mul.Tensor(einsum_7, 0.07905694150420949);  einsum_7 = None
            
             # File: /home/liuyang/project/rvbisai/telechat_src/modeling_telechat.py:464 in forward, code: attention_scores = matmul_result.view(bz, self.num_heads, s_query, s_key)
            view_44: "f32[1, 32, 6, 6]" = torch.ops.aten.view.default(mul_48, [1, 32, 6, 6]);  mul_48 = None
            
             # File: /home/liuyang/project/rvbisai/telechat_src/modeling_telechat.py:469 in forward, code: attn_weights = torch.masked_fill(attention_scores, attention_mask, torch.finfo(attention_scores.dtype).min)
            masked_fill_3: "f32[1, 32, 6, 6]" = torch.ops.aten.masked_fill.Scalar(view_44, or_1, -3.4028234663852886e+38);  view_44 = None
            
             # File: /home/liuyang/project/rvbisai/telechat_src/modeling_telechat.py:470 in forward, code: attention_probs = F.softmax(attn_weights, dim=-1).to(input_dtype)  ##dtype = torch.float32
            softmax_3: "f32[1, 32, 6, 6]" = torch.ops.aten.softmax.int(masked_fill_3, -1);  masked_fill_3 = None
            _to_copy_34: "f32[1, 32, 6, 6]" = torch.ops.aten._to_copy.default(softmax_3, dtype = torch.float32);  softmax_3 = None
            
             # File: /home/liuyang/project/rvbisai/telechat_src/modeling_telechat.py:471 in forward, code: attention_probs = self.attention_dropout(attention_probs)
            dropout_9: "f32[1, 32, 6, 6]" = torch.ops.aten.dropout.default(_to_copy_34, 0.0, False);  _to_copy_34 = None
            
             # File: /home/liuyang/project/rvbisai/telechat_src/modeling_telechat.py:472 in forward, code: attention_probs_reshaped = attention_probs.view(bz * self.num_heads, s_query, s_key)
            view_45: "f32[32, 6, 6]" = torch.ops.aten.view.default(dropout_9, [32, 6, 6]);  dropout_9 = None
            
             # File: /home/liuyang/project/rvbisai/telechat_src/modeling_telechat.py:474 in forward, code: value_layer = value_layer.reshape(s_key, bz * self.num_heads, dim)
            view_46: "f32[6, 32, 160]" = torch.ops.aten.view.default(getitem_7, [6, 32, 160]);  getitem_7 = None
            
             # File: /home/liuyang/project/rvbisai/telechat_src/modeling_telechat.py:475 in forward, code: context_layer = torch.bmm(attention_probs_reshaped, value_layer.transpose(0, 1))
            transpose_19: "f32[32, 6, 160]" = torch.ops.aten.transpose.int(view_46, 0, 1);  view_46 = None
            bmm_3: "f32[32, 6, 160]" = torch.ops.aten.bmm.default(view_45, transpose_19);  view_45 = transpose_19 = None
            
             # File: /home/liuyang/project/rvbisai/telechat_src/modeling_telechat.py:391 in _merge_heads, code: x = x.view(batch_size, self.num_heads, seq_length, self.head_dim)
            view_47: "f32[1, 32, 6, 160]" = torch.ops.aten.view.default(bmm_3, [1, 32, 6, 160]);  bmm_3 = None
            
             # File: /home/liuyang/project/rvbisai/telechat_src/modeling_telechat.py:392 in _merge_heads, code: x = x.permute(0, 2, 1, 3)
            permute_3: "f32[1, 6, 32, 160]" = torch.ops.aten.permute.default(view_47, [0, 2, 1, 3]);  view_47 = None
            
             # File: /home/liuyang/project/rvbisai/telechat_src/modeling_telechat.py:393 in _merge_heads, code: return x.reshape(batch_size, seq_length, self.num_heads * self.head_dim)
            clone_3: "f32[1, 6, 32, 160]" = torch.ops.aten.clone.default(permute_3, memory_format = torch.contiguous_format);  permute_3 = None
            _unsafe_view_3: "f32[1, 6, 5120]" = torch.ops.aten._unsafe_view.default(clone_3, [1, 6, 5120]);  clone_3 = None
            
             # File: /home/liuyang/project/rvbisai/telechat_src/modeling_telechat.py:478 in forward, code: output_tensor = self.dense(context_layer)
            linear_20: "f32[1, 6, 5120]" = torch.ops.aten.linear.default(_unsafe_view_3, p_h_3_self_attention_dense_weight, p_h_3_self_attention_dense_bias);  _unsafe_view_3 = p_h_3_self_attention_dense_weight = p_h_3_self_attention_dense_bias = None
            
             # File: /home/liuyang/project/rvbisai/telechat_src/modeling_telechat.py:258 in dropout_add, code: out = F.dropout(x, p=prob, training=training)
            dropout_10: "f32[1, 6, 5120]" = torch.ops.aten.dropout.default(linear_20, 0.0, False);  linear_20 = None
            
             # File: /home/liuyang/project/rvbisai/telechat_src/modeling_telechat.py:259 in dropout_add, code: out = residual + out
            add_21: "f32[1, 6, 5120]" = torch.ops.aten.add.Tensor(add_17, dropout_10);  add_17 = dropout_10 = None
            
             # File: /home/liuyang/project/rvbisai/telechat_src/modeling_telechat.py:146 in forward, code: hidden_states = hidden_states.to(torch.float32)
            _to_copy_35: "f32[1, 6, 5120]" = torch.ops.aten._to_copy.default(add_21, dtype = torch.float32)
            
             # File: /home/liuyang/project/rvbisai/telechat_src/modeling_telechat.py:147 in forward, code: variance = hidden_states.pow(2).mean(-1, keepdim=True)
            pow_12: "f32[1, 6, 5120]" = torch.ops.aten.pow.Tensor_Scalar(_to_copy_35, 2)
            mean_7: "f32[1, 6, 1]" = torch.ops.aten.mean.dim(pow_12, [-1], True);  pow_12 = None
            
             # File: /home/liuyang/project/rvbisai/telechat_src/modeling_telechat.py:148 in forward, code: hidden_states = hidden_states * torch.rsqrt(variance + self.variance_epsilon)
            add_22: "f32[1, 6, 1]" = torch.ops.aten.add.Tensor(mean_7, 1e-05);  mean_7 = None
            rsqrt_7: "f32[1, 6, 1]" = torch.ops.aten.rsqrt.default(add_22);  add_22 = None
            mul_49: "f32[1, 6, 5120]" = torch.ops.aten.mul.Tensor(_to_copy_35, rsqrt_7);  _to_copy_35 = rsqrt_7 = None
            
             # File: /home/liuyang/project/rvbisai/telechat_src/modeling_telechat.py:149 in forward, code: return self.weight * hidden_states.to(input_dtype)
            _to_copy_36: "f32[1, 6, 5120]" = torch.ops.aten._to_copy.default(mul_49, dtype = torch.float32);  mul_49 = None
            mul_50: "f32[1, 6, 5120]" = torch.ops.aten.mul.Tensor(p_h_3_post_attention_layernorm_weight, _to_copy_36);  p_h_3_post_attention_layernorm_weight = _to_copy_36 = None
            
             # File: /home/liuyang/project/rvbisai/telechat_src/modeling_telechat.py:499 in forward, code: intermediate_output = self.down_proj(F.silu(self.gate_proj(hidden_states)) * self.up_proj(hidden_states))
            linear_21: "f32[1, 6, 12288]" = torch.ops.aten.linear.default(mul_50, p_h_3_mlp_gate_proj_weight);  p_h_3_mlp_gate_proj_weight = None
            silu_3: "f32[1, 6, 12288]" = torch.ops.aten.silu.default(linear_21);  linear_21 = None
            linear_22: "f32[1, 6, 12288]" = torch.ops.aten.linear.default(mul_50, p_h_3_mlp_up_proj_weight);  mul_50 = p_h_3_mlp_up_proj_weight = None
            mul_51: "f32[1, 6, 12288]" = torch.ops.aten.mul.Tensor(silu_3, linear_22);  silu_3 = linear_22 = None
            linear_23: "f32[1, 6, 5120]" = torch.ops.aten.linear.default(mul_51, p_h_3_mlp_down_proj_weight, p_h_3_mlp_down_proj_bias);  mul_51 = p_h_3_mlp_down_proj_weight = p_h_3_mlp_down_proj_bias = None
            
             # File: /home/liuyang/project/rvbisai/telechat_src/modeling_telechat.py:258 in dropout_add, code: out = F.dropout(x, p=prob, training=training)
            dropout_11: "f32[1, 6, 5120]" = torch.ops.aten.dropout.default(linear_23, 0.0, False);  linear_23 = None
            
             # File: /home/liuyang/project/rvbisai/telechat_src/modeling_telechat.py:259 in dropout_add, code: out = residual + out
            add_23: "f32[1, 6, 5120]" = torch.ops.aten.add.Tensor(add_21, dropout_11);  add_21 = dropout_11 = None
            
             # File: /home/liuyang/project/rvbisai/telechat_src/modeling_telechat.py:146 in forward, code: hidden_states = hidden_states.to(torch.float32)
            _to_copy_37: "f32[1, 6, 5120]" = torch.ops.aten._to_copy.default(add_23, dtype = torch.float32)
            
             # File: /home/liuyang/project/rvbisai/telechat_src/modeling_telechat.py:147 in forward, code: variance = hidden_states.pow(2).mean(-1, keepdim=True)
            pow_13: "f32[1, 6, 5120]" = torch.ops.aten.pow.Tensor_Scalar(_to_copy_37, 2)
            mean_8: "f32[1, 6, 1]" = torch.ops.aten.mean.dim(pow_13, [-1], True);  pow_13 = None
            
             # File: /home/liuyang/project/rvbisai/telechat_src/modeling_telechat.py:148 in forward, code: hidden_states = hidden_states * torch.rsqrt(variance + self.variance_epsilon)
            add_24: "f32[1, 6, 1]" = torch.ops.aten.add.Tensor(mean_8, 1e-05);  mean_8 = None
            rsqrt_8: "f32[1, 6, 1]" = torch.ops.aten.rsqrt.default(add_24);  add_24 = None
            mul_52: "f32[1, 6, 5120]" = torch.ops.aten.mul.Tensor(_to_copy_37, rsqrt_8);  _to_copy_37 = rsqrt_8 = None
            
             # File: /home/liuyang/project/rvbisai/telechat_src/modeling_telechat.py:149 in forward, code: return self.weight * hidden_states.to(input_dtype)
            _to_copy_38: "f32[1, 6, 5120]" = torch.ops.aten._to_copy.default(mul_52, dtype = torch.float32);  mul_52 = None
            mul_53: "f32[1, 6, 5120]" = torch.ops.aten.mul.Tensor(p_h_4_input_layernorm_weight, _to_copy_38);  p_h_4_input_layernorm_weight = _to_copy_38 = None
            
             # File: /home/liuyang/project/rvbisai/telechat_src/modeling_telechat.py:404 in forward, code: hidden_states = hidden_states.transpose(1, 0)
            transpose_20: "f32[6, 1, 5120]" = torch.ops.aten.transpose.int(mul_53, 1, 0);  mul_53 = None
            
             # File: /home/liuyang/project/rvbisai/telechat_src/modeling_telechat.py:405 in forward, code: query_layer = self.query(hidden_states)
            linear_24: "f32[6, 1, 5120]" = torch.ops.aten.linear.default(transpose_20, p_h_4_self_attention_query_weight);  p_h_4_self_attention_query_weight = None
            
             # File: /home/liuyang/project/rvbisai/telechat_src/modeling_telechat.py:409 in forward, code: query_layer = query_layer.view(*new_tensor_shape)
            view_48: "f32[6, 1, 32, 160]" = torch.ops.aten.view.default(linear_24, [6, 1, 32, 160]);  linear_24 = None
            
             # File: /home/liuyang/project/rvbisai/telechat_src/modeling_telechat.py:411 in forward, code: mixed_kv_layer = self.key_value(hidden_states)
            linear_25: "f32[6, 1, 10240]" = torch.ops.aten.linear.default(transpose_20, p_h_4_self_attention_key_value_weight);  transpose_20 = p_h_4_self_attention_key_value_weight = None
            
             # File: /home/liuyang/project/rvbisai/telechat_src/modeling_telechat.py:415 in forward, code: mixed_kv_layer = mixed_kv_layer.view(*new_tensor_shape)
            view_49: "f32[6, 1, 32, 320]" = torch.ops.aten.view.default(linear_25, [6, 1, 32, 320]);  linear_25 = None
            
             # File: /home/liuyang/project/rvbisai/telechat_src/modeling_telechat.py:381 in split_tensor_along_last_dim, code: tensor_list = torch.split(tensor, last_dim_size, dim=last_dim)
            split_4 = torch.ops.aten.split.Tensor(view_49, 160, 3);  view_49 = None
            getitem_8: "f32[6, 1, 32, 160]" = split_4[0]
            getitem_9: "f32[6, 1, 32, 160]" = split_4[1];  split_4 = None
            
             # File: /home/liuyang/project/rvbisai/telechat_src/modeling_telechat.py:423 in forward, code: query_layer = query_layer.view(output_size[2], output_size[0] * output_size[1], -1)
            view_50: "f32[6, 32, 160]" = torch.ops.aten.view.default(view_48, [6, 32, -1]);  view_48 = None
            
             # File: /home/liuyang/project/rvbisai/telechat_src/modeling_telechat.py:424 in forward, code: key_layer = key_layer.view(output_size[3], output_size[0] * output_size[1], -1)
            view_51: "f32[6, 32, 160]" = torch.ops.aten.view.default(getitem_8, [6, 32, -1]);  getitem_8 = None
            
             # File: /home/liuyang/project/rvbisai/telechat_src/modeling_telechat.py:112 in forward, code: self.inv_freq = 1.0 / (base ** (torch.arange(0, self.dim, 2, device=x.device).float() / self.dim))
            arange_9: "i64[80]" = torch.ops.aten.arange.start_step(0, 160, 2, device = device(type='cpu'), pin_memory = False)
            _to_copy_39: "f32[80]" = torch.ops.aten._to_copy.default(arange_9, dtype = torch.float32);  arange_9 = None
            div_4: "f32[80]" = torch.ops.aten.div.Tensor(_to_copy_39, 160);  _to_copy_39 = None
            pow_14: "f32[80]" = torch.ops.aten.pow.Scalar(30420.108888514722, div_4);  div_4 = None
            reciprocal_4: "f32[80]" = torch.ops.aten.reciprocal.default(pow_14);  pow_14 = None
            mul_54: "f32[80]" = torch.ops.aten.mul.Tensor(reciprocal_4, 1.0);  reciprocal_4 = None
            
             # File: /home/liuyang/project/rvbisai/telechat_src/modeling_telechat.py:114 in forward, code: t = torch.arange(self.max_seq_len_cached, device=x.device, dtype=self.inv_freq.dtype)
            arange_10: "f32[8192]" = torch.ops.aten.arange.default(8192, dtype = torch.float32, device = device(type='cpu'), pin_memory = False)
            
             # File: /home/liuyang/project/rvbisai/telechat_src/modeling_telechat.py:115 in forward, code: freqs = torch.einsum('i,j->ij', t, self.inv_freq)
            einsum_8: "f32[8192, 80]" = torch.ops.aten.einsum.default('i,j->ij', [arange_10, mul_54]);  arange_10 = mul_54 = None
            
             # File: /home/liuyang/project/rvbisai/telechat_src/modeling_telechat.py:117 in forward, code: emb = torch.cat((freqs, freqs), dim=-1).to(x.device)
            cat_12: "f32[8192, 160]" = torch.ops.aten.cat.default([einsum_8, einsum_8], -1);  einsum_8 = None
            _to_copy_40: "f32[8192, 160]" = torch.ops.aten._to_copy.default(cat_12, dtype = torch.float32, layout = torch.strided, device = device(type='cpu'));  cat_12 = None
            
             # File: /home/liuyang/project/rvbisai/telechat_src/modeling_telechat.py:121 in forward, code: self.cos_cached = self.mscale * emb.cos()[:, None, :].to(dtype)
            cos_4: "f32[8192, 160]" = torch.ops.aten.cos.default(_to_copy_40)
            slice_54: "f32[8192, 160]" = torch.ops.aten.slice.Tensor(cos_4, 0, 0, 9223372036854775807);  cos_4 = None
            unsqueeze_16: "f32[8192, 1, 160]" = torch.ops.aten.unsqueeze.default(slice_54, 1);  slice_54 = None
            slice_55: "f32[8192, 1, 160]" = torch.ops.aten.slice.Tensor(unsqueeze_16, 2, 0, 9223372036854775807);  unsqueeze_16 = None
            _to_copy_41: "f32[8192, 1, 160]" = torch.ops.aten._to_copy.default(slice_55, dtype = torch.float32);  slice_55 = None
            mul_55: "f32[8192, 1, 160]" = torch.ops.aten.mul.Tensor(_to_copy_41, 1.0);  _to_copy_41 = None
            
             # File: /home/liuyang/project/rvbisai/telechat_src/modeling_telechat.py:122 in forward, code: self.sin_cached = self.mscale * emb.sin()[:, None, :].to(dtype)
            sin_4: "f32[8192, 160]" = torch.ops.aten.sin.default(_to_copy_40);  _to_copy_40 = None
            slice_56: "f32[8192, 160]" = torch.ops.aten.slice.Tensor(sin_4, 0, 0, 9223372036854775807);  sin_4 = None
            unsqueeze_17: "f32[8192, 1, 160]" = torch.ops.aten.unsqueeze.default(slice_56, 1);  slice_56 = None
            slice_57: "f32[8192, 1, 160]" = torch.ops.aten.slice.Tensor(unsqueeze_17, 2, 0, 9223372036854775807);  unsqueeze_17 = None
            _to_copy_42: "f32[8192, 1, 160]" = torch.ops.aten._to_copy.default(slice_57, dtype = torch.float32);  slice_57 = None
            mul_56: "f32[8192, 1, 160]" = torch.ops.aten.mul.Tensor(_to_copy_42, 1.0);  _to_copy_42 = None
            
             # File: /home/liuyang/project/rvbisai/telechat_src/modeling_telechat.py:123 in forward, code: return self.cos_cached[:seq_len, ...], self.sin_cached[:seq_len, ...]
            alias_8: "f32[8192, 1, 160]" = torch.ops.aten.alias.default(mul_55);  mul_55 = None
            alias_9: "f32[8192, 1, 160]" = torch.ops.aten.alias.default(mul_56);  mul_56 = None
            
             # File: /home/liuyang/project/rvbisai/telechat_src/modeling_telechat.py:133 in apply_rotary_pos_emb_torch, code: cos, sin = cos[offset:q.shape[0] + offset, ...], sin[offset:q.shape[0] + offset, ...]
            slice_58: "f32[6, 1, 160]" = torch.ops.aten.slice.Tensor(alias_8, 0, 0, 6);  alias_8 = None
            slice_59: "f32[6, 1, 160]" = torch.ops.aten.slice.Tensor(alias_9, 0, 0, 6);  alias_9 = None
            
             # File: /home/liuyang/project/rvbisai/telechat_src/modeling_telechat.py:134 in apply_rotary_pos_emb_torch, code: return (q * cos) + (rotate_half(q) * sin), (k * cos) + (rotate_half(k) * sin)
            mul_57: "f32[6, 32, 160]" = torch.ops.aten.mul.Tensor(view_50, slice_58)
            
             # File: /home/liuyang/project/rvbisai/telechat_src/modeling_telechat.py:128 in rotate_half, code: x1, x2 = x[..., :x.shape[-1] // 2], x[..., x.shape[-1] // 2:]
            slice_60: "f32[6, 32, 80]" = torch.ops.aten.slice.Tensor(view_50, 2, 0, 80)
            slice_61: "f32[6, 32, 80]" = torch.ops.aten.slice.Tensor(view_50, 2, 80, 9223372036854775807);  view_50 = None
            
             # File: /home/liuyang/project/rvbisai/telechat_src/modeling_telechat.py:129 in rotate_half, code: return torch.cat((-x2, x1), dim=x1.ndim - 1)  # dim=-1 triggers a bug in earlier torch versions
            neg_8: "f32[6, 32, 80]" = torch.ops.aten.neg.default(slice_61);  slice_61 = None
            cat_13: "f32[6, 32, 160]" = torch.ops.aten.cat.default([neg_8, slice_60], 2);  neg_8 = slice_60 = None
            
             # File: /home/liuyang/project/rvbisai/telechat_src/modeling_telechat.py:134 in apply_rotary_pos_emb_torch, code: return (q * cos) + (rotate_half(q) * sin), (k * cos) + (rotate_half(k) * sin)
            mul_58: "f32[6, 32, 160]" = torch.ops.aten.mul.Tensor(cat_13, slice_59);  cat_13 = None
            add_25: "f32[6, 32, 160]" = torch.ops.aten.add.Tensor(mul_57, mul_58);  mul_57 = mul_58 = None
            mul_59: "f32[6, 32, 160]" = torch.ops.aten.mul.Tensor(view_51, slice_58);  slice_58 = None
            
             # File: /home/liuyang/project/rvbisai/telechat_src/modeling_telechat.py:128 in rotate_half, code: x1, x2 = x[..., :x.shape[-1] // 2], x[..., x.shape[-1] // 2:]
            slice_62: "f32[6, 32, 80]" = torch.ops.aten.slice.Tensor(view_51, 2, 0, 80)
            slice_63: "f32[6, 32, 80]" = torch.ops.aten.slice.Tensor(view_51, 2, 80, 9223372036854775807);  view_51 = None
            
             # File: /home/liuyang/project/rvbisai/telechat_src/modeling_telechat.py:129 in rotate_half, code: return torch.cat((-x2, x1), dim=x1.ndim - 1)  # dim=-1 triggers a bug in earlier torch versions
            neg_9: "f32[6, 32, 80]" = torch.ops.aten.neg.default(slice_63);  slice_63 = None
            cat_14: "f32[6, 32, 160]" = torch.ops.aten.cat.default([neg_9, slice_62], 2);  neg_9 = slice_62 = None
            
             # File: /home/liuyang/project/rvbisai/telechat_src/modeling_telechat.py:134 in apply_rotary_pos_emb_torch, code: return (q * cos) + (rotate_half(q) * sin), (k * cos) + (rotate_half(k) * sin)
            mul_60: "f32[6, 32, 160]" = torch.ops.aten.mul.Tensor(cat_14, slice_59);  cat_14 = slice_59 = None
            add_26: "f32[6, 32, 160]" = torch.ops.aten.add.Tensor(mul_59, mul_60);  mul_59 = mul_60 = None
            
             # File: /home/liuyang/project/rvbisai/telechat_src/modeling_telechat.py:448 in forward, code: query_layer = query_layer.reshape((s_query, bz, head, dim))
            view_52: "f32[6, 1, 32, 160]" = torch.ops.aten.view.default(add_25, [6, 1, 32, 160]);  add_25 = None
            
             # File: /home/liuyang/project/rvbisai/telechat_src/modeling_telechat.py:449 in forward, code: key_layer = key_layer.reshape((s_key, bz, head, dim))
            view_53: "f32[6, 1, 32, 160]" = torch.ops.aten.view.default(add_26, [6, 1, 32, 160]);  add_26 = None
            
             # File: /home/liuyang/project/rvbisai/telechat_src/modeling_telechat.py:458 in forward, code: query_layer = query_layer.reshape(s_query, bz * self.num_heads, dim)
            view_54: "f32[6, 32, 160]" = torch.ops.aten.view.default(view_52, [6, 32, 160]);  view_52 = None
            
             # File: /home/liuyang/project/rvbisai/telechat_src/modeling_telechat.py:460 in forward, code: key_layer = key_layer.reshape(s_key, bz * self.num_heads, dim)
            view_55: "f32[6, 32, 160]" = torch.ops.aten.view.default(view_53, [6, 32, 160]);  view_53 = None
            
             # File: /home/liuyang/project/rvbisai/telechat_src/modeling_telechat.py:461 in forward, code: matmul_result = self.inv_norm_factor * torch.einsum('bik,bkj->bij', query_layer.transpose(0, 1),
            transpose_21: "f32[32, 6, 160]" = torch.ops.aten.transpose.int(view_54, 0, 1);  view_54 = None
            
             # File: /home/liuyang/project/rvbisai/telechat_src/modeling_telechat.py:462 in forward, code: key_layer.transpose(0, 1).transpose(1, 2))
            transpose_22: "f32[32, 6, 160]" = torch.ops.aten.transpose.int(view_55, 0, 1);  view_55 = None
            transpose_23: "f32[32, 160, 6]" = torch.ops.aten.transpose.int(transpose_22, 1, 2);  transpose_22 = None
            
             # File: /home/liuyang/project/rvbisai/telechat_src/modeling_telechat.py:461 in forward, code: matmul_result = self.inv_norm_factor * torch.einsum('bik,bkj->bij', query_layer.transpose(0, 1),
            einsum_9: "f32[32, 6, 6]" = torch.ops.aten.einsum.default('bik,bkj->bij', [transpose_21, transpose_23]);  transpose_21 = transpose_23 = None
            mul_61: "f32[32, 6, 6]" = torch.ops.aten.mul.Tensor(einsum_9, 0.07905694150420949);  einsum_9 = None
            
             # File: /home/liuyang/project/rvbisai/telechat_src/modeling_telechat.py:464 in forward, code: attention_scores = matmul_result.view(bz, self.num_heads, s_query, s_key)
            view_56: "f32[1, 32, 6, 6]" = torch.ops.aten.view.default(mul_61, [1, 32, 6, 6]);  mul_61 = None
            
             # File: /home/liuyang/project/rvbisai/telechat_src/modeling_telechat.py:469 in forward, code: attn_weights = torch.masked_fill(attention_scores, attention_mask, torch.finfo(attention_scores.dtype).min)
            masked_fill_4: "f32[1, 32, 6, 6]" = torch.ops.aten.masked_fill.Scalar(view_56, or_1, -3.4028234663852886e+38);  view_56 = None
            
             # File: /home/liuyang/project/rvbisai/telechat_src/modeling_telechat.py:470 in forward, code: attention_probs = F.softmax(attn_weights, dim=-1).to(input_dtype)  ##dtype = torch.float32
            softmax_4: "f32[1, 32, 6, 6]" = torch.ops.aten.softmax.int(masked_fill_4, -1);  masked_fill_4 = None
            _to_copy_43: "f32[1, 32, 6, 6]" = torch.ops.aten._to_copy.default(softmax_4, dtype = torch.float32);  softmax_4 = None
            
             # File: /home/liuyang/project/rvbisai/telechat_src/modeling_telechat.py:471 in forward, code: attention_probs = self.attention_dropout(attention_probs)
            dropout_12: "f32[1, 32, 6, 6]" = torch.ops.aten.dropout.default(_to_copy_43, 0.0, False);  _to_copy_43 = None
            
             # File: /home/liuyang/project/rvbisai/telechat_src/modeling_telechat.py:472 in forward, code: attention_probs_reshaped = attention_probs.view(bz * self.num_heads, s_query, s_key)
            view_57: "f32[32, 6, 6]" = torch.ops.aten.view.default(dropout_12, [32, 6, 6]);  dropout_12 = None
            
             # File: /home/liuyang/project/rvbisai/telechat_src/modeling_telechat.py:474 in forward, code: value_layer = value_layer.reshape(s_key, bz * self.num_heads, dim)
            view_58: "f32[6, 32, 160]" = torch.ops.aten.view.default(getitem_9, [6, 32, 160]);  getitem_9 = None
            
             # File: /home/liuyang/project/rvbisai/telechat_src/modeling_telechat.py:475 in forward, code: context_layer = torch.bmm(attention_probs_reshaped, value_layer.transpose(0, 1))
            transpose_24: "f32[32, 6, 160]" = torch.ops.aten.transpose.int(view_58, 0, 1);  view_58 = None
            bmm_4: "f32[32, 6, 160]" = torch.ops.aten.bmm.default(view_57, transpose_24);  view_57 = transpose_24 = None
            
             # File: /home/liuyang/project/rvbisai/telechat_src/modeling_telechat.py:391 in _merge_heads, code: x = x.view(batch_size, self.num_heads, seq_length, self.head_dim)
            view_59: "f32[1, 32, 6, 160]" = torch.ops.aten.view.default(bmm_4, [1, 32, 6, 160]);  bmm_4 = None
            
             # File: /home/liuyang/project/rvbisai/telechat_src/modeling_telechat.py:392 in _merge_heads, code: x = x.permute(0, 2, 1, 3)
            permute_4: "f32[1, 6, 32, 160]" = torch.ops.aten.permute.default(view_59, [0, 2, 1, 3]);  view_59 = None
            
             # File: /home/liuyang/project/rvbisai/telechat_src/modeling_telechat.py:393 in _merge_heads, code: return x.reshape(batch_size, seq_length, self.num_heads * self.head_dim)
            clone_4: "f32[1, 6, 32, 160]" = torch.ops.aten.clone.default(permute_4, memory_format = torch.contiguous_format);  permute_4 = None
            _unsafe_view_4: "f32[1, 6, 5120]" = torch.ops.aten._unsafe_view.default(clone_4, [1, 6, 5120]);  clone_4 = None
            
             # File: /home/liuyang/project/rvbisai/telechat_src/modeling_telechat.py:478 in forward, code: output_tensor = self.dense(context_layer)
            linear_26: "f32[1, 6, 5120]" = torch.ops.aten.linear.default(_unsafe_view_4, p_h_4_self_attention_dense_weight, p_h_4_self_attention_dense_bias);  _unsafe_view_4 = p_h_4_self_attention_dense_weight = p_h_4_self_attention_dense_bias = None
            
             # File: /home/liuyang/project/rvbisai/telechat_src/modeling_telechat.py:258 in dropout_add, code: out = F.dropout(x, p=prob, training=training)
            dropout_13: "f32[1, 6, 5120]" = torch.ops.aten.dropout.default(linear_26, 0.0, False);  linear_26 = None
            
             # File: /home/liuyang/project/rvbisai/telechat_src/modeling_telechat.py:259 in dropout_add, code: out = residual + out
            add_27: "f32[1, 6, 5120]" = torch.ops.aten.add.Tensor(add_23, dropout_13);  add_23 = dropout_13 = None
            
             # File: /home/liuyang/project/rvbisai/telechat_src/modeling_telechat.py:146 in forward, code: hidden_states = hidden_states.to(torch.float32)
            _to_copy_44: "f32[1, 6, 5120]" = torch.ops.aten._to_copy.default(add_27, dtype = torch.float32)
            
             # File: /home/liuyang/project/rvbisai/telechat_src/modeling_telechat.py:147 in forward, code: variance = hidden_states.pow(2).mean(-1, keepdim=True)
            pow_15: "f32[1, 6, 5120]" = torch.ops.aten.pow.Tensor_Scalar(_to_copy_44, 2)
            mean_9: "f32[1, 6, 1]" = torch.ops.aten.mean.dim(pow_15, [-1], True);  pow_15 = None
            
             # File: /home/liuyang/project/rvbisai/telechat_src/modeling_telechat.py:148 in forward, code: hidden_states = hidden_states * torch.rsqrt(variance + self.variance_epsilon)
            add_28: "f32[1, 6, 1]" = torch.ops.aten.add.Tensor(mean_9, 1e-05);  mean_9 = None
            rsqrt_9: "f32[1, 6, 1]" = torch.ops.aten.rsqrt.default(add_28);  add_28 = None
            mul_62: "f32[1, 6, 5120]" = torch.ops.aten.mul.Tensor(_to_copy_44, rsqrt_9);  _to_copy_44 = rsqrt_9 = None
            
             # File: /home/liuyang/project/rvbisai/telechat_src/modeling_telechat.py:149 in forward, code: return self.weight * hidden_states.to(input_dtype)
            _to_copy_45: "f32[1, 6, 5120]" = torch.ops.aten._to_copy.default(mul_62, dtype = torch.float32);  mul_62 = None
            mul_63: "f32[1, 6, 5120]" = torch.ops.aten.mul.Tensor(p_h_4_post_attention_layernorm_weight, _to_copy_45);  p_h_4_post_attention_layernorm_weight = _to_copy_45 = None
            
             # File: /home/liuyang/project/rvbisai/telechat_src/modeling_telechat.py:499 in forward, code: intermediate_output = self.down_proj(F.silu(self.gate_proj(hidden_states)) * self.up_proj(hidden_states))
            linear_27: "f32[1, 6, 12288]" = torch.ops.aten.linear.default(mul_63, p_h_4_mlp_gate_proj_weight);  p_h_4_mlp_gate_proj_weight = None
            silu_4: "f32[1, 6, 12288]" = torch.ops.aten.silu.default(linear_27);  linear_27 = None
            linear_28: "f32[1, 6, 12288]" = torch.ops.aten.linear.default(mul_63, p_h_4_mlp_up_proj_weight);  mul_63 = p_h_4_mlp_up_proj_weight = None
            mul_64: "f32[1, 6, 12288]" = torch.ops.aten.mul.Tensor(silu_4, linear_28);  silu_4 = linear_28 = None
            linear_29: "f32[1, 6, 5120]" = torch.ops.aten.linear.default(mul_64, p_h_4_mlp_down_proj_weight, p_h_4_mlp_down_proj_bias);  mul_64 = p_h_4_mlp_down_proj_weight = p_h_4_mlp_down_proj_bias = None
            
             # File: /home/liuyang/project/rvbisai/telechat_src/modeling_telechat.py:258 in dropout_add, code: out = F.dropout(x, p=prob, training=training)
            dropout_14: "f32[1, 6, 5120]" = torch.ops.aten.dropout.default(linear_29, 0.0, False);  linear_29 = None
            
             # File: /home/liuyang/project/rvbisai/telechat_src/modeling_telechat.py:259 in dropout_add, code: out = residual + out
            add_29: "f32[1, 6, 5120]" = torch.ops.aten.add.Tensor(add_27, dropout_14);  add_27 = dropout_14 = None
            
             # File: /home/liuyang/project/rvbisai/telechat_src/modeling_telechat.py:146 in forward, code: hidden_states = hidden_states.to(torch.float32)
            _to_copy_46: "f32[1, 6, 5120]" = torch.ops.aten._to_copy.default(add_29, dtype = torch.float32)
            
             # File: /home/liuyang/project/rvbisai/telechat_src/modeling_telechat.py:147 in forward, code: variance = hidden_states.pow(2).mean(-1, keepdim=True)
            pow_16: "f32[1, 6, 5120]" = torch.ops.aten.pow.Tensor_Scalar(_to_copy_46, 2)
            mean_10: "f32[1, 6, 1]" = torch.ops.aten.mean.dim(pow_16, [-1], True);  pow_16 = None
            
             # File: /home/liuyang/project/rvbisai/telechat_src/modeling_telechat.py:148 in forward, code: hidden_states = hidden_states * torch.rsqrt(variance + self.variance_epsilon)
            add_30: "f32[1, 6, 1]" = torch.ops.aten.add.Tensor(mean_10, 1e-05);  mean_10 = None
            rsqrt_10: "f32[1, 6, 1]" = torch.ops.aten.rsqrt.default(add_30);  add_30 = None
            mul_65: "f32[1, 6, 5120]" = torch.ops.aten.mul.Tensor(_to_copy_46, rsqrt_10);  _to_copy_46 = rsqrt_10 = None
            
             # File: /home/liuyang/project/rvbisai/telechat_src/modeling_telechat.py:149 in forward, code: return self.weight * hidden_states.to(input_dtype)
            _to_copy_47: "f32[1, 6, 5120]" = torch.ops.aten._to_copy.default(mul_65, dtype = torch.float32);  mul_65 = None
            mul_66: "f32[1, 6, 5120]" = torch.ops.aten.mul.Tensor(p_h_5_input_layernorm_weight, _to_copy_47);  p_h_5_input_layernorm_weight = _to_copy_47 = None
            
             # File: /home/liuyang/project/rvbisai/telechat_src/modeling_telechat.py:404 in forward, code: hidden_states = hidden_states.transpose(1, 0)
            transpose_25: "f32[6, 1, 5120]" = torch.ops.aten.transpose.int(mul_66, 1, 0);  mul_66 = None
            
             # File: /home/liuyang/project/rvbisai/telechat_src/modeling_telechat.py:405 in forward, code: query_layer = self.query(hidden_states)
            linear_30: "f32[6, 1, 5120]" = torch.ops.aten.linear.default(transpose_25, p_h_5_self_attention_query_weight);  p_h_5_self_attention_query_weight = None
            
             # File: /home/liuyang/project/rvbisai/telechat_src/modeling_telechat.py:409 in forward, code: query_layer = query_layer.view(*new_tensor_shape)
            view_60: "f32[6, 1, 32, 160]" = torch.ops.aten.view.default(linear_30, [6, 1, 32, 160]);  linear_30 = None
            
             # File: /home/liuyang/project/rvbisai/telechat_src/modeling_telechat.py:411 in forward, code: mixed_kv_layer = self.key_value(hidden_states)
            linear_31: "f32[6, 1, 10240]" = torch.ops.aten.linear.default(transpose_25, p_h_5_self_attention_key_value_weight);  transpose_25 = p_h_5_self_attention_key_value_weight = None
            
             # File: /home/liuyang/project/rvbisai/telechat_src/modeling_telechat.py:415 in forward, code: mixed_kv_layer = mixed_kv_layer.view(*new_tensor_shape)
            view_61: "f32[6, 1, 32, 320]" = torch.ops.aten.view.default(linear_31, [6, 1, 32, 320]);  linear_31 = None
            
             # File: /home/liuyang/project/rvbisai/telechat_src/modeling_telechat.py:381 in split_tensor_along_last_dim, code: tensor_list = torch.split(tensor, last_dim_size, dim=last_dim)
            split_5 = torch.ops.aten.split.Tensor(view_61, 160, 3);  view_61 = None
            getitem_10: "f32[6, 1, 32, 160]" = split_5[0]
            getitem_11: "f32[6, 1, 32, 160]" = split_5[1];  split_5 = None
            
             # File: /home/liuyang/project/rvbisai/telechat_src/modeling_telechat.py:423 in forward, code: query_layer = query_layer.view(output_size[2], output_size[0] * output_size[1], -1)
            view_62: "f32[6, 32, 160]" = torch.ops.aten.view.default(view_60, [6, 32, -1]);  view_60 = None
            
             # File: /home/liuyang/project/rvbisai/telechat_src/modeling_telechat.py:424 in forward, code: key_layer = key_layer.view(output_size[3], output_size[0] * output_size[1], -1)
            view_63: "f32[6, 32, 160]" = torch.ops.aten.view.default(getitem_10, [6, 32, -1]);  getitem_10 = None
            
             # File: /home/liuyang/project/rvbisai/telechat_src/modeling_telechat.py:112 in forward, code: self.inv_freq = 1.0 / (base ** (torch.arange(0, self.dim, 2, device=x.device).float() / self.dim))
            arange_11: "i64[80]" = torch.ops.aten.arange.start_step(0, 160, 2, device = device(type='cpu'), pin_memory = False)
            _to_copy_48: "f32[80]" = torch.ops.aten._to_copy.default(arange_11, dtype = torch.float32);  arange_11 = None
            div_5: "f32[80]" = torch.ops.aten.div.Tensor(_to_copy_48, 160);  _to_copy_48 = None
            pow_17: "f32[80]" = torch.ops.aten.pow.Scalar(30420.108888514722, div_5);  div_5 = None
            reciprocal_5: "f32[80]" = torch.ops.aten.reciprocal.default(pow_17);  pow_17 = None
            mul_67: "f32[80]" = torch.ops.aten.mul.Tensor(reciprocal_5, 1.0);  reciprocal_5 = None
            
             # File: /home/liuyang/project/rvbisai/telechat_src/modeling_telechat.py:114 in forward, code: t = torch.arange(self.max_seq_len_cached, device=x.device, dtype=self.inv_freq.dtype)
            arange_12: "f32[8192]" = torch.ops.aten.arange.default(8192, dtype = torch.float32, device = device(type='cpu'), pin_memory = False)
            
             # File: /home/liuyang/project/rvbisai/telechat_src/modeling_telechat.py:115 in forward, code: freqs = torch.einsum('i,j->ij', t, self.inv_freq)
            einsum_10: "f32[8192, 80]" = torch.ops.aten.einsum.default('i,j->ij', [arange_12, mul_67]);  arange_12 = mul_67 = None
            
             # File: /home/liuyang/project/rvbisai/telechat_src/modeling_telechat.py:117 in forward, code: emb = torch.cat((freqs, freqs), dim=-1).to(x.device)
            cat_15: "f32[8192, 160]" = torch.ops.aten.cat.default([einsum_10, einsum_10], -1);  einsum_10 = None
            _to_copy_49: "f32[8192, 160]" = torch.ops.aten._to_copy.default(cat_15, dtype = torch.float32, layout = torch.strided, device = device(type='cpu'));  cat_15 = None
            
             # File: /home/liuyang/project/rvbisai/telechat_src/modeling_telechat.py:121 in forward, code: self.cos_cached = self.mscale * emb.cos()[:, None, :].to(dtype)
            cos_5: "f32[8192, 160]" = torch.ops.aten.cos.default(_to_copy_49)
            slice_64: "f32[8192, 160]" = torch.ops.aten.slice.Tensor(cos_5, 0, 0, 9223372036854775807);  cos_5 = None
            unsqueeze_18: "f32[8192, 1, 160]" = torch.ops.aten.unsqueeze.default(slice_64, 1);  slice_64 = None
            slice_65: "f32[8192, 1, 160]" = torch.ops.aten.slice.Tensor(unsqueeze_18, 2, 0, 9223372036854775807);  unsqueeze_18 = None
            _to_copy_50: "f32[8192, 1, 160]" = torch.ops.aten._to_copy.default(slice_65, dtype = torch.float32);  slice_65 = None
            mul_68: "f32[8192, 1, 160]" = torch.ops.aten.mul.Tensor(_to_copy_50, 1.0);  _to_copy_50 = None
            
             # File: /home/liuyang/project/rvbisai/telechat_src/modeling_telechat.py:122 in forward, code: self.sin_cached = self.mscale * emb.sin()[:, None, :].to(dtype)
            sin_5: "f32[8192, 160]" = torch.ops.aten.sin.default(_to_copy_49);  _to_copy_49 = None
            slice_66: "f32[8192, 160]" = torch.ops.aten.slice.Tensor(sin_5, 0, 0, 9223372036854775807);  sin_5 = None
            unsqueeze_19: "f32[8192, 1, 160]" = torch.ops.aten.unsqueeze.default(slice_66, 1);  slice_66 = None
            slice_67: "f32[8192, 1, 160]" = torch.ops.aten.slice.Tensor(unsqueeze_19, 2, 0, 9223372036854775807);  unsqueeze_19 = None
            _to_copy_51: "f32[8192, 1, 160]" = torch.ops.aten._to_copy.default(slice_67, dtype = torch.float32);  slice_67 = None
            mul_69: "f32[8192, 1, 160]" = torch.ops.aten.mul.Tensor(_to_copy_51, 1.0);  _to_copy_51 = None
            
             # File: /home/liuyang/project/rvbisai/telechat_src/modeling_telechat.py:123 in forward, code: return self.cos_cached[:seq_len, ...], self.sin_cached[:seq_len, ...]
            alias_10: "f32[8192, 1, 160]" = torch.ops.aten.alias.default(mul_68);  mul_68 = None
            alias_11: "f32[8192, 1, 160]" = torch.ops.aten.alias.default(mul_69);  mul_69 = None
            
             # File: /home/liuyang/project/rvbisai/telechat_src/modeling_telechat.py:133 in apply_rotary_pos_emb_torch, code: cos, sin = cos[offset:q.shape[0] + offset, ...], sin[offset:q.shape[0] + offset, ...]
            slice_68: "f32[6, 1, 160]" = torch.ops.aten.slice.Tensor(alias_10, 0, 0, 6);  alias_10 = None
            slice_69: "f32[6, 1, 160]" = torch.ops.aten.slice.Tensor(alias_11, 0, 0, 6);  alias_11 = None
            
             # File: /home/liuyang/project/rvbisai/telechat_src/modeling_telechat.py:134 in apply_rotary_pos_emb_torch, code: return (q * cos) + (rotate_half(q) * sin), (k * cos) + (rotate_half(k) * sin)
            mul_70: "f32[6, 32, 160]" = torch.ops.aten.mul.Tensor(view_62, slice_68)
            
             # File: /home/liuyang/project/rvbisai/telechat_src/modeling_telechat.py:128 in rotate_half, code: x1, x2 = x[..., :x.shape[-1] // 2], x[..., x.shape[-1] // 2:]
            slice_70: "f32[6, 32, 80]" = torch.ops.aten.slice.Tensor(view_62, 2, 0, 80)
            slice_71: "f32[6, 32, 80]" = torch.ops.aten.slice.Tensor(view_62, 2, 80, 9223372036854775807);  view_62 = None
            
             # File: /home/liuyang/project/rvbisai/telechat_src/modeling_telechat.py:129 in rotate_half, code: return torch.cat((-x2, x1), dim=x1.ndim - 1)  # dim=-1 triggers a bug in earlier torch versions
            neg_10: "f32[6, 32, 80]" = torch.ops.aten.neg.default(slice_71);  slice_71 = None
            cat_16: "f32[6, 32, 160]" = torch.ops.aten.cat.default([neg_10, slice_70], 2);  neg_10 = slice_70 = None
            
             # File: /home/liuyang/project/rvbisai/telechat_src/modeling_telechat.py:134 in apply_rotary_pos_emb_torch, code: return (q * cos) + (rotate_half(q) * sin), (k * cos) + (rotate_half(k) * sin)
            mul_71: "f32[6, 32, 160]" = torch.ops.aten.mul.Tensor(cat_16, slice_69);  cat_16 = None
            add_31: "f32[6, 32, 160]" = torch.ops.aten.add.Tensor(mul_70, mul_71);  mul_70 = mul_71 = None
            mul_72: "f32[6, 32, 160]" = torch.ops.aten.mul.Tensor(view_63, slice_68);  slice_68 = None
            
             # File: /home/liuyang/project/rvbisai/telechat_src/modeling_telechat.py:128 in rotate_half, code: x1, x2 = x[..., :x.shape[-1] // 2], x[..., x.shape[-1] // 2:]
            slice_72: "f32[6, 32, 80]" = torch.ops.aten.slice.Tensor(view_63, 2, 0, 80)
            slice_73: "f32[6, 32, 80]" = torch.ops.aten.slice.Tensor(view_63, 2, 80, 9223372036854775807);  view_63 = None
            
             # File: /home/liuyang/project/rvbisai/telechat_src/modeling_telechat.py:129 in rotate_half, code: return torch.cat((-x2, x1), dim=x1.ndim - 1)  # dim=-1 triggers a bug in earlier torch versions
            neg_11: "f32[6, 32, 80]" = torch.ops.aten.neg.default(slice_73);  slice_73 = None
            cat_17: "f32[6, 32, 160]" = torch.ops.aten.cat.default([neg_11, slice_72], 2);  neg_11 = slice_72 = None
            
             # File: /home/liuyang/project/rvbisai/telechat_src/modeling_telechat.py:134 in apply_rotary_pos_emb_torch, code: return (q * cos) + (rotate_half(q) * sin), (k * cos) + (rotate_half(k) * sin)
            mul_73: "f32[6, 32, 160]" = torch.ops.aten.mul.Tensor(cat_17, slice_69);  cat_17 = slice_69 = None
            add_32: "f32[6, 32, 160]" = torch.ops.aten.add.Tensor(mul_72, mul_73);  mul_72 = mul_73 = None
            
             # File: /home/liuyang/project/rvbisai/telechat_src/modeling_telechat.py:448 in forward, code: query_layer = query_layer.reshape((s_query, bz, head, dim))
            view_64: "f32[6, 1, 32, 160]" = torch.ops.aten.view.default(add_31, [6, 1, 32, 160]);  add_31 = None
            
             # File: /home/liuyang/project/rvbisai/telechat_src/modeling_telechat.py:449 in forward, code: key_layer = key_layer.reshape((s_key, bz, head, dim))
            view_65: "f32[6, 1, 32, 160]" = torch.ops.aten.view.default(add_32, [6, 1, 32, 160]);  add_32 = None
            
             # File: /home/liuyang/project/rvbisai/telechat_src/modeling_telechat.py:458 in forward, code: query_layer = query_layer.reshape(s_query, bz * self.num_heads, dim)
            view_66: "f32[6, 32, 160]" = torch.ops.aten.view.default(view_64, [6, 32, 160]);  view_64 = None
            
             # File: /home/liuyang/project/rvbisai/telechat_src/modeling_telechat.py:460 in forward, code: key_layer = key_layer.reshape(s_key, bz * self.num_heads, dim)
            view_67: "f32[6, 32, 160]" = torch.ops.aten.view.default(view_65, [6, 32, 160]);  view_65 = None
            
             # File: /home/liuyang/project/rvbisai/telechat_src/modeling_telechat.py:461 in forward, code: matmul_result = self.inv_norm_factor * torch.einsum('bik,bkj->bij', query_layer.transpose(0, 1),
            transpose_26: "f32[32, 6, 160]" = torch.ops.aten.transpose.int(view_66, 0, 1);  view_66 = None
            
             # File: /home/liuyang/project/rvbisai/telechat_src/modeling_telechat.py:462 in forward, code: key_layer.transpose(0, 1).transpose(1, 2))
            transpose_27: "f32[32, 6, 160]" = torch.ops.aten.transpose.int(view_67, 0, 1);  view_67 = None
            transpose_28: "f32[32, 160, 6]" = torch.ops.aten.transpose.int(transpose_27, 1, 2);  transpose_27 = None
            
             # File: /home/liuyang/project/rvbisai/telechat_src/modeling_telechat.py:461 in forward, code: matmul_result = self.inv_norm_factor * torch.einsum('bik,bkj->bij', query_layer.transpose(0, 1),
            einsum_11: "f32[32, 6, 6]" = torch.ops.aten.einsum.default('bik,bkj->bij', [transpose_26, transpose_28]);  transpose_26 = transpose_28 = None
            mul_74: "f32[32, 6, 6]" = torch.ops.aten.mul.Tensor(einsum_11, 0.07905694150420949);  einsum_11 = None
            
             # File: /home/liuyang/project/rvbisai/telechat_src/modeling_telechat.py:464 in forward, code: attention_scores = matmul_result.view(bz, self.num_heads, s_query, s_key)
            view_68: "f32[1, 32, 6, 6]" = torch.ops.aten.view.default(mul_74, [1, 32, 6, 6]);  mul_74 = None
            
             # File: /home/liuyang/project/rvbisai/telechat_src/modeling_telechat.py:469 in forward, code: attn_weights = torch.masked_fill(attention_scores, attention_mask, torch.finfo(attention_scores.dtype).min)
            masked_fill_5: "f32[1, 32, 6, 6]" = torch.ops.aten.masked_fill.Scalar(view_68, or_1, -3.4028234663852886e+38);  view_68 = None
            
             # File: /home/liuyang/project/rvbisai/telechat_src/modeling_telechat.py:470 in forward, code: attention_probs = F.softmax(attn_weights, dim=-1).to(input_dtype)  ##dtype = torch.float32
            softmax_5: "f32[1, 32, 6, 6]" = torch.ops.aten.softmax.int(masked_fill_5, -1);  masked_fill_5 = None
            _to_copy_52: "f32[1, 32, 6, 6]" = torch.ops.aten._to_copy.default(softmax_5, dtype = torch.float32);  softmax_5 = None
            
             # File: /home/liuyang/project/rvbisai/telechat_src/modeling_telechat.py:471 in forward, code: attention_probs = self.attention_dropout(attention_probs)
            dropout_15: "f32[1, 32, 6, 6]" = torch.ops.aten.dropout.default(_to_copy_52, 0.0, False);  _to_copy_52 = None
            
             # File: /home/liuyang/project/rvbisai/telechat_src/modeling_telechat.py:472 in forward, code: attention_probs_reshaped = attention_probs.view(bz * self.num_heads, s_query, s_key)
            view_69: "f32[32, 6, 6]" = torch.ops.aten.view.default(dropout_15, [32, 6, 6]);  dropout_15 = None
            
             # File: /home/liuyang/project/rvbisai/telechat_src/modeling_telechat.py:474 in forward, code: value_layer = value_layer.reshape(s_key, bz * self.num_heads, dim)
            view_70: "f32[6, 32, 160]" = torch.ops.aten.view.default(getitem_11, [6, 32, 160]);  getitem_11 = None
            
             # File: /home/liuyang/project/rvbisai/telechat_src/modeling_telechat.py:475 in forward, code: context_layer = torch.bmm(attention_probs_reshaped, value_layer.transpose(0, 1))
            transpose_29: "f32[32, 6, 160]" = torch.ops.aten.transpose.int(view_70, 0, 1);  view_70 = None
            bmm_5: "f32[32, 6, 160]" = torch.ops.aten.bmm.default(view_69, transpose_29);  view_69 = transpose_29 = None
            
…
.weight', persistent=None), InputSpec(kind=<InputKind.PARAMETER: 2>, arg=TensorArgument(name='p_h_33_post_attention_layernorm_weight'), target='h.33.post_attention_layernorm.weight', persistent=None), InputSpec(kind=<InputKind.PARAMETER: 2>, arg=TensorArgument(name='p_h_34_input_layernorm_weight'), target='h.34.input_layernorm.weight', persistent=None), InputSpec(kind=<InputKind.PARAMETER: 2>, arg=TensorArgument(name='p_h_34_post_attention_layernorm_weight'), target='h.34.post_attention_layernorm.weight', persistent=None), InputSpec(kind=<InputKind.PARAMETER: 2>, arg=TensorArgument(name='p_h_35_input_layernorm_weight'), target='h.35.input_layernorm.weight', persistent=None), InputSpec(kind=<InputKind.PARAMETER: 2>, arg=TensorArgument(name='p_h_35_post_attention_layernorm_weight'), target='h.35.post_attention_layernorm.weight', persistent=None), InputSpec(kind=<InputKind.PARAMETER: 2>, arg=TensorArgument(name='p_h_36_input_layernorm_weight'), target='h.36.input_layernorm.weight', persistent=None), InputSpec(kind=<InputKind.PARAMETER: 2>, arg=TensorArgument(name='p_h_36_post_attention_layernorm_weight'), target='h.36.post_attention_layernorm.weight', persistent=None), InputSpec(kind=<InputKind.PARAMETER: 2>, arg=TensorArgument(name='p_h_37_input_layernorm_weight'), target='h.37.input_layernorm.weight', persistent=None), InputSpec(kind=<InputKind.PARAMETER: 2>, arg=TensorArgument(name='p_h_37_post_attention_layernorm_weight'), target='h.37.post_attention_layernorm.weight', persistent=None), InputSpec(kind=<InputKind.PARAMETER: 2>, arg=TensorArgument(name='p_ln_f_weight'), target='ln_f.weight', persistent=None), InputSpec(kind=<InputKind.PARAMETER: 2>, arg=TensorArgument(name='p_word_embeddings_weight'), target='word_embeddings.weight', persistent=None), InputSpec(kind=<InputKind.PARAMETER: 2>, arg=TensorArgument(name='p_h_0_self_attention_query_weight'), target='h.0.self_attention.query.weight', persistent=None), InputSpec(kind=<InputKind.PARAMETER: 2>, arg=TensorArgument(name='p_h_0_self_attention_key_value_weight'), target='h.0.self_attention.key_value.weight', persistent=None), InputSpec(kind=<InputKind.PARAMETER: 2>, arg=TensorArgument(name='p_h_0_self_attention_dense_weight'), target='h.0.self_attention.dense.weight', persistent=None), InputSpec(kind=<InputKind.PARAMETER: 2>, arg=TensorArgument(name='p_h_0_self_attention_dense_bias'), target='h.0.self_attention.dense.bias', persistent=None), InputSpec(kind=<InputKind.PARAMETER: 2>, arg=TensorArgument(name='p_h_0_mlp_gate_proj_weight'), target='h.0.mlp.gate_proj.weight', persistent=None), InputSpec(kind=<InputKind.PARAMETER: 2>, arg=TensorArgument(name='p_h_0_mlp_up_proj_weight'), target='h.0.mlp.up_proj.weight', persistent=None), InputSpec(kind=<InputKind.PARAMETER: 2>, arg=TensorArgument(name='p_h_0_mlp_down_proj_weight'), target='h.0.mlp.down_proj.weight', persistent=None), InputSpec(kind=<InputKind.PARAMETER: 2>, arg=TensorArgument(name='p_h_0_mlp_down_proj_bias'), target='h.0.mlp.down_proj.bias', persistent=None), InputSpec(kind=<InputKind.PARAMETER: 2>, arg=TensorArgument(name='p_h_1_self_attention_query_weight'), target='h.1.self_attention.query.weight', persistent=None), InputSpec(kind=<InputKind.PARAMETER: 2>, arg=TensorArgument(name='p_h_1_self_attention_key_value_weight'), target='h.1.self_attention.key_value.weight', persistent=None), InputSpec(kind=<InputKind.PARAMETER: 2>, arg=TensorArgument(name='p_h_1_self_attention_dense_weight'), target='h.1.self_attention.dense.weight', persistent=None), InputSpec(kind=<InputKind.PARAMETER: 2>, arg=TensorArgument(name='p_h_1_self_attention_dense_bias'), target='h.1.self_attention.dense.bias', persistent=None), InputSpec(kind=<InputKind.PARAMETER: 2>, arg=TensorArgument(name='p_h_1_mlp_gate_proj_weight'), target='h.1.mlp.gate_proj.weight', persistent=None), InputSpec(kind=<InputKind.PARAMETER: 2>, arg=TensorArgument(name='p_h_1_mlp_up_proj_weight'), target='h.1.mlp.up_proj.weight', persistent=None), InputSpec(kind=<InputKind.PARAMETER: 2>, arg=TensorArgument(name='p_h_1_mlp_down_proj_weight'), target='h.1.mlp.down_proj.weight', persistent=None), InputSpec(kind=<InputKind.PARAMETER: 2>, arg=TensorArgument(name='p_h_1_mlp_down_proj_bias'), target='h.1.mlp.down_proj.bias', persistent=None), InputSpec(kind=<InputKind.PARAMETER: 2>, arg=TensorArgument(name='p_h_2_self_attention_query_weight'), target='h.2.self_attention.query.weight', persistent=None), InputSpec(kind=<InputKind.PARAMETER: 2>, arg=TensorArgument(name='p_h_2_self_attention_key_value_weight'), target='h.2.self_attention.key_value.weight', persistent=None), InputSpec(kind=<InputKind.PARAMETER: 2>, arg=TensorArgument(name='p_h_2_self_attention_dense_weight'), target='h.2.self_attention.dense.weight', persistent=None), InputSpec(kind=<InputKind.PARAMETER: 2>, arg=TensorArgument(name='p_h_2_self_attention_dense_bias'), target='h.2.self_attention.dense.bias', persistent=None), InputSpec(kind=<InputKind.PARAMETER: 2>, arg=TensorArgument(name='p_h_2_mlp_gate_proj_weight'), target='h.2.mlp.gate_proj.weight', persistent=None), InputSpec(kind=<InputKind.PARAMETER: 2>, arg=TensorArgument(name='p_h_2_mlp_up_proj_weight'), target='h.2.mlp.up_proj.weight', persistent=None), InputSpec(kind=<InputKind.PARAMETER: 2>, arg=TensorArgument(name='p_h_2_mlp_down_proj_weight'), target='h.2.mlp.down_proj.weight', persistent=None), InputSpec(kind=<InputKind.PARAMETER: 2>, arg=TensorArgument(name='p_h_2_mlp_down_proj_bias'), target='h.2.mlp.down_proj.bias', persistent=None), InputSpec(kind=<InputKind.PARAMETER: 2>, arg=TensorArgument(name='p_h_3_self_attention_query_weight'), target='h.3.self_attention.query.weight', persistent=None), InputSpec(kind=<InputKind.PARAMETER: 2>, arg=TensorArgument(name='p_h_3_self_attention_key_value_weight'), target='h.3.self_attention.key_value.weight', persistent=None), InputSpec(kind=<InputKind.PARAMETER: 2>, arg=TensorArgument(name='p_h_3_self_attention_dense_weight'), target='h.3.self_attention.dense.weight', persistent=None), InputSpec(kind=<InputKind.PARAMETER: 2>, arg=TensorArgument(name='p_h_3_self_attention_dense_bias'), target='h.3.self_attention.dense.bias', persistent=None), InputSpec(kind=<InputKind.PARAMETER: 2>, arg=TensorArgument(name='p_h_3_mlp_gate_proj_weight'), target='h.3.mlp.gate_proj.weight', persistent=None), InputSpec(kind=<InputKind.PARAMETER: 2>, arg=TensorArgument(name='p_h_3_mlp_up_proj_weight'), target='h.3.mlp.up_proj.weight', persistent=None), InputSpec(kind=<InputKind.PARAMETER: 2>, arg=TensorArgument(name='p_h_3_mlp_down_proj_weight'), target='h.3.mlp.down_proj.weight', persistent=None), InputSpec(kind=<InputKind.PARAMETER: 2>, arg=TensorArgument(name='p_h_3_mlp_down_proj_bias'), target='h.3.mlp.down_proj.bias', persistent=None), InputSpec(kind=<InputKind.PARAMETER: 2>, arg=TensorArgument(name='p_h_4_self_attention_query_weight'), target='h.4.self_attention.query.weight', persistent=None), InputSpec(kind=<InputKind.PARAMETER: 2>, arg=TensorArgument(name='p_h_4_self_attention_key_value_weight'), target='h.4.self_attention.key_value.weight', persistent=None), InputSpec(kind=<InputKind.PARAMETER: 2>, arg=TensorArgument(name='p_h_4_self_attention_dense_weight'), target='h.4.self_attention.dense.weight', persistent=None), InputSpec(kind=<InputKind.PARAMETER: 2>, arg=TensorArgument(name='p_h_4_self_attention_dense_bias'), target='h.4.self_attention.dense.bias', persistent=None), InputSpec(kind=<InputKind.PARAMETER: 2>, arg=TensorArgument(name='p_h_4_mlp_gate_proj_weight'), target='h.4.mlp.gate_proj.weight', persistent=None), InputSpec(kind=<InputKind.PARAMETER: 2>, arg=TensorArgument(name='p_h_4_mlp_up_proj_weight'), target='h.4.mlp.up_proj.weight', persistent=None), InputSpec(kind=<InputKind.PARAMETER: 2>, arg=TensorArgument(name='p_h_4_mlp_down_proj_weight'), target='h.4.mlp.down_proj.weight', persistent=None), InputSpec(kind=<InputKind.PARAMETER: 2>, arg=TensorArgument(name='p_h_4_mlp_down_proj_bias'), target='h.4.mlp.down_proj.bias', persistent=None), InputSpec(kind=<InputKind.PARAMETER: 2>, arg=TensorArgument(name='p_h_5_self_attention_query_weight'), target='h.5.self_attention.query.weight', persistent=None), InputSpec(kind=<InputKind.PARAMETER: 2>, arg=TensorArgument(name='p_h_5_self_attention_key_value_weight'), target='h.5.self_attention.key_value.weight', persistent=None), InputSpec(kind=<InputKind.PARAMETER: 2>, arg=TensorArgument(name='p_h_5_self_attention_dense_weight'), target='h.5.self_attention.dense.weight', persistent=None), InputSpec(kind=<InputKind.PARAMETER: 2>, arg=TensorArgument(name='p_h_5_self_attention_dense_bias'), target='h.5.self_attention.dense.bias', persistent=None), InputSpec(kind=<InputKind.PARAMETER: 2>, arg=TensorArgument(name='p_h_5_mlp_gate_proj_weight'), target='h.5.mlp.gate_proj.weight', persistent=None), InputSpec(kind=<InputKind.PARAMETER: 2>, arg=TensorArgument(name='p_h_5_mlp_up_proj_weight'), target='h.5.mlp.up_proj.weight', persistent=None), InputSpec(kind=<InputKind.PARAMETER: 2>, arg=TensorArgument(name='p_h_5_mlp_down_proj_weight'), target='h.5.mlp.down_proj.weight', persistent=None), InputSpec(kind=<InputKind.PARAMETER: 2>, arg=TensorArgument(name='p_h_5_mlp_down_proj_bias'), target='h.5.mlp.down_proj.bias', persistent=None), InputSpec(kind=<InputKind.PARAMETER: 2>, arg=TensorArgument(name='p_h_6_self_attention_query_weight'), target='h.6.self_attention.query.weight', persistent=None), InputSpec(kind=<InputKind.PARAMETER: 2>, arg=TensorArgument(name='p_h_6_self_attention_key_value_weight'), target='h.6.self_attention.key_value.weight', persistent=None), InputSpec(kind=<InputKind.PARAMETER: 2>, arg=TensorArgument(name='p_h_6_self_attention_dense_weight'), target='h.6.self_attention.dense.weight', persistent=None), InputSpec(kind=<InputKind.PARAMETER: 2>, arg=TensorArgument(name='p_h_6_self_attention_dense_bias'), target='h.6.self_attention.dense.bias', persistent=None), InputSpec(kind=<InputKind.PARAMETER: 2>, arg=TensorArgument(name='p_h_6_mlp_gate_proj_weight'), target='h.6.mlp.gate_proj.weight', persistent=None), InputSpec(kind=<InputKind.PARAMETER: 2>, arg=TensorArgument(name='p_h_6_mlp_up_proj_weight'), target='h.6.mlp.up_proj.weight', persistent=None), InputSpec(kind=<InputKind.PARAMETER: 2>, arg=TensorArgument(name='p_h_6_mlp_down_proj_weight'), target='h.6.mlp.down_proj.weight', persistent=None), InputSpec(kind=<InputKind.PARAMETER: 2>, arg=TensorArgument(name='p_h_6_mlp_down_proj_bias'), target='h.6.mlp.down_proj.bias', persistent=None), InputSpec(kind=<InputKind.PARAMETER: 2>, arg=TensorArgument(name='p_h_7_self_attention_query_weight'), target='h.7.self_attention.query.weight', persistent=None), InputSpec(kind=<InputKind.PARAMETER: 2>, arg=TensorArgument(name='p_h_7_self_attention_key_value_weight'), target='h.7.self_attention.key_value.weight', persistent=None), InputSpec(kind=<InputKind.PARAMETER: 2>, arg=TensorArgument(name='p_h_7_self_attention_dense_weight'), target='h.7.self_attention.dense.weight', persistent=None), InputSpec(kind=<InputKind.PARAMETER: 2>, arg=TensorArgument(name='p_h_7_self_attention_dense_bias'), target='h.7.self_attention.dense.bias', persistent=None), InputSpec(kind=<InputKind.PARAMETER: 2>, arg=TensorArgument(name='p_h_7_mlp_gate_proj_weight'), target='h.7.mlp.gate_proj.weight', persistent=None), InputSpec(kind=<InputKind.PARAMETER: 2>, arg=TensorArgument(name='p_h_7_mlp_up_proj_weight'), target='h.7.mlp.up_proj.weight', persistent=None), InputSpec(kind=<InputKind.PARAMETER: 2>, arg=TensorArgument(name='p_h_7_mlp_down_proj_weight'), target='h.7.mlp.down_proj.weight', persistent=None), InputSpec(kind=<InputKind.PARAMETER: 2>, arg=TensorArgument(name='p_h_7_mlp_down_proj_bias'), target='h.7.mlp.down_proj.bias', persistent=None), InputSpec(kind=<InputKind.PARAMETER: 2>, arg=TensorArgument(name='p_h_8_self_attention_query_weight'), target='h.8.self_attention.query.weight', persistent=None), InputSpec(kind=<InputKind.PARAMETER: 2>, arg=TensorArgument(name='p_h_8_self_attention_key_value_weight'), target='h.8.self_attention.key_value.weight', persistent=None), InputSpec(kind=<InputKind.PARAMETER: 2>, arg=TensorArgument(name='p_h_8_self_attention_dense_weight'), target='h.8.self_attention.dense.weight', persistent=None), InputSpec(kind=<InputKind.PARAMETER: 2>, arg=TensorArgument(name='p_h_8_self_attention_dense_bias'), target='h.8.self_attention.dense.bias', persistent=None), InputSpec(kind=<InputKind.PARAMETER: 2>, arg=TensorArgument(name='p_h_8_mlp_gate_proj_weight'), target='h.8.mlp.gate_proj.weight', persistent=None), InputSpec(kind=<InputKind.PARAMETER: 2>, arg=TensorArgument(name='p_h_8_mlp_up_proj_weight'), target='h.8.mlp.up_proj.weight', persistent=None), InputSpec(kind=<InputKind.PARAMETER: 2>, arg=TensorArgument(name='p_h_8_mlp_down_proj_weight'), target='h.8.mlp.down_proj.weight', persistent=None), InputSpec(kind=<InputKind.PARAMETER: 2>, arg=TensorArgument(name='p_h_8_mlp_down_proj_bias'), target='h.8.mlp.down_proj.bias', persistent=None), InputSpec(kind=<InputKind.PARAMETER: 2>, arg=TensorArgument(name='p_h_9_self_attention_query_weight'), target='h.9.self_attention.query.weight', persistent=None), InputSpec(kind=<InputKind.PARAMETER: 2>, arg=TensorArgument(name='p_h_9_self_attention_key_value_weight'), target='h.9.self_attention.key_value.weight', persistent=None), InputSpec(kind=<InputKind.PARAMETER: 2>, arg=TensorArgument(name='p_h_9_self_attention_dense_weight'), target='h.9.self_attention.dense.weight', persistent=None), InputSpec(kind=<InputKind.PARAMETER: 2>, arg=TensorArgument(name='p_h_9_self_attention_dense_bias'), target='h.9.self_attention.dense.bias', persistent=None), InputSpec(kind=<InputKind.PARAMETER: 2>, arg=TensorArgument(name='p_h_9_mlp_gate_proj_weight'), target='h.9.mlp.gate_proj.weight', persistent=None), InputSpec(kind=<InputKind.PARAMETER: 2>, arg=TensorArgument(name='p_h_9_mlp_up_proj_weight'), target='h.9.mlp.up_proj.weight', persistent=None), InputSpec(kind=<InputKind.PARAMETER: 2>, arg=TensorArgument(name='p_h_9_mlp_down_proj_weight'), target='h.9.mlp.down_proj.weight', persistent=None), InputSpec(kind=<InputKind.PARAMETER: 2>, arg=TensorArgument(name='p_h_9_mlp_down_proj_bias'), target='h.9.mlp.down_proj.bias', persistent=None), InputSpec(kind=<InputKind.PARAMETER: 2>, arg=TensorArgument(name='p_h_10_self_attention_query_weight'), target='h.10.self_attention.query.weight', persistent=None), InputSpec(kind=<InputKind.PARAMETER: 2>, arg=TensorArgument(name='p_h_10_self_attention_key_value_weight'), target='h.10.self_attention.key_value.weight', persistent=None), InputSpec(kind=<InputKind.PARAMETER: 2>, arg=TensorArgument(name='p_h_10_self_attention_dense_weight'), target='h.10.self_attention.dense.weight', persistent=None), InputSpec(kind=<InputKind.PARAMETER: 2>, arg=TensorArgument(name='p_h_10_self_attention_dense_bias'), target='h.10.self_attention.dense.bias', persistent=None), InputSpec(kind=<InputKind.PARAMETER: 2>, arg=TensorArgument(name='p_h_10_mlp_gate_proj_weight'), target='h.10.mlp.gate_proj.weight', persistent=None), InputSpec(kind=<InputKind.PARAMETER: 2>, arg=TensorArgument(name='p_h_10_mlp_up_proj_weight'), target='h.10.mlp.up_proj.weight', persistent=None), InputSpec(kind=<InputKind.PARAMETER: 2>, arg=TensorArgument(name='p_h_10_mlp_down_proj_weight'), target='h.10.mlp.down_proj.weight', persistent=None), InputSpec(kind=<InputKind.PARAMETER: 2>, arg=TensorArgument(name='p_h_10_mlp_down_proj_bias'), target='h.10.mlp.down_proj.bias', persistent=None), InputSpec(kind=<InputKind.PARAMETER: 2>, arg=TensorArgument(name='p_h_11_self_attention_query_weight'), target='h.11.self_attention.query.weight', persistent=None), InputSpec(kind=<InputKind.PARAMETER: 2>, arg=TensorArgument(name='p_h_11_self_attention_key_value_weight'), target='h.11.self_attention.key_value.weight', persistent=None), InputSpec(kind=<InputKind.PARAMETER: 2>, arg=TensorArgument(name='p_h_11_self_attention_dense_weight'), target='h.11.self_attention.dense.weight', persistent=None), InputSpec(kind=<InputKind.PARAMETER: 2>, arg=TensorArgument(name='p_h_11_self_attention_dense_bias'), target='h.11.self_attention.dense.bias', persistent=None), InputSpec(kind=<InputKind.PARAMETER: 2>, arg=TensorArgument(name='p_h_11_mlp_gate_proj_weight'), target='h.11.mlp.gate_proj.weight', persistent=None), InputSpec(kind=<InputKind.PARAMETER: 2>, arg=TensorArgument(name='p_h_11_mlp_up_proj_weight'), target='h.11.mlp.up_proj.weight', persistent=None), InputSpec(kind=<InputKind.PARAMETER: 2>, arg=TensorArgument(name='p_h_11_mlp_down_proj_weight'), target='h.11.mlp.down_proj.weight', persistent=None), InputSpec(kind=<InputKind.PARAMETER: 2>, arg=TensorArgument(name='p_h_11_mlp_down_proj_bias'), target='h.11.mlp.down_proj.bias', persistent=None), InputSpec(kind=<InputKind.PARAMETER: 2>, arg=TensorArgument(name='p_h_12_self_attention_query_weight'), target='h.12.self_attention.query.weight', persistent=None), InputSpec(kind=<InputKind.PARAMETER: 2>, arg=TensorArgument(name='p_h_12_self_attention_key_value_weight'), target='h.12.self_attention.key_value.weight', persistent=None), InputSpec(kind=<InputKind.PARAMETER: 2>, arg=TensorArgument(name='p_h_12_self_attention_dense_weight'), target='h.12.self_attention.dense.weight', persistent=None), InputSpec(kind=<InputKind.PARAMETER: 2>, arg=TensorArgument(name='p_h_12_self_attention_dense_bias'), target='h.12.self_attention.dense.bias', persistent=None), InputSpec(kind=<InputKind.PARAMETER: 2>, arg=TensorArgument(name='p_h_12_mlp_gate_proj_weight'), target='h.12.mlp.gate_proj.weight', persistent=None), InputSpec(kind=<InputKind.PARAMETER: 2>, arg=TensorArgument(name='p_h_12_mlp_up_proj_weight'), target='h.12.mlp.up_proj.weight', persistent=None), InputSpec(kind=<InputKind.PARAMETER: 2>, arg=TensorArgument(name='p_h_12_mlp_down_proj_weight'), target='h.12.mlp.down_proj.weight', persistent=None), InputSpec(kind=<InputKind.PARAMETER: 2>, arg=TensorArgument(name='p_h_12_mlp_down_proj_bias'), target='h.12.mlp.down_proj.bias', persistent=None), InputSpec(kind=<InputKind.PARAMETER: 2>, arg=TensorArgument(name='p_h_13_self_attention_query_weight'), target='h.13.self_attention.query.weight', persistent=None), InputSpec(kind=<InputKind.PARAMETER: 2>, arg=TensorArgument(name='p_h_13_self_attention_key_value_weight'), target='h.13.self_attention.key_value.weight', persistent=None), InputSpec(kind=<InputKind.PARAMETER: 2>, arg=TensorArgument(name='p_h_13_self_attention_dense_weight'), target='h.13.self_attention.dense.weight', persistent=None), InputSpec(kind=<InputKind.PARAMETER: 2>, arg=TensorArgument(name='p_h_13_self_attention_dense_bias'), target='h.13.self_attention.dense.bias', persistent=None), InputSpec(kind=<InputKind.PARAMETER: 2>, arg=TensorArgument(name='p_h_13_mlp_gate_proj_weight'), target='h.13.mlp.gate_proj.weight', persistent=None), InputSpec(kind=<InputKind.PARAMETER: 2>, arg=TensorArgument(name='p_h_13_mlp_up_proj_weight'), target='h.13.mlp.up_proj.weight', persistent=None), InputSpec(kind=<InputKind.PARAMETER: 2>, arg=TensorArgument(name='p_h_13_mlp_down_proj_weight'), target='h.13.mlp.down_proj.weight', persistent=None), InputSpec(kind=<InputKind.PARAMETER: 2>, arg=TensorArgument(name='p_h_13_mlp_down_proj_bias'), target='h.13.mlp.down_proj.bias', persistent=None), InputSpec(kind=<InputKind.PARAMETER: 2>, arg=TensorArgument(name='p_h_14_self_attention_query_weight'), target='h.14.self_attention.query.weight', persistent=None), InputSpec(kind=<InputKind.PARAMETER: 2>, arg=TensorArgument(name='p_h_14_self_attention_key_value_weight'), target='h.14.self_attention.key_value.weight', persistent=None), InputSpec(kind=<InputKind.PARAMETER: 2>, arg=TensorArgument(name='p_h_14_self_attention_dense_weight'), target='h.14.self_attention.dense.weight', persistent=None), InputSpec(kind=<InputKind.PARAMETER: 2>, arg=TensorArgument(name='p_h_14_self_attention_dense_bias'), target='h.14.self_attention.dense.bias', persistent=None), InputSpec(kind=<InputKind.PARAMETER: 2>, arg=TensorArgument(name='p_h_14_mlp_gate_proj_weight'), target='h.14.mlp.gate_proj.weight', persistent=None), InputSpec(kind=<InputKind.PARAMETER: 2>, arg=TensorArgument(name='p_h_14_mlp_up_proj_weight'), target='h.14.mlp.up_proj.weight', persistent=None), InputSpec(kind=<InputKind.PARAMETER: 2>, arg=TensorArgument(name='p_h_14_mlp_down_proj_weight'), target='h.14.mlp.down_proj.weight', persistent=None), InputSpec(kind=<InputKind.PARAMETER: 2>, arg=TensorArgument(name='p_h_14_mlp_down_proj_bias'), target='h.14.mlp.down_proj.bias', persistent=None), InputSpec(kind=<InputKind.PARAMETER: 2>, arg=TensorArgument(name='p_h_15_self_attention_query_weight'), target='h.15.self_attention.query.weight', persistent=None), InputSpec(kind=<InputKind.PARAMETER: 2>, arg=TensorArgument(name='p_h_15_self_attention_key_value_weight'), target='h.15.self_attention.key_value.weight', persistent=None), InputSpec(kind=<InputKind.PARAMETER: 2>, arg=TensorArgument(name='p_h_15_self_attention_dense_weight'), target='h.15.self_attention.dense.weight', persistent=None), InputSpec(kind=<InputKind.PARAMETER: 2>, arg=TensorArgument(name='p_h_15_self_attention_dense_bias'), target='h.15.self_attention.dense.bias', persistent=None), InputSpec(kind=<InputKind.PARAMETER: 2>, arg=TensorArgument(name='p_h_15_mlp_gate_proj_weight'), target='h.15.mlp.gate_proj.weight', persistent=None), InputSpec(kind=<InputKind.PARAMETER: 2>, arg=TensorArgument(name='p_h_15_mlp_up_proj_weight'), target='h.15.mlp.up_proj.weight', persistent=None), InputSpec(kind=<InputKind.PARAMETER: 2>, arg=TensorArgument(name='p_h_15_mlp_down_proj_weight'), target='h.15.mlp.down_proj.weight', persistent=None), InputSpec(kind=<InputKind.PARAMETER: 2>, arg=TensorArgument(name='p_h_15_mlp_down_proj_bias'), target='h.15.mlp.down_proj.bias', persistent=None), InputSpec(kind=<InputKind.PARAMETER: 2>, arg=TensorArgument(name='p_h_16_self_attention_query_weight'), target='h.16.self_attention.query.weight', persistent=None), InputSpec(kind=<InputKind.PARAMETER: 2>, arg=TensorArgument(name='p_h_16_self_attention_key_value_weight'), target='h.16.self_attention.key_value.weight', persistent=None), InputSpec(kind=<InputKind.PARAMETER: 2>, arg=TensorArgument(name='p_h_16_self_attention_dense_weight'), target='h.16.self_attention.dense.weight', persistent=None), InputSpec(kind=<InputKind.PARAMETER: 2>, arg=TensorArgument(name='p_h_16_self_attention_dense_bias'), target='h.16.self_attention.dense.bias', persistent=None), InputSpec(kind=<InputKind.PARAMETER: 2>, arg=TensorArgument(name='p_h_16_mlp_gate_proj_weight'), target='h.16.mlp.gate_proj.weight', persistent=None), InputSpec(kind=<InputKind.PARAMETER: 2>, arg=TensorArgument(name='p_h_16_mlp_up_proj_weight'), target='h.16.mlp.up_proj.weight', persistent=None), InputSpec(kind=<InputKind.PARAMETER: 2>, arg=TensorArgument(name='p_h_16_mlp_down_proj_weight'), target='h.16.mlp.down_proj.weight', persistent=None), InputSpec(kind=<InputKind.PARAMETER: 2>, arg=TensorArgument(name='p_h_16_mlp_down_proj_bias'), target='h.16.mlp.down_proj.bias', persistent=None), InputSpec(kind=<InputKind.PARAMETER: 2>, arg=TensorArgument(name='p_h_17_self_attention_query_weight'), target='h.17.self_attention.query.weight', persistent=None), InputSpec(kind=<InputKind.PARAMETER: 2>, arg=TensorArgument(name='p_h_17_self_attention_key_value_weight'), target='h.17.self_attention.key_value.weight', persistent=None), InputSpec(kind=<InputKind.PARAMETER: 2>, arg=TensorArgument(name='p_h_17_self_attention_dense_weight'), target='h.17.self_attention.dense.weight', persistent=None), InputSpec(kind=<InputKind.PARAMETER: 2>, arg=TensorArgument(name='p_h_17_self_attention_dense_bias'), target='h.17.self_attention.dense.bias', persistent=None), InputSpec(kind=<InputKind.PARAMETER: 2>, arg=TensorArgument(name='p_h_17_mlp_gate_proj_weight'), target='h.17.mlp.gate_proj.weight', persistent=None), InputSpec(kind=<InputKind.PARAMETER: 2>, arg=TensorArgument(name='p_h_17_mlp_up_proj_weight'), target='h.17.mlp.up_proj.weight', persistent=None), InputSpec(kind=<InputKind.PARAMETER: 2>, arg=TensorArgument(name='p_h_17_mlp_down_proj_weight'), target='h.17.mlp.down_proj.weight', persistent=None), InputSpec(kind=<InputKind.PARAMETER: 2>, arg=TensorArgument(name='p_h_17_mlp_down_proj_bias'), target='h.17.mlp.down_proj.bias', persistent=None), InputSpec(kind=<InputKind.PARAMETER: 2>, arg=TensorArgument(name='p_h_18_self_attention_query_weight'), target='h.18.self_attention.query.weight', persistent=None), InputSpec(kind=<InputKind.PARAMETER: 2>, arg=TensorArgument(name='p_h_18_self_attention_key_value_weight'), target='h.18.self_attention.key_value.weight', persistent=None), InputSpec(kind=<InputKind.PARAMETER: 2>, arg=TensorArgument(name='p_h_18_self_attention_dense_weight'), target='h.18.self_attention.dense.weight', persistent=None), InputSpec(kind=<InputKind.PARAMETER: 2>, arg=TensorArgument(name='p_h_18_self_attention_dense_bias'), target='h.18.self_attention.dense.bias', persistent=None), InputSpec(kind=<InputKind.PARAMETER: 2>, arg=TensorArgument(name='p_h_18_mlp_gate_proj_weight'), target='h.18.mlp.gate_proj.weight', persistent=None), InputSpec(kind=<InputKind.PARAMETER: 2>, arg=TensorArgument(name='p_h_18_mlp_up_proj_weight'), target='h.18.mlp.up_proj.weight', persistent=None), InputSpec(kind=<InputKind.PARAMETER: 2>, arg=TensorArgument(name='p_h_18_mlp_down_proj_weight'), target='h.18.mlp.down_proj.weight', persistent=None), InputSpec(kind=<InputKind.PARAMETER: 2>, arg=TensorArgument(name='p_h_18_mlp_down_proj_bias'), target='h.18.mlp.down_proj.bias', persistent=None), InputSpec(kind=<InputKind.PARAMETER: 2>, arg=TensorArgument(name='p_h_19_self_attention_query_weight'), target='h.19.self_attention.query.weight', persistent=None), InputSpec(kind=<InputKind.PARAMETER: 2>, arg=TensorArgument(name='p_h_19_self_attention_key_value_weight'), target='h.19.self_attention.key_value.weight', persistent=None), InputSpec(kind=<InputKind.PARAMETER: 2>, arg=TensorArgument(name='p_h_19_self_attention_dense_weight'), target='h.19.self_attention.dense.weight', persistent=None), InputSpec(kind=<InputKind.PARAMETER: 2>, arg=TensorArgument(name='p_h_19_self_attention_dense_bias'), target='h.19.self_attention.dense.bias', persistent=None), InputSpec(kind=<InputKind.PARAMETER: 2>, arg=TensorArgument(name='p_h_19_mlp_gate_proj_weight'), target='h.19.mlp.gate_proj.weight', persistent=None), InputSpec(kind=<InputKind.PARAMETER: 2>, arg=TensorArgument(name='p_h_19_mlp_up_proj_weight'), target='h.19.mlp.up_proj.weight', persistent=None), InputSpec(kind=<InputKind.PARAMETER: 2>, arg=TensorArgument(name='p_h_19_mlp_down_proj_weight'), target='h.19.mlp.down_proj.weight', persistent=None), InputSpec(kind=<InputKind.PARAMETER: 2>, arg=TensorArgument(name='p_h_19_mlp_down_proj_bias'), target='h.19.mlp.down_proj.bias', persistent=None), InputSpec(kind=<InputKind.PARAMETER: 2>, arg=TensorArgument(name='p_h_20_self_attention_query_weight'), target='h.20.self_attention.query.weight', persistent=None), InputSpec(kind=<InputKind.PARAMETER: 2>, arg=TensorArgument(name='p_h_20_self_attention_key_value_weight'), target='h.20.self_attention.key_value.weight', persistent=None), InputSpec(kind=<InputKind.PARAMETER: 2>, arg=TensorArgument(name='p_h_20_self_attention_dense_weight'), target='h.20.self_attention.dense.weight', persistent=None), InputSpec(kind=<InputKind.PARAMETER: 2>, arg=TensorArgument(name='p_h_20_self_attention_dense_bias'), target='h.20.self_attention.dense.bias', persistent=None), InputSpec(kind=<InputKind.PARAMETER: 2>, arg=TensorArgument(name='p_h_20_mlp_gate_proj_weight'), target='h.20.mlp.gate_proj.weight', persistent=None), InputSpec(kind=<InputKind.PARAMETER: 2>, arg=TensorArgument(name='p_h_20_mlp_up_proj_weight'), target='h.20.mlp.up_proj.weight', persistent=None), InputSpec(kind=<InputKind.PARAMETER: 2>, arg=TensorArgument(name='p_h_20_mlp_down_proj_weight'), target='h.20.mlp.down_proj.weight', persistent=None), InputSpec(kind=<InputKind.PARAMETER: 2>, arg=TensorArgument(name='p_h_20_mlp_down_proj_bias'), target='h.20.mlp.down_proj.bias', persistent=None), InputSpec(kind=<InputKind.PARAMETER: 2>, arg=TensorArgument(name='p_h_21_self_attention_query_weight'), target='h.21.self_attention.query.weight', persistent=None), InputSpec(kind=<InputKind.PARAMETER: 2>, arg=TensorArgument(name='p_h_21_self_attention_key_value_weight'), target='h.21.self_attention.key_value.weight', persistent=None), InputSpec(kind=<InputKind.PARAMETER: 2>, arg=TensorArgument(name='p_h_21_self_attention_dense_weight'), target='h.21.self_attention.dense.weight', persistent=None), InputSpec(kind=<InputKind.PARAMETER: 2>, arg=TensorArgument(name='p_h_21_self_attention_dense_bias'), target='h.21.self_attention.dense.bias', persistent=None), InputSpec(kind=<InputKind.PARAMETER: 2>, arg=TensorArgument(name='p_h_21_mlp_gate_proj_weight'), target='h.21.mlp.gate_proj.weight', persistent=None), InputSpec(kind=<InputKind.PARAMETER: 2>, arg=TensorArgument(name='p_h_21_mlp_up_proj_weight'), target='h.21.mlp.up_proj.weight', persistent=None), InputSpec(kind=<InputKind.PARAMETER: 2>, arg=TensorArgument(name='p_h_21_mlp_down_proj_weight'), target='h.21.mlp.down_proj.weight', persistent=None), InputSpec(kind=<InputKind.PARAMETER: 2>, arg=TensorArgument(name='p_h_21_mlp_down_proj_bias'), target='h.21.mlp.down_proj.bias', persistent=None), InputSpec(kind=<InputKind.PARAMETER: 2>, arg=TensorArgument(name='p_h_22_self_attention_query_weight'), target='h.22.self_attention.query.weight', persistent=None), InputSpec(kind=<InputKind.PARAMETER: 2>, arg=TensorArgument(name='p_h_22_self_attention_key_value_weight'), target='h.22.self_attention.key_value.weight', persistent=None), InputSpec(kind=<InputKind.PARAMETER: 2>, arg=TensorArgument(name='p_h_22_self_attention_dense_weight'), target='h.22.self_attention.dense.weight', persistent=None), InputSpec(kind=<InputKind.PARAMETER: 2>, arg=TensorArgument(name='p_h_22_self_attention_dense_bias'), target='h.22.self_attention.dense.bias', persistent=None), InputSpec(kind=<InputKind.PARAMETER: 2>, arg=TensorArgument(name='p_h_22_mlp_gate_proj_weight'), target='h.22.mlp.gate_proj.weight', persistent=None), InputSpec(kind=<InputKind.PARAMETER: 2>, arg=TensorArgument(name='p_h_22_mlp_up_proj_weight'), target='h.22.mlp.up_proj.weight', persistent=None), InputSpec(kind=<InputKind.PARAMETER: 2>, arg=TensorArgument(name='p_h_22_mlp_down_proj_weight'), target='h.22.mlp.down_proj.weight', persistent=None), InputSpec(kind=<InputKind.PARAMETER: 2>, arg=TensorArgument(name='p_h_22_mlp_down_proj_bias'), target='h.22.mlp.down_proj.bias', persistent=None), InputSpec(kind=<InputKind.PARAMETER: 2>, arg=TensorArgument(name='p_h_23_self_attention_query_weight'), target='h.23.self_attention.query.weight', persistent=None), InputSpec(kind=<InputKind.PARAMETER: 2>, arg=TensorArgument(name='p_h_23_self_attention_key_value_weight'), target='h.23.self_attention.key_value.weight', persistent=None), InputSpec(kind=<InputKind.PARAMETER: 2>, arg=TensorArgument(name='p_h_23_self_attention_dense_weight'), target='h.23.self_attention.dense.weight', persistent=None), InputSpec(kind=<InputKind.PARAMETER: 2>, arg=TensorArgument(name='p_h_23_self_attention_dense_bias'), target='h.23.self_attention.dense.bias', persistent=None), InputSpec(kind=<InputKind.PARAMETER: 2>, arg=TensorArgument(name='p_h_23_mlp_gate_proj_weight'), target='h.23.mlp.gate_proj.weight', persistent=None), InputSpec(kind=<InputKind.PARAMETER: 2>, arg=TensorArgument(name='p_h_23_mlp_up_proj_weight'), target='h.23.mlp.up_proj.weight', persistent=None), InputSpec(kind=<InputKind.PARAMETER: 2>, arg=TensorArgument(name='p_h_23_mlp_down_proj_weight'), target='h.23.mlp.down_proj.weight', persistent=None), InputSpec(kind=<InputKind.PARAMETER: 2>, arg=TensorArgument(name='p_h_23_mlp_down_proj_bias'), target='h.23.mlp.down_proj.bias', persistent=None), InputSpec(kind=<InputKind.PARAMETER: 2>, arg=TensorArgument(name='p_h_24_self_attention_query_weight'), target='h.24.self_attention.query.weight', persistent=None), InputSpec(kind=<InputKind.PARAMETER: 2>, arg=TensorArgument(name='p_h_24_self_attention_key_value_weight'), target='h.24.self_attention.key_value.weight', persistent=None), InputSpec(kind=<InputKind.PARAMETER: 2>, arg=TensorArgument(name='p_h_24_self_attention_dense_weight'), target='h.24.self_attention.dense.weight', persistent=None), InputSpec(kind=<InputKind.PARAMETER: 2>, arg=TensorArgument(name='p_h_24_self_attention_dense_bias'), target='h.24.self_attention.dense.bias', persistent=None), InputSpec(kind=<InputKind.PARAMETER: 2>, arg=TensorArgument(name='p_h_24_mlp_gate_proj_weight'), target='h.24.mlp.gate_proj.weight', persistent=None), InputSpec(kind=<InputKind.PARAMETER: 2>, arg=TensorArgument(name='p_h_24_mlp_up_proj_weight'), target='h.24.mlp.up_proj.weight', persistent=None), InputSpec(kind=<InputKind.PARAMETER: 2>, arg=TensorArgument(name='p_h_24_mlp_down_proj_weight'), target='h.24.mlp.down_proj.weight', persistent=None), InputSpec(kind=<InputKind.PARAMETER: 2>, arg=TensorArgument(name='p_h_24_mlp_down_proj_bias'), target='h.24.mlp.down_proj.bias', persistent=None), InputSpec(kind=<InputKind.PARAMETER: 2>, arg=TensorArgument(name='p_h_25_self_attention_query_weight'), target='h.25.self_attention.query.weight', persistent=None), InputSpec(kind=<InputKind.PARAMETER: 2>, arg=TensorArgument(name='p_h_25_self_attention_key_value_weight'), target='h.25.self_attention.key_value.weight', persistent=None), InputSpec(kind=<InputKind.PARAMETER: 2>, arg=TensorArgument(name='p_h_25_self_attention_dense_weight'), target='h.25.self_attention.dense.weight', persistent=None), InputSpec(kind=<InputKind.PARAMETER: 2>, arg=TensorArgument(name='p_h_25_self_attention_dense_bias'), target='h.25.self_attention.dense.bias', persistent=None), InputSpec(kind=<InputKind.PARAMETER: 2>, arg=TensorArgument(name='p_h_25_mlp_gate_proj_weight'), target='h.25.mlp.gate_proj.weight', persistent=None), InputSpec(kind=<InputKind.PARAMETER: 2>, arg=TensorArgument(name='p_h_25_mlp_up_proj_weight'), target='h.25.mlp.up_proj.weight', persistent=None), InputSpec(kind=<InputKind.PARAMETER: 2>, arg=TensorArgument(name='p_h_25_mlp_down_proj_weight'), target='h.25.mlp.down_proj.weight', persistent=None), InputSpec(kind=<InputKind.PARAMETER: 2>, arg=TensorArgument(name='p_h_25_mlp_down_proj_bias'), target='h.25.mlp.down_proj.bias', persistent=None), InputSpec(kind=<InputKind.PARAMETER: 2>, arg=TensorArgument(name='p_h_26_self_attention_query_weight'), target='h.26.self_attention.query.weight', persistent=None), InputSpec(kind=<InputKind.PARAMETER: 2>, arg=TensorArgument(name='p_h_26_self_attention_key_value_weight'), target='h.26.self_attention.key_value.weight', persistent=None), InputSpec(kind=<InputKind.PARAMETER: 2>, arg=TensorArgument(name='p_h_26_self_attention_dense_weight'), target='h.26.self_attention.dense.weight', persistent=None), InputSpec(kind=<InputKind.PARAMETER: 2>, arg=TensorArgument(name='p_h_26_self_attention_dense_bias'), target='h.26.self_attention.dense.bias', persistent=None), InputSpec(kind=<InputKind.PARAMETER: 2>, arg=TensorArgument(name='p_h_26_mlp_gate_proj_weight'), target='h.26.mlp.gate_proj.weight', persistent=None), InputSpec(kind=<InputKind.PARAMETER: 2>, arg=TensorArgument(name='p_h_26_mlp_up_proj_weight'), target='h.26.mlp.up_proj.weight', persistent=None), InputSpec(kind=<InputKind.PARAMETER: 2>, arg=TensorArgument(name='p_h_26_mlp_down_proj_weight'), target='h.26.mlp.down_proj.weight', persistent=None), InputSpec(kind=<InputKind.PARAMETER: 2>, arg=TensorArgument(name='p_h_26_mlp_down_proj_bias'), target='h.26.mlp.down_proj.bias', persistent=None), InputSpec(kind=<InputKind.PARAMETER: 2>, arg=TensorArgument(name='p_h_27_self_attention_query_weight'), target='h.27.self_attention.query.weight', persistent=None), InputSpec(kind=<InputKind.PARAMETER: 2>, arg=TensorArgument(name='p_h_27_self_attention_key_value_weight'), target='h.27.self_attention.key_value.weight', persistent=None), InputSpec(kind=<InputKind.PARAMETER: 2>, arg=TensorArgument(name='p_h_27_self_attention_dense_weight'), target='h.27.self_attention.dense.weight', persistent=None), InputSpec(kind=<InputKind.PARAMETER: 2>, arg=TensorArgument(name='p_h_27_self_attention_dense_bias'), target='h.27.self_attention.dense.bias', persistent=None), InputSpec(kind=<InputKind.PARAMETER: 2>, arg=TensorArgument(name='p_h_27_mlp_gate_proj_weight'), target='h.27.mlp.gate_proj.weight', persistent=None), InputSpec(kind=<InputKind.PARAMETER: 2>, arg=TensorArgument(name='p_h_27_mlp_up_proj_weight'), target='h.27.mlp.up_proj.weight', persistent=None), InputSpec(kind=<InputKind.PARAMETER: 2>, arg=TensorArgument(name='p_h_27_mlp_down_proj_weight'), target='h.27.mlp.down_proj.weight', persistent=None), InputSpec(kind=<InputKind.PARAMETER: 2>, arg=TensorArgument(name='p_h_27_mlp_down_proj_bias'), target='h.27.mlp.down_proj.bias', persistent=None), InputSpec(kind=<InputKind.PARAMETER: 2>, arg=TensorArgument(name='p_h_28_self_attention_query_weight'), target='h.28.self_attention.query.weight', persistent=None), InputSpec(kind=<InputKind.PARAMETER: 2>, arg=TensorArgument(name='p_h_28_self_attention_key_value_weight'), target='h.28.self_attention.key_value.weight', persistent=None), InputSpec(kind=<InputKind.PARAMETER: 2>, arg=TensorArgument(name='p_h_28_self_attention_dense_weight'), target='h.28.self_attention.dense.weight', persistent=None), InputSpec(kind=<InputKind.PARAMETER: 2>, arg=TensorArgument(name='p_h_28_self_attention_dense_bias'), target='h.28.self_attention.dense.bias', persistent=None), InputSpec(kind=<InputKind.PARAMETER: 2>, arg=TensorArgument(name='p_h_28_mlp_gate_proj_weight'), target='h.28.mlp.gate_proj.weight', persistent=None), InputSpec(kind=<InputKind.PARAMETER: 2>, arg=TensorArgument(name='p_h_28_mlp_up_proj_weight'), target='h.28.mlp.up_proj.weight', persistent=None), InputSpec(kind=<InputKind.PARAMETER: 2>, arg=TensorArgument(name='p_h_28_mlp_down_proj_weight'), target='h.28.mlp.down_proj.weight', persistent=None), InputSpec(kind=<InputKind.PARAMETER: 2>, arg=TensorArgument(name='p_h_28_mlp_down_proj_bias'), target='h.28.mlp.down_proj.bias', persistent=None), InputSpec(kind=<InputKind.PARAMETER: 2>, arg=TensorArgument(name='p_h_29_self_attention_query_weight'), target='h.29.self_attention.query.weight', persistent=None), InputSpec(kind=<InputKind.PARAMETER: 2>, arg=TensorArgument(name='p_h_29_self_attention_key_value_weight'), target='h.29.self_attention.key_value.weight', persistent=None), InputSpec(kind=<InputKind.PARAMETER: 2>, arg=TensorArgument(name='p_h_29_self_attention_dense_weight'), target='h.29.self_attention.dense.weight', persistent=None), InputSpec(kind=<InputKind.PARAMETER: 2>, arg=TensorArgument(name='p_h_29_self_attention_dense_bias'), target='h.29.self_attention.dense.bias', persistent=None), InputSpec(kind=<InputKind.PARAMETER: 2>, arg=TensorArgument(name='p_h_29_mlp_gate_proj_weight'), target='h.29.mlp.gate_proj.weight', persistent=None), InputSpec(kind=<InputKind.PARAMETER: 2>, arg=TensorArgument(name='p_h_29_mlp_up_proj_weight'), target='h.29.mlp.up_proj.weight', persistent=None), InputSpec(kind=<InputKind.PARAMETER: 2>, arg=TensorArgument(name='p_h_29_mlp_down_proj_weight'), target='h.29.mlp.down_proj.weight', persistent=None), InputSpec(kind=<InputKind.PARAMETER: 2>, arg=TensorArgument(name='p_h_29_mlp_down_proj_bias'), target='h.29.mlp.down_proj.bias', persistent=None), InputSpec(kind=<InputKind.PARAMETER: 2>, arg=TensorArgument(name='p_h_30_self_attention_query_weight'), target='h.30.self_attention.query.weight', persistent=None), InputSpec(kind=<InputKind.PARAMETER: 2>, arg=TensorArgument(name='p_h_30_self_attention_key_value_weight'), target='h.30.self_attention.key_value.weight', persistent=None), InputSpec(kind=<InputKind.PARAMETER: 2>, arg=TensorArgument(name='p_h_30_self_attention_dense_weight'), target='h.30.self_attention.dense.weight', persistent=None), InputSpec(kind=<InputKind.PARAMETER: 2>, arg=TensorArgument(name='p_h_30_self_attention_dense_bias'), target='h.30.self_attention.dense.bias', persistent=None), InputSpec(kind=<InputKind.PARAMETER: 2>, arg=TensorArgument(name='p_h_30_mlp_gate_proj_weight'), target='h.30.mlp.gate_proj.weight', persistent=None), InputSpec(kind=<InputKind.PARAMETER: 2>, arg=TensorArgument(name='p_h_30_mlp_up_proj_weight'), target='h.30.mlp.up_proj.weight', persistent=None), InputSpec(kind=<InputKind.PARAMETER: 2>, arg=TensorArgument(name='p_h_30_mlp_down_proj_weight'), target='h.30.mlp.down_proj.weight', persistent=None), InputSpec(kind=<InputKind.PARAMETER: 2>, arg=TensorArgument(name='p_h_30_mlp_down_proj_bias'), target='h.30.mlp.down_proj.bias', persistent=None), InputSpec(kind=<InputKind.PARAMETER: 2>, arg=TensorArgument(name='p_h_31_self_attention_query_weight'), target='h.31.self_attention.query.weight', persistent=None), InputSpec(kind=<InputKind.PARAMETER: 2>, arg=TensorArgument(name='p_h_31_self_attention_key_value_weight'), target='h.31.self_attention.key_value.weight', persistent=None), InputSpec(kind=<InputKind.PARAMETER: 2>, arg=TensorArgument(name='p_h_31_self_attention_dense_weight'), target='h.31.self_attention.dense.weight', persistent=None), InputSpec(kind=<InputKind.PARAMETER: 2>, arg=TensorArgument(name='p_h_31_self_attention_dense_bias'), target='h.31.self_attention.dense.bias', persistent=None), InputSpec(kind=<InputKind.PARAMETER: 2>, arg=TensorArgument(name='p_h_31_mlp_gate_proj_weight'), target='h.31.mlp.gate_proj.weight', persistent=None), InputSpec(kind=<InputKind.PARAMETER: 2>, arg=TensorArgument(name='p_h_31_mlp_up_proj_weight'), target='h.31.mlp.up_proj.weight', persistent=None), InputSpec(kind=<InputKind.PARAMETER: 2>, arg=TensorArgument(name='p_h_31_mlp_down_proj_weight'), target='h.31.mlp.down_proj.weight', persistent=None), InputSpec(kind=<InputKind.PARAMETER: 2>, arg=TensorArgument(name='p_h_31_mlp_down_proj_bias'), target='h.31.mlp.down_proj.bias', persistent=None), InputSpec(kind=<InputKind.PARAMETER: 2>, arg=TensorArgument(name='p_h_32_self_attention_query_weight'), target='h.32.self_attention.query.weight', persistent=None), InputSpec(kind=<InputKind.PARAMETER: 2>, arg=TensorArgument(name='p_h_32_self_attention_key_value_weight'), target='h.32.self_attention.key_value.weight', persistent=None), InputSpec(kind=<InputKind.PARAMETER: 2>, arg=TensorArgument(name='p_h_32_self_attention_dense_weight'), target='h.32.self_attention.dense.weight', persistent=None), InputSpec(kind=<InputKind.PARAMETER: 2>, arg=TensorArgument(name='p_h_32_self_attention_dense_bias'), target='h.32.self_attention.dense.bias', persistent=None), InputSpec(kind=<InputKind.PARAMETER: 2>, arg=TensorArgument(name='p_h_32_mlp_gate_proj_weight'), target='h.32.mlp.gate_proj.weight', persistent=None), InputSpec(kind=<InputKind.PARAMETER: 2>, arg=TensorArgument(name='p_h_32_mlp_up_proj_weight'), target='h.32.mlp.up_proj.weight', persistent=None), InputSpec(kind=<InputKind.PARAMETER: 2>, arg=TensorArgument(name='p_h_32_mlp_down_proj_weight'), target='h.32.mlp.down_proj.weight', persistent=None), InputSpec(kind=<InputKind.PARAMETER: 2>, arg=TensorArgument(name='p_h_32_mlp_down_proj_bias'), target='h.32.mlp.down_proj.bias', persistent=None), InputSpec(kind=<InputKind.PARAMETER: 2>, arg=TensorArgument(name='p_h_33_self_attention_query_weight'), target='h.33.self_attention.query.weight', persistent=None), InputSpec(kind=<InputKind.PARAMETER: 2>, arg=TensorArgument(name='p_h_33_self_attention_key_value_weight'), target='h.33.self_attention.key_value.weight', persistent=None), InputSpec(kind=<InputKind.PARAMETER: 2>, arg=TensorArgument(name='p_h_33_self_attention_dense_weight'), target='h.33.self_attention.dense.weight', persistent=None), InputSpec(kind=<InputKind.PARAMETER: 2>, arg=TensorArgument(name='p_h_33_self_attention_dense_bias'), target='h.33.self_attention.dense.bias', persistent=None), InputSpec(kind=<InputKind.PARAMETER: 2>, arg=TensorArgument(name='p_h_33_mlp_gate_proj_weight'), target='h.33.mlp.gate_proj.weight', persistent=None), InputSpec(kind=<InputKind.PARAMETER: 2>, arg=TensorArgument(name='p_h_33_mlp_up_proj_weight'), target='h.33.mlp.up_proj.weight', persistent=None), InputSpec(kind=<InputKind.PARAMETER: 2>, arg=TensorArgument(name='p_h_33_mlp_down_proj_weight'), target='h.33.mlp.down_proj.weight', persistent=None), InputSpec(kind=<InputKind.PARAMETER: 2>, arg=TensorArgument(name='p_h_33_mlp_down_proj_bias'), target='h.33.mlp.down_proj.bias', persistent=None), InputSpec(kind=<InputKind.PARAMETER: 2>, arg=TensorArgument(name='p_h_34_self_attention_query_weight'), target='h.34.self_attention.query.weight', persistent=None), InputSpec(kind=<InputKind.PARAMETER: 2>, arg=TensorArgument(name='p_h_34_self_attention_key_value_weight'), target='h.34.self_attention.key_value.weight', persistent=None), InputSpec(kind=<InputKind.PARAMETER: 2>, arg=TensorArgument(name='p_h_34_self_attention_dense_weight'), target='h.34.self_attention.dense.weight', persistent=None), InputSpec(kind=<InputKind.PARAMETER: 2>, arg=TensorArgument(name='p_h_34_self_attention_dense_bias'), target='h.34.self_attention.dense.bias', persistent=None), InputSpec(kind=<InputKind.PARAMETER: 2>, arg=TensorArgument(name='p_h_34_mlp_gate_proj_weight'), target='h.34.mlp.gate_proj.weight', persistent=None), InputSpec(kind=<InputKind.PARAMETER: 2>, arg=TensorArgument(name='p_h_34_mlp_up_proj_weight'), target='h.34.mlp.up_proj.weight', persistent=None), InputSpec(kind=<InputKind.PARAMETER: 2>, arg=TensorArgument(name='p_h_34_mlp_down_proj_weight'), target='h.34.mlp.down_proj.weight', persistent=None), InputSpec(kind=<InputKind.PARAMETER: 2>, arg=TensorArgument(name='p_h_34_mlp_down_proj_bias'), target='h.34.mlp.down_proj.bias', persistent=None), InputSpec(kind=<InputKind.PARAMETER: 2>, arg=TensorArgument(name='p_h_35_self_attention_query_weight'), target='h.35.self_attention.query.weight', persistent=None), InputSpec(kind=<InputKind.PARAMETER: 2>, arg=TensorArgument(name='p_h_35_self_attention_key_value_weight'), target='h.35.self_attention.key_value.weight', persistent=None), InputSpec(kind=<InputKind.PARAMETER: 2>, arg=TensorArgument(name='p_h_35_self_attention_dense_weight'), target='h.35.self_attention.dense.weight', persistent=None), InputSpec(kind=<InputKind.PARAMETER: 2>, arg=TensorArgument(name='p_h_35_self_attention_dense_bias'), target='h.35.self_attention.dense.bias', persistent=None), InputSpec(kind=<InputKind.PARAMETER: 2>, arg=TensorArgument(name='p_h_35_mlp_gate_proj_weight'), target='h.35.mlp.gate_proj.weight', persistent=None), InputSpec(kind=<InputKind.PARAMETER: 2>, arg=TensorArgument(name='p_h_35_mlp_up_proj_weight'), target='h.35.mlp.up_proj.weight', persistent=None), InputSpec(kind=<InputKind.PARAMETER: 2>, arg=TensorArgument(name='p_h_35_mlp_down_proj_weight'), target='h.35.mlp.down_proj.weight', persistent=None), InputSpec(kind=<InputKind.PARAMETER: 2>, arg=TensorArgument(name='p_h_35_mlp_down_proj_bias'), target='h.35.mlp.down_proj.bias', persistent=None), InputSpec(kind=<InputKind.PARAMETER: 2>, arg=TensorArgument(name='p_h_36_self_attention_query_weight'), target='h.36.self_attention.query.weight', persistent=None), InputSpec(kind=<InputKind.PARAMETER: 2>, arg=TensorArgument(name='p_h_36_self_attention_key_value_weight'), target='h.36.self_attention.key_value.weight', persistent=None), InputSpec(kind=<InputKind.PARAMETER: 2>, arg=TensorArgument(name='p_h_36_self_attention_dense_weight'), target='h.36.self_attention.dense.weight', persistent=None), InputSpec(kind=<InputKind.PARAMETER: 2>, arg=TensorArgument(name='p_h_36_self_attention_dense_bias'), target='h.36.self_attention.dense.bias', persistent=None), InputSpec(kind=<InputKind.PARAMETER: 2>, arg=TensorArgument(name='p_h_36_mlp_gate_proj_weight'), target='h.36.mlp.gate_proj.weight', persistent=None), InputSpec(kind=<InputKind.PARAMETER: 2>, arg=TensorArgument(name='p_h_36_mlp_up_proj_weight'), target='h.36.mlp.up_proj.weight', persistent=None), InputSpec(kind=<InputKind.PARAMETER: 2>, arg=TensorArgument(name='p_h_36_mlp_down_proj_weight'), target='h.36.mlp.down_proj.weight', persistent=None), InputSpec(kind=<InputKind.PARAMETER: 2>, arg=TensorArgument(name='p_h_36_mlp_down_proj_bias'), target='h.36.mlp.down_proj.bias', persistent=None), InputSpec(kind=<InputKind.PARAMETER: 2>, arg=TensorArgument(name='p_h_37_self_attention_query_weight'), target='h.37.self_attention.query.weight', persistent=None), InputSpec(kind=<InputKind.PARAMETER: 2>, arg=TensorArgument(name='p_h_37_self_attention_key_value_weight'), target='h.37.self_attention.key_value.weight', persistent=None), InputSpec(kind=<InputKind.PARAMETER: 2>, arg=TensorArgument(name='p_h_37_self_attention_dense_weight'), target='h.37.self_attention.dense.weight', persistent=None), InputSpec(kind=<InputKind.PARAMETER: 2>, arg=TensorArgument(name='p_h_37_self_attention_dense_bias'), target='h.37.self_attention.dense.bias', persistent=None), InputSpec(kind=<InputKind.PARAMETER: 2>, arg=TensorArgument(name='p_h_37_mlp_gate_proj_weight'), target='h.37.mlp.gate_proj.weight', persistent=None), InputSpec(kind=<InputKind.PARAMETER: 2>, arg=TensorArgument(name='p_h_37_mlp_up_proj_weight'), target='h.37.mlp.up_proj.weight', persistent=None), InputSpec(kind=<InputKind.PARAMETER: 2>, arg=TensorArgument(name='p_h_37_mlp_down_proj_weight'), target='h.37.mlp.down_proj.weight', persistent=None), InputSpec(kind=<InputKind.PARAMETER: 2>, arg=TensorArgument(name='p_h_37_mlp_down_proj_bias'), target='h.37.mlp.down_proj.bias', persistent=None), InputSpec(kind=<InputKind.CONSTANT_TENSOR: 4>, arg=TensorArgument(name='c_lifted_tensor_0'), target='lifted_tensor_0', persistent=None), InputSpec(kind=<InputKind.USER_INPUT: 1>, arg=TensorArgument(name='input_ids'), target=None, persistent=None), InputSpec(kind=<InputKind.USER_INPUT: 1>, arg=TensorArgument(name='past_key_values'), target=None, persistent=None)], output_specs=[OutputSpec(kind=<OutputKind.USER_OUTPUT: 1>, arg=TensorArgument(name='mul_495'), target=None)])
Range constraints: {}

