module {
  func.func private @printMemrefF16(tensor<*xf16>)
  func.func private @Telechat(%arg0: tensor<1x40xi32>) -> tensor<1x40x120000xf16> {
    %0 = "mix.module.embedding"(%arg0) <{dtype = f16, embedding_dim = 5120 : i32, num_embeddings = 120000 : i32, params_loc = "transformer.word_embeddings"}> : (tensor<1x40xi32>) -> tensor<1x40x5120xf16>
    %1 = "mix.prim.constant"() <{value = dense<[0, 1, 2, 3, 4, 5, 6, 7, 8, 9, 10, 11, 12, 13, 14, 15, 16, 17, 18, 19, 20, 21, 22, 23, 24, 25, 26, 27, 28, 29, 30, 31, 32, 33, 34, 35, 36, 37, 38, 39]> : tensor<40xi16>}> : () -> tensor<40xi16>
    %2 = "mix.prim.slice"(%1) <{dim = 0 : i64, end = 9223372036854775807 : i64, start = 0 : i64, step = 1 : i64}> : (tensor<40xi16>) -> tensor<40xi16>
    %3 = "mix.prim.unsqueeze"(%2) <{axis = 1 : i32}> : (tensor<40xi16>) -> tensor<40x1xi16>
    %4 = "mix.prim.unsqueeze"(%1) <{axis = 0 : i32}> : (tensor<40xi16>) -> tensor<1x40xi16>
    %5 = "mix.prim.slice"(%4) <{dim = 1 : i64, end = 9223372036854775807 : i64, start = 0 : i64, step = 1 : i64}> : (tensor<1x40xi16>) -> tensor<1x40xi16>
    %6 = "mix.prim.lt"(%3, %5) : (tensor<40x1xi16>, tensor<1x40xi16>) -> tensor<40x40xi1>
    %7 = "mix.prim.constant"() <{value = dense<true> : tensor<40x0xi1>}> : () -> tensor<40x0xi1>
    %8 = "mix.prim.constant"() <{value = dense<true> : tensor<0x40xi1>}> : () -> tensor<0x40xi1>
    %9 = "mix.prim.constant"() <{value = dense<true> : tensor<0x0xi1>}> : () -> tensor<0x0xi1>
    %10 = "mix.prim.concat"(%6, %7) <{axis = 1 : i64}> : (tensor<40x40xi1>, tensor<40x0xi1>) -> tensor<40x40xi1>
    %11 = "mix.prim.concat"(%8, %9) <{axis = 1 : i64}> : (tensor<0x40xi1>, tensor<0x0xi1>) -> tensor<0x40xi1>
    %12 = "mix.prim.concat"(%10, %11) <{axis = 0 : i64}> : (tensor<40x40xi1>, tensor<0x40xi1>) -> tensor<40x40xi1>
    %13 = "mix.prim.unsqueeze"(%12) <{axis = 0 : i32}> : (tensor<40x40xi1>) -> tensor<1x40x40xi1>
    %14 = "mix.prim.unsqueeze"(%13) <{axis = 0 : i32}> : (tensor<1x40x40xi1>) -> tensor<1x1x40x40xi1>
    %15 = "mix.comp.weight"() <{param_loc = "transformer.h.0.input_layernorm.weight"}> : () -> tensor<5120xf16>
    %16 = "mix.prim.constant"() <{value = dense<1.000000e+00> : tensor<1xf16>}> : () -> tensor<1xf16>
    %17 = "mix.prim.pow"(%0, %16) : (tensor<1x40x5120xf16>, tensor<1xf16>) -> tensor<1x40x5120xf16>
    %18 = "mix.comp.mean"(%17) <{dims = [2 : i32], keepDim = true}> : (tensor<1x40x5120xf16>) -> tensor<1x40x1xf16>
    %19 = "mix.prim.constant"() <{value = 1.013280e-06 : f16}> : () -> f16
    %20 = "mix.prim.add"(%18, %19) : (tensor<1x40x1xf16>, f16) -> tensor<1x40x1xf16>
    %21 = "mix.prim.rsqrt"(%20) : (tensor<1x40x1xf16>) -> tensor<1x40x1xf16>
    %22 = "mix.prim.mul"(%0, %21) : (tensor<1x40x5120xf16>, tensor<1x40x1xf16>) -> tensor<1x40x5120xf16>
    %23 = "mix.prim.mul"(%15, %22) : (tensor<5120xf16>, tensor<1x40x5120xf16>) -> tensor<1x40x5120xf16>
    %24 = "mix.comp.weight"() <{param_loc = "transformer.h.0.self_attention.query.weight"}> : () -> tensor<5120x5120xf16>
    %25 = "mix.comp.weight"() <{param_loc = "transformer.h.0.self_attention.key_value.weight"}> : () -> tensor<10240x5120xf16>
    %26 = "mix.comp.weight"() <{param_loc = "transformer.h.0.self_attention.dense.weight"}> : () -> tensor<5120x5120xf16>
    %27 = "mix.comp.weight"() <{param_loc = "transformer.h.0.self_attention.dense.bias"}> : () -> tensor<5120xf16>
    %28 = "mix.prim.transpose"(%23) <{dim1 = 0 : i32, dim2 = 1 : i32}> : (tensor<1x40x5120xf16>) -> tensor<40x1x5120xf16>
    %29 = "mix.prim.transpose"(%24) <{dim1 = 0 : i32, dim2 = 1 : i32}> : (tensor<5120x5120xf16>) -> tensor<5120x5120xf16>
    %30 = "mix.prim.reshape"(%28) <{shape = [40, 5120]}> : (tensor<40x1x5120xf16>) -> tensor<40x5120xf16>
    %31 = "mix.prim.matmul"(%30, %29) : (tensor<40x5120xf16>, tensor<5120x5120xf16>) -> tensor<40x5120xf16>
    %32 = "mix.prim.reshape"(%31) <{shape = [40, 1, 5120]}> : (tensor<40x5120xf16>) -> tensor<40x1x5120xf16>
    %33 = "mix.prim.reshape"(%32) <{shape = [40, 1, 32, 160]}> : (tensor<40x1x5120xf16>) -> tensor<40x1x32x160xf16>
    %34 = "mix.prim.transpose"(%25) <{dim1 = 0 : i32, dim2 = 1 : i32}> : (tensor<10240x5120xf16>) -> tensor<5120x10240xf16>
    %35 = "mix.prim.reshape"(%28) <{shape = [40, 5120]}> : (tensor<40x1x5120xf16>) -> tensor<40x5120xf16>
    %36 = "mix.prim.matmul"(%35, %34) : (tensor<40x5120xf16>, tensor<5120x10240xf16>) -> tensor<40x10240xf16>
    %37 = "mix.prim.reshape"(%36) <{shape = [40, 1, 10240]}> : (tensor<40x10240xf16>) -> tensor<40x1x10240xf16>
    %38 = "mix.prim.reshape"(%37) <{shape = [40, 1, 32, 320]}> : (tensor<40x1x10240xf16>) -> tensor<40x1x32x320xf16>
    %39 = "mix.prim.slice"(%38) <{dim = 3 : i64, end = 160 : i64, start = 0 : i64, step = 1 : i64}> : (tensor<40x1x32x320xf16>) -> tensor<40x1x32x160xf16>
    %40 = "mix.prim.slice"(%38) <{dim = 3 : i64, end = 320 : i64, start = 160 : i64, step = 1 : i64}> : (tensor<40x1x32x320xf16>) -> tensor<40x1x32x160xf16>
    %41 = "mix.prim.reshape"(%33) <{shape = [40, 32, -1]}> : (tensor<40x1x32x160xf16>) -> tensor<40x32x160xf16>
    %42 = "mix.prim.reshape"(%39) <{shape = [40, 32, -1]}> : (tensor<40x1x32x160xf16>) -> tensor<40x32x160xf16>
    %43 = "mix.prim.constant"() <{value = dense<[0, 2, 4, 6, 8, 10, 12, 14, 16, 18, 20, 22, 24, 26, 28, 30, 32, 34, 36, 38, 40, 42, 44, 46, 48, 50, 52, 54, 56, 58, 60, 62, 64, 66, 68, 70, 72, 74, 76, 78, 80, 82, 84, 86, 88, 90, 92, 94, 96, 98, 100, 102, 104, 106, 108, 110, 112, 114, 116, 118, 120, 122, 124, 126, 128, 130, 132, 134, 136, 138, 140, 142, 144, 146, 148, 150, 152, 154, 156, 158]> : tensor<80xi32>}> : () -> tensor<80xi32>
    %44 = "mix.prim.convert"(%43) <{element_ty = f16}> : (tensor<80xi32>) -> tensor<80xf16>
    %45 = "mix.prim.constant"() <{value = 1.600000e+02 : f16}> : () -> f16
    %46 = "mix.prim.div"(%44, %45) : (tensor<80xf16>, f16) -> tensor<80xf16>
    %47 = "mix.prim.constant"() <{value = 3.041600e+04 : f16}> : () -> f16
    %48 = "mix.prim.pow"(%47, %46) : (f16, tensor<80xf16>) -> tensor<80xf16>
    %49 = "mix.prim.reciprocal"(%48) : (tensor<80xf16>) -> tensor<80xf16>
    %50 = "mix.prim.constant"() <{value = 1.000000e+00 : f16}> : () -> f16
    %51 = "mix.prim.mul"(%50, %49) : (f16, tensor<80xf16>) -> tensor<80xf16>
    %52 = "mix.prim.constant"() <{value = dense<[… > : tensor<40xf16>}> : () -> tensor<40xf16>
    %53 = "mix.prim.unsqueeze"(%52) <{axis = 1 : i32}> : (tensor<40xf16>) -> tensor<40x1xf16>
    %54 = "mix.prim.permute"(%53) <{dims = [0, 1]}> : (tensor<40x1xf16>) -> tensor<40x1xf16>
    %55 = "mix.prim.unsqueeze"(%51) <{axis = 1 : i32}> : (tensor<80xf16>) -> tensor<80x1xf16>
    %56 = "mix.prim.permute"(%55) <{dims = [1, 0]}> : (tensor<80x1xf16>) -> tensor<1x80xf16>
    %57 = "mix.prim.mul"(%54, %56) : (tensor<40x1xf16>, tensor<1x80xf16>) -> tensor<40x80xf16>
    %58 = "mix.prim.concat"(%57, %57) <{axis = 1 : i64}> : (tensor<40x80xf16>, tensor<40x80xf16>) -> tensor<40x160xf16>
    %59 = "mix.prim.cos"(%58) : (tensor<40x160xf16>) -> tensor<40x160xf16>
    %60 = "mix.prim.slice"(%59) <{dim = 0 : i64, end = 2147483647 : i64, start = 0 : i64, step = 1 : i64}> : (tensor<40x160xf16>) -> tensor<40x160xf16>
    %61 = "mix.prim.unsqueeze"(%60) <{axis = 1 : i32}> : (tensor<40x160xf16>) -> tensor<40x1x160xf16>
    %62 = "mix.prim.slice"(%61) <{dim = 2 : i64, end = 2147483647 : i64, start = 0 : i64, step = 1 : i64}> : (tensor<40x1x160xf16>) -> tensor<40x1x160xf16>
    %63 = "mix.prim.constant"() <{value = 1.000000e+00 : f16}> : () -> f16
    %64 = "mix.prim.mul"(%62, %63) : (tensor<40x1x160xf16>, f16) -> tensor<40x1x160xf16>
    %65 = "mix.prim.sin"(%58) : (tensor<40x160xf16>) -> tensor<40x160xf16>
    %66 = "mix.prim.slice"(%65) <{dim = 0 : i64, end = 2147483647 : i64, start = 0 : i64, step = 1 : i64}> : (tensor<40x160xf16>) -> tensor<40x160xf16>
    %67 = "mix.prim.unsqueeze"(%66) <{axis = 1 : i32}> : (tensor<40x160xf16>) -> tensor<40x1x160xf16>
    %68 = "mix.prim.slice"(%67) <{dim = 2 : i64, end = 2147483647 : i64, start = 0 : i64, step = 1 : i64}> : (tensor<40x1x160xf16>) -> tensor<40x1x160xf16>
    %69 = "mix.prim.constant"() <{value = 1.000000e+00 : f16}> : () -> f16
    %70 = "mix.prim.mul"(%68, %69) : (tensor<40x1x160xf16>, f16) -> tensor<40x1x160xf16>
    %71 = "mix.prim.slice"(%64) <{dim = 0 : i64, end = 40 : i64, start = 0 : i64, step = 1 : i64}> : (tensor<40x1x160xf16>) -> tensor<40x1x160xf16>
    %72 = "mix.prim.slice"(%70) <{dim = 0 : i64, end = 40 : i64, start = 0 : i64, step = 1 : i64}> : (tensor<40x1x160xf16>) -> tensor<40x1x160xf16>
    %73 = "mix.prim.mul"(%41, %71) : (tensor<40x32x160xf16>, tensor<40x1x160xf16>) -> tensor<40x32x160xf16>
    %74 = "mix.prim.slice"(%41) <{dim = 2 : i64, end = 80 : i64, start = 0 : i64, step = 1 : i64}> : (tensor<40x32x160xf16>) -> tensor<40x32x80xf16>
    %75 = "mix.prim.slice"(%41) <{dim = 2 : i64, end = 2147483647 : i64, start = 80 : i64, step = 1 : i64}> : (tensor<40x32x160xf16>) -> tensor<40x32x80xf16>
    %76 = "mix.prim.neg"(%75) : (tensor<40x32x80xf16>) -> tensor<40x32x80xf16>
    %77 = "mix.prim.concat"(%76, %74) <{axis = 2 : i64}> : (tensor<40x32x80xf16>, tensor<40x32x80xf16>) -> tensor<40x32x160xf16>
    %78 = "mix.prim.mul"(%77, %72) : (tensor<40x32x160xf16>, tensor<40x1x160xf16>) -> tensor<40x32x160xf16>
    %79 = "mix.prim.add"(%73, %78) : (tensor<40x32x160xf16>, tensor<40x32x160xf16>) -> tensor<40x32x160xf16>
    %80 = "mix.prim.mul"(%42, %71) : (tensor<40x32x160xf16>, tensor<40x1x160xf16>) -> tensor<40x32x160xf16>
    %81 = "mix.prim.slice"(%42) <{dim = 2 : i64, end = 80 : i64, start = 0 : i64, step = 1 : i64}> : (tensor<40x32x160xf16>) -> tensor<40x32x80xf16>
    %82 = "mix.prim.slice"(%42) <{dim = 2 : i64, end = 2147483647 : i64, start = 80 : i64, step = 1 : i64}> : (tensor<40x32x160xf16>) -> tensor<40x32x80xf16>
    %83 = "mix.prim.neg"(%82) : (tensor<40x32x80xf16>) -> tensor<40x32x80xf16>
    %84 = "mix.prim.concat"(%83, %81) <{axis = 2 : i64}> : (tensor<40x32x80xf16>, tensor<40x32x80xf16>) -> tensor<40x32x160xf16>
    %85 = "mix.prim.mul"(%84, %72) : (tensor<40x32x160xf16>, tensor<40x1x160xf16>) -> tensor<40x32x160xf16>
    %86 = "mix.prim.add"(%80, %85) : (tensor<40x32x160xf16>, tensor<40x32x160xf16>) -> tensor<40x32x160xf16>
    %87 = "mix.prim.reshape"(%79) <{shape = [40, 1, 32, 160]}> : (tensor<40x32x160xf16>) -> tensor<40x1x32x160xf16>
    %88 = "mix.prim.reshape"(%86) <{shape = [40, 1, 32, 160]}> : (tensor<40x32x160xf16>) -> tensor<40x1x32x160xf16>
    %89 = "mix.prim.reshape"(%87) <{shape = [40, 32, 160]}> : (tensor<40x1x32x160xf16>) -> tensor<40x32x160xf16>
    %90 = "mix.prim.reshape"(%88) <{shape = [40, 32, 160]}> : (tensor<40x1x32x160xf16>) -> tensor<40x32x160xf16>
    %91 = "mix.prim.transpose"(%89) <{dim1 = 0 : i32, dim2 = 1 : i32}> : (tensor<40x32x160xf16>) -> tensor<32x40x160xf16>
    %92 = "mix.prim.transpose"(%90) <{dim1 = 0 : i32, dim2 = 1 : i32}> : (tensor<40x32x160xf16>) -> tensor<32x40x160xf16>
    %93 = "mix.prim.transpose"(%92) <{dim1 = 1 : i32, dim2 = 2 : i32}> : (tensor<32x40x160xf16>) -> tensor<32x160x40xf16>
    %94 = "mix.prim.unsqueeze"(%91) <{axis = 3 : i32}> : (tensor<32x40x160xf16>) -> tensor<32x40x160x1xf16>
    %95 = "mix.prim.permute"(%94) <{dims = [0, 1, 3, 2]}> : (tensor<32x40x160x1xf16>) -> tensor<32x40x1x160xf16>
    %96 = "mix.prim.unsqueeze"(%93) <{axis = 3 : i32}> : (tensor<32x160x40xf16>) -> tensor<32x160x40x1xf16>
    %97 = "mix.prim.permute"(%96) <{dims = [0, 3, 2, 1]}> : (tensor<32x160x40x1xf16>) -> tensor<32x1x40x160xf16>
    %98 = "mix.prim.permute"(%95) <{dims = [0, 1, 3, 2]}> : (tensor<32x40x1x160xf16>) -> tensor<32x40x160x1xf16>
    %99 = "mix.prim.reshape"(%98) <{shape = [32, 40, 160]}> : (tensor<32x40x160x1xf16>) -> tensor<32x40x160xf16>
    %100 = "mix.prim.permute"(%97) <{dims = [0, 3, 2, 1]}> : (tensor<32x1x40x160xf16>) -> tensor<32x160x40x1xf16>
    %101 = "mix.prim.reshape"(%100) <{shape = [32, 160, 40]}> : (tensor<32x160x40x1xf16>) -> tensor<32x160x40xf16>
    %102 = "mix.prim.batch_matmul"(%99, %101) : (tensor<32x40x160xf16>, tensor<32x160x40xf16>) -> tensor<32x40x40xf16>
    %103 = "mix.prim.reshape"(%102) <{shape = [32, 40, 1, 40]}> : (tensor<32x40x40xf16>) -> tensor<32x40x1x40xf16>
    %104 = "mix.prim.permute"(%103) <{dims = [0, 1, 3, 2]}> : (tensor<32x40x1x40xf16>) -> tensor<32x40x40x1xf16>
    %105 = "mix.prim.reshape"(%104) <{shape = [32, 40, 40]}> : (tensor<32x40x40x1xf16>) -> tensor<32x40x40xf16>
    %106 = "mix.prim.constant"() <{value = 7.904050e-02 : f16}> : () -> f16
    %107 = "mix.prim.mul"(%105, %106) : (tensor<32x40x40xf16>, f16) -> tensor<32x40x40xf16>
    %108 = "mix.prim.reshape"(%107) <{shape = [1, 32, 40, 40]}> : (tensor<32x40x40xf16>) -> tensor<1x32x40x40xf16>
    %109 = "mix.prim.constant"() <{value = 0xFC00 : f16}> : () -> f16
    %110 = "mix.comp.masked_fill"(%108, %14, %109) : (tensor<1x32x40x40xf16>, tensor<1x1x40x40xi1>, f16) -> tensor<1x32x40x40xf16>
    %111 = "mix.comp.softmax"(%110) <{axis = -1 : si32}> : (tensor<1x32x40x40xf16>) -> tensor<1x32x40x40xf16>
    %112 = "mix.prim.reshape"(%111) <{shape = [32, 40, 40]}> : (tensor<1x32x40x40xf16>) -> tensor<32x40x40xf16>
    %113 = "mix.prim.reshape"(%40) <{shape = [40, 32, 160]}> : (tensor<40x1x32x160xf16>) -> tensor<40x32x160xf16>
    %114 = "mix.prim.transpose"(%113) <{dim1 = 0 : i32, dim2 = 1 : i32}> : (tensor<40x32x160xf16>) -> tensor<32x40x160xf16>
    %115 = "mix.prim.batch_matmul"(%112, %114) : (tensor<32x40x40xf16>, tensor<32x40x160xf16>) -> tensor<32x40x160xf16>
    %116 = "mix.prim.reshape"(%115) <{shape = [1, 32, 40, 160]}> : (tensor<32x40x160xf16>) -> tensor<1x32x40x160xf16>
    %117 = "mix.prim.permute"(%116) <{dims = [0, 2, 1, 3]}> : (tensor<1x32x40x160xf16>) -> tensor<1x40x32x160xf16>
    %118 = "mix.prim.reshape"(%117) <{shape = [1, 40, 5120]}> : (tensor<1x40x32x160xf16>) -> tensor<1x40x5120xf16>
    %119 = "mix.prim.reshape"(%118) <{shape = [40, 5120]}> : (tensor<1x40x5120xf16>) -> tensor<40x5120xf16>
    %120 = "mix.prim.transpose"(%26) <{dim1 = 0 : i32, dim2 = 1 : i32}> : (tensor<5120x5120xf16>) -> tensor<5120x5120xf16>
    %121 = "mix.prim.matmul"(%119, %120) : (tensor<40x5120xf16>, tensor<5120x5120xf16>) -> tensor<40x5120xf16>
    %122 = "mix.prim.add"(%121, %27) : (tensor<40x5120xf16>, tensor<5120xf16>) -> tensor<40x5120xf16>
    %123 = "mix.prim.reshape"(%122) <{shape = [1, 40, 5120]}> : (tensor<40x5120xf16>) -> tensor<1x40x5120xf16>
    %124 = "mix.prim.mul"(%0, %123) : (tensor<1x40x5120xf16>, tensor<1x40x5120xf16>) -> tensor<1x40x5120xf16>
    %125 = "mix.comp.weight"() <{param_loc = "transformer.h.0.post_attention_layernorm.weight"}> : () -> tensor<5120xf16>
    %126 = "mix.prim.constant"() <{value = dense<1.000000e+00> : tensor<1xf16>}> : () -> tensor<1xf16>
    %127 = "mix.prim.pow"(%124, %126) : (tensor<1x40x5120xf16>, tensor<1xf16>) -> tensor<1x40x5120xf16>
    %128 = "mix.comp.mean"(%127) <{dims = [2 : i32], keepDim = true}> : (tensor<1x40x5120xf16>) -> tensor<1x40x1xf16>
    %129 = "mix.prim.constant"() <{value = 1.013280e-06 : f16}> : () -> f16
    %130 = "mix.prim.add"(%128, %129) : (tensor<1x40x1xf16>, f16) -> tensor<1x40x1xf16>
    %131 = "mix.prim.rsqrt"(%130) : (tensor<1x40x1xf16>) -> tensor<1x40x1xf16>
    %132 = "mix.prim.mul"(%124, %131) : (tensor<1x40x5120xf16>, tensor<1x40x1xf16>) -> tensor<1x40x5120xf16>
    %133 = "mix.prim.mul"(%125, %132) : (tensor<5120xf16>, tensor<1x40x5120xf16>) -> tensor<1x40x5120xf16>
    %134 = "mix.module.linear"(%133) <{dtype = f16, in_feature = 5120 : i32, out_feature = 12288 : i32, params_loc = "transformer.h.0.mlp.gate_proj"}> : (tensor<1x40x5120xf16>) -> tensor<1x40x12288xf16>
    %135 = "mix.comp.silu"(%134) : (tensor<1x40x12288xf16>) -> tensor<1x40x12288xf16>
    %136 = "mix.module.linear"(%133) <{dtype = f16, in_feature = 5120 : i32, out_feature = 12288 : i32, params_loc = "transformer.h.0.mlp.up_proj"}> : (tensor<1x40x5120xf16>) -> tensor<1x40x12288xf16>
    %137 = "mix.prim.mul"(%135, %136) : (tensor<1x40x12288xf16>, tensor<1x40x12288xf16>) -> tensor<1x40x12288xf16>
    %138 = "mix.module.linear"(%137) <{dtype = f16, has_bias, in_feature = 12288 : i32, out_feature = 5120 : i32, params_loc = "transformer.h.0.mlp.down_proj"}> : (tensor<1x40x12288xf16>) -> tensor<1x40x5120xf16>
    %139 = "mix.prim.add"(%138, %124) : (tensor<1x40x5120xf16>, tensor<1x40x5120xf16>) -> tensor<1x40x5120xf16>
    %140 = "mix.comp.weight"() <{param_loc = "transformer.h.1.input_layernorm.weight"}> : () -> tensor<5120xf16>
    %141 = "mix.prim.constant"() <{value = dense<1.000000e+00> : tensor<1xf16>}> : () -> tensor<1xf16>
    %142 = "mix.prim.pow"(%139, %141) : (tensor<1x40x5120xf16>, tensor<1xf16>) -> tensor<1x40x5120xf16>
    %143 = "mix.comp.mean"(%142) <{dims = [2 : i32], keepDim = true}> : (tensor<1x40x5120xf16>) -> tensor<1x40x1xf16>
    %144 = "mix.prim.constant"() <{value = 1.013280e-06 : f16}> : () -> f16
    %145 = "mix.prim.add"(%143, %144) : (tensor<1x40x1xf16>, f16) -> tensor<1x40x1xf16>
    %146 = "mix.prim.rsqrt"(%145) : (tensor<1x40x1xf16>) -> tensor<1x40x1xf16>
    %147 = "mix.prim.mul"(%139, %146) : (tensor<1x40x5120xf16>, tensor<1x40x1xf16>) -> tensor<1x40x5120xf16>
    %148 = "mix.prim.mul"(%140, %147) : (tensor<5120xf16>, tensor<1x40x5120xf16>) -> tensor<1x40x5120xf16>
    %149 = "mix.comp.weight"() <{param_loc = "transformer.h.1.self_attention.query.weight"}> : () -> tensor<5120x5120xf16>
    %150 = "mix.comp.weight"() <{param_loc = "transformer.h.1.self_attention.key_value.weight"}> : () -> tensor<10240x5120xf16>
    %151 = "mix.comp.weight"() <{param_loc = "transformer.h.1.self_attention.dense.weight"}> : () -> tensor<5120x5120xf16>
    %152 = "mix.comp.weight"() <{param_loc = "transformer.h.1.self_attention.dense.bias"}> : () -> tensor<5120xf16>
    %153 = "mix.prim.transpose"(%148) <{dim1 = 0 : i32, dim2 = 1 : i32}> : (tensor<1x40x5120xf16>) -> tensor<40x1x5120xf16>
    %154 = "mix.prim.transpose"(%149) <{dim1 = 0 : i32, dim2 = 1 : i32}> : (tensor<5120x5120xf16>) -> tensor<5120x5120xf16>
    %155 = "mix.prim.reshape"(%153) <{shape = [40, 5120]}> : (tensor<40x1x5120xf16>) -> tensor<40x5120xf16>
    %156 = "mix.prim.matmul"(%155, %154) : (tensor<40x5120xf16>, tensor<5120x5120xf16>) -> tensor<40x5120xf16>
    %157 = "mix.prim.reshape"(%156) <{shape = [40, 1, 5120]}> : (tensor<40x5120xf16>) -> tensor<40x1x5120xf16>
    %158 = "mix.prim.reshape"(%157) <{shape = [40, 1, 32, 160]}> : (tensor<40x1x5120xf16>) -> tensor<40x1x32x160xf16>
    %159 = "mix.prim.transpose"(%150) <{dim1 = 0 : i32, dim2 = 1 : i32}> : (tensor<10240x5120xf16>) -> tensor<5120x10240xf16>
    %160 = "mix.prim.reshape"(%153) <{shape = [40, 5120]}> : (tensor<40x1x5120xf16>) -> tensor<40x5120xf16>
    %161 = "mix.prim.matmul"(%160, %159) : (tensor<40x5120xf16>, tensor<5120x10240xf16>) -> tensor<40x10240xf16>
    %162 = "mix.prim.reshape"(%161) <{shape = [40, 1, 10240]}> : (tensor<40x10240xf16>) -> tensor<40x1x10240xf16>
    %163 = "mix.prim.reshape"(%162) <{shape = [40, 1, 32, 320]}> : (tensor<40x1x10240xf16>) -> tensor<40x1x32x320xf16>
    %164 = "mix.prim.slice"(%163) <{dim = 3 : i64, end = 160 : i64, start = 0 : i64, step = 1 : i64}> : (tensor<40x1x32x320xf16>) -> tensor<40x1x32x160xf16>
    %165 = "mix.prim.slice"(%163) <{dim = 3 : i64, end = 320 : i64, start = 160 : i64, step = 1 : i64}> : (tensor<40x1x32x320xf16>) -> tensor<40x1x32x160xf16>
    %166 = "mix.prim.reshape"(%158) <{shape = [40, 32, -1]}> : (tensor<40x1x32x160xf16>) -> tensor<40x32x160xf16>
    %167 = "mix.prim.reshape"(%164) <{shape = [40, 32, -1]}> : (tensor<40x1x32x160xf16>) -> tensor<40x32x160xf16>
    %168 = "mix.prim.constant"() <{value = dense<[0, 2, 4, 6, 8, 10, 12, 14, 16, 18, 20, 22, 24, 26, 28, 30, 32, 34, 36, 38, 40, 42, 44, 46, 48, 50, 52, 54, 56, 58, 60, 62, 64, 66, 68, 70, 72, 74, 76, 78, 80, 82, 84, 86, 88, 90, 92, 94, 96, 98, 100, 102, 104, 106, 108, 110, 112, 114, 116, 118, 120, 122, 124, 126, 128, 130, 132, 134, 136, 138, 140, 142, 144, 146, 148, 150, 152, 154, 156, 158]> : tensor<80xi32>}> : () -> tensor<80xi32>
    %169 = "mix.prim.convert"(%168) <{element_ty = f16}> : (tensor<80xi32>) -> tensor<80xf16>
    %170 = "mix.prim.constant"() <{value = 1.600000e+02 : f16}> : () -> f16
    %171 = "mix.prim.div"(%169, %170) : (tensor<80xf16>, f16) -> tensor<80xf16>
    %172 = "mix.prim.constant"() <{value = 3.041600e+04 : f16}> : () -> f16
    %173 = "mix.prim.pow"(%172, %171) : (f16, tensor<80xf16>) -> tensor<80xf16>
    %174 = "mix.prim.reciprocal"(%173) : (tensor<80xf16>) -> tensor<80xf16>
    %175 = "mix.prim.constant"() <{value = 1.000000e+00 : f16}> : () -> f16
    %176 = "mix.prim.mul"(%175, %174) : (f16, tensor<80xf16>) -> tensor<80xf16>
    %177 = "mix.prim.constant"() <{value = dense<[… > : tensor<40xf16>}> : () -> tensor<40xf16>
    %178 = "mix.prim.unsqueeze"(%177) <{axis = 1 : i32}> : (tensor<40xf16>) -> tensor<40x1xf16>
    %179 = "mix.prim.permute"(%178) <{dims = [0, 1]}> : (tensor<40x1xf16>) -> tensor<40x1xf16>
    %180 = "mix.prim.unsqueeze"(%176) <{axis = 1 : i32}> : (tensor<80xf16>) -> tensor<80x1xf16>
    %181 = "mix.prim.permute"(%180) <{dims = [1, 0]}> : (tensor<80x1xf16>) -> tensor<1x80xf16>
    %182 = "mix.prim.mul"(%179, %181) : (tensor<40x1xf16>, tensor<1x80xf16>) -> tensor<40x80xf16>
    %183 = "mix.prim.concat"(%182, %182) <{axis = 1 : i64}> : (tensor<40x80xf16>, tensor<40x80xf16>) -> tensor<40x160xf16>
    %184 = "mix.prim.cos"(%183) : (tensor<40x160xf16>) -> tensor<40x160xf16>
    %185 = "mix.prim.slice"(%184) <{dim = 0 : i64, end = 2147483647 : i64, start = 0 : i64, step = 1 : i64}> : (tensor<40x160xf16>) -> tensor<40x160xf16>
    %186 = "mix.prim.unsqueeze"(%185) <{axis = 1 : i32}> : (tensor<40x160xf16>) -> tensor<40x1x160xf16>
    %187 = "mix.prim.slice"(%186) <{dim = 2 : i64, end = 2147483647 : i64, start = 0 : i64, step = 1 : i64}> : (tensor<40x1x160xf16>) -> tensor<40x1x160xf16>
    %188 = "mix.prim.constant"() <{value = 1.000000e+00 : f16}> : () -> f16
    %189 = "mix.prim.mul"(%187, %188) : (tensor<40x1x160xf16>, f16) -> tensor<40x1x160xf16>
    %190 = "mix.prim.sin"(%183) : (tensor<40x160xf16>) -> tensor<40x160xf16>
    %191 = "mix.prim.slice"(%190) <{dim = 0 : i64, end = 2147483647 : i64, start = 0 : i64, step = 1 : i64}> : (tensor<40x160xf16>) -> tensor<40x160xf16>
    %192 = "mix.prim.unsqueeze"(%191) <{axis = 1 : i32}> : (tensor<40x160xf16>) -> tensor<40x1x160xf16>
    %193 = "mix.prim.slice"(%192) <{dim = 2 : i64, end = 2147483647 : i64, start = 0 : i64, step = 1 : i64}> : (tensor<40x1x160xf16>) -> tensor<40x1x160xf16>
    %194 = "mix.prim.constant"() <{value = 1.000000e+00 : f16}> : () -> f16
    %195 = "mix.prim.mul"(%193, %194) : (tensor<40x1x160xf16>, f16) -> tensor<40x1x160xf16>
    %196 = "mix.prim.slice"(%189) <{dim = 0 : i64, end = 40 : i64, start = 0 : i64, step = 1 : i64}> : (tensor<40x1x160xf16>) -> tensor<40x1x160xf16>
    %197 = "mix.prim.slice"(%195) <{dim = 0 : i64, end = 40 : i64, start = 0 : i64, step = 1 : i64}> : (tensor<40x1x160xf16>) -> tensor<40x1x160xf16>
    %198 = "mix.prim.mul"(%166, %196) : (tensor<40x32x160xf16>, tensor<40x1x160xf16>) -> tensor<40x32x160xf16>
    %199 = "mix.prim.slice"(%166) <{dim = 2 : i64, end = 80 : i64, start = 0 : i64, step = 1 : i64}> : (tensor<40x32x160xf16>) -> tensor<40x32x80xf16>
    %200 = "mix.prim.slice"(%166) <{dim = 2 : i64, end = 2147483647 : i64, start = 80 : i64, step = 1 : i64}> : (tensor<40x32x160xf16>) -> tensor<40x32x80xf16>
    %201 = "mix.prim.neg"(%200) : (tensor<40x32x80xf16>) -> tensor<40x32x80xf16>
    %202 = "mix.prim.concat"(%201, %199) <{axis = 2 : i64}> : (tensor<40x32x80xf16>, tensor<40x32x80xf16>) -> tensor<40x32x160xf16>
    %203 = "mix.prim.mul"(%202, %197) : (tensor<40x32x160xf16>, tensor<40x1x160xf16>) -> tensor<40x32x160xf16>
    %204 = "mix.prim.add"(%198, %203) : (tensor<40x32x160xf16>, tensor<40x32x160xf16>) -> tensor<40x32x160xf16>
    %205 = "mix.prim.mul"(%167, %196) : (tensor<40x32x160xf16>, tensor<40x1x160xf16>) -> tensor<40x32x160xf16>
    %206 = "mix.prim.slice"(%167) <{dim = 2 : i64, end = 80 : i64, start = 0 : i64, step = 1 : i64}> : (tensor<40x32x160xf16>) -> tensor<40x32x80xf16>
    %207 = "mix.prim.slice"(%167) <{dim = 2 : i64, end = 2147483647 : i64, start = 80 : i64, step = 1 : i64}> : (tensor<40x32x160xf16>) -> tensor<40x32x80xf16>
    %208 = "mix.prim.neg"(%207) : (tensor<40x32x80xf16>) -> tensor<40x32x80xf16>
    %209 = "mix.prim.concat"(%208, %206) <{axis = 2 : i64}> : (tensor<40x32x80xf16>, tensor<40x32x80xf16>) -> tensor<40x32x160xf16>
    %210 = "mix.prim.mul"(%209, %197) : (tensor<40x32x160xf16>, tensor<40x1x160xf16>) -> tensor<40x32x160xf16>
    %211 = "mix.prim.add"(%205, %210) : (tensor<40x32x160xf16>, tensor<40x32x160xf16>) -> tensor<40x32x160xf16>
    %212 = "mix.prim.reshape"(%204) <{shape = [40, 1, 32, 160]}> : (tensor<40x32x160xf16>) -> tensor<40x1x32x160xf16>
    %213 = "mix.prim.reshape"(%211) <{shape = [40, 1, 32, 160]}> : (tensor<40x32x160xf16>) -> tensor<40x1x32x160xf16>
    %214 = "mix.prim.reshape"(%212) <{shape = [40, 32, 160]}> : (tensor<40x1x32x160xf16>) -> tensor<40x32x160xf16>
    %215 = "mix.prim.reshape"(%213) <{shape = [40, 32, 160]}> : (tensor<40x1x32x160xf16>) -> tensor<40x32x160xf16>
    %216 = "mix.prim.transpose"(%214) <{dim1 = 0 : i32, dim2 = 1 : i32}> : (tensor<40x32x160xf16>) -> tensor<32x40x160xf16>
    %217 = "mix.prim.transpose"(%215) <{dim1 = 0 : i32, dim2 = 1 : i32}> : (tensor<40x32x160xf16>) -> tensor<32x40x160xf16>
    %218 = "mix.prim.transpose"(%217) <{dim1 = 1 : i32, dim2 = 2 : i32}> : (tensor<32x40x160xf16>) -> tensor<32x160x40xf16>
    %219 = "mix.prim.unsqueeze"(%216) <{axis = 3 : i32}> : (tensor<32x40x160xf16>) -> tensor<32x40x160x1xf16>
    %220 = "mix.prim.permute"(%219) <{dims = [0, 1, 3, 2]}> : (tensor<32x40x160x1xf16>) -> tensor<32x40x1x160xf16>
    %221 = "mix.prim.unsqueeze"(%218) <{axis = 3 : i32}> : (tensor<32x160x40xf16>) -> tensor<32x160x40x1xf16>
    %222 = "mix.prim.permute"(%221) <{dims = [0, 3, 2, 1]}> : (tensor<32x160x40x1xf16>) -> tensor<32x1x40x160xf16>
    %223 = "mix.prim.permute"(%220) <{dims = [0, 1, 3, 2]}> : (tensor<32x40x1x160xf16>) -> tensor<32x40x160x1xf16>
    %224 = "mix.prim.reshape"(%223) <{shape = [32, 40, 160]}> : (tensor<32x40x160x1xf16>) -> tensor<32x40x160xf16>
    %225 = "mix.prim.permute"(%222) <{dims = [0, 3, 2, 1]}> : (tensor<32x1x40x160xf16>) -> tensor<32x160x40x1xf16>
    %226 = "mix.prim.reshape"(%225) <{shape = [32, 160, 40]}> : (tensor<32x160x40x1xf16>) -> tensor<32x160x40xf16>
    %227 = "mix.prim.batch_matmul"(%224, %226) : (tensor<32x40x160xf16>, tensor<32x160x40xf16>) -> tensor<32x40x40xf16>
    %228 = "mix.prim.reshape"(%227) <{shape = [32, 40, 1, 40]}> : (tensor<32x40x40xf16>) -> tensor<32x40x1x40xf16>
    %229 = "mix.prim.permute"(%228) <{dims = [0, 1, 3, 2]}> : (tensor<32x40x1x40xf16>) -> tensor<32x40x40x1xf16>
    %230 = "mix.prim.reshape"(%229) <{shape = [32, 40, 40]}> : (tensor<32x40x40x1xf16>) -> tensor<32x40x40xf16>
    %231 = "mix.prim.constant"() <{value = 7.904050e-02 : f16}> : () -> f16
    %232 = "mix.prim.mul"(%230, %231) : (tensor<32x40x40xf16>, f16) -> tensor<32x40x40xf16>
    %233 = "mix.prim.reshape"(%232) <{shape = [1, 32, 40, 40]}> : (tensor<32x40x40xf16>) -> tensor<1x32x40x40xf16>
    %234 = "mix.prim.constant"() <{value = 0xFC00 : f16}> : () -> f16
    %235 = "mix.comp.masked_fill"(%233, %14, %234) : (tensor<1x32x40x40xf16>, tensor<1x1x40x40xi1>, f16) -> tensor<1x32x40x40xf16>
    %236 = "mix.comp.softmax"(%235) <{axis = -1 : si32}> : (tensor<1x32x40x40xf16>) -> tensor<1x32x40x40xf16>
    %237 = "mix.prim.reshape"(%236) <{shape = [32, 40, 40]}> : (tensor<1x32x40x40xf16>) -> tensor<32x40x40xf16>
    %238 = "mix.prim.reshape"(%165) <{shape = [40, 32, 160]}> : (tensor<40x1x32x160xf16>) -> tensor<40x32x160xf16>
    %239 = "mix.prim.transpose"(%238) <{dim1 = 0 : i32, dim2 = 1 : i32}> : (tensor<40x32x160xf16>) -> tensor<32x40x160xf16>
    %240 = "mix.prim.batch_matmul"(%237, %239) : (tensor<32x40x40xf16>, tensor<32x40x160xf16>) -> tensor<32x40x160xf16>
    %241 = "mix.prim.reshape"(%240) <{shape = [1, 32, 40, 160]}> : (tensor<32x40x160xf16>) -> tensor<1x32x40x160xf16>
    %242 = "mix.prim.permute"(%241) <{dims = [0, 2, 1, 3]}> : (tensor<1x32x40x160xf16>) -> tensor<1x40x32x160xf16>
    %243 = "mix.prim.reshape"(%242) <{shape = [1, 40, 5120]}> : (tensor<1x40x32x160xf16>) -> tensor<1x40x5120xf16>
    %244 = "mix.prim.reshape"(%243) <{shape = [40, 5120]}> : (tensor<1x40x5120xf16>) -> tensor<40x5120xf16>
    %245 = "mix.prim.transpose"(%151) <{dim1 = 0 : i32, dim2 = 1 : i32}> : (tensor<5120x5120xf16>) -> tensor<5120x5120xf16>
    %246 = "mix.prim.matmul"(%244, %245) : (tensor<40x5120xf16>, tensor<5120x5120xf16>) -> tensor<40x5120xf16>
    %247 = "mix.prim.add"(%246, %152) : (tensor<40x5120xf16>, tensor<5120xf16>) -> tensor<40x5120xf16>
    %248 = "mix.prim.reshape"(%247) <{shape = [1, 40, 5120]}> : (tensor<40x5120xf16>) -> tensor<1x40x5120xf16>
    %249 = "mix.prim.mul"(%139, %248) : (tensor<1x40x5120xf16>, tensor<1x40x5120xf16>) -> tensor<1x40x5120xf16>
    %250 = "mix.comp.weight"() <{param_loc = "transformer.h.1.post_attention_layernorm.weight"}> : () -> tensor<5120xf16>
    %251 = "mix.prim.constant"() <{value = dense<1.000000e+00> : tensor<1xf16>}> : () -> tensor<1xf16>
    %252 = "mix.prim.pow"(%249, %251) : (tensor<1x40x5120xf16>, tensor<1xf16>) -> tensor<1x40x5120xf16>
    %253 = "mix.comp.mean"(%252) <{dims = [2 : i32], keepDim = true}> : (tensor<1x40x5120xf16>) -> tensor<1x40x1xf16>
    %254 = "mix.prim.constant"() <{value = 1.013280e-06 : f16}> : () -> f16
    %255 = "mix.prim.add"(%253, %254) : (tensor<1x40x1xf16>, f16) -> tensor<1x40x1xf16>
    %256 = "mix.prim.rsqrt"(%255) : (tensor<1x40x1xf16>) -> tensor<1x40x1xf16>
    %257 = "mix.prim.mul"(%249, %256) : (tensor<1x40x5120xf16>, tensor<1x40x1xf16>) -> tensor<1x40x5120xf16>
    %258 = "mix.prim.mul"(%250, %257) : (tensor<5120xf16>, tensor<1x40x5120xf16>) -> tensor<1x40x5120xf16>
    %259 = "mix.module.linear"(%258) <{dtype = f16, in_feature = 5120 : i32, out_feature = 12288 : i32, params_loc = "transformer.h.1.mlp.gate_proj"}> : (tensor<1x40x5120xf16>) -> tensor<1x40x12288xf16>
    %260 = "mix.comp.silu"(%259) : (tensor<1x40x12288xf16>) -> tensor<1x40x12288xf16>
    %261 = "mix.module.linear"(%258) <{dtype = f16, in_feature = 5120 : i32, out_feature = 12288 : i32, params_loc = "transformer.h.1.mlp.up_proj"}> : (tensor<1x40x5120xf16>) -> tensor<1x40x12288xf16>
    %262 = "mix.prim.mul"(%260, %261) : (tensor<1x40x12288xf16>, tensor<1x40x12288xf16>) -> tensor<1x40x12288xf16>
    %263 = "mix.module.linear"(%262) <{dtype = f16, has_bias, in_feature = 12288 : i32, out_feature = 5120 : i32, params_loc = "transformer.h.1.mlp.down_proj"}> : (tensor<1x40x12288xf16>) -> tensor<1x40x5120xf16>
    %264 = "mix.prim.add"(%263, %249) : (tensor<1x40x5120xf16>, tensor<1x40x5120xf16>) -> tensor<1x40x5120xf16>
    %265 = "mix.comp.weight"() <{param_loc = "transformer.h.2.input_layernorm.weight"}> : () -> tensor<5120xf16>
    %266 = "mix.prim.constant"() <{value = dense<1.000000e+00> : tensor<1xf16>}> : () -> tensor<1xf16>
    %267 = "mix.prim.pow"(%264, %266) : (tensor<1x40x5120xf16>, tensor<1xf16>) -> tensor<1x40x5120xf16>
    %268 = "mix.comp.mean"(%267) <{dims = [2 : i32], keepDim = true}> : (tensor<1x40x5120xf16>) -> tensor<1x40x1xf16>
    %269 = "mix.prim.constant"() <{value = 1.013280e-06 : f16}> : () -> f16
    %270 = "mix.prim.add"(%268, %269) : (tensor<1x40x1xf16>, f16) -> tensor<1x40x1xf16>
    %271 = "mix.prim.rsqrt"(%270) : (tensor<1x40x1xf16>) -> tensor<1x40x1xf16>
    %272 = "mix.prim.mul"(%264, %271) : (tensor<1x40x5120xf16>, tensor<1x40x1xf16>) -> tensor<1x40x5120xf16>
    %273 = "mix.prim.mul"(%265, %272) : (tensor<5120xf16>, tensor<1x40x5120xf16>) -> tensor<1x40x5120xf16>
    %274 = "mix.comp.weight"() <{param_loc = "transformer.h.2.self_attention.query.weight"}> : () -> tensor<5120x5120xf16>
    %275 = "mix.comp.weight"() <{param_loc = "transformer.h.2.self_attention.key_value.weight"}> : () -> tensor<10240x5120xf16>
    %276 = "mix.comp.weight"() <{param_loc = "transformer.h.2.self_attention.dense.weight"}> : () -> tensor<5120x5120xf16>
    %277 = "mix.comp.weight"() <{param_loc = "transformer.h.2.self_attention.dense.bias"}> : () -> tensor<5120xf16>
    %278 = "mix.prim.transpose"(%273) <{dim1 = 0 : i32, dim2 = 1 : i32}> : (tensor<1x40x5120xf16>) -> tensor<40x1x5120xf16>
    %279 = "mix.prim.transpose"(%274) <{dim1 = 0 : i32, dim2 = 1 : i32}> : (tensor<5120x5120xf16>) -> tensor<5120x5120xf16>
    %280 = "mix.prim.reshape"(%278) <{shape = [40, 5120]}> : (tensor<40x1x5120xf16>) -> tensor<40x5120xf16>
    %281 = "mix.prim.matmul"(%280, %279) : (tensor<40x5120xf16>, tensor<5120x5120xf16>) -> tensor<40x5120xf16>
    %282 = "mix.prim.reshape"(%281) <{shape = [40, 1, 5120]}> : (tensor<40x5120xf16>) -> tensor<40x1x5120xf16>
    %283 = "mix.prim.reshape"(%282) <{shape = [40, 1, 32, 160]}> : (tensor<40x1x5120xf16>) -> tensor<40x1x32x160xf16>
    %284 = "mix.prim.transpose"(%275) <{dim1 = 0 : i32, dim2 = 1 : i32}> : (tensor<10240x5120xf16>) -> tensor<5120x10240xf16>
    %285 = "mix.prim.reshape"(%278) <{shape = [40, 5120]}> : (tensor<40x1x5120xf16>) -> tensor<40x5120xf16>
    %286 = "mix.prim.matmul"(%285, %284) : (tensor<40x5120xf16>, tensor<5120x10240xf16>) -> tensor<40x10240xf16>
    %287 = "mix.prim.reshape"(%286) <{shape = [40, 1, 10240]}> : (tensor<40x10240xf16>) -> tensor<40x1x10240xf16>
    %288 = "mix.prim.reshape"(%287) <{shape = [40, 1, 32, 320]}> : (tensor<40x1x10240xf16>) -> tensor<40x1x32x320xf16>
    %289 = "mix.prim.slice"(%288) <{dim = 3 : i64, end = 160 : i64, start = 0 : i64, step = 1 : i64}> : (tensor<40x1x32x320xf16>) -> tensor<40x1x32x160xf16>
    %290 = "mix.prim.slice"(%288) <{dim = 3 : i64, end = 320 : i64, start = 160 : i64, step = 1 : i64}> : (tensor<40x1x32x320xf16>) -> tensor<40x1x32x160xf16>
    %291 = "mix.prim.reshape"(%283) <{shape = [40, 32, -1]}> : (tensor<40x1x32x160xf16>) -> tensor<40x32x160xf16>
    %292 = "mix.prim.reshape"(%289) <{shape = [40, 32, -1]}> : (tensor<40x1x32x160xf16>) -> tensor<40x32x160xf16>
    %293 = "mix.prim.constant"() <{value = dense<[0, 2, 4, 6, 8, 10, 12, 14, 16, 18, 20, 22, 24, 26, 28, 30, 32, 34, 36, 38, 40, 42, 44, 46, 48, 50, 52, 54, 56, 58, 60, 62, 64, 66, 68, 70, 72, 74, 76, 78, 80, 82, 84, 86, 88, 90, 92, 94, 96, 98, 100, 102, 104, 106, 108, 110, 112, 114, 116, 118, 120, 122, 124, 126, 128, 130, 132, 134, 136, 138, 140, 142, 144, 146, 148, 150, 152, 154, 156, 158]> : tensor<80xi32>}> : () -> tensor<80xi32>
    %294 = "mix.prim.convert"(%293) <{element_ty = f16}> : (tensor<80xi32>) -> tensor<80xf16>
    %295 = "mix.prim.constant"() <{value = 1.600000e+02 : f16}> : () -> f16
    %296 = "mix.prim.div"(%294, %295) : (tensor<80xf16>, f16) -> tensor<80xf16>
    %297 = "mix.prim.constant"() <{value = 3.041600e+04 : f16}> : () -> f16
    %298 = "mix.prim.pow"(%297, %296) : (f16, tensor<80xf16>) -> tensor<80xf16>
    %299 = "mix.prim.reciprocal"(%298) : (tensor<80xf16>) -> tensor<80xf16>
    %300 = "mix.prim.constant"() <{value = 1.000000e+00 : f16}> : () -> f16
    %301 = "mix.prim.mul"(%300, %299) : (f16, tensor<80xf16>) -> tensor<80xf16>
    %302 = "mix.prim.constant"() <{value = dense<[… > : tensor<40xf16>}> : () -> tensor<40xf16>
    %303 = "mix.prim.unsqueeze"(%302) <{axis = 1 : i32}> : (tensor<40xf16>) -> tensor<40x1xf16>
    %304 = "mix.prim.permute"(%303) <{dims = [0, 1]}> : (tensor<40x1xf16>) -> tensor<40x1xf16>
    %305 = "mix.prim.unsqueeze"(%301) <{axis = 1 : i32}> : (tensor<80xf16>) -> tensor<80x1xf16>
    %306 = "mix.prim.permute"(%305) <{dims = [1, 0]}> : (tensor<80x1xf16>) -> tensor<1x80xf16>
    %307 = "mix.prim.mul"(%304, %306) : (tensor<40x1xf16>, tensor<1x80xf16>) -> tensor<40x80xf16>
    %308 = "mix.prim.concat"(%307, %307) <{axis = 1 : i64}> : (tensor<40x80xf16>, tensor<40x80xf16>) -> tensor<40x160xf16>
    %309 = "mix.prim.cos"(%308) : (tensor<40x160xf16>) -> tensor<40x160xf16>
    %310 = "mix.prim.slice"(%309) <{dim = 0 : i64, end = 2147483647 : i64, start = 0 : i64, step = 1 : i64}> : (tensor<40x160xf16>) -> tensor<40x160xf16>
    %311 = "mix.prim.unsqueeze"(%310) <{axis = 1 : i32}> : (tensor<40x160xf16>) -> tensor<40x1x160xf16>
    %312 = "mix.prim.slice"(%311) <{dim = 2 : i64, end = 2147483647 : i64, start = 0 : i64, step = 1 : i64}> : (tensor<40x1x160xf16>) -> tensor<40x1x160xf16>
    %313 = "mix.prim.constant"() <{value = 1.000000e+00 : f16}> : () -> f16
    %314 = "mix.prim.mul"(%312, %313) : (tensor<40x1x160xf16>, f16) -> tensor<40x1x160xf16>
    %315 = "mix.prim.sin"(%308) : (tensor<40x160xf16>) -> tensor<40x160xf16>
    %316 = "mix.prim.slice"(%315) <{dim = 0 : i64, end = 2147483647 : i64, start = 0 : i64, step = 1 : i64}> : (tensor<40x160xf16>) -> tensor<40x160xf16>
    %317 = "mix.prim.unsqueeze"(%316) <{axis = 1 : i32}> : (tensor<40x160xf16>) -> tensor<40x1x160xf16>
    %318 = "mix.prim.slice"(%317) <{dim = 2 : i64, end = 2147483647 : i64, start = 0 : i64, step = 1 : i64}> : (tensor<40x1x160xf16>) -> tensor<40x1x160xf16>
    %319 = "mix.prim.constant"() <{value = 1.000000e+00 : f16}> : () -> f16
    %320 = "mix.prim.mul"(%318, %319) : (tensor<40x1x160xf16>, f16) -> tensor<40x1x160xf16>
    %321 = "mix.prim.slice"(%314) <{dim = 0 : i64, end = 40 : i64, start = 0 : i64, step = 1 : i64}> : (tensor<40x1x160xf16>) -> tensor<40x1x160xf16>
    %322 = "mix.prim.slice"(%320) <{dim = 0 : i64, end = 40 : i64, start = 0 : i64, step = 1 : i64}> : (tensor<40x1x160xf16>) -> tensor<40x1x160xf16>
    %323 = "mix.prim.mul"(%291, %321) : (tensor<40x32x160xf16>, tensor<40x1x160xf16>) -> tensor<40x32x160xf16>
    %324 = "mix.prim.slice"(%291) <{dim = 2 : i64, end = 80 : i64, start = 0 : i64, step = 1 : i64}> : (tensor<40x32x160xf16>) -> tensor<40x32x80xf16>
    %325 = "mix.prim.slice"(%291) <{dim = 2 : i64, end = 2147483647 : i64, start = 80 : i64, step = 1 : i64}> : (tensor<40x32x160xf16>) -> tensor<40x32x80xf16>
    %326 = "mix.prim.neg"(%325) : (tensor<40x32x80xf16>) -> tensor<40x32x80xf16>
    %327 = "mix.prim.concat"(%326, %324) <{axis = 2 : i64}> : (tensor<40x32x80xf16>, tensor<40x32x80xf16>) -> tensor<40x32x160xf16>
    %328 = "mix.prim.mul"(%327, %322) : (tensor<40x32x160xf16>, tensor<40x1x160xf16>) -> tensor<40x32x160xf16>
    %329 = "mix.prim.add"(%323, %328) : (tensor<40x32x160xf16>, tensor<40x32x160xf16>) -> tensor<40x32x160xf16>
    %330 = "mix.prim.mul"(%292, %321) : (tensor<40x32x160xf16>, tensor<40x1x160xf16>) -> tensor<40x32x160xf16>
    %331 = "mix.prim.slice"(%292) <{dim = 2 : i64, end = 80 : i64, start = 0 : i64, step = 1 : i64}> : (tensor<40x32x160xf16>) -> tensor<40x32x80xf16>
    %332 = "mix.prim.slice"(%292) <{dim = 2 : i64, end = 2147483647 : i64, start = 80 : i64, step = 1 : i64}> : (tensor<40x32x160xf16>) -> tensor<40x32x80xf16>
    %333 = "mix.prim.neg"(%332) : (tensor<40x32x80xf16>) -> tensor<40x32x80xf16>
    %334 = "mix.prim.concat"(%333, %331) <{axis = 2 : i64}> : (tensor<40x32x80xf16>, tensor<40x32x80xf16>) -> tensor<40x32x160xf16>
    %335 = "mix.prim.mul"(%334, %322) : (tensor<40x32x160xf16>, tensor<40x1x160xf16>) -> tensor<40x32x160xf16>
    %336 = "mix.prim.add"(%330, %335) : (tensor<40x32x160xf16>, tensor<40x32x160xf16>) -> tensor<40x32x160xf16>
    %337 = "mix.prim.reshape"(%329) <{shape = [40, 1, 32, 160]}> : (tensor<40x32x160xf16>) -> tensor<40x1x32x160xf16>
    %338 = "mix.prim.reshape"(%336) <{shape = [40, 1, 32, 160]}> : (tensor<40x32x160xf16>) -> tensor<40x1x32x160xf16>
    %339 = "mix.prim.reshape"(%337) <{shape = [40, 32, 160]}> : (tensor<40x1x32x160xf16>) -> tensor<40x32x160xf16>
    %340 = "mix.prim.reshape"(%338) <{shape = [40, 32, 160]}> : (tensor<40x1x32x160xf16>) -> tensor<40x32x160xf16>
    %341 = "mix.prim.transpose"(%339) <{dim1 = 0 : i32, dim2 = 1 : i32}> : (tensor<40x32x160xf16>) -> tensor<32x40x160xf16>
    %342 = "mix.prim.transpose"(%340) <{dim1 = 0 : i32, dim2 = 1 : i32}> : (tensor<40x32x160xf16>) -> tensor<32x40x160xf16>
    %343 = "mix.prim.transpose"(%342) <{dim1 = 1 : i32, dim2 = 2 : i32}> : (tensor<32x40x160xf16>) -> tensor<32x160x40xf16>
    %344 = "mix.prim.unsqueeze"(%341) <{axis = 3 : i32}> : (tensor<32x40x160xf16>) -> tensor<32x40x160x1xf16>
    %345 = "mix.prim.permute"(%344) <{dims = [0, 1, 3, 2]}> : (tensor<32x40x160x1xf16>) -> tensor<32x40x1x160xf16>
    %346 = "mix.prim.unsqueeze"(%343) <{axis = 3 : i32}> : (tensor<32x160x40xf16>) -> tensor<32x160x40x1xf16>
    %347 = "mix.prim.permute"(%346) <{dims = [0, 3, 2, 1]}> : (tensor<32x160x40x1xf16>) -> tensor<32x1x40x160xf16>
    %348 = "mix.prim.permute"(%345) <{dims = [0, 1, 3, 2]}> : (tensor<32x40x1x160xf16>) -> tensor<32x40x160x1xf16>
    %349 = "mix.prim.reshape"(%348) <{shape = [32, 40, 160]}> : (tensor<32x40x160x1xf16>) -> tensor<32x40x160xf16>
    %350 = "mix.prim.permute"(%347) <{dims = [0, 3, 2, 1]}> : (tensor<32x1x40x160xf16>) -> tensor<32x160x40x1xf16>
    %351 = "mix.prim.reshape"(%350) <{shape = [32, 160, 40]}> : (tensor<32x160x40x1xf16>) -> tensor<32x160x40xf16>
    %352 = "mix.prim.batch_matmul"(%349, %351) : (tensor<32x40x160xf16>, tensor<32x160x40xf16>) -> tensor<32x40x40xf16>
    %353 = "mix.prim.reshape"(%352) <{shape = [32, 40, 1, 40]}> : (tensor<32x40x40xf16>) -> tensor<32x40x1x40xf16>
    %354 = "mix.prim.permute"(%353) <{dims = [0, 1, 3, 2]}> : (tensor<32x40x1x40xf16>) -> tensor<32x40x40x1xf16>
    %355 = "mix.prim.reshape"(%354) <{shape = [32, 40, 40]}> : (tensor<32x40x40x1xf16>) -> tensor<32x40x40xf16>
    %356 = "mix.prim.constant"() <{value = 7.904050e-02 : f16}> : () -> f16
    %357 = "mix.prim.mul"(%355, %356) : (tensor<32x40x40xf16>, f16) -> tensor<32x40x40xf16>
    %358 = "mix.prim.reshape"(%357) <{shape = [1, 32, 40, 40]}> : (tensor<32x40x40xf16>) -> tensor<1x32x40x40xf16>
    %359 = "mix.prim.constant"() <{value = 0xFC00 : f16}> : () -> f16
    %360 = "mix.comp.masked_fill"(%358, %14, %359) : (tensor<1x32x40x40xf16>, tensor<1x1x40x40xi1>, f16) -> tensor<1x32x40x40xf16>
    %361 = "mix.comp.softmax"(%360) <{axis = -1 : si32}> : (tensor<1x32x40x40xf16>) -> tensor<1x32x40x40xf16>
    %362 = "mix.prim.reshape"(%361) <{shape = [32, 40, 40]}> : (tensor<1x32x40x40xf16>) -> tensor<32x40x40xf16>
    %363 = "mix.prim.reshape"(%290) <{shape = [40, 32, 160]}> : (tensor<40x1x32x160xf16>) -> tensor<40x32x160xf16>
    %364 = "mix.prim.transpose"(%363) <{dim1 = 0 : i32, dim2 = 1 : i32}> : (tensor<40x32x160xf16>) -> tensor<32x40x160xf16>
    %365 = "mix.prim.batch_matmul"(%362, %364) : (tensor<32x40x40xf16>, tensor<32x40x160xf16>) -> tensor<32x40x160xf16>
    %366 = "mix.prim.reshape"(%365) <{shape = [1, 32, 40, 160]}> : (tensor<32x40x160xf16>) -> tensor<1x32x40x160xf16>
    %367 = "mix.prim.permute"(%366) <{dims = [0, 2, 1, 3]}> : (tensor<1x32x40x160xf16>) -> tensor<1x40x32x160xf16>
    %368 = "mix.prim.reshape"(%367) <{shape = [1, 40, 5120]}> : (tensor<1x40x32x160xf16>) -> tensor<1x40x5120xf16>
    %369 = "mix.prim.reshape"(%368) <{shape = [40, 5120]}> : (tensor<1x40x5120xf16>) -> tensor<40x5120xf16>
    %370 = "mix.prim.transpose"(%276) <{dim1 = 0 : i32, dim2 = 1 : i32}> : (tensor<5120x5120xf16>) -> tensor<5120x5120xf16>
    %371 = "mix.prim.matmul"(%369, %370) : (tensor<40x5120xf16>, tensor<5120x5120xf16>) -> tensor<40x5120xf16>
    %372 = "mix.prim.add"(%371, %277) : (tensor<40x5120xf16>, tensor<5120xf16>) -> tensor<40x5120xf16>
    %373 = "mix.prim.reshape"(%372) <{shape = [1, 40, 5120]}> : (tensor<40x5120xf16>) -> tensor<1x40x5120xf16>
    %374 = "mix.prim.mul"(%264, %373) : (tensor<1x40x5120xf16>, tensor<1x40x5120xf16>) -> tensor<1x40x5120xf16>
    %375 = "mix.comp.weight"() <{param_loc = "transformer.h.2.post_attention_layernorm.weight"}> : () -> tensor<5120xf16>
    %376 = "mix.prim.constant"() <{value = dense<1.000000e+00> : tensor<1xf16>}> : () -> tensor<1xf16>
    %377 = "mix.prim.pow"(%374, %376) : (tensor<1x40x5120xf16>, tensor<1xf16>) -> tensor<1x40x5120xf16>
    %378 = "mix.comp.mean"(%377) <{dims = [2 : i32], keepDim = true}> : (tensor<1x40x5120xf16>) -> tensor<1x40x1xf16>
    %379 = "mix.prim.constant"() <{value = 1.013280e-06 : f16}> : () -> f16
    %380 = "mix.prim.add"(%378, %379) : (tensor<1x40x1xf16>, f16) -> tensor<1x40x1xf16>
    %381 = "mix.prim.rsqrt"(%380) : (tensor<1x40x1xf16>) -> tensor<1x40x1xf16>
    %382 = "mix.prim.mul"(%374, %381) : (tensor<1x40x5120xf16>, tensor<1x40x1xf16>) -> tensor<1x40x5120xf16>
    %383 = "mix.prim.mul"(%375, %382) : (tensor<5120xf16>, tensor<1x40x5120xf16>) -> tensor<1x40x5120xf16>
    %384 = "mix.module.linear"(%383) <{dtype = f16, in_feature = 5120 : i32, out_feature = 12288 : i32, params_loc = "transformer.h.2.mlp.gate_proj"}> : (tensor<1x40x5120xf16>) -> tensor<1x40x12288xf16>
    %385 = "mix.comp.silu"(%384) : (tensor<1x40x12288xf16>) -> tensor<1x40x12288xf16>
    %386 = "mix.module.linear"(%383) <{dtype = f16, in_feature = 5120 : i32, out_feature = 12288 : i32, params_loc = "transformer.h.2.mlp.up_proj"}> : (tensor<1x40x5120xf16>) -> tensor<1x40x12288xf16>
    %387 = "mix.prim.mul"(%385, %386) : (tensor<1x40x12288xf16>, tensor<1x40x12288xf16>) -> tensor<1x40x12288xf16>
    %388 = "mix.module.linear"(%387) <{dtype = f16, has_bias, in_feature = 12288 : i32, out_feature = 5120 : i32, params_loc = "transformer.h.2.mlp.down_proj"}> : (tensor<1x40x12288xf16>) -> tensor<1x40x5120xf16>
    %389 = "mix.prim.add"(%388, %374) : (tensor<1x40x5120xf16>, tensor<1x40x5120xf16>) -> tensor<1x40x5120xf16>
    %390 = "mix.comp.weight"() <{param_loc = "transformer.h.3.input_layernorm.weight"}> : () -> tensor<5120xf16>
    %391 = "mix.prim.constant"() <{value = dense<1.000000e+00> : tensor<1xf16>}> : () -> tensor<1xf16>
    %392 = "mix.prim.pow"(%389, %391) : (tensor<1x40x5120xf16>, tensor<1xf16>) -> tensor<1x40x5120xf16>
    %393 = "mix.comp.mean"(%392) <{dims = [2 : i32], keepDim = true}> : (tensor<1x40x5120xf16>) -> tensor<1x40x1xf16>
    %394 = "mix.prim.constant"() <{value = 1.013280e-06 : f16}> : () -> f16
    %395 = "mix.prim.add"(%393, %394) : (tensor<1x40x1xf16>, f16) -> tensor<1x40x1xf16>
    %396 = "mix.prim.rsqrt"(%395) : (tensor<1x40x1xf16>) -> tensor<1x40x1xf16>
    %397 = "mix.prim.mul"(%389, %396) : (tensor<1x40x5120xf16>, tensor<1x40x1xf16>) -> tensor<1x40x5120xf16>
    %398 = "mix.prim.mul"(%390, %397) : (tensor<5120xf16>, tensor<1x40x5120xf16>) -> tensor<1x40x5120xf16>
    %399 = "mix.comp.weight"() <{param_loc = "transformer.h.3.self_attention.query.weight"}> : () -> tensor<5120x5120xf16>
    %400 = "mix.comp.weight"() <{param_loc = "transformer.h.3.self_attention.key_value.weight"}> : () -> tensor<10240x5120xf16>
    %401 = "mix.comp.weight"() <{param_loc = "transformer.h.3.self_attention.dense.weight"}> : () -> tensor<5120x5120xf16>
    %402 = "mix.comp.weight"() <{param_loc = "transformer.h.3.self_attention.dense.bias"}> : () -> tensor<5120xf16>
    %403 = "mix.prim.transpose"(%398) <{dim1 = 0 : i32, dim2 = 1 : i32}> : (tensor<1x40x5120xf16>) -> tensor<40x1x5120xf16>
    %404 = "mix.prim.transpose"(%399) <{dim1 = 0 : i32, dim2 = 1 : i32}> : (tensor<5120x5120xf16>) -> tensor<5120x5120xf16>
    %405 = "mix.prim.reshape"(%403) <{shape = [40, 5120]}> : (tensor<40x1x5120xf16>) -> tensor<40x5120xf16>
    %406 = "mix.prim.matmul"(%405, %404) : (tensor<40x5120xf16>, tensor<5120x5120xf16>) -> tensor<40x5120xf16>
    %407 = "mix.prim.reshape"(%406) <{shape = [40, 1, 5120]}> : (tensor<40x5120xf16>) -> tensor<40x1x5120xf16>
    %408 = "mix.prim.reshape"(%407) <{shape = [40, 1, 32, 160]}> : (tensor<40x1x5120xf16>) -> tensor<40x1x32x160xf16>
    %409 = "mix.prim.transpose"(%400) <{dim1 = 0 : i32, dim2 = 1 : i32}> : (tensor<10240x5120xf16>) -> tensor<5120x10240xf16>
    %410 = "mix.prim.reshape"(%403) <{shape = [40, 5120]}> : (tensor<40x1x5120xf16>) -> tensor<40x5120xf16>
    %411 = "mix.prim.matmul"(%410, %409) : (tensor<40x5120xf16>, tensor<5120x10240xf16>) -> tensor<40x10240xf16>
    %412 = "mix.prim.reshape"(%411) <{shape = [40, 1, 10240]}> : (tensor<40x10240xf16>) -> tensor<40x1x10240xf16>
    %413 = "mix.prim.reshape"(%412) <{shape = [40, 1, 32, 320]}> : (tensor<40x1x10240xf16>) -> tensor<40x1x32x320xf16>
    %414 = "mix.prim.slice"(%413) <{dim = 3 : i64, end = 160 : i64, start = 0 : i64, step = 1 : i64}> : (tensor<40x1x32x320xf16>) -> tensor<40x1x32x160xf16>
    %415 = "mix.prim.slice"(%413) <{dim = 3 : i64, end = 320 : i64, start = 160 : i64, step = 1 : i64}> : (tensor<40x1x32x320xf16>) -> tensor<40x1x32x160xf16>
    %416 = "mix.prim.reshape"(%408) <{shape = [40, 32, -1]}> : (tensor<40x1x32x160xf16>) -> tensor<40x32x160xf16>
    %417 = "mix.prim.reshape"(%414) <{shape = [40, 32, -1]}> : (tensor<40x1x32x160xf16>) -> tensor<40x32x160xf16>
    %418 = "mix.prim.constant"() <{value = dense<[0, 2, 4, 6, 8, 10, 12, 14, 16, 18, 20, 22, 24, 26, 28, 30, 32, 34, 36, 38, 40, 42, 44, 46, 48, 50, 52, 54, 56, 58, 60, 62, 64, 66, 68, 70, 72, 74, 76, 78, 80, 82, 84, 86, 88, 90, 92, 94, 96, 98, 100, 102, 104, 106, 108, 110, 112, 114, 116, 118, 120, 122, 124, 126, 128, 130, 132, 134, 136, 138, 140, 142, 144, 146, 148, 150, 152, 154, 156, 158]> : tensor<80xi32>}> : () -> tensor<80xi32>
    %419 = "mix.prim.convert"(%418) <{element_ty = f16}> : (tensor<80xi32>) -> tensor<80xf16>
    %420 = "mix.prim.constant"() <{value = 1.600000e+02 : f16}> : () -> f16
    %421 = "mix.prim.div"(%419, %420) : (tensor<80xf16>, f16) -> tensor<80xf16>
    %422 = "mix.prim.constant"() <{value = 3.041600e+04 : f16}> : () -> f16
    %423 = "mix.prim.pow"(%422, %421) : (f16, tensor<80xf16>) -> tensor<80xf16>
    %424 = "mix.prim.reciprocal"(%423) : (tensor<80xf16>) -> tensor<80xf16>
    %425 = "mix.prim.constant"() <{value = 1.000000e+00 : f16}> : () -> f16
    %426 = "mix.prim.mul"(%425, %424) : (f16, tensor<80xf16>) -> tensor<80xf16>
    %427 = "mix.prim.constant"() <{value = dense<[… > : tensor<40xf16>}> : () -> tensor<40xf16>
    %428 = "mix.prim.unsqueeze"(%427) <{axis = 1 : i32}> : (tensor<40xf16>) -> tensor<40x1xf16>
    %429 = "mix.prim.permute"(%428) <{dims = [0, 1]}> : (tensor<40x1xf16>) -> tensor<40x1xf16>
    %430 = "mix.prim.unsqueeze"(%426) <{axis = 1 : i32}> : (tensor<80xf16>) -> tensor<80x1xf16>
    %431 = "mix.prim.permute"(%430) <{dims = [1, 0]}> : (tensor<80x1xf16>) -> tensor<1x80xf16>
    %432 = "mix.prim.mul"(%429, %431) : (tensor<40x1xf16>, tensor<1x80xf16>) -> tensor<40x80xf16>
    %433 = "mix.prim.concat"(%432, %432) <{axis = 1 : i64}> : (tensor<40x80xf16>, tensor<40x80xf16>) -> tensor<40x160xf16>
    %434 = "mix.prim.cos"(%433) : (tensor<40x160xf16>) -> tensor<40x160xf16>
    %435 = "mix.prim.slice"(%434) <{dim = 0 : i64, end = 2147483647 : i64, start = 0 : i64, step = 1 : i64}> : (tensor<40x160xf16>) -> tensor<40x160xf16>
    %436 = "mix.prim.unsqueeze"(%435) <{axis = 1 : i32}> : (tensor<40x160xf16>) -> tensor<40x1x160xf16>
    %437 = "mix.prim.slice"(%436) <{dim = 2 : i64, end = 2147483647 : i64, start = 0 : i64, step = 1 : i64}> : (tensor<40x1x160xf16>) -> tensor<40x1x160xf16>
    %438 = "mix.prim.constant"() <{value = 1.000000e+00 : f16}> : () -> f16
    %439 = "mix.prim.mul"(%437, %438) : (tensor<40x1x160xf16>, f16) -> tensor<40x1x160xf16>
    %440 = "mix.prim.sin"(%433) : (tensor<40x160xf16>) -> tensor<40x160xf16>
    %441 = "mix.prim.slice"(%440) <{dim = 0 : i64, end = 2147483647 : i64, start = 0 : i64, step = 1 : i64}> : (tensor<40x160xf16>) -> tensor<40x160xf16>
    %442 = "mix.prim.unsqueeze"(%441) <{axis = 1 : i32}> : (tensor<40x160xf16>) -> tensor<40x1x160xf16>
    %443 = "mix.prim.slice"(%442) <{dim = 2 : i64, end = 2147483647 : i64, start = 0 : i64, step = 1 : i64}> : (tensor<40x1x160xf16>) -> tensor<40x1x160xf16>
    %444 = "mix.prim.constant"() <{value = 1.000000e+00 : f16}> : () -> f16
    %445 = "mix.prim.mul"(%443, %444) : (tensor<40x1x160xf16>, f16) -> tensor<40x1x160xf16>
    %446 = "mix.prim.slice"(%439) <{dim = 0 : i64, end = 40 : i64, start = 0 : i64, step = 1 : i64}> : (tensor<40x1x160xf16>) -> tensor<40x1x160xf16>
    %447 = "mix.prim.slice"(%445) <{dim = 0 : i64, end = 40 : i64, start = 0 : i64, step = 1 : i64}> : (tensor<40x1x160xf16>) -> tensor<40x1x160xf16>
    %448 = "mix.prim.mul"(%416, %446) : (tensor<40x32x160xf16>, tensor<40x1x160xf16>) -> tensor<40x32x160xf16>
    %449 = "mix.prim.slice"(%416) <{dim = 2 : i64, end = 80 : i64, start = 0 : i64, step = 1 : i64}> : (tensor<40x32x160xf16>) -> tensor<40x32x80xf16>
    %450 = "mix.prim.slice"(%416) <{dim = 2 : i64, end = 2147483647 : i64, start = 80 : i64, step = 1 : i64}> : (tensor<40x32x160xf16>) -> tensor<40x32x80xf16>
    %451 = "mix.prim.neg"(%450) : (tensor<40x32x80xf16>) -> tensor<40x32x80xf16>
    %452 = "mix.prim.concat"(%451, %449) <{axis = 2 : i64}> : (tensor<40x32x80xf16>, tensor<40x32x80xf16>) -> tensor<40x32x160xf16>
    %453 = "mix.prim.mul"(%452, %447) : (tensor<40x32x160xf16>, tensor<40x1x160xf16>) -> tensor<40x32x160xf16>
    %454 = "mix.prim.add"(%448, %453) : (tensor<40x32x160xf16>, tensor<40x32x160xf16>) -> tensor<40x32x160xf16>
    %455 = "mix.prim.mul"(%417, %446) : (tensor<40x32x160xf16>, tensor<40x1x160xf16>) -> tensor<40x32x160xf16>
    %456 = "mix.prim.slice"(%417) <{dim = 2 : i64, end = 80 : i64, start = 0 : i64, step = 1 : i64}> : (tensor<40x32x160xf16>) -> tensor<40x32x80xf16>
    %457 = "mix.prim.slice"(%417) <{dim = 2 : i64, end = 2147483647 : i64, start = 80 : i64, step = 1 : i64}> : (tensor<40x32x160xf16>) -> tensor<40x32x80xf16>
    %458 = "mix.prim.neg"(%457) : (tensor<40x32x80xf16>) -> tensor<40x32x80xf16>
    %459 = "mix.prim.concat"(%458, %456) <{axis = 2 : i64}> : (tensor<40x32x80xf16>, tensor<40x32x80xf16>) -> tensor<40x32x160xf16>
    %460 = "mix.prim.mul"(%459, %447) : (tensor<40x32x160xf16>, tensor<40x1x160xf16>) -> tensor<40x32x160xf16>
    %461 = "mix.prim.add"(%455, %460) : (tensor<40x32x160xf16>, tensor<40x32x160xf16>) -> tensor<40x32x160xf16>
    %462 = "mix.prim.reshape"(%454) <{shape = [40, 1, 32, 160]}> : (tensor<40x32x160xf16>) -> tensor<40x1x32x160xf16>
    %463 = "mix.prim.reshape"(%461) <{shape = [40, 1, 32, 160]}> : (tensor<40x32x160xf16>) -> tensor<40x1x32x160xf16>
    %464 = "mix.prim.reshape"(%462) <{shape = [40, 32, 160]}> : (tensor<40x1x32x160xf16>) -> tensor<40x32x160xf16>
    %465 = "mix.prim.reshape"(%463) <{shape = [40, 32, 160]}> : (tensor<40x1x32x160xf16>) -> tensor<40x32x160xf16>
    %466 = "mix.prim.transpose"(%464) <{dim1 = 0 : i32, dim2 = 1 : i32}> : (tensor<40x32x160xf16>) -> tensor<32x40x160xf16>
    %467 = "mix.prim.transpose"(%465) <{dim1 = 0 : i32, dim2 = 1 : i32}> : (tensor<40x32x160xf16>) -> tensor<32x40x160xf16>
    %468 = "mix.prim.transpose"(%467) <{dim1 = 1 : i32, dim2 = 2 : i32}> : (tensor<32x40x160xf16>) -> tensor<32x160x40xf16>
    %469 = "mix.prim.unsqueeze"(%466) <{axis = 3 : i32}> : (tensor<32x40x160xf16>) -> tensor<32x40x160x1xf16>
    %470 = "mix.prim.permute"(%469) <{dims = [0, 1, 3, 2]}> : (tensor<32x40x160x1xf16>) -> tensor<32x40x1x160xf16>
    %471 = "mix.prim.unsqueeze"(%468) <{axis = 3 : i32}> : (tensor<32x160x40xf16>) -> tensor<32x160x40x1xf16>
    %472 = "mix.prim.permute"(%471) <{dims = [0, 3, 2, 1]}> : (tensor<32x160x40x1xf16>) -> tensor<32x1x40x160xf16>
    %473 = "mix.prim.permute"(%470) <{dims = [0, 1, 3, 2]}> : (tensor<32x40x1x160xf16>) -> tensor<32x40x160x1xf16>
    %474 = "mix.prim.reshape"(%473) <{shape = [32, 40, 160]}> : (tensor<32x40x160x1xf16>) -> tensor<32x40x160xf16>
    %475 = "mix.prim.permute"(%472) <{dims = [0, 3, 2, 1]}> : (tensor<32x1x40x160xf16>) -> tensor<32x160x40x1xf16>
    %476 = "mix.prim.reshape"(%475) <{shape = [32, 160, 40]}> : (tensor<32x160x40x1xf16>) -> tensor<32x160x40xf16>
    %477 = "mix.prim.batch_matmul"(%474, %476) : (tensor<32x40x160xf16>, tensor<32x160x40xf16>) -> tensor<32x40x40xf16>
    %478 = "mix.prim.reshape"(%477) <{shape = [32, 40, 1, 40]}> : (tensor<32x40x40xf16>) -> tensor<32x40x1x40xf16>
    %479 = "mix.prim.permute"(%478) <{dims = [0, 1, 3, 2]}> : (tensor<32x40x1x40xf16>) -> tensor<32x40x40x1xf16>
    %480 = "mix.prim.reshape"(%479) <{shape = [32, 40, 40]}> : (tensor<32x40x40x1xf16>) -> tensor<32x40x40xf16>
    %481 = "mix.prim.constant"() <{value = 7.904050e-02 : f16}> : () -> f16
    %482 = "mix.prim.mul"(%480, %481) : (tensor<32x40x40xf16>, f16) -> tensor<32x40x40xf16>
    %483 = "mix.prim.reshape"(%482) <{shape = [1, 32, 40, 40]}> : (tensor<32x40x40xf16>) -> tensor<1x32x40x40xf16>
    %484 = "mix.prim.constant"() <{value = 0xFC00 : f16}> : () -> f16
    %485 = "mix.comp.masked_fill"(%483, %14, %484) : (tensor<1x32x40x40xf16>, tensor<1x1x40x40xi1>, f16) -> tensor<1x32x40x40xf16>
    %486 = "mix.comp.softmax"(%485) <{axis = -1 : si32}> : (tensor<1x32x40x40xf16>) -> tensor<1x32x40x40xf16>
    %487 = "mix.prim.reshape"(%486) <{shape = [32, 40, 40]}> : (tensor<1x32x40x40xf16>) -> tensor<32x40x40xf16>
    %488 = "mix.prim.reshape"(%415) <{shape = [40, 32, 160]}> : (tensor<40x1x32x160xf16>) -> tensor<40x32x160xf16>
    %489 = "mix.prim.transpose"(%488) <{dim1 = 0 : i32, dim2 = 1 : i32}> : (tensor<40x32x160xf16>) -> tensor<32x40x160xf16>
    %490 = "mix.prim.batch_matmul"(%487, %489) : (tensor<32x40x40xf16>, tensor<32x40x160xf16>) -> tensor<32x40x160xf16>
    %491 = "mix.prim.reshape"(%490) <{shape = [1, 32, 40, 160]}> : (tensor<32x40x160xf16>) -> tensor<1x32x40x160xf16>
    %492 = "mix.prim.permute"(%491) <{dims = [0, 2, 1, 3]}> : (tensor<1x32x40x160xf16>) -> tensor<1x40x32x160xf16>
    %493 = "mix.prim.reshape"(%492) <{shape = [1, 40, 5120]}> : (tensor<1x40x32x160xf16>) -> tensor<1x40x5120xf16>
    %494 = "mix.prim.reshape"(%493) <{shape = [40, 5120]}> : (tensor<1x40x5120xf16>) -> tensor<40x5120xf16>
    %495 = "mix.prim.transpose"(%401) <{dim1 = 0 : i32, dim2 = 1 : i32}> : (tensor<5120x5120xf16>) -> tensor<5120x5120xf16>
    %496 = "mix.prim.matmul"(%494, %495) : (tensor<40x5120xf16>, tensor<5120x5120xf16>) -> tensor<40x5120xf16>
    %497 = "mix.prim.add"(%496, %402) : (tensor<40x5120xf16>, tensor<5120xf16>) -> tensor<40x5120xf16>
    %498 = "mix.prim.reshape"(%497) <{shape = [1, 40, 5120]}> : (tensor<40x5120xf16>) -> tensor<1x40x5120xf16>
    %499 = "mix.prim.mul"(%389, %498) : (tensor<1x40x5120xf16>, tensor<1x40x5120xf16>) -> tensor<1x40x5120xf16>
    %500 = "mix.comp.weight"() <{param_loc = "transformer.h.3.post_attention_layernorm.weight"}> : () -> tensor<5120xf16>
    %501 = "mix.prim.constant"() <{value = dense<1.000000e+00> : tensor<1xf16>}> : () -> tensor<1xf16>
    %502 = "mix.prim.pow"(%499, %501) : (tensor<1x40x5120xf16>, tensor<1xf16>) -> tensor<1x40x5120xf16>
    %503 = "mix.comp.mean"(%502) <{dims = [2 : i32], keepDim = true}> : (tensor<1x40x5120xf16>) -> tensor<1x40x1xf16>
    %504 = "mix.prim.constant"() <{value = 1.013280e-06 : f16}> : () -> f16
    %505 = "mix.prim.add"(%503, %504) : (tensor<1x40x1xf16>, f16) -> tensor<1x40x1xf16>
    %506 = "mix.prim.rsqrt"(%505) : (tensor<1x40x1xf16>) -> tensor<1x40x1xf16>
    %507 = "mix.prim.mul"(%499, %506) : (tensor<1x40x5120xf16>, tensor<1x40x1xf16>) -> tensor<1x40x5120xf16>
    %508 = "mix.prim.mul"(%500, %507) : (tensor<5120xf16>, tensor<1x40x5120xf16>) -> tensor<1x40x5120xf16>
    %509 = "mix.module.linear"(%508) <{dtype = f16, in_feature = 5120 : i32, out_feature = 12288 : i32, params_loc = "transformer.h.3.mlp.gate_proj"}> : (tensor<1x40x5120xf16>) -> tensor<1x40x12288xf16>
    %510 = "mix.comp.silu"(%509) : (tensor<1x40x12288xf16>) -> tensor<1x40x12288xf16>
    %511 = "mix.module.linear"(%508) <{dtype = f16, in_feature = 5120 : i32, out_feature = 12288 : i32, params_loc = "transformer.h.3.mlp.up_proj"}> : (tensor<1x40x5120xf16>) -> tensor<1x40x12288xf16>
    %512 = "mix.prim.mul"(%510, %511) : (tensor<1x40x12288xf16>, tensor<1x40x12288xf16>) -> tensor<1x40x12288xf16>
    %513 = "mix.module.linear"(%512) <{dtype = f16, has_bias, in_feature = 12288 : i32, out_feature = 5120 : i32, params_loc = "transformer.h.3.mlp.down_proj"}> : (tensor<1x40x12288xf16>) -> tensor<1x40x5120xf16>
    %514 = "mix.prim.add"(%513, %499) : (tensor<1x40x5120xf16>, tensor<1x40x5120xf16>) -> tensor<1x40x5120xf16>
    %515 = "mix.comp.weight"() <{param_loc = "transformer.h.4.input_layernorm.weight"}> : () -> tensor<5120xf16>
    %516 = "mix.prim.constant"() <{value = dense<1.000000e+00> : tensor<1xf16>}> : () -> tensor<1xf16>
    %517 = "mix.prim.pow"(%514, %516) : (tensor<1x40x5120xf16>, tensor<1xf16>) -> tensor<1x40x5120xf16>
    %518 = "mix.comp.mean"(%517) <{dims = [2 : i32], keepDim = true}> : (tensor<1x40x5120xf16>) -> tensor<1x40x1xf16>
    %519 = "mix.prim.constant"() <{value = 1.013280e-06 : f16}> : () -> f16
    %520 = "mix.prim.add"(%518, %519) : (tensor<1x40x1xf16>, f16) -> tensor<1x40x1xf16>
    %521 = "mix.prim.rsqrt"(%520) : (tensor<1x40x1xf16>) -> tensor<1x40x1xf16>
    %522 = "mix.prim.mul"(%514, %521) : (tensor<1x40x5120xf16>, tensor<1x40x1xf16>) -> tensor<1x40x5120xf16>
    %523 = "mix.prim.mul"(%515, %522) : (tensor<5120xf16>, tensor<1x40x5120xf16>) -> tensor<1x40x5120xf16>
    %524 = "mix.comp.weight"() <{param_loc = "transformer.h.4.self_attention.query.weight"}> : () -> tensor<5120x5120xf16>
    %525 = "mix.comp.weight"() <{param_loc = "transformer.h.4.self_attention.key_value.weight"}> : () -> tensor<10240x5120xf16>
    %526 = "mix.comp.weight"() <{param_loc = "transformer.h.4.self_attention.dense.weight"}> : () -> tensor<5120x5120xf16>
    %527 = "mix.comp.weight"() <{param_loc = "transformer.h.4.self_attention.dense.bias"}> : () -> tensor<5120xf16>
    %528 = "mix.prim.transpose"(%523) <{dim1 = 0 : i32, dim2 = 1 : i32}> : (tensor<1x40x5120xf16>) -> tensor<40x1x5120xf16>
    %529 = "mix.prim.transpose"(%524) <{dim1 = 0 : i32, dim2 = 1 : i32}> : (tensor<5120x5120xf16>) -> tensor<5120x5120xf16>
    %530 = "mix.prim.reshape"(%528) <{shape = [40, 5120]}> : (tensor<40x1x5120xf16>) -> tensor<40x5120xf16>
    %531 = "mix.prim.matmul"(%530, %529) : (tensor<40x5120xf16>, tensor<5120x5120xf16>) -> tensor<40x5120xf16>
    %532 = "mix.prim.reshape"(%531) <{shape = [40, 1, 5120]}> : (tensor<40x5120xf16>) -> tensor<40x1x5120xf16>
    %533 = "mix.prim.reshape"(%532) <{shape = [40, 1, 32, 160]}> : (tensor<40x1x5120xf16>) -> tensor<40x1x32x160xf16>
    %534 = "mix.prim.transpose"(%525) <{dim1 = 0 : i32, dim2 = 1 : i32}> : (tensor<10240x5120xf16>) -> tensor<5120x10240xf16>
    %535 = "mix.prim.reshape"(%528) <{shape = [40, 5120]}> : (tensor<40x1x5120xf16>) -> tensor<40x5120xf16>
    %536 = "mix.prim.matmul"(%535, %534) : (tensor<40x5120xf16>, tensor<5120x10240xf16>) -> tensor<40x10240xf16>
    %537 = "mix.prim.reshape"(%536) <{shape = [40, 1, 10240]}> : (tensor<40x10240xf16>) -> tensor<40x1x10240xf16>
    %538 = "mix.prim.reshape"(%537) <{shape = [40, 1, 32, 320]}> : (tensor<40x1x10240xf16>) -> tensor<40x1x32x320xf16>
    %539 = "mix.prim.slice"(%538) <{dim = 3 : i64, end = 160 : i64, start = 0 : i64, step = 1 : i64}> : (tensor<40x1x32x320xf16>) -> tensor<40x1x32x160xf16>
    %540 = "mix.prim.slice"(%538) <{dim = 3 : i64, end = 320 : i64, start = 160 : i64, step = 1 : i64}> : (tensor<40x1x32x320xf16>) -> tensor<40x1x32x160xf16>
    %541 = "mix.prim.reshape"(%533) <{shape = [40, 32, -1]}> : (tensor<40x1x32x160xf16>) -> tensor<40x32x160xf16>
    %542 = "mix.prim.reshape"(%539) <{shape = [40, 32, -1]}> : (tensor<40x1x32x160xf16>) -> tensor<40x32x160xf16>
    %543 = "mix.prim.constant"() <{value = dense<[0, 2, 4, 6, 8, 10, 12, 14, 16, 18, 20, 22, 24, 26, 28, 30, 32, 34, 36, 38, 40, 42, 44, 46, 48, 50, 52, 54, 56, 58, 60, 62, 64, 66, 68, 70, 72, 74, 76, 78, 80, 82, 84, 86, 88, 90, 92, 94, 96, 98, 100, 102, 104, 106, 108, 110, 112, 114, 116, 118, 120, 122, 124, 126, 128, 130, 132, 134, 136, 138, 140, 142, 144, 146, 148, 150, 152, 154, 156, 158]> : tensor<80xi32>}> : () -> tensor<80xi32>
    %544 = "mix.prim.convert"(%543) <{element_ty = f16}> : (tensor<80xi32>) -> tensor<80xf16>
    %545 = "mix.prim.constant"() <{value = 1.600000e+02 : f16}> : () -> f16
    %546 = "mix.prim.div"(%544, %545) : (tensor<80xf16>, f16) -> tensor<80xf16>
    %547 = "mix.prim.constant"() <{value = 3.041600e+04 : f16}> : () -> f16
    %548 = "mix.prim.pow"(%547, %546) : (f16, tensor<80xf16>) -> tensor<80xf16>
    %549 = "mix.prim.reciprocal"(%548) : (tensor<80xf16>) -> tensor<80xf16>
    %550 = "mix.prim.constant"() <{value = 1.000000e+00 : f16}> : () -> f16
    %551 = "mix.prim.mul"(%550, %549) : (f16, tensor<80xf16>) -> tensor<80xf16>
    %552 = "mix.prim.constant"() <{value = dense<[… > : tensor<40xf16>}> : () -> tensor<40xf16>
    %553 = "mix.prim.unsqueeze"(%552) <{axis = 1 : i32}> : (tensor<40xf16>) -> tensor<40x1xf16>
    %554 = "mix.prim.permute"(%553) <{dims = [0, 1]}> : (tensor<40x1xf16>) -> tensor<40x1xf16>
    %555 = "mix.prim.unsqueeze"(%551) <{axis = 1 : i32}> : (tensor<80xf16>) -> tensor<80x1xf16>
    %556 = "mix.prim.permute"(%555) <{dims = [1, 0]}> : (tensor<80x1xf16>) -> tensor<1x80xf16>
    %557 = "mix.prim.mul"(%554, %556) : (tensor<40x1xf16>, tensor<1x80xf16>) -> tensor<40x80xf16>
    %558 = "mix.prim.concat"(%557, %557) <{axis = 1 : i64}> : (tensor<40x80xf16>, tensor<40x80xf16>) -> tensor<40x160xf16>
    %559 = "mix.prim.cos"(%558) : (tensor<40x160xf16>) -> tensor<40x160xf16>
    %560 = "mix.prim.slice"(%559) <{dim = 0 : i64, end = 2147483647 : i64, start = 0 : i64, step = 1 : i64}> : (tensor<40x160xf16>) -> tensor<40x160xf16>
    %561 = "mix.prim.unsqueeze"(%560) <{axis = 1 : i32}> : (tensor<40x160xf16>) -> tensor<40x1x160xf16>
    %562 = "mix.prim.slice"(%561) <{dim = 2 : i64, end = 2147483647 : i64, start = 0 : i64, step = 1 : i64}> : (tensor<40x1x160xf16>) -> tensor<40x1x160xf16>
    %563 = "mix.prim.constant"() <{value = 1.000000e+00 : f16}> : () -> f16
    %564 = "mix.prim.mul"(%562, %563) : (tensor<40x1x160xf16>, f16) -> tensor<40x1x160xf16>
    %565 = "mix.prim.sin"(%558) : (tensor<40x160xf16>) -> tensor<40x160xf16>
    %566 = "mix.prim.slice"(%565) <{dim = 0 : i64, end = 2147483647 : i64, start = 0 : i64, step = 1 : i64}> : (tensor<40x160xf16>) -> tensor<40x160xf16>
    %567 = "mix.prim.unsqueeze"(%566) <{axis = 1 : i32}> : (tensor<40x160xf16>) -> tensor<40x1x160xf16>
    %568 = "mix.prim.slice"(%567) <{dim = 2 : i64, end = 2147483647 : i64, start = 0 : i64, step = 1 : i64}> : (tensor<40x1x160xf16>) -> tensor<40x1x160xf16>
    %569 = "mix.prim.constant"() <{value = 1.000000e+00 : f16}> : () -> f16
    %570 = "mix.prim.mul"(%568, %569) : (tensor<40x1x160xf16>, f16) -> tensor<40x1x160xf16>
    %571 = "mix.prim.slice"(%564) <{dim = 0 : i64, end = 40 : i64, start = 0 : i64, step = 1 : i64}> : (tensor<40x1x160xf16>) -> tensor<40x1x160xf16>
    %572 = "mix.prim.slice"(%570) <{dim = 0 : i64, end = 40 : i64, start = 0 : i64, step = 1 : i64}> : (tensor<40x1x160xf16>) -> tensor<40x1x160xf16>
    %573 = "mix.prim.mul"(%541, %571) : (tensor<40x32x160xf16>, tensor<40x1x160xf16>) -> tensor<40x32x160xf16>
    %574 = "mix.prim.slice"(%541) <{dim = 2 : i64, end = 80 : i64, start = 0 : i64, step = 1 : i64}> : (tensor<40x32x160xf16>) -> tensor<40x32x80xf16>
    %575 = "mix.prim.slice"(%541) <{dim = 2 : i64, end = 2147483647 : i64, start = 80 : i64, step = 1 : i64}> : (tensor<40x32x160xf16>) -> tensor<40x32x80xf16>
    %576 = "mix.prim.neg"(%575) : (tensor<40x32x80xf16>) -> tensor<40x32x80xf16>
    %577 = "mix.prim.concat"(%576, %574) <{axis = 2 : i64}> : (tensor<40x32x80xf16>, tensor<40x32x80xf16>) -> tensor<40x32x160xf16>
    %578 = "mix.prim.mul"(%577, %572) : (tensor<40x32x160xf16>, tensor<40x1x160xf16>) -> tensor<40x32x160xf16>
    %579 = "mix.prim.add"(%573, %578) : (tensor<40x32x160xf16>, tensor<40x32x160xf16>) -> tensor<40x32x160xf16>
    %580 = "mix.prim.mul"(%542, %571) : (tensor<40x32x160xf16>, tensor<40x1x160xf16>) -> tensor<40x32x160xf16>
    %581 = "mix.prim.slice"(%542) <{dim = 2 : i64, end = 80 : i64, start = 0 : i64, step = 1 : i64}> : (tensor<40x32x160xf16>) -> tensor<40x32x80xf16>
    %582 = "mix.prim.slice"(%542) <{dim = 2 : i64, end = 2147483647 : i64, start = 80 : i64, step = 1 : i64}> : (tensor<40x32x160xf16>) -> tensor<40x32x80xf16>
    %583 = "mix.prim.neg"(%582) : (tensor<40x32x80xf16>) -> tensor<40x32x80xf16>
    %584 = "mix.prim.concat"(%583, %581) <{axis = 2 : i64}> : (tensor<40x32x80xf16>, tensor<40x32x80xf16>) -> tensor<40x32x160xf16>
    %585 = "mix.prim.mul"(%584, %572) : (tensor<40x32x160xf16>, tensor<40x1x160xf16>) -> tensor<40x32x160xf16>
    %586 = "mix.prim.add"(%580, %585) : (tensor<40x32x160xf16>, tensor<40x32x160xf16>) -> tensor<40x32x160xf16>
    %587 = "mix.prim.reshape"(%579) <{shape = [40, 1, 32, 160]}> : (tensor<40x32x160xf16>) -> tensor<40x1x32x160xf16>
    %588 = "mix.prim.reshape"(%586) <{shape = [40, 1, 32, 160]}> : (tensor<40x32x160xf16>) -> tensor<40x1x32x160xf16>
    %589 = "mix.prim.reshape"(%587) <{shape = [40, 32, 160]}> : (tensor<40x1x32x160xf16>) -> tensor<40x32x160xf16>
    %590 = "mix.prim.reshape"(%588) <{shape = [40, 32, 160]}> : (tensor<40x1x32x160xf16>) -> tensor<40x32x160xf16>
    %591 = "mix.prim.transpose"(%589) <{dim1 = 0 : i32, dim2 = 1 : i32}> : (tensor<40x32x160xf16>) -> tensor<32x40x160xf16>
    %592 = "mix.prim.transpose"(%590) <{dim1 = 0 : i32, dim2 = 1 : i32}> : (tensor<40x32x160xf16>) -> tensor<32x40x160xf16>
    %593 = "mix.prim.transpose"(%592) <{dim1 = 1 : i32, dim2 = 2 : i32}> : (tensor<32x40x160xf16>) -> tensor<32x160x40xf16>
    %594 = "mix.prim.unsqueeze"(%591) <{axis = 3 : i32}> : (tensor<32x40x160xf16>) -> tensor<32x40x160x1xf16>
    %595 = "mix.prim.permute"(%594) <{dims = [0, 1, 3, 2]}> : (tensor<32x40x160x1xf16>) -> tensor<32x40x1x160xf16>
    %596 = "mix.prim.unsqueeze"(%593) <{axis = 3 : i32}> : (tensor<32x160x40xf16>) -> tensor<32x160x40x1xf16>
    %597 = "mix.prim.permute"(%596) <{dims = [0, 3, 2, 1]}> : (tensor<32x160x40x1xf16>) -> tensor<32x1x40x160xf16>
    %598 = "mix.prim.permute"(%595) <{dims = [0, 1, 3, 2]}> : (tensor<32x40x1x160xf16>) -> tensor<32x40x160x1xf16>
    %599 = "mix.prim.reshape"(%598) <{shape = [32, 40, 160]}> : (tensor<32x40x160x1xf16>) -> tensor<32x40x160xf16>
    %600 = "mix.prim.permute"(%597) <{dims = [0, 3, 2, 1]}> : (tensor<32x1x40x160xf16>) -> tensor<32x160x40x1xf16>
    %601 = "mix.prim.reshape"(%600) <{shape = [32, 160, 40]}> : (tensor<32x160x40x1xf16>) -> tensor<32x160x40xf16>
    %602 = "mix.prim.batch_matmul"(%599, %601) : (tensor<32x40x160xf16>, tensor<32x160x40xf16>) -> tensor<32x40x40xf16>
    %603 = "mix.prim.reshape"(%602) <{shape = [32, 40, 1, 40]}> : (tensor<32x40x40xf16>) -> tensor<32x40x1x40xf16>
    %604 = "mix.prim.permute"(%603) <{dims = [0, 1, 3, 2]}> : (tensor<32x40x1x40xf16>) -> tensor<32x40x40x1xf16>
    %605 = "mix.prim.reshape"(%604) <{shape = [32, 40, 40]}> : (tensor<32x40x40x1xf16>) -> tensor<32x40x40xf16>
    %606 = "mix.prim.constant"() <{value = 7.904050e-02 : f16}> : () -> f16
    %607 = "mix.prim.mul"(%605, %606) : (tensor<32x40x40xf16>, f16) -> tensor<32x40x40xf16>
    %608 = "mix.prim.reshape"(%607) <{shape = [1, 32, 40, 40]}> : (tensor<32x40x40xf16>) -> tensor<1x32x40x40xf16>
    %609 = "mix.prim.constant"() <{value = 0xFC00 : f16}> : () -> f16
    %610 = "mix.comp.masked_fill"(%608, %14, %609) : (tensor<1x32x40x40xf16>, tensor<1x1x40x40xi1>, f16) -> tensor<1x32x40x40xf16>
    %611 = "mix.comp.softmax"(%610) <{axis = -1 : si32}> : (tensor<1x32x40x40xf16>) -> tensor<1x32x40x40xf16>
    %612 = "mix.prim.reshape"(%611) <{shape = [32, 40, 40]}> : (tensor<1x32x40x40xf16>) -> tensor<32x40x40xf16>
    %613 = "mix.prim.reshape"(%540) <{shape = [40, 32, 160]}> : (tensor<40x1x32x160xf16>) -> tensor<40x32x160xf16>
    %614 = "mix.prim.transpose"(%613) <{dim1 = 0 : i32, dim2 = 1 : i32}> : (tensor<40x32x160xf16>) -> tensor<32x40x160xf16>
    %615 = "mix.prim.batch_matmul"(%612, %614) : (tensor<32x40x40xf16>, tensor<32x40x160xf16>) -> tensor<32x40x160xf16>
    %616 = "mix.prim.reshape"(%615) <{shape = [1, 32, 40, 160]}> : (tensor<32x40x160xf16>) -> tensor<1x32x40x160xf16>
    %617 = "mix.prim.permute"(%616) <{dims = [0, 2, 1, 3]}> : (tensor<1x32x40x160xf16>) -> tensor<1x40x32x160xf16>
    %618 = "mix.prim.reshape"(%617) <{shape = [1, 40, 5120]}> : (tensor<1x40x32x160xf16>) -> tensor<1x40x5120xf16>
    %619 = "mix.prim.reshape"(%618) <{shape = [40, 5120]}> : (tensor<1x40x5120xf16>) -> tensor<40x5120xf16>
    %620 = "mix.prim.transpose"(%526) <{dim1 = 0 : i32, dim2 = 1 : i32}> : (tensor<5120x5120xf16>) -> tensor<5120x5120xf16>
    %621 = "mix.prim.matmul"(%619, %620) : (tensor<40x5120xf16>, tensor<5120x5120xf16>) -> tensor<40x5120xf16>
    %622 = "mix.prim.add"(%621, %527) : (tensor<40x5120xf16>, tensor<5120xf16>) -> tensor<40x5120xf16>
    %623 = "mix.prim.reshape"(%622) <{shape = [1, 40, 5120]}> : (tensor<40x5120xf16>) -> tensor<1x40x5120xf16>
    %624 = "mix.prim.mul"(%514, %623) : (tensor<1x40x5120xf16>, tensor<1x40x5120xf16>) -> tensor<1x40x5120xf16>
    %625 = "mix.comp.weight"() <{param_loc = "transformer.h.4.post_attention_layernorm.weight"}> : () -> tensor<5120xf16>
    %626 = "mix.prim.constant"() <{value = dense<1.000000e+00> : tensor<1xf16>}> : () -> tensor<1xf16>
    %627 = "mix.prim.pow"(%624, %626) : (tensor<1x40x5120xf16>, tensor<1xf16>) -> tensor<1x40x5120xf16>
    %628 = "mix.comp.mean"(%627) <{dims = [2 : i32], keepDim = true}> : (tensor<1x40x5120xf16>) -> tensor<1x40x1xf16>
    %629 = "mix.prim.constant"() <{value = 1.013280e-06 : f16}> : () -> f16
    %630 = "mix.prim.add"(%628, %629) : (tensor<1x40x1xf16>, f16) -> tensor<1x40x1xf16>
    %631 = "mix.prim.rsqrt"(%630) : (tensor<1x40x1xf16>) -> tensor<1x40x1xf16>
    %632 = "mix.prim.mul"(%624, %631) : (tensor<1x40x5120xf16>, tensor<1x40x1xf16>) -> tensor<1x40x5120xf16>
    %633 = "mix.prim.mul"(%625, %632) : (tensor<5120xf16>, tensor<1x40x5120xf16>) -> tensor<1x40x5120xf16>
    %634 = "mix.module.linear"(%633) <{dtype = f16, in_feature = 5120 : i32, out_feature = 12288 : i32, params_loc = "transformer.h.4.mlp.gate_proj"}> : (tensor<1x40x5120xf16>) -> tensor<1x40x12288xf16>
    %635 = "mix.comp.silu"(%634) : (tensor<1x40x12288xf16>) -> tensor<1x40x12288xf16>
    %636 = "mix.module.linear"(%633) <{dtype = f16, in_feature = 5120 : i32, out_feature = 12288 : i32, params_loc = "transformer.h.4.mlp.up_proj"}> : (tensor<1x40x5120xf16>) -> tensor<1x40x12288xf16>
    %637 = "mix.prim.mul"(%635, %636) : (tensor<1x40x12288xf16>, tensor<1x40x12288xf16>) -> tensor<1x40x12288xf16>
    %638 = "mix.module.linear"(%637) <{dtype = f16, has_bias, in_feature = 12288 : i32, out_feature = 5120 : i32, params_loc = "transformer.h.4.mlp.down_proj"}> : (tensor<1x40x12288xf16>) -> tensor<1x40x5120xf16>
    %639 = "mix.prim.add"(%638, %624) : (tensor<1x40x5120xf16>, tensor<1x40x5120xf16>) -> tensor<1x40x5120xf16>
    %640 = "mix.comp.weight"() <{param_loc = "transformer.h.5.input_layernorm.weight"}> : () -> tensor<5120xf16>
    %641 = "mix.prim.constant"() <{value = dense<1.000000e+00> : tensor<1xf16>}> : () -> tensor<1xf16>
    %642 = "mix.prim.pow"(%639, %641) : (tensor<1x40x5120xf16>, tensor<1xf16>) -> tensor<1x40x5120xf16>
    %643 = "mix.comp.mean"(%642) <{dims = [2 : i32], keepDim = true}> : (tensor<1x40x5120xf16>) -> tensor<1x40x1xf16>
    %644 = "mix.prim.constant"() <{value = 1.013280e-06 : f16}> : () -> f16
    %645 = "mix.prim.add"(%643, %644) : (tensor<1x40x1xf16>, f16) -> tensor<1x40x1xf16>
    %646 = "mix.prim.rsqrt"(%645) : (tensor<1x40x1xf16>) -> tensor<1x40x1xf16>
    %647 = "mix.prim.mul"(%639, %646) : (tensor<1x40x5120xf16>, tensor<1x40x1xf16>) -> tensor<1x40x5120xf16>
    %648 = "mix.prim.mul"(%640, %647) : (tensor<5120xf16>, tensor<1x40x5120xf16>) -> tensor<1x40x5120xf16>
    %649 = "mix.comp.weight"() <{param_loc = "transformer.h.5.self_attention.query.weight"}> : () -> tensor<5120x5120xf16>
    %650 = "mix.comp.weight"() <{param_loc = "transformer.h.5.self_attention.key_value.weight"}> : () -> tensor<10240x5120xf16>
    %651 = "mix.comp.weight"() <{param_loc = "transformer.h.5.self_attention.dense.weight"}> : () -> tensor<5120x5120xf16>
    %652 = "mix.comp.weight"() <{param_loc = "transformer.h.5.self_attention.dense.bias"}> : () -> tensor<5120xf16>
    %653 = "mix.prim.transpose"(%648) <{dim1 = 0 : i32, dim2 = 1 : i32}> : (tensor<1x40x5120xf16>) -> tensor<40x1x5120xf16>
    %654 = "mix.prim.transpose"(%649) <{dim1 = 0 : i32, dim2 = 1 : i32}> : (tensor<5120x5120xf16>) -> tensor<5120x5120xf16>
    %655 = "mix.prim.reshape"(%653) <{shape = [40, 5120]}> : (tensor<40x1x5120xf16>) -> tensor<40x5120xf16>
    %656 = "mix.prim.matmul"(%655, %654) : (tensor<40x5120xf16>, tensor<5120x5120xf16>) -> tensor<40x5120xf16>
    %657 = "mix.prim.reshape"(%656) <{shape = [40, 1, 5120]}> : (tensor<40x5120xf16>) -> tensor<40x1x5120xf16>
    %658 = "mix.prim.reshape"(%657) <{shape = [40, 1, 32, 160]}> : (tensor<40x1x5120xf16>) -> tensor<40x1x32x160xf16>
    %659 = "mix.prim.transpose"(%650) <{dim1 = 0 : i32, dim2 = 1 : i32}> : (tensor<10240x5120xf16>) -> tensor<5120x10240xf16>
    %660 = "mix.prim.reshape"(%653) <{shape = [40, 5120]}> : (tensor<40x1x5120xf16>) -> tensor<40x5120xf16>
    %661 = "mix.prim.matmul"(%660, %659) : (tensor<40x5120xf16>, tensor<5120x10240xf16>) -> tensor<40x10240xf16>
    %662 = "mix.prim.reshape"(%661) <{shape = [40, 1, 10240]}> : (tensor<40x10240xf16>) -> tensor<40x1x10240xf16>
    %663 = "mix.prim.reshape"(%662) <{shape = [40, 1, 32, 320]}> : (tensor<40x1x10240xf16>) -> tensor<40x1x32x320xf16>
    %664 = "mix.prim.slice"(%663) <{dim = 3 : i64, end = 160 : i64, start = 0 : i64, step = 1 : i64}> : (tensor<40x1x32x320xf16>) -> tensor<40x1x32x160xf16>
    %665 = "mix.prim.slice"(%663) <{dim = 3 : i64, end = 320 : i64, start = 160 : i64, step = 1 : i64}> : (tensor<40x1x32x320xf16>) -> tensor<40x1x32x160xf16>
    %666 = "mix.prim.reshape"(%658) <{shape = [40, 32, -1]}> : (tensor<40x1x32x160xf16>) -> tensor<40x32x160xf16>
    %667 = "mix.prim.reshape"(%664) <{shape = [40, 32, -1]}> : (tensor<40x1x32x160xf16>) -> tensor<40x32x160xf16>
    %668 = "mix.prim.constant"() <{value = dense<[0, 2, 4, 6, 8, 10, 12, 14, 16, 18, 20, 22, 24, 26, 28, 30, 32, 34, 36, 38, 40, 42, 44, 46, 48, 50, 52, 54, 56, 58, 60, 62, 64, 66, 68, 70, 72, 74, 76, 78, 80, 82, 84, 86, 88, 90, 92, 94, 96, 98, 100, 102, 104, 106, 108, 110, 112, 114, 116, 118, 120, 122, 124, 126, 128, 130, 132, 134, 136, 138, 140, 142, 144, 146, 148, 150, 152, 154, 156, 158]> : tensor<80xi32>}> : () -> tensor<80xi32>
    %669 = "mix.prim.convert"(%668) <{element_ty = f16}> : (tensor<80xi32>) -> tensor<80xf16>
    %670 = "mix.prim.constant"() <{value = 1.600000e+02 : f16}> : () -> f16
    %671 = "mix.prim.div"(%669, %670) : (tensor<80xf16>, f16) -> tensor<80xf16>
    %672 = "mix.prim.constant"() <{value = 3.041600e+04 : f16}> : () -> f16
    %673 = "mix.prim.pow"(%672, %671) : (f16, tensor<80xf16>) -> tensor<80xf16>
    %674 = "mix.prim.reciprocal"(%673) : (tensor<80xf16>) -> tensor<80xf16>
    %675 = "mix.prim.constant"() <{value = 1.000000e+00 : f16}> : () -> f16
    %676 = "mix.prim.mul"(%675, %674) : (f16, tensor<80xf16>) -> tensor<80xf16>
    %677 = "mix.prim.constant"() <{value = dense<[… > : tensor<40xf16>}> : () -> tensor<40xf16>
    %678 = "mix.prim.unsqueeze"(%677) <{axis = 1 : i32}> : (tensor<40xf16>) -> tensor<40x1xf16>
    %679 = "mix.prim.permute"(%678) <{dims = [0, 1]}> : (tensor<40x1xf16>) -> tensor<40x1xf16>
    %680 = "mix.prim.unsqueeze"(%676) <{axis = 1 : i32}> : (tensor<80xf16>) -> tensor<80x1xf16>
    %681 = "mix.prim.permute"(%680) <{dims = [1, 0]}> : (tensor<80x1xf16>) -> tensor<1x80xf16>
    %682 = "mix.prim.mul"(%679, %681) : (tensor<40x1xf16>, tensor<1x80xf16>) -> tensor<40x80xf16>
    %683 = "mix.prim.concat"(%682, %682) <{axis = 1 : i64}> : (tensor<40x80xf16>, tensor<40x80xf16>) -> tensor<40x160xf16>
    %684 = "mix.prim.cos"(%683) : (tensor<40x160xf16>) -> tensor<40x160xf16>
    %685 = "mix.prim.slice"(%684) <{dim = 0 : i64, end = 2147483647 : i64, start = 0 : i64, step = 1 : i64}> : (tensor<40x160xf16>) -> tensor<40x160xf16>
    %686 = "mix.prim.unsqueeze"(%685) <{axis = 1 : i32}> : (tensor<40x160xf16>) -> tensor<40x1x160xf16>
    %687 = "mix.prim.slice"(%686) <{dim = 2 : i64, end = 2147483647 : i64, start = 0 : i64, step = 1 : i64}> : (tensor<40x1x160xf16>) -> tensor<40x1x160xf16>
    %688 = "mix.prim.constant"() <{value = 1.000000e+00 : f16}> : () -> f16
    %689 = "mix.prim.mul"(%687, %688) : (tensor<40x1x160xf16>, f16) -> tensor<40x1x160xf16>
    %690 = "mix.prim.sin"(%683) : (tensor<40x160xf16>) -> tensor<40x160xf16>
    %691 = "mix.prim.slice"(%690) <{dim = 0 : i64, end = 2147483647 : i64, start = 0 : i64, step = 1 : i64}> : (tensor<40x160xf16>) -> tensor<40x160xf16>
    %692 = "mix.prim.unsqueeze"(%691) <{axis = 1 : i32}> : (tensor<40x160xf16>) -> tensor<40x1x160xf16>
    %693 = "mix.prim.slice"(%692) <{dim = 2 : i64, end = 2147483647 : i64, start = 0 : i64, step = 1 : i64}> : (tensor<40x1x160xf16>) -> tensor<40x1x160xf16>
    %694 = "mix.prim.constant"() <{value = 1.000000e+00 : f16}> : () -> f16
    %695 = "mix.prim.mul"(%693, %694) : (tensor<40x1x160xf16>, f16) -> tensor<40x1x160xf16>
    %696 = "mix.prim.slice"(%689) <{dim = 0 : i64, end = 40 : i64, start = 0 : i64, step = 1 : i64}> : (tensor<40x1x160xf16>) -> tensor<40x1x160xf16>
    %697 = "mix.prim.slice"(%695) <{dim = 0 : i64, end = 40 : i64, start = 0 : i64, step = 1 : i64}> : (tensor<40x1x160xf16>) -> tensor<40x1x160xf16>
    %698 = "mix.prim.mul"(%666, %696) : (tensor<40x32x160xf16>, tensor<40x1x160xf16>) -> tensor<40x32x160xf16>
    %699 = "mix.prim.slice"(%666) <{dim = 2 : i64, end = 80 : i64, start = 0 : i64, step = 1 : i64}> : (tensor<40x32x160xf16>) -> tensor<40x32x80xf16>
    %700 = "mix.prim.slice"(%666) <{dim = 2 : i64, end = 2147483647 : i64, start = 80 : i64, step = 1 : i64}> : (tensor<40x32x160xf16>) -> tensor<40x32x80xf16>
    %701 = "mix.prim.neg"(%700) : (tensor<40x32x80xf16>) -> tensor<40x32x80xf16>
    %702 = "mix.prim.concat"(%701, %699) <{axis = 2 : i64}> : (tensor<40x32x80xf16>, tensor<40x32x80xf16>) -> tensor<40x32x160xf16>
    %703 = "mix.prim.mul"(%702, %697) : (tensor<40x32x160xf16>, tensor<40x1x160xf16>) -> tensor<40x32x160xf16>
    %704 = "mix.prim.add"(%698, %703) : (tensor<40x32x160xf16>, tensor<40x32x160xf16>) -> tensor<40x32x160xf16>
    %705 = "mix.prim.mul"(%667, %696) : (tensor<40x32x160xf16>, tensor<40x1x160xf16>) -> tensor<40x32x160xf16>
    %706 = "mix.prim.slice"(%667) <{dim = 2 : i64, end = 80 : i64, start = 0 : i64, step = 1 : i64}> : (tensor<40x32x160xf16>) -> tensor<40x32x80xf16>
    %707 = "mix.prim.slice"(%667) <{dim = 2 : i64, end = 2147483647 : i64, start = 80 : i64, step = 1 : i64}> : (tensor<40x32x160xf16>) -> tensor<40x32x80xf16>
    %708 = "mix.prim.neg"(%707) : (tensor<40x32x80xf16>) -> tensor<40x32x80xf16>
    %709 = "mix.prim.concat"(%708, %706) <{axis = 2 : i64}> : (tensor<40x32x80xf16>, tensor<40x32x80xf16>) -> tensor<40x32x160xf16>
    %710 = "mix.prim.mul"(%709, %697) : (tensor<40x32x160xf16>, tensor<40x1x160xf16>) -> tensor<40x32x160xf16>
    %711 = "mix.prim.add"(%705, %710) : (tensor<40x32x160xf16>, tensor<40x32x160xf16>) -> tensor<40x32x160xf16>
    %712 = "mix.prim.reshape"(%704) <{shape = [40, 1, 32, 160]}> : (tensor<40x32x160xf16>) -> tensor<40x1x32x160xf16>
    %713 = "mix.prim.reshape"(%711) <{shape = [40, 1, 32, 160]}> : (tensor<40x32x160xf16>) -> tensor<40x1x32x160xf16>
    %714 = "mix.prim.reshape"(%712) <{shape = [40, 32, 160]}> : (tensor<40x1x32x160xf16>) -> tensor<40x32x160xf16>
    %715 = "mix.prim.reshape"(%713) <{shape = [40, 32, 160]}> : (tensor<40x1x32x160xf16>) -> tensor<40x32x160xf16>
    %716 = "mix.prim.transpose"(%714) <{dim1 = 0 : i32, dim2 = 1 : i32}> : (tensor<40x32x160xf16>) -> tensor<32x40x160xf16>
    %717 = "mix.prim.transpose"(%715) <{dim1 = 0 : i32, dim2 = 1 : i32}> : (tensor<40x32x160xf16>) -> tensor<32x40x160xf16>
    %718 = "mix.prim.transpose"(%717) <{dim1 = 1 : i32, dim2 = 2 : i32}> : (tensor<32x40x160xf16>) -> tensor<32x160x40xf16>
    %719 = "mix.prim.unsqueeze"(%716) <{axis = 3 : i32}> : (tensor<32x40x160xf16>) -> tensor<32x40x160x1xf16>
    %720 = "mix.prim.permute"(%719) <{dims = [0, 1, 3, 2]}> : (tensor<32x40x160x1xf16>) -> tensor<32x40x1x160xf16>
    %721 = "mix.prim.unsqueeze"(%718) <{axis = 3 : i32}> : (tensor<32x160x40xf16>) -> tensor<32x160x40x1xf16>
    %722 = "mix.prim.permute"(%721) <{dims = [0, 3, 2, 1]}> : (tensor<32x160x40x1xf16>) -> tensor<32x1x40x160xf16>
    %723 = "mix.prim.permute"(%720) <{dims = [0, 1, 3, 2]}> : (tensor<32x40x1x160xf16>) -> tensor<32x40x160x1xf16>
    %724 = "mix.prim.reshape"(%723) <{shape = [32, 40, 160]}> : (tensor<32x40x160x1xf16>) -> tensor<32x40x160xf16>
    %725 = "mix.prim.permute"(%722) <{dims = [0, 3, 2, 1]}> : (tensor<32x1x40x160xf16>) -> tensor<32x160x40x1xf16>
    %726 = "mix.prim.reshape"(%725) <{shape = [32, 160, 40]}> : (tensor<32x160x40x1xf16>) -> tensor<32x160x40xf16>
    %727 = "mix.prim.batch_matmul"(%724, %726) : (tensor<32x40x160xf16>, tensor<32x160x40xf16>) -> tensor<32x40x40xf16>
    %728 = "mix.prim.reshape"(%727) <{shape = [32, 40, 1, 40]}> : (tensor<32x40x40xf16>) -> tensor<32x40x1x40xf16>
    %729 = "mix.prim.permute"(%728) <{dims = [0, 1, 3, 2]}> : (tensor<32x40x1x40xf16>) -> tensor<32x40x40x1xf16>
    %730 = "mix.prim.reshape"(%729) <{shape = [32, 40, 40]}> : (tensor<32x40x40x1xf16>) -> tensor<32x40x40xf16>
    %731 = "mix.prim.constant"() <{value = 7.904050e-02 : f16}> : () -> f16
    %732 = "mix.prim.mul"(%730, %731) : (tensor<32x40x40xf16>, f16) -> tensor<32x40x40xf16>
    %733 = "mix.prim.reshape"(%732) <{shape = [1, 32, 40, 40]}> : (tensor<32x40x40xf16>) -> tensor<1x32x40x40xf16>
    %734 = "mix.prim.constant"() <{value = 0xFC00 : f16}> : () -> f16
    %735 = "mix.comp.masked_fill"(%733, %14, %734) : (tensor<1x32x40x40xf16>, tensor<1x1x40x40xi1>, f16) -> tensor<1x32x40x40xf16>
    %736 = "mix.comp.softmax"(%735) <{axis = -1 : si32}> : (tensor<1x32x40x40xf16>) -> tensor<1x32x40x40xf16>
    %737 = "mix.prim.reshape"(%736) <{shape = [32, 40, 40]}> : (tensor<1x32x40x40xf16>) -> tensor<32x40x40xf16>
    %738 = "mix.prim.reshape"(%665) <{shape = [40, 32, 160]}> : (tensor<40x1x32x160xf16>) -> tensor<40x32x160xf16>
    %739 = "mix.prim.transpose"(%738) <{dim1 = 0 : i32, dim2 = 1 : i32}> : (tensor<40x32x160xf16>) -> tensor<32x40x160xf16>
    %740 = "mix.prim.batch_matmul"(%737, %739) : (tensor<32x40x40xf16>, tensor<32x40x160xf16>) -> tensor<32x40x160xf16>
    %741 = "mix.prim.reshape"(%740) <{shape = [1, 32, 40, 160]}> : (tensor<32x40x160xf16>) -> tensor<1x32x40x160xf16>
    %742 = "mix.prim.permute"(%741) <{dims = [0, 2, 1, 3]}> : (tensor<1x32x40x160xf16>) -> tensor<1x40x32x160xf16>
    %743 = "mix.prim.reshape"(%742) <{shape = [1, 40, 5120]}> : (tensor<1x40x32x160xf16>) -> tensor<1x40x5120xf16>
    %744 = "mix.prim.reshape"(%743) <{shape = [40, 5120]}> : (tensor<1x40x5120xf16>) -> tensor<40x5120xf16>
    %745 = "mix.prim.transpose"(%651) <{dim1 = 0 : i32, dim2 = 1 : i32}> : (tensor<5120x5120xf16>) -> tensor<5120x5120xf16>
    %746 = "mix.prim.matmul"(%744, %745) : (tensor<40x5120xf16>, tensor<5120x5120xf16>) -> tensor<40x5120xf16>
    %747 = "mix.prim.add"(%746, %652) : (tensor<40x5120xf16>, tensor<5120xf16>) -> tensor<40x5120xf16>
    %748 = "mix.prim.reshape"(%747) <{shape = [1, 40, 5120]}> : (tensor<40x5120xf16>) -> tensor<1x40x5120xf16>
    %749 = "mix.prim.mul"(%639, %748) : (tensor<1x40x5120xf16>, tensor<1x40x5120xf16>) -> tensor<1x40x5120xf16>
    %750 = "mix.comp.weight"() <{param_loc = "transformer.h.5.post_attention_layernorm.weight"}> : () -> tensor<5120xf16>
    %751 = "mix.prim.constant"() <{value = dense<1.000000e+00> : tensor<1xf16>}> : () -> tensor<1xf16>
    %752 = "mix.prim.pow"(%749, %751) : (tensor<1x40x5120xf16>, tensor<1xf16>) -> tensor<1x40x5120xf16>
    %753 = "mix.comp.mean"(%752) <{dims = [2 : i32], keepDim = true}> : (tensor<1x40x5120xf16>) -> tensor<1x40x1xf16>
    %754 = "mix.prim.constant"() <{value = 1.013280e-06 : f16}> : () -> f16
    %755 = "mix.prim.add"(%753, %754) : (tensor<1x40x1xf16>, f16) -> tensor<1x40x1xf16>
    %756 = "mix.prim.rsqrt"(%755) : (tensor<1x40x1xf16>) -> tensor<1x40x1xf16>
    %757 = "mix.prim.mul"(%749, %756) : (tensor<1x40x5120xf16>, tensor<1x40x1xf16>) -> tensor<1x40x5120xf16>
    %758 = "mix.prim.mul"(%750, %757) : (tensor<5120xf16>, tensor<1x40x5120xf16>) -> tensor<1x40x5120xf16>
    %759 = "mix.module.linear"(%758) <{dtype = f16, in_feature = 5120 : i32, out_feature = 12288 : i32, params_loc = "transformer.h.5.mlp.gate_proj"}> : (tensor<1x40x5120xf16>) -> tensor<1x40x12288xf16>
    %760 = "mix.comp.silu"(%759) : (tensor<1x40x12288xf16>) -> tensor<1x40x12288xf16>
    %761 = "mix.module.linear"(%758) <{dtype = f16, in_feature = 5120 : i32, out_feature = 12288 : i32, params_loc = "transformer.h.5.mlp.up_proj"}> : (tensor<1x40x5120xf16>) -> tensor<1x40x12288xf16>
    %762 = "mix.prim.mul"(%760, %761) : (tensor<1x40x12288xf16>, tensor<1x40x12288xf16>) -> tensor<1x40x12288xf16>
    %763 = "mix.module.linear"(%762) <{dtype = f16, has_bias, in_feature = 12288 : i32, out_feature = 5120 : i32, params_loc = "transformer.h.5.mlp.down_proj"}> : (tensor<1x40x12288xf16>) -> tensor<1x40x5120xf16>
    %764 = "mix.prim.add"(%763, %749) : (tensor<1x40x5120xf16>, tensor<1x40x5120xf16>) -> tensor<1x40x5120xf16>
    %765 = "mix.comp.weight"() <{param_loc = "transformer.h.6.input_layernorm.weight"}> : () -> tensor<5120xf16>
    %766 = "mix.prim.constant"() <{value = dense<1.000000e+00> : tensor<1xf16>}> : () -> tensor<1xf16>
    %767 = "mix.prim.pow"(%764, %766) : (tensor<1x40x5120xf16>, tensor<1xf16>) -> tensor<1x40x5120xf16>
    %768 = "mix.comp.mean"(%767) <{dims = [2 : i32], keepDim = true}> : (tensor<1x40x5120xf16>) -> tensor<1x40x1xf16>
    %769 = "mix.prim.constant"() <{value = 1.013280e-06 : f16}> : () -> f16
    %770 = "mix.prim.add"(%768, %769) : (tensor<1x40x1xf16>, f16) -> tensor<1x40x1xf16>
    %771 = "mix.prim.rsqrt"(%770) : (tensor<1x40x1xf16>) -> tensor<1x40x1xf16>
    %772 = "mix.prim.mul"(%764, %771) : (tensor<1x40x5120xf16>, tensor<1x40x1xf16>) -> tensor<1x40x5120xf16>
    %773 = "mix.prim.mul"(%765, %772) : (tensor<5120xf16>, tensor<1x40x5120xf16>) -> tensor<1x40x5120xf16>
    %774 = "mix.comp.weight"() <{param_loc = "transformer.h.6.self_attention.query.weight"}> : () -> tensor<5120x5120xf16>
    %775 = "mix.comp.weight"() <{param_loc = "transformer.h.6.self_attention.key_value.weight"}> : () -> tensor<10240x5120xf16>
    %776 = "mix.comp.weight"() <{param_loc = "transformer.h.6.self_attention.dense.weight"}> : () -> tensor<5120x5120xf16>
    %777 = "mix.comp.weight"() <{param_loc = "transformer.h.6.self_attention.dense.bias"}> : () -> tensor<5120xf16>
    %778 = "mix.prim.transpose"(%773) <{dim1 = 0 : i32, dim2 = 1 : i32}> : (tensor<1x40x5120xf16>) -> tensor<40x1x5120xf16>
    %779 = "mix.prim.transpose"(%774) <{dim1 = 0 : i32, dim2 = 1 : i32}> : (tensor<5120x5120xf16>) -> tensor<5120x5120xf16>
    %780 = "mix.prim.reshape"(%778) <{shape = [40, 5120]}> : (tensor<40x1x5120xf16>) -> tensor<40x5120xf16>
    %781 = "mix.prim.matmul"(%780, %779) : (tensor<40x5120xf16>, tensor<5120x5120xf16>) -> tensor<40x5120xf16>
    %782 = "mix.prim.reshape"(%781) <{shape = [40, 1, 5120]}> : (tensor<40x5120xf16>) -> tensor<40x1x5120xf16>
    %783 = "mix.prim.reshape"(%782) <{shape = [40, 1, 32, 160]}> : (tensor<40x1x5120xf16>) -> tensor<40x1x32x160xf16>
    %784 = "mix.prim.transpose"(%775) <{dim1 = 0 : i32, dim2 = 1 : i32}> : (tensor<10240x5120xf16>) -> tensor<5120x10240xf16>
    %785 = "mix.prim.reshape"(%778) <{shape = [40, 5120]}> : (tensor<40x1x5120xf16>) -> tensor<40x5120xf16>
    %786 = "mix.prim.matmul"(%785, %784) : (tensor<40x5120xf16>, tensor<5120x10240xf16>) -> tensor<40x10240xf16>
    %787 = "mix.prim.reshape"(%786) <{shape = [40, 1, 10240]}> : (tensor<40x10240xf16>) -> tensor<40x1x10240xf16>
    %788 = "mix.prim.reshape"(%787) <{shape = [40, 1, 32, 320]}> : (tensor<40x1x10240xf16>) -> tensor<40x1x32x320xf16>
    %789 = "mix.prim.slice"(%788) <{dim = 3 : i64, end = 160 : i64, start = 0 : i64, step = 1 : i64}> : (tensor<40x1x32x320xf16>) -> tensor<40x1x32x160xf16>
    %790 = "mix.prim.slice"(%788) <{dim = 3 : i64, end = 320 : i64, start = 160 : i64, step = 1 : i64}> : (tensor<40x1x32x320xf16>) -> tensor<40x1x32x160xf16>
    %791 = "mix.prim.reshape"(%783) <{shape = [40, 32, -1]}> : (tensor<40x1x32x160xf16>) -> tensor<40x32x160xf16>
    %792 = "mix.prim.reshape"(%789) <{shape = [40, 32, -1]}> : (tensor<40x1x32x160xf16>) -> tensor<40x32x160xf16>
    %793 = "mix.prim.constant"() <{value = dense<[0, 2, 4, 6, 8, 10, 12, 14, 16, 18, 20, 22, 24, 26, 28, 30, 32, 34, 36, 38, 40, 42, 44, 46, 48, 50, 52, 54, 56, 58, 60, 62, 64, 66, 68, 70, 72, 74, 76, 78, 80, 82, 84, 86, 88, 90, 92, 94, 96, 98, 100, 102, 104, 106, 108, 110, 112, 114, 116, 118, 120, 122, 124, 126, 128, 130, 132, 134, 136, 138, 140, 142, 144, 146, 148, 150, 152, 154, 156, 158]> : tensor<80xi32>}> : () -> tensor<80xi32>
    %794 = "mix.prim.convert"(%793) <{element_ty = f16}> : (tensor<80xi32>) -> tensor<80xf16>
    %795 = "mix.prim.constant"() <{value = 1.600000e+02 : f16}> : () -> f16
    %796 = "mix.prim.div"(%794, %795) : (tensor<80xf16>, f16) -> tensor<80xf16>
    %797 = "mix.prim.constant"() <{value = 3.041600e+04 : f16}> : () -> f16
    %798 = "mix.prim.pow"(%797, %796) : (f16, tensor<80xf16>) -> tensor<80xf16>
    %799 = "mix.prim.reciprocal"(%798) : (tensor<80xf16>) -> tensor<80xf16>
    %800 = "mix.prim.constant"() <{value = 1.000000e+00 : f16}> : () -> f16
    %801 = "mix.prim.mul"(%800, %799) : (f16, tensor<80xf16>) -> tensor<80xf16>
    %802 = "mix.prim.constant"() <{value = dense<[… > : tensor<40xf16>}> : () -> tensor<40xf16>
    %803 = "mix.prim.unsqueeze"(%802) <{axis = 1 : i32}> : (tensor<40xf16>) -> tensor<40x1xf16>
    %804 = "mix.prim.permute"(%803) <{dims = [0, 1]}> : (tensor<40x1xf16>) -> tensor<40x1xf16>
    %805 = "mix.prim.unsqueeze"(%801) <{axis = 1 : i32}> : (tensor<80xf16>) -> tensor<80x1xf16>
    %806 = "mix.prim.permute"(%805) <{dims = [1, 0]}> : (tensor<80x1xf16>) -> tensor<1x80xf16>
    %807 = "mix.prim.mul"(%804, %806) : (tensor<40x1xf16>, tensor<1x80xf16>) -> tensor<40x80xf16>
    %808 = "mix.prim.concat"(%807, %807) <{axis = 1 : i64}> : (tensor<40x80xf16>, tensor<40x80xf16>) -> tensor<40x160xf16>
    %809 = "mix.prim.cos"(%808) : (tensor<40x160xf16>) -> tensor<40x160xf16>
    %810 = "mix.prim.slice"(%809) <{dim = 0 : i64, end = 2147483647 : i64, start = 0 : i64, step = 1 : i64}> : (tensor<40x160xf16>) -> tensor<40x160xf16>
    %811 = "mix.prim.unsqueeze"(%810) <{axis = 1 : i32}> : (tensor<40x160xf16>) -> tensor<40x1x160xf16>
    %812 = "mix.prim.slice"(%811) <{dim = 2 : i64, end = 2147483647 : i64, start = 0 : i64, step = 1 : i64}> : (tensor<40x1x160xf16>) -> tensor<40x1x160xf16>
    %813 = "mix.prim.constant"() <{value = 1.000000e+00 : f16}> : () -> f16
    %814 = "mix.prim.mul"(%812, %813) : (tensor<40x1x160xf16>, f16) -> tensor<40x1x160xf16>
    %815 = "mix.prim.sin"(%808) : (tensor<40x160xf16>) -> tensor<40x160xf16>
    %816 = "mix.prim.slice"(%815) <{dim = 0 : i64, end = 2147483647 : i64, start = 0 : i64, step = 1 : i64}> : (tensor<40x160xf16>) -> tensor<40x160xf16>
    %817 = "mix.prim.unsqueeze"(%816) <{axis = 1 : i32}> : (tensor<40x160xf16>) -> tensor<40x1x160xf16>
    %818 = "mix.prim.slice"(%817) <{dim = 2 : i64, end = 2147483647 : i64, start = 0 : i64, step = 1 : i64}> : (tensor<40x1x160xf16>) -> tensor<40x1x160xf16>
    %819 = "mix.prim.constant"() <{value = 1.000000e+00 : f16}> : () -> f16
    %820 = "mix.prim.mul"(%818, %819) : (tensor<40x1x160xf16>, f16) -> tensor<40x1x160xf16>
    %821 = "mix.prim.slice"(%814) <{dim = 0 : i64, end = 40 : i64, start = 0 : i64, step = 1 : i64}> : (tensor<40x1x160xf16>) -> tensor<40x1x160xf16>
    %822 = "mix.prim.slice"(%820) <{dim = 0 : i64, end = 40 : i64, start = 0 : i64, step = 1 : i64}> : (tensor<40x1x160xf16>) -> tensor<40x1x160xf16>
    %823 = "mix.prim.mul"(%791, %821) : (tensor<40x32x160xf16>, tensor<40x1x160xf16>) -> tensor<40x32x160xf16>
    %824 = "mix.prim.slice"(%791) <{dim = 2 : i64, end = 80 : i64, start = 0 : i64, step = 1 : i64}> : (tensor<40x32x160xf16>) -> tensor<40x32x80xf16>
    %825 = "mix.prim.slice"(%791) <{dim = 2 : i64, end = 2147483647 : i64, start = 80 : i64, step = 1 : i64}> : (tensor<40x32x160xf16>) -> tensor<40x32x80xf16>
    %826 = "mix.prim.neg"(%825) : (tensor<40x32x80xf16>) -> tensor<40x32x80xf16>
    %827 = "mix.prim.concat"(%826, %824) <{axis = 2 : i64}> : (tensor<40x32x80xf16>, tensor<40x32x80xf16>) -> tensor<40x32x160xf16>
    %828 = "mix.prim.mul"(%827, %822) : (tensor<40x32x160xf16>, tensor<40x1x160xf16>) -> tensor<40x32x160xf16>
    %829 = "mix.prim.add"(%823, %828) : (tensor<40x32x160xf16>, tensor<40x32x160xf16>) -> tensor<40x32x160xf16>
    %830 = "mix.prim.mul"(%792, %821) : (tensor<40x32x160xf16>, tensor<40x1x160xf16>) -> tensor<40x32x160xf16>
    %831 = "mix.prim.slice"(%792) <{dim = 2 : i64, end = 80 : i64, start = 0 : i64, step = 1 : i64}> : (tensor<40x32x160xf16>) -> tensor<40x32x80xf16>
    %832 = "mix.prim.slice"(%792) <{dim = 2 : i64, end = 2147483647 : i64, start = 80 : i64, step = 1 : i64}> : (tensor<40x32x160xf16>) -> tensor<40x32x80xf16>
    %833 = "mix.prim.neg"(%832) : (tensor<40x32x80xf16>) -> tensor<40x32x80xf16>
    %834 = "mix.prim.concat"(%833, %831) <{axis = 2 : i64}> : (tensor<40x32x80xf16>, tensor<40x32x80xf16>) -> tensor<40x32x160xf16>
    %835 = "mix.prim.mul"(%834, %822) : (tensor<40x32x160xf16>, tensor<40x1x160xf16>) -> tensor<40x32x160xf16>
    %836 = "mix.prim.add"(%830, %835) : (tensor<40x32x160xf16>, tensor<40x32x160xf16>) -> tensor<40x32x160xf16>
    %837 = "mix.prim.reshape"(%829) <{shape = [40, 1, 32, 160]}> : (tensor<40x32x160xf16>) -> tensor<40x1x32x160xf16>
    %838 = "mix.prim.reshape"(%836) <{shape = [40, 1, 32, 160]}> : (tensor<40x32x160xf16>) -> tensor<40x1x32x160xf16>
    %839 = "mix.prim.reshape"(%837) <{shape = [40, 32, 160]}> : (tensor<40x1x32x160xf16>) -> tensor<40x32x160xf16>
    %840 = "mix.prim.reshape"(%838) <{shape = [40, 32, 160]}> : (tensor<40x1x32x160xf16>) -> tensor<40x32x160xf16>
    %841 = "mix.prim.transpose"(%839) <{dim1 = 0 : i32, dim2 = 1 : i32}> : (tensor<40x32x160xf16>) -> tensor<32x40x160xf16>
    %842 = "mix.prim.transpose"(%840) <{dim1 = 0 : i32, dim2 = 1 : i32}> : (tensor<40x32x160xf16>) -> tensor<32x40x160xf16>
    %843 = "mix.prim.transpose"(%842) <{dim1 = 1 : i32, dim2 = 2 : i32}> : (tensor<32x40x160xf16>) -> tensor<32x160x40xf16>
    %844 = "mix.prim.unsqueeze"(%841) <{axis = 3 : i32}> : (tensor<32x40x160xf16>) -> tensor<32x40x160x1xf16>
    %845 = "mix.prim.permute"(%844) <{dims = [0, 1, 3, 2]}> : (tensor<32x40x160x1xf16>) -> tensor<32x40x1x160xf16>
    %846 = "mix.prim.unsqueeze"(%843) <{axis = 3 : i32}> : (tensor<32x160x40xf16>) -> tensor<32x160x40x1xf16>
    %847 = "mix.prim.permute"(%846) <{dims = [0, 3, 2, 1]}> : (tensor<32x160x40x1xf16>) -> tensor<32x1x40x160xf16>
    %848 = "mix.prim.permute"(%845) <{dims = [0, 1, 3, 2]}> : (tensor<32x40x1x160xf16>) -> tensor<32x40x160x1xf16>
    %849 = "mix.prim.reshape"(%848) <{shape = [32, 40, 160]}> : (tensor<32x40x160x1xf16>) -> tensor<32x40x160xf16>
    %850 = "mix.prim.permute"(%847) <{dims = [0, 3, 2, 1]}> : (tensor<32x1x40x160xf16>) -> tensor<32x160x40x1xf16>
    %851 = "mix.prim.reshape"(%850) <{shape = [32, 160, 40]}> : (tensor<32x160x40x1xf16>) -> tensor<32x160x40xf16>
    %852 = "mix.prim.batch_matmul"(%849, %851) : (tensor<32x40x160xf16>, tensor<32x160x40xf16>) -> tensor<32x40x40xf16>
    %853 = "mix.prim.reshape"(%852) <{shape = [32, 40, 1, 40]}> : (tensor<32x40x40xf16>) -> tensor<32x40x1x40xf16>
    %854 = "mix.prim.permute"(%853) <{dims = [0, 1, 3, 2]}> : (tensor<32x40x1x40xf16>) -> tensor<32x40x40x1xf16>
    %855 = "mix.prim.reshape"(%854) <{shape = [32, 40, 40]}> : (tensor<32x40x40x1xf16>) -> tensor<32x40x40xf16>
    %856 = "mix.prim.constant"() <{value = 7.904050e-02 : f16}> : () -> f16
    %857 = "mix.prim.mul"(%855, %856) : (tensor<32x40x40xf16>, f16) -> tensor<32x40x40xf16>
    %858 = "mix.prim.reshape"(%857) <{shape = [1, 32, 40, 40]}> : (tensor<32x40x40xf16>) -> tensor<1x32x40x40xf16>
    %859 = "mix.prim.constant"() <{value = 0xFC00 : f16}> : () -> f16
    %860 = "mix.comp.masked_fill"(%858, %14, %859) : (tensor<1x32x40x40xf16>, tensor<1x1x40x40xi1>, f16) -> tensor<1x32x40x40xf16>
    %861 = "mix.comp.softmax"(%860) <{axis = -1 : si32}> : (tensor<1x32x40x40xf16>) -> tensor<1x32x40x40xf16>
    %862 = "mix.prim.reshape"(%861) <{shape = [32, 40, 40]}> : (tensor<1x32x40x40xf16>) -> tensor<32x40x40xf16>
    %863 = "mix.prim.reshape"(%790) <{shape = [40, 32, 160]}> : (tensor<40x1x32x160xf16>) -> tensor<40x32x160xf16>
    %864 = "mix.prim.transpose"(%863) <{dim1 = 0 : i32, dim2 = 1 : i32}> : (tensor<40x32x160xf16>) -> tensor<32x40x160xf16>
    %865 = "mix.prim.batch_matmul"(%862, %864) : (tensor<32x40x40xf16>, tensor<32x40x160xf16>) -> tensor<32x40x160xf16>
    %866 = "mix.prim.reshape"(%865) <{shape = [1, 32, 40, 160]}> : (tensor<32x40x160xf16>) -> tensor<1x32x40x160xf16>
    %867 = "mix.prim.permute"(%866) <{dims = [0, 2, 1, 3]}> : (tensor<1x32x40x160xf16>) -> tensor<1x40x32x160xf16>
    %868 = "mix.prim.reshape"(%867) <{shape = [1, 40, 5120]}> : (tensor<1x40x32x160xf16>) -> tensor<1x40x5120xf16>
    %869 = "mix.prim.reshape"(%868) <{shape = [40, 5120]}> : (tensor<1x40x5120xf16>) -> tensor<40x5120xf16>
    %870 = "mix.prim.transpose"(%776) <{dim1 = 0 : i32, dim2 = 1 : i32}> : (tensor<5120x5120xf16>) -> tensor<5120x5120xf16>
    %871 = "mix.prim.matmul"(%869, %870) : (tensor<40x5120xf16>, tensor<5120x5120xf16>) -> tensor<40x5120xf16>
    %872 = "mix.prim.add"(%871, %777) : (tensor<40x5120xf16>, tensor<5120xf16>) -> tensor<40x5120xf16>
    %873 = "mix.prim.reshape"(%872) <{shape = [1, 40, 5120]}> : (tensor<40x5120xf16>) -> tensor<1x40x5120xf16>
    %874 = "mix.prim.mul"(%764, %873) : (tensor<1x40x5120xf16>, tensor<1x40x5120xf16>) -> tensor<1x40x5120xf16>
    %875 = "mix.comp.weight"() <{param_loc = "transformer.h.6.post_attention_layernorm.weight"}> : () -> tensor<5120xf16>
    %876 = "mix.prim.constant"() <{value = dense<1.000000e+00> : tensor<1xf16>}> : () -> tensor<1xf16>
    %877 = "mix.prim.pow"(%874, %876) : (tensor<1x40x5120xf16>, tensor<1xf16>) -> tensor<1x40x5120xf16>
    %878 = "mix.comp.mean"(%877) <{dims = [2 : i32], keepDim = true}> : (tensor<1x40x5120xf16>) -> tensor<1x40x1xf16>
    %879 = "mix.prim.constant"() <{value = 1.013280e-06 : f16}> : () -> f16
    %880 = "mix.prim.add"(%878, %879) : (tensor<1x40x1xf16>, f16) -> tensor<1x40x1xf16>
    %881 = "mix.prim.rsqrt"(%880) : (tensor<1x40x1xf16>) -> tensor<1x40x1xf16>
    %882 = "mix.prim.mul"(%874, %881) : (tensor<1x40x5120xf16>, tensor<1x40x1xf16>) -> tensor<1x40x5120xf16>
    %883 = "mix.prim.mul"(%875, %882) : (tensor<5120xf16>, tensor<1x40x5120xf16>) -> tensor<1x40x5120xf16>
    %884 = "mix.module.linear"(%883) <{dtype = f16, in_feature = 5120 : i32, out_feature = 12288 : i32, params_loc = "transformer.h.6.mlp.gate_proj"}> : (tensor<1x40x5120xf16>) -> tensor<1x40x12288xf16>
    %885 = "mix.comp.silu"(%884) : (tensor<1x40x12288xf16>) -> tensor<1x40x12288xf16>
    %886 = "mix.module.linear"(%883) <{dtype = f16, in_feature = 5120 : i32, out_feature = 12288 : i32, params_loc = "transformer.h.6.mlp.up_proj"}> : (tensor<1x40x5120xf16>) -> tensor<1x40x12288xf16>
    %887 = "mix.prim.mul"(%885, %886) : (tensor<1x40x12288xf16>, tensor<1x40x12288xf16>) -> tensor<1x40x12288xf16>
    %888 = "mix.module.linear"(%887) <{dtype = f16, has_bias, in_feature = 12288 : i32, out_feature = 5120 : i32, params_loc = "transformer.h.6.mlp.down_proj"}> : (tensor<1x40x12288xf16>) -> tensor<1x40x5120xf16>
    %889 = "mix.prim.add"(%888, %874) : (tensor<1x40x5120xf16>, tensor<1x40x5120xf16>) -> tensor<1x40x5120xf16>
    %890 = "mix.comp.weight"() <{param_loc = "transformer.h.7.input_layernorm.weight"}> : () -> tensor<5120xf16>
    %891 = "mix.prim.constant"() <{value = dense<1.000000e+00> : tensor<1xf16>}> : () -> tensor<1xf16>
    %892 = "mix.prim.pow"(%889, %891) : (tensor<1x40x5120xf16>, tensor<1xf16>) -> tensor<1x40x5120xf16>
    %893 = "mix.comp.mean"(%892) <{dims = [2 : i32], keepDim = true}> : (tensor<1x40x5120xf16>) -> tensor<1x40x1xf16>
    %894 = "mix.prim.constant"() <{value = 1.013280e-06 : f16}> : () -> f16
    %895 = "mix.prim.add"(%893, %894) : (tensor<1x40x1xf16>, f16) -> tensor<1x40x1xf16>
    %896 = "mix.prim.rsqrt"(%895) : (tensor<1x40x1xf16>) -> tensor<1x40x1xf16>
    %897 = "mix.prim.mul"(%889, %896) : (tensor<1x40x5120xf16>, tensor<1x40x1xf16>) -> tensor<1x40x5120xf16>
    %898 = "mix.prim.mul"(%890, %897) : (tensor<5120xf16>, tensor<1x40x5120xf16>) -> tensor<1x40x5120xf16>
    %899 = "mix.comp.weight"() <{param_loc = "transformer.h.7.self_attention.query.weight"}> : () -> tensor<5120x5120xf16>
    %900 = "mix.comp.weight"() <{param_loc = "transformer.h.7.self_attention.key_value.weight"}> : () -> tensor<10240x5120xf16>
    %901 = "mix.comp.weight"() <{param_loc = "transformer.h.7.self_attention.dense.weight"}> : () -> tensor<5120x5120xf16>
    %902 = "mix.comp.weight"() <{param_loc = "transformer.h.7.self_attention.dense.bias"}> : () -> tensor<5120xf16>
    %903 = "mix.prim.transpose"(%898) <{dim1 = 0 : i32, dim2 = 1 : i32}> : (tensor<1x40x5120xf16>) -> tensor<40x1x5120xf16>
    %904 = "mix.prim.transpose"(%899) <{dim1 = 0 : i32, dim2 = 1 : i32}> : (tensor<5120x5120xf16>) -> tensor<5120x5120xf16>
    %905 = "mix.prim.reshape"(%903) <{shape = [40, 5120]}> : (tensor<40x1x5120xf16>) -> tensor<40x5120xf16>
    %906 = "mix.prim.matmul"(%905, %904) : (tensor<40x5120xf16>, tensor<5120x5120xf16>) -> tensor<40x5120xf16>
    %907 = "mix.prim.reshape"(%906) <{shape = [40, 1, 5120]}> : (tensor<40x5120xf16>) -> tensor<40x1x5120xf16>
    %908 = "mix.prim.reshape"(%907) <{shape = [40, 1, 32, 160]}> : (tensor<40x1x5120xf16>) -> tensor<40x1x32x160xf16>
    %909 = "mix.prim.transpose"(%900) <{dim1 = 0 : i32, dim2 = 1 : i32}> : (tensor<10240x5120xf16>) -> tensor<5120x10240xf16>
    %910 = "mix.prim.reshape"(%903) <{shape = [40, 5120]}> : (tensor<40x1x5120xf16>) -> tensor<40x5120xf16>
    %911 = "mix.prim.matmul"(%910, %909) : (tensor<40x5120xf16>, tensor<5120x10240xf16>) -> tensor<40x10240xf16>
    %912 = "mix.prim.reshape"(%911) <{shape = [40, 1, 10240]}> : (tensor<40x10240xf16>) -> tensor<40x1x10240xf16>
    %913 = "mix.prim.reshape"(%912) <{shape = [40, 1, 32, 320]}> : (tensor<40x1x10240xf16>) -> tensor<40x1x32x320xf16>
    %914 = "mix.prim.slice"(%913) <{dim = 3 : i64, end = 160 : i64, start = 0 : i64, step = 1 : i64}> : (tensor<40x1x32x320xf16>) -> tensor<40x1x32x160xf16>
    %915 = "mix.prim.slice"(%913) <{dim = 3 : i64, end = 320 : i64, start = 160 : i64, step = 1 : i64}> : (tensor<40x1x32x320xf16>) -> tensor<40x1x32x160xf16>
    %916 = "mix.prim.reshape"(%908) <{shape = [40, 32, -1]}> : (tensor<40x1x32x160xf16>) -> tensor<40x32x160xf16>
    %917 = "mix.prim.reshape"(%914) <{shape = [40, 32, -1]}> : (tensor<40x1x32x160xf16>) -> tensor<40x32x160xf16>
    %918 = "mix.prim.constant"() <{value = dense<[0, 2, 4, 6, 8, 10, 12, 14, 16, 18, 20, 22, 24, 26, 28, 30, 32, 34, 36, 38, 40, 42, 44, 46, 48, 50, 52, 54, 56, 58, 60, 62, 64, 66, 68, 70, 72, 74, 76, 78, 80, 82, 84, 86, 88, 90, 92, 94, 96, 98, 100, 102, 104, 106, 108, 110, 112, 114, 116, 118, 120, 122, 124, 126, 128, 130, 132, 134, 136, 138, 140, 142, 144, 146, 148, 150, 152, 154, 156, 158]> : tensor<80xi32>}> : () -> tensor<80xi32>
    %919 = "mix.prim.convert"(%918) <{element_ty = f16}> : (tensor<80xi32>) -> tensor<80xf16>
    %920 = "mix.prim.constant"() <{value = 1.600000e+02 : f16}> : () -> f16
    %921 = "mix.prim.div"(%919, %920) : (tensor<80xf16>, f16) -> tensor<80xf16>
    %922 = "mix.prim.constant"() <{value = 3.041600e+04 : f16}> : () -> f16
    %923 = "mix.prim.pow"(%922, %921) : (f16, tensor<80xf16>) -> tensor<80xf16>
    %924 = "mix.prim.reciprocal"(%923) : (tensor<80xf16>) -> tensor<80xf16>
    %925 = "mix.prim.constant"() <{value = 1.000000e+00 : f16}> : () -> f16
    %926 = "mix.prim.mul"(%925, %924) : (f16, tensor<80xf16>) -> tensor<80xf16>
    %927 = "mix.prim.constant"() <{value = dense<[… > : tensor<40xf16>}> : () -> tensor<40xf16>
    %928 = "mix.prim.unsqueeze"(%927) <{axis = 1 : i32}> : (tensor<40xf16>) -> tensor<40x1xf16>
    %929 = "mix.prim.permute"(%928) <{dims = [0, 1]}> : (tensor<40x1xf16>) -> tensor<40x1xf16>
    %930 = "mix.prim.unsqueeze"(%926) <{axis = 1 : i32}> : (tensor<80xf16>) -> tensor<80x1xf16>
    %931 = "mix.prim.permute"(%930) <{dims = [1, 0]}> : (tensor<80x1xf16>) -> tensor<1x80xf16>
    %932 = "mix.prim.mul"(%929, %931) : (tensor<40x1xf16>, tensor<1x80xf16>) -> tensor<40x80xf16>
    %933 = "mix.prim.concat"(%932, %932) <{axis = 1 : i64}> : (tensor<40x80xf16>, tensor<40x80xf16>) -> tensor<40x160xf16>
    %934 = "mix.prim.cos"(%933) : (tensor<40x160xf16>) -> tensor<40x160xf16>
    %935 = "mix.prim.slice"(%934) <{dim = 0 : i64, end = 2147483647 : i64, start = 0 : i64, step = 1 : i64}> : (tensor<40x160xf16>) -> tensor<40x160xf16>
    %936 = "mix.prim.unsqueeze"(%935) <{axis = 1 : i32}> : (tensor<40x160xf16>) -> tensor<40x1x160xf16>
    %937 = "mix.prim.slice"(%936) <{dim = 2 : i64, end = 2147483647 : i64, start = 0 : i64, step = 1 : i64}> : (tensor<40x1x160xf16>) -> tensor<40x1x160xf16>
    %938 = "mix.prim.constant"() <{value = 1.000000e+00 : f16}> : () -> f16
    %939 = "mix.prim.mul"(%937, %938) : (tensor<40x1x160xf16>, f16) -> tensor<40x1x160xf16>
    %940 = "mix.prim.sin"(%933) : (tensor<40x160xf16>) -> tensor<40x160xf16>
    %941 = "mix.prim.slice"(%940) <{dim = 0 : i64, end = 2147483647 : i64, start = 0 : i64, step = 1 : i64}> : (tensor<40x160xf16>) -> tensor<40x160xf16>
    %942 = "mix.prim.unsqueeze"(%941) <{axis = 1 : i32}> : (tensor<40x160xf16>) -> tensor<40x1x160xf16>
    %943 = "mix.prim.slice"(%942) <{dim = 2 : i64, end = 2147483647 : i64, start = 0 : i64, step = 1 : i64}> : (tensor<40x1x160xf16>) -> tensor<40x1x160xf16>
    %944 = "mix.prim.constant"() <{value = 1.000000e+00 : f16}> : () -> f16
    %945 = "mix.prim.mul"(%943, %944) : (tensor<40x1x160xf16>, f16) -> tensor<40x1x160xf16>
    %946 = "mix.prim.slice"(%939) <{dim = 0 : i64, end = 40 : i64, start = 0 : i64, step = 1 : i64}> : (tensor<40x1x160xf16>) -> tensor<40x1x160xf16>
    %947 = "mix.prim.slice"(%945) <{dim = 0 : i64, end = 40 : i64, start = 0 : i64, step = 1 : i64}> : (tensor<40x1x160xf16>) -> tensor<40x1x160xf16>
    %948 = "mix.prim.mul"(%916, %946) : (tensor<40x32x160xf16>, tensor<40x1x160xf16>) -> tensor<40x32x160xf16>
    %949 = "mix.prim.slice"(%916) <{dim = 2 : i64, end = 80 : i64, start = 0 : i64, step = 1 : i64}> : (tensor<40x32x160xf16>) -> tensor<40x32x80xf16>
    %950 = "mix.prim.slice"(%916) <{dim = 2 : i64, end = 2147483647 : i64, start = 80 : i64, step = 1 : i64}> : (tensor<40x32x160xf16>) -> tensor<40x32x80xf16>
    %951 = "mix.prim.neg"(%950) : (tensor<40x32x80xf16>) -> tensor<40x32x80xf16>
    %952 = "mix.prim.concat"(%951, %949) <{axis = 2 : i64}> : (tensor<40x32x80xf16>, tensor<40x32x80xf16>) -> tensor<40x32x160xf16>
    %953 = "mix.prim.mul"(%952, %947) : (tensor<40x32x160xf16>, tensor<40x1x160xf16>) -> tensor<40x32x160xf16>
    %954 = "mix.prim.add"(%948, %953) : (tensor<40x32x160xf16>, tensor<40x32x160xf16>) -> tensor<40x32x160xf16>
    %955 = "mix.prim.mul"(%917, %946) : (tensor<40x32x160xf16>, tensor<40x1x160xf16>) -> tensor<40x32x160xf16>
    %956 = "mix.prim.slice"(%917) <{dim = 2 : i64, end = 80 : i64, start = 0 : i64, step = 1 : i64}> : (tensor<40x32x160xf16>) -> tensor<40x32x80xf16>
    %957 = "mix.prim.slice"(%917) <{dim = 2 : i64, end = 2147483647 : i64, start = 80 : i64, step = 1 : i64}> : (tensor<40x32x160xf16>) -> tensor<40x32x80xf16>
    %958 = "mix.prim.neg"(%957) : (tensor<40x32x80xf16>) -> tensor<40x32x80xf16>
    %959 = "mix.prim.concat"(%958, %956) <{axis = 2 : i64}> : (tensor<40x32x80xf16>, tensor<40x32x80xf16>) -> tensor<40x32x160xf16>
    %960 = "mix.prim.mul"(%959, %947) : (tensor<40x32x160xf16>, tensor<40x1x160xf16>) -> tensor<40x32x160xf16>
    %961 = "mix.prim.add"(%955, %960) : (tensor<40x32x160xf16>, tensor<40x32x160xf16>) -> tensor<40x32x160xf16>
    %962 = "mix.prim.reshape"(%954) <{shape = [40, 1, 32, 160]}> : (tensor<40x32x160xf16>) -> tensor<40x1x32x160xf16>
    %963 = "mix.prim.reshape"(%961) <{shape = [40, 1, 32, 160]}> : (tensor<40x32x160xf16>) -> tensor<40x1x32x160xf16>
    %964 = "mix.prim.reshape"(%962) <{shape = [40, 32, 160]}> : (tensor<40x1x32x160xf16>) -> tensor<40x32x160xf16>
    %965 = "mix.prim.reshape"(%963) <{shape = [40, 32, 160]}> : (tensor<40x1x32x160xf16>) -> tensor<40x32x160xf16>
    %966 = "mix.prim.transpose"(%964) <{dim1 = 0 : i32, dim2 = 1 : i32}> : (tensor<40x32x160xf16>) -> tensor<32x40x160xf16>
    %967 = "mix.prim.transpose"(%965) <{dim1 = 0 : i32, dim2 = 1 : i32}> : (tensor<40x32x160xf16>) -> tensor<32x40x160xf16>
    %968 = "mix.prim.transpose"(%967) <{dim1 = 1 : i32, dim2 = 2 : i32}> : (tensor<32x40x160xf16>) -> tensor<32x160x40xf16>
    %969 = "mix.prim.unsqueeze"(%966) <{axis = 3 : i32}> : (tensor<32x40x160xf16>) -> tensor<32x40x160x1xf16>
    %970 = "mix.prim.permute"(%969) <{dims = [0, 1, 3, 2]}> : (tensor<32x40x160x1xf16>) -> tensor<32x40x1x160xf16>
    %971 = "mix.prim.unsqueeze"(%968) <{axis = 3 : i32}> : (tensor<32x160x40xf16>) -> tensor<32x160x40x1xf16>
    %972 = "mix.prim.permute"(%971) <{dims = [0, 3, 2, 1]}> : (tensor<32x160x40x1xf16>) -> tensor<32x1x40x160xf16>
    %973 = "mix.prim.permute"(%970) <{dims = [0, 1, 3, 2]}> : (tensor<32x40x1x160xf16>) -> tensor<32x40x160x1xf16>
    %974 = "mix.prim.reshape"(%973) <{shape = [32, 40, 160]}> : (tensor<32x40x160x1xf16>) -> tensor<32x40x160xf16>
    %975 = "mix.prim.permute"(%972) <{dims = [0, 3, 2, 1]}> : (tensor<32x1x40x160xf16>) -> tensor<32x160x40x1xf16>
    %976 = "mix.prim.reshape"(%975) <{shape = [32, 160, 40]}> : (tensor<32x160x40x1xf16>) -> tensor<32x160x40xf16>
    %977 = "mix.prim.batch_matmul"(%974, %976) : (tensor<32x40x160xf16>, tensor<32x160x40xf16>) -> tensor<32x40x40xf16>
    %978 = "mix.prim.reshape"(%977) <{shape = [32, 40, 1, 40]}> : (tensor<32x40x40xf16>) -> tensor<32x40x1x40xf16>
    %979 = "mix.prim.permute"(%978) <{dims = [0, 1, 3, 2]}> : (tensor<32x40x1x40xf16>) -> tensor<32x40x40x1xf16>
    %980 = "mix.prim.reshape"(%979) <{shape = [32, 40, 40]}> : (tensor<32x40x40x1xf16>) -> tensor<32x40x40xf16>
    %981 = "mix.prim.constant"() <{value = 7.904050e-02 : f16}> : () -> f16
    %982 = "mix.prim.mul"(%980, %981) : (tensor<32x40x40xf16>, f16) -> tensor<32x40x40xf16>
    %983 = "mix.prim.reshape"(%982) <{shape = [1, 32, 40, 40]}> : (tensor<32x40x40xf16>) -> tensor<1x32x40x40xf16>
    %984 = "mix.prim.constant"() <{value = 0xFC00 : f16}> : () -> f16
    %985 = "mix.comp.masked_fill"(%983, %14, %984) : (tensor<1x32x40x40xf16>, tensor<1x1x40x40xi1>, f16) -> tensor<1x32x40x40xf16>
    %986 = "mix.comp.softmax"(%985) <{axis = -1 : si32}> : (tensor<1x32x40x40xf16>) -> tensor<1x32x40x40xf16>
    %987 = "mix.prim.reshape"(%986) <{shape = [32, 40, 40]}> : (tensor<1x32x40x40xf16>) -> tensor<32x40x40xf16>
    %988 = "mix.prim.reshape"(%915) <{shape = [40, 32, 160]}> : (tensor<40x1x32x160xf16>) -> tensor<40x32x160xf16>
    %989 = "mix.prim.transpose"(%988) <{dim1 = 0 : i32, dim2 = 1 : i32}> : (tensor<40x32x160xf16>) -> tensor<32x40x160xf16>
    %990 = "mix.prim.batch_matmul"(%987, %989) : (tensor<32x40x40xf16>, tensor<32x40x160xf16>) -> tensor<32x40x160xf16>
    %991 = "mix.prim.reshape"(%990) <{shape = [1, 32, 40, 160]}> : (tensor<32x40x160xf16>) -> tensor<1x32x40x160xf16>
    %992 = "mix.prim.permute"(%991) <{dims = [0, 2, 1, 3]}> : (tensor<1x32x40x160xf16>) -> tensor<1x40x32x160xf16>
    %993 = "mix.prim.reshape"(%992) <{shape = [1, 40, 5120]}> : (tensor<1x40x32x160xf16>) -> tensor<1x40x5120xf16>
    %994 = "mix.prim.reshape"(%993) <{shape = [40, 5120]}> : (tensor<1x40x5120xf16>) -> tensor<40x5120xf16>
    %995 = "mix.prim.transpose"(%901) <{dim1 = 0 : i32, dim2 = 1 : i32}> : (tensor<5120x5120xf16>) -> tensor<5120x5120xf16>
    %996 = "mix.prim.matmul"(%994, %995) : (tensor<40x5120xf16>, tensor<5120x5120xf16>) -> tensor<40x5120xf16>
    %997 = "mix.prim.add"(%996, %902) : (tensor<40x5120xf16>, tensor<5120xf16>) -> tensor<40x5120xf16>
    %998 = "mix.prim.reshape"(%997) <{shape = [1, 40, 5120]}> : (tensor<40x5120xf16>) -> tensor<1x40x5120xf16>
    %999 = "mix.prim.mul"(%889, %998) : (tensor<1x40x5120xf16>, tensor<1x40x5120xf16>) -> tensor<1x40x5120xf16>
    %1000 = "mix.comp.weight"() <{param_loc = "transformer.h.7.post_attention_layernorm.weight"}> : () -> tensor<5120xf16>
    %1001 = "mix.prim.constant"() <{value = dense<1.000000e+00> : tensor<1xf16>}> : () -> tensor<1xf16>
    %1002 = "mix.prim.pow"(%999, %1001) : (tensor<1x40x5120xf16>, tensor<1xf16>) -> tensor<1x40x5120xf16>
    %1003 = "mix.comp.mean"(%1002) <{dims = [2 : i32], keepDim = true}> : (tensor<1x40x5120xf16>) -> tensor<1x40x1xf16>
    %1004 = "mix.prim.constant"() <{value = 1.013280e-06 : f16}> : () -> f16
    %1005 = "mix.prim.add"(%1003, %1004) : (tensor<1x40x1xf16>, f16) -> tensor<1x40x1xf16>
    %1006 = "mix.prim.rsqrt"(%1005) : (tensor<1x40x1xf16>) -> tensor<1x40x1xf16>
    %1007 = "mix.prim.mul"(%999, %1006) : (tensor<1x40x5120xf16>, tensor<1x40x1xf16>) -> tensor<1x40x5120xf16>
    %1008 = "mix.prim.mul"(%1000, %1007) : (tensor<5120xf16>, tensor<1x40x5120xf16>) -> tensor<1x40x5120xf16>
    %1009 = "mix.module.linear"(%1008) <{dtype = f16, in_feature = 5120 : i32, out_feature = 12288 : i32, params_loc = "transformer.h.7.mlp.gate_proj"}> : (tensor<1x40x5120xf16>) -> tensor<1x40x12288xf16>
    %1010 = "mix.comp.silu"(%1009) : (tensor<1x40x12288xf16>) -> tensor<1x40x12288xf16>
    %1011 = "mix.module.linear"(%1008) <{dtype = f16, in_feature = 5120 : i32, out_feature = 12288 : i32, params_loc = "transformer.h.7.mlp.up_proj"}> : (tensor<1x40x5120xf16>) -> tensor<1x40x12288xf16>
    %1012 = "mix.prim.mul"(%1010, %1011) : (tensor<1x40x12288xf16>, tensor<1x40x12288xf16>) -> tensor<1x40x12288xf16>
    %1013 = "mix.module.linear"(%1012) <{dtype = f16, has_bias, in_feature = 12288 : i32, out_feature = 5120 : i32, params_loc = "transformer.h.7.mlp.down_proj"}> : (tensor<1x40x12288xf16>) -> tensor<1x40x5120xf16>
    %1014 = "mix.prim.add"(%1013, %999) : (tensor<1x40x5120xf16>, tensor<1x40x5120xf16>) -> tensor<1x40x5120xf16>
    %1015 = "mix.comp.weight"() <{param_loc = "transformer.h.8.input_layernorm.weight"}> : () -> tensor<5120xf16>
    %1016 = "mix.prim.constant"() <{value = dense<1.000000e+00> : tensor<1xf16>}> : () -> tensor<1xf16>
    %1017 = "mix.prim.pow"(%1014, %1016) : (tensor<1x40x5120xf16>, tensor<1xf16>) -> tensor<1x40x5120xf16>
    %1018 = "mix.comp.mean"(%1017) <{dims = [2 : i32], keepDim = true}> : (tensor<1x40x5120xf16>) -> tensor<1x40x1xf16>
    %1019 = "mix.prim.constant"() <{value = 1.013280e-06 : f16}> : () -> f16
    %1020 = "mix.prim.add"(%1018, %1019) : (tensor<1x40x1xf16>, f16) -> tensor<1x40x1xf16>
    %1021 = "mix.prim.rsqrt"(%1020) : (tensor<1x40x1xf16>) -> tensor<1x40x1xf16>
    %1022 = "mix.prim.mul"(%1014, %1021) : (tensor<1x40x5120xf16>, tensor<1x40x1xf16>) -> tensor<1x40x5120xf16>
    %1023 = "mix.prim.mul"(%1015, %1022) : (tensor<5120xf16>, tensor<1x40x5120xf16>) -> tensor<1x40x5120xf16>
    %1024 = "mix.comp.weight"() <{param_loc = "transformer.h.8.self_attention.query.weight"}> : () -> tensor<5120x5120xf16>
    %1025 = "mix.comp.weight"() <{param_loc = "transformer.h.8.self_attention.key_value.weight"}> : () -> tensor<10240x5120xf16>
    %1026 = "mix.comp.weight"() <{param_loc = "transformer.h.8.self_attention.dense.weight"}> : () -> tensor<5120x5120xf16>
    %1027 = "mix.comp.weight"() <{param_loc = "transformer.h.8.self_attention.dense.bias"}> : () -> tensor<5120xf16>
    %1028 = "mix.prim.transpose"(%1023) <{dim1 = 0 : i32, dim2 = 1 : i32}> : (tensor<1x40x5120xf16>) -> tensor<40x1x5120xf16>
    %1029 = "mix.prim.transpose"(%1024) <{dim1 = 0 : i32, dim2 = 1 : i32}> : (tensor<5120x5120xf16>) -> tensor<5120x5120xf16>
    %1030 = "mix.prim.reshape"(%1028) <{shape = [40, 5120]}> : (tensor<40x1x5120xf16>) -> tensor<40x5120xf16>
    %1031 = "mix.prim.matmul"(%1030, %1029) : (tensor<40x5120xf16>, tensor<5120x5120xf16>) -> tensor<40x5120xf16>
    %1032 = "mix.prim.reshape"(%1031) <{shape = [40, 1, 5120]}> : (tensor<40x5120xf16>) -> tensor<40x1x5120xf16>
    %1033 = "mix.prim.reshape"(%1032) <{shape = [40, 1, 32, 160]}> : (tensor<40x1x5120xf16>) -> tensor<40x1x32x160xf16>
    %1034 = "mix.prim.transpose"(%1025) <{dim1 = 0 : i32, dim2 = 1 : i32}> : (tensor<10240x5120xf16>) -> tensor<5120x10240xf16>
    %1035 = "mix.prim.reshape"(%1028) <{shape = [40, 5120]}> : (tensor<40x1x5120xf16>) -> tensor<40x5120xf16>
    %1036 = "mix.prim.matmul"(%1035, %1034) : (tensor<40x5120xf16>, tensor<5120x10240xf16>) -> tensor<40x10240xf16>
    %1037 = "mix.prim.reshape"(%1036) <{shape = [40, 1, 10240]}> : (tensor<40x10240xf16>) -> tensor<40x1x10240xf16>
    %1038 = "mix.prim.reshape"(%1037) <{shape = [40, 1, 32, 320]}> : (tensor<40x1x10240xf16>) -> tensor<40x1x32x320xf16>
    %1039 = "mix.prim.slice"(%1038) <{dim = 3 : i64, end = 160 : i64, start = 0 : i64, step = 1 : i64}> : (tensor<40x1x32x320xf16>) -> tensor<40x1x32x160xf16>
    %1040 = "mix.prim.slice"(%1038) <{dim = 3 : i64, end = 320 : i64, start = 160 : i64, step = 1 : i64}> : (tensor<40x1x32x320xf16>) -> tensor<40x1x32x160xf16>
    %1041 = "mix.prim.reshape"(%1033) <{shape = [40, 32, -1]}> : (tensor<40x1x32x160xf16>) -> tensor<40x32x160xf16>
    %1042 = "mix.prim.reshape"(%1039) <{shape = [40, 32, -1]}> : (tensor<40x1x32x160xf16>) -> tensor<40x32x160xf16>
    %1043 = "mix.prim.constant"() <{value = dense<[0, 2, 4, 6, 8, 10, 12, 14, 16, 18, 20, 22, 24, 26, 28, 30, 32, 34, 36, 38, 40, 42, 44, 46, 48, 50, 52, 54, 56, 58, 60, 62, 64, 66, 68, 70, 72, 74, 76, 78, 80, 82, 84, 86, 88, 90, 92, 94, 96, 98, 100, 102, 104, 106, 108, 110, 112, 114, 116, 118, 120, 122, 124, 126, 128, 130, 132, 134, 136, 138, 140, 142, 144, 146, 148, 150, 152, 154, 156, 158]> : tensor<80xi32>}> : () -> tensor<80xi32>
    %1044 = "mix.prim.convert"(%1043) <{element_ty = f16}> : (tensor<80xi32>) -> tensor<80xf16>
    %1045 = "mix.prim.constant"() <{value = 1.600000e+02 : f16}> : () -> f16
    %1046 = "mix.prim.div"(%1044, %1045) : (tensor<80xf16>, f16) -> tensor<80xf16>
    %1047 = "mix.prim.constant"() <{value = 3.041600e+04 : f16}> : () -> f16
    %1048 = "mix.prim.pow"(%1047, %1046) : (f16, tensor<80xf16>) -> tensor<80xf16>
    %1049 = "mix.prim.reciprocal"(%1048) : (tensor<80xf16>) -> tensor<80xf16>
    %1050 = "mix.prim.constant"() <{value = 1.000000e+00 : f16}> : () -> f16
    %1051 = "mix.prim.mul"(%1050, %1049) : (f16, tensor<80xf16>) -> tensor<80xf16>
    %1052 = "mix.prim.constant"() <{value = dense<[… > : tensor<40xf16>}> : () -> tensor<40xf16>
    %1053 = "mix.prim.unsqueeze"(%1052) <{axis = 1 : i32}> : (tensor<40xf16>) -> tensor<40x1xf16>
    %1054 = "mix.prim.permute"(%1053) <{dims = [0, 1]}> : (tensor<40x1xf16>) -> tensor<40x1xf16>
    %1055 = "mix.prim.unsqueeze"(%1051) <{axis = 1 : i32}> : (tensor<80xf16>) -> tensor<80x1xf16>
    %1056 = "mix.prim.permute"(%1055) <{dims = [1, 0]}> : (tensor<80x1xf16>) -> tensor<1x80xf16>
    %1057 = "mix.prim.mul"(%1054, %1056) : (tensor<40x1xf16>, tensor<1x80xf16>) -> tensor<40x80xf16>
    %1058 = "mix.prim.concat"(%1057, %1057) <{axis = 1 : i64}> : (tensor<40x80xf16>, tensor<40x80xf16>) -> tensor<40x160xf16>
    %1059 = "mix.prim.cos"(%1058) : (tensor<40x160xf16>) -> tensor<40x160xf16>
    %1060 = "mix.prim.slice"(%1059) <{dim = 0 : i64, end = 2147483647 : i64, start = 0 : i64, step = 1 : i64}> : (tensor<40x160xf16>) -> tensor<40x160xf16>
    %1061 = "mix.prim.unsqueeze"(%1060) <{axis = 1 : i32}> : (tensor<40x160xf16>) -> tensor<40x1x160xf16>
    %1062 = "mix.prim.slice"(%1061) <{dim = 2 : i64, end = 2147483647 : i64, start = 0 : i64, step = 1 : i64}> : (tensor<40x1x160xf16>) -> tensor<40x1x160xf16>
    %1063 = "mix.prim.constant"() <{value = 1.000000e+00 : f16}> : () -> f16
    %1064 = "mix.prim.mul"(%1062, %1063) : (tensor<40x1x160xf16>, f16) -> tensor<40x1x160xf16>
    %1065 = "mix.prim.sin"(%1058) : (tensor<40x160xf16>) -> tensor<40x160xf16>
    %1066 = "mix.prim.slice"(%1065) <{dim = 0 : i64, end = 2147483647 : i64, start = 0 : i64, step = 1 : i64}> : (tensor<40x160xf16>) -> tensor<40x160xf16>
    %1067 = "mix.prim.unsqueeze"(%1066) <{axis = 1 : i32}> : (tensor<40x160xf16>) -> tensor<40x1x160xf16>
    %1068 = "mix.prim.slice"(%1067) <{dim = 2 : i64, end = 2147483647 : i64, start = 0 : i64, step = 1 : i64}> : (tensor<40x1x160xf16>) -> tensor<40x1x160xf16>
    %1069 = "mix.prim.constant"() <{value = 1.000000e+00 : f16}> : () -> f16
    %1070 = "mix.prim.mul"(%1068, %1069) : (tensor<40x1x160xf16>, f16) -> tensor<40x1x160xf16>
    %1071 = "mix.prim.slice"(%1064) <{dim = 0 : i64, end = 40 : i64, start = 0 : i64, step = 1 : i64}> : (tensor<40x1x160xf16>) -> tensor<40x1x160xf16>
    %1072 = "mix.prim.slice"(%1070) <{dim = 0 : i64, end = 40 : i64, start = 0 : i64, step = 1 : i64}> : (tensor<40x1x160xf16>) -> tensor<40x1x160xf16>
    %1073 = "mix.prim.mul"(%1041, %1071) : (tensor<40x32x160xf16>, tensor<40x1x160xf16>) -> tensor<40x32x160xf16>
    %1074 = "mix.prim.slice"(%1041) <{dim = 2 : i64, end = 80 : i64, start = 0 : i64, step = 1 : i64}> : (tensor<40x32x160xf16>) -> tensor<40x32x80xf16>
    %1075 = "mix.prim.slice"(%1041) <{dim = 2 : i64, end = 2147483647 : i64, start = 80 : i64, step = 1 : i64}> : (tensor<40x32x160xf16>) -> tensor<40x32x80xf16>
    %1076 = "mix.prim.neg"(%1075) : (tensor<40x32x80xf16>) -> tensor<40x32x80xf16>
    %1077 = "mix.prim.concat"(%1076, %1074) <{axis = 2 : i64}> : (tensor<40x32x80xf16>, tensor<40x32x80xf16>) -> tensor<40x32x160xf16>
    %1078 = "mix.prim.mul"(%1077, %1072) : (tensor<40x32x160xf16>, tensor<40x1x160xf16>) -> tensor<40x32x160xf16>
    %1079 = "mix.prim.add"(%1073, %1078) : (tensor<40x32x160xf16>, tensor<40x32x160xf16>) -> tensor<40x32x160xf16>
    %1080 = "mix.prim.mul"(%1042, %1071) : (tensor<40x32x160xf16>, tensor<40x1x160xf16>) -> tensor<40x32x160xf16>
    %1081 = "mix.prim.slice"(%1042) <{dim = 2 : i64, end = 80 : i64, start = 0 : i64, step = 1 : i64}> : (tensor<40x32x160xf16>) -> tensor<40x32x80xf16>
    %1082 = "mix.prim.slice"(%1042) <{dim = 2 : i64, end = 2147483647 : i64, start = 80 : i64, step = 1 : i64}> : (tensor<40x32x160xf16>) -> tensor<40x32x80xf16>
    %1083 = "mix.prim.neg"(%1082) : (tensor<40x32x80xf16>) -> tensor<40x32x80xf16>
    %1084 = "mix.prim.concat"(%1083, %1081) <{axis = 2 : i64}> : (tensor<40x32x80xf16>, tensor<40x32x80xf16>) -> tensor<40x32x160xf16>
    %1085 = "mix.prim.mul"(%1084, %1072) : (tensor<40x32x160xf16>, tensor<40x1x160xf16>) -> tensor<40x32x160xf16>
    %1086 = "mix.prim.add"(%1080, %1085) : (tensor<40x32x160xf16>, tensor<40x32x160xf16>) -> tensor<40x32x160xf16>
    %1087 = "mix.prim.reshape"(%1079) <{shape = [40, 1, 32, 160]}> : (tensor<40x32x160xf16>) -> tensor<40x1x32x160xf16>
    %1088 = "mix.prim.reshape"(%1086) <{shape = [40, 1, 32, 160]}> : (tensor<40x32x160xf16>) -> tensor<40x1x32x160xf16>
    %1089 = "mix.prim.reshape"(%1087) <{shape = [40, 32, 160]}> : (tensor<40x1x32x160xf16>) -> tensor<40x32x160xf16>
    %1090 = "mix.prim.reshape"(%1088) <{shape = [40, 32, 160]}> : (tensor<40x1x32x160xf16>) -> tensor<40x32x160xf16>
    %1091 = "mix.prim.transpose"(%1089) <{dim1 = 0 : i32, dim2 = 1 : i32}> : (tensor<40x32x160xf16>) -> tensor<32x40x160xf16>
    %1092 = "mix.prim.transpose"(%1090) <{dim1 = 0 : i32, dim2 = 1 : i32}> : (tensor<40x32x160xf16>) -> tensor<32x40x160xf16>
    %1093 = "mix.prim.transpose"(%1092) <{dim1 = 1 : i32, dim2 = 2 : i32}> : (tensor<32x40x160xf16>) -> tensor<32x160x40xf16>
    %1094 = "mix.prim.unsqueeze"(%1091) <{axis = 3 : i32}> : (tensor<32x40x160xf16>) -> tensor<32x40x160x1xf16>
    %1095 = "mix.prim.permute"(%1094) <{dims = [0, 1, 3, 2]}> : (tensor<32x40x160x1xf16>) -> tensor<32x40x1x160xf16>
    %1096 = "mix.prim.unsqueeze"(%1093) <{axis = 3 : i32}> : (tensor<32x160x40xf16>) -> tensor<32x160x40x1xf16>
    %1097 = "mix.prim.permute"(%1096) <{dims = [0, 3, 2, 1]}> : (tensor<32x160x40x1xf16>) -> tensor<32x1x40x160xf16>
    %1098 = "mix.prim.permute"(%1095) <{dims = [0, 1, 3, 2]}> : (tensor<32x40x1x160xf16>) -> tensor<32x40x160x1xf16>
    %1099 = "mix.prim.reshape"(%1098) <{shape = [32, 40, 160]}> : (tensor<32x40x160x1xf16>) -> tensor<32x40x160xf16>
    %1100 = "mix.prim.permute"(%1097) <{dims = [0, 3, 2, 1]}> : (tensor<32x1x40x160xf16>) -> tensor<32x160x40x1xf16>
    %1101 = "mix.prim.reshape"(%1100) <{shape = [32, 160, 40]}> : (tensor<32x160x40x1xf16>) -> tensor<32x160x40xf16>
    %1102 = "mix.prim.batch_matmul"(%1099, %1101) : (tensor<32x40x160xf16>, tensor<32x160x40xf16>) -> tensor<32x40x40xf16>
    %1103 = "mix.prim.reshape"(%1102) <{shape = [32, 40, 1, 40]}> : (tensor<32x40x40xf16>) -> tensor<32x40x1x40xf16>
    %1104 = "mix.prim.permute"(%1103) <{dims = [0, 1, 3, 2]}> : (tensor<32x40x1x40xf16>) -> tensor<32x40x40x1xf16>
    %1105 = "mix.prim.reshape"(%1104) <{shape = [32, 40, 40]}> : (tensor<32x40x40x1xf16>) -> tensor<32x40x40xf16>
    %1106 = "mix.prim.constant"() <{value = 7.904050e-02 : f16}> : () -> f16
    %1107 = "mix.prim.mul"(%1105, %1106) : (tensor<32x40x40xf16>, f16) -> tensor<32x40x40xf16>
    %1108 = "mix.prim.reshape"(%1107) <{shape = [1, 32, 40, 40]}> : (tensor<32x40x40xf16>) -> tensor<1x32x40x40xf16>
    %1109 = "mix.prim.constant"() <{value = 0xFC00 : f16}> : () -> f16
    %1110 = "mix.comp.masked_fill"(%1108, %14, %1109) : (tensor<1x32x40x40xf16>, tensor<1x1x40x40xi1>, f16) -> tensor<1x32x40x40xf16>
    %1111 = "mix.comp.softmax"(%1110) <{axis = -1 : si32}> : (tensor<1x32x40x40xf16>) -> tensor<1x32x40x40xf16>
    %1112 = "mix.prim.reshape"(%1111) <{shape = [32, 40, 40]}> : (tensor<1x32x40x40xf16>) -> tensor<32x40x40xf16>
    %1113 = "mix.prim.reshape"(%1040) <{shape = [40, 32, 160]}> : (tensor<40x1x32x160xf16>) -> tensor<40x32x160xf16>
    %1114 = "mix.prim.transpose"(%1113) <{dim1 = 0 : i32, dim2 = 1 : i32}> : (tensor<40x32x160xf16>) -> tensor<32x40x160xf16>
    %1115 = "mix.prim.batch_matmul"(%1112, %1114) : (tensor<32x40x40xf16>, tensor<32x40x160xf16>) -> tensor<32x40x160xf16>
    %1116 = "mix.prim.reshape"(%1115) <{shape = [1, 32, 40, 160]}> : (tensor<32x40x160xf16>) -> tensor<1x32x40x160xf16>
    %1117 = "mix.prim.permute"(%1116) <{dims = [0, 2, 1, 3]}> : (tensor<1x32x40x160xf16>) -> tensor<1x40x32x160xf16>
    %1118 = "mix.prim.reshape"(%1117) <{shape = [1, 40, 5120]}> : (tensor<1x40x32x160xf16>) -> tensor<1x40x5120xf16>
    %1119 = "mix.prim.reshape"(%1118) <{shape = [40, 5120]}> : (tensor<1x40x5120xf16>) -> tensor<40x5120xf16>
    %1120 = "mix.prim.transpose"(%1026) <{dim1 = 0 : i32, dim2 = 1 : i32}> : (tensor<5120x5120xf16>) -> tensor<5120x5120xf16>
    %1121 = "mix.prim.matmul"(%1119, %1120) : (tensor<40x5120xf16>, tensor<5120x5120xf16>) -> tensor<40x5120xf16>
    %1122 = "mix.prim.add"(%1121, %1027) : (tensor<40x5120xf16>, tensor<5120xf16>) -> tensor<40x5120xf16>
    %1123 = "mix.prim.reshape"(%1122) <{shape = [1, 40, 5120]}> : (tensor<40x5120xf16>) -> tensor<1x40x5120xf16>
    %1124 = "mix.prim.mul"(%1014, %1123) : (tensor<1x40x5120xf16>, tensor<1x40x5120xf16>) -> tensor<1x40x5120xf16>
    %1125 = "mix.comp.weight"() <{param_loc = "transformer.h.8.post_attention_layernorm.weight"}> : () -> tensor<5120xf16>
    %1126 = "mix.prim.constant"() <{value = dense<1.000000e+00> : tensor<1xf16>}> : () -> tensor<1xf16>
    %1127 = "mix.prim.pow"(%1124, %1126) : (tensor<1x40x5120xf16>, tensor<1xf16>) -> tensor<1x40x5120xf16>
    %1128 = "mix.comp.mean"(%1127) <{dims = [2 : i32], keepDim = true}> : (tensor<1x40x5120xf16>) -> tensor<1x40x1xf16>
    %1129 = "mix.prim.constant"() <{value = 1.013280e-06 : f16}> : () -> f16
    %1130 = "mix.prim.add"(%1128, %1129) : (tensor<1x40x1xf16>, f16) -> tensor<1x40x1xf16>
    %1131 = "mix.prim.rsqrt"(%1130) : (tensor<1x40x1xf16>) -> tensor<1x40x1xf16>
    %1132 = "mix.prim.mul"(%1124, %1131) : (tensor<1x40x5120xf16>, tensor<1x40x1xf16>) -> tensor<1x40x5120xf16>
    %1133 = "mix.prim.mul"(%1125, %1132) : (tensor<5120xf16>, tensor<1x40x5120xf16>) -> tensor<1x40x5120xf16>
    %1134 = "mix.module.linear"(%1133) <{dtype = f16, in_feature = 5120 : i32, out_feature = 12288 : i32, params_loc = "transformer.h.8.mlp.gate_proj"}> : (tensor<1x40x5120xf16>) -> tensor<1x40x12288xf16>
    %1135 = "mix.comp.silu"(%1134) : (tensor<1x40x12288xf16>) -> tensor<1x40x12288xf16>
    %1136 = "mix.module.linear"(%1133) <{dtype = f16, in_feature = 5120 : i32, out_feature = 12288 : i32, params_loc = "transformer.h.8.mlp.up_proj"}> : (tensor<1x40x5120xf16>) -> tensor<1x40x12288xf16>
    %1137 = "mix.prim.mul"(%1135, %1136) : (tensor<1x40x12288xf16>, tensor<1x40x12288xf16>) -> tensor<1x40x12288xf16>
    %1138 = "mix.module.linear"(%1137) <{dtype = f16, has_bias, in_feature = 12288 : i32, out_feature = 5120 : i32, params_loc = "transformer.h.8.mlp.down_proj"}> : (tensor<1x40x12288xf16>) -> tensor<1x40x5120xf16>
    %1139 = "mix.prim.add"(%1138, %1124) : (tensor<1x40x5120xf16>, tensor<1x40x5120xf16>) -> tensor<1x40x5120xf16>
    %1140 = "mix.comp.weight"() <{param_loc = "transformer.h.9.input_layernorm.weight"}> : () -> tensor<5120xf16>
    %1141 = "mix.prim.constant"() <{value = dense<1.000000e+00> : tensor<1xf16>}> : () -> tensor<1xf16>
    %1142 = "mix.prim.pow"(%1139, %1141) : (tensor<1x40x5120xf16>, tensor<1xf16>) -> tensor<1x40x5120xf16>
    %1143 = "mix.comp.mean"(%1142) <{dims = [2 : i32], keepDim = true}> : (tensor<1x40x5120xf16>) -> tensor<1x40x1xf16>
    %1144 = "mix.prim.constant"() <{value = 1.013280e-06 : f16}> : () -> f16
    %1145 = "mix.prim.add"(%1143, %1144) : (tensor<1x40x1xf16>, f16) -> tensor<1x40x1xf16>
    %1146 = "mix.prim.rsqrt"(%1145) : (tensor<1x40x1xf16>) -> tensor<1x40x1xf16>
    %1147 = "mix.prim.mul"(%1139, %1146) : (tensor<1x40x5120xf16>, tensor<1x40x1xf16>) -> tensor<1x40x5120xf16>
    %1148 = "mix.prim.mul"(%1140, %1147) : (tensor<5120xf16>, tensor<1x40x5120xf16>) -> tensor<1x40x5120xf16>
    %1149 = "mix.comp.weight"() <{param_loc = "transformer.h.9.self_attention.query.weight"}> : () -> tensor<5120x5120xf16>
    %1150 = "mix.comp.weight"() <{param_loc = "transformer.h.9.self_attention.key_value.weight"}> : () -> tensor<10240x5120xf16>
    %1151 = "mix.comp.weight"() <{param_loc = "transformer.h.9.self_attention.dense.weight"}> : () -> tensor<5120x5120xf16>
    %1152 = "mix.comp.weight"() <{param_loc = "transformer.h.9.self_attention.dense.bias"}> : () -> tensor<5120xf16>
    %1153 = "mix.prim.transpose"(%1148) <{dim1 = 0 : i32, dim2 = 1 : i32}> : (tensor<1x40x5120xf16>) -> tensor<40x1x5120xf16>
    %1154 = "mix.prim.transpose"(%1149) <{dim1 = 0 : i32, dim2 = 1 : i32}> : (tensor<5120x5120xf16>) -> tensor<5120x5120xf16>
    %1155 = "mix.prim.reshape"(%1153) <{shape = [40, 5120]}> : (tensor<40x1x5120xf16>) -> tensor<40x5120xf16>
    %1156 = "mix.prim.matmul"(%1155, %1154) : (tensor<40x5120xf16>, tensor<5120x5120xf16>) -> tensor<40x5120xf16>
    %1157 = "mix.prim.reshape"(%1156) <{shape = [40, 1, 5120]}> : (tensor<40x5120xf16>) -> tensor<40x1x5120xf16>
    %1158 = "mix.prim.reshape"(%1157) <{shape = [40, 1, 32, 160]}> : (tensor<40x1x5120xf16>) -> tensor<40x1x32x160xf16>
    %1159 = "mix.prim.transpose"(%1150) <{dim1 = 0 : i32, dim2 = 1 : i32}> : (tensor<10240x5120xf16>) -> tensor<5120x10240xf16>
    %1160 = "mix.prim.reshape"(%1153) <{shape = [40, 5120]}> : (tensor<40x1x5120xf16>) -> tensor<40x5120xf16>
    %1161 = "mix.prim.matmul"(%1160, %1159) : (tensor<40x5120xf16>, tensor<5120x10240xf16>) -> tensor<40x10240xf16>
    %1162 = "mix.prim.reshape"(%1161) <{shape = [40, 1, 10240]}> : (tensor<40x10240xf16>) -> tensor<40x1x10240xf16>
    %1163 = "mix.prim.reshape"(%1162) <{shape = [40, 1, 32, 320]}> : (tensor<40x1x10240xf16>) -> tensor<40x1x32x320xf16>
    %1164 = "mix.prim.slice"(%1163) <{dim = 3 : i64, end = 160 : i64, start = 0 : i64, step = 1 : i64}> : (tensor<40x1x32x320xf16>) -> tensor<40x1x32x160xf16>
    %1165 = "mix.prim.slice"(%1163) <{dim = 3 : i64, end = 320 : i64, start = 160 : i64, step = 1 : i64}> : (tensor<40x1x32x320xf16>) -> tensor<40x1x32x160xf16>
    %1166 = "mix.prim.reshape"(%1158) <{shape = [40, 32, -1]}> : (tensor<40x1x32x160xf16>) -> tensor<40x32x160xf16>
    %1167 = "mix.prim.reshape"(%1164) <{shape = [40, 32, -1]}> : (tensor<40x1x32x160xf16>) -> tensor<40x32x160xf16>
    %1168 = "mix.prim.constant"() <{value = dense<[0, 2, 4, 6, 8, 10, 12, 14, 16, 18, 20, 22, 24, 26, 28, 30, 32, 34, 36, 38, 40, 42, 44, 46, 48, 50, 52, 54, 56, 58, 60, 62, 64, 66, 68, 70, 72, 74, 76, 78, 80, 82, 84, 86, 88, 90, 92, 94, 96, 98, 100, 102, 104, 106, 108, 110, 112, 114, 116, 118, 120, 122, 124, 126, 128, 130, 132, 134, 136, 138, 140, 142, 144, 146, 148, 150, 152, 154, 156, 158]> : tensor<80xi32>}> : () -> tensor<80xi32>
    %1169 = "mix.prim.convert"(%1168) <{element_ty = f16}> : (tensor<80xi32>) -> tensor<80xf16>
    %1170 = "mix.prim.constant"() <{value = 1.600000e+02 : f16}> : () -> f16
    %1171 = "mix.prim.div"(%1169, %1170) : (tensor<80xf16>, f16) -> tensor<80xf16>
    %1172 = "mix.prim.constant"() <{value = 3.041600e+04 : f16}> : () -> f16
    %1173 = "mix.prim.pow"(%1172, %1171) : (f16, tensor<80xf16>) -> tensor<80xf16>
    %1174 = "mix.prim.reciprocal"(%1173) : (tensor<80xf16>) -> tensor<80xf16>
    %1175 = "mix.prim.constant"() <{value = 1.000000e+00 : f16}> : () -> f16
    %1176 = "mix.prim.mul"(%1175, %1174) : (f16, tensor<80xf16>) -> tensor<80xf16>
    %1177 = "mix.prim.constant"() <{value = dense<[… > : tensor<40xf16>}> : () -> tensor<40xf16>
    %1178 = "mix.prim.unsqueeze"(%1177) <{axis = 1 : i32}> : (tensor<40xf16>) -> tensor<40x1xf16>
    %1179 = "mix.prim.permute"(%1178) <{dims = [0, 1]}> : (tensor<40x1xf16>) -> tensor<40x1xf16>
    %1180 = "mix.prim.unsqueeze"(%1176) <{axis = 1 : i32}> : (tensor<80xf16>) -> tensor<80x1xf16>
    %1181 = "mix.prim.permute"(%1180) <{dims = [1, 0]}> : (tensor<80x1xf16>) -> tensor<1x80xf16>
    %1182 = "mix.prim.mul"(%1179, %1181) : (tensor<40x1xf16>, tensor<1x80xf16>) -> tensor<40x80xf16>
    %1183 = "mix.prim.concat"(%1182, %1182) <{axis = 1 : i64}> : (tensor<40x80xf16>, tensor<40x80xf16>) -> tensor<40x160xf16>
    %1184 = "mix.prim.cos"(%1183) : (tensor<40x160xf16>) -> tensor<40x160xf16>
    %1185 = "mix.prim.slice"(%1184) <{dim = 0 : i64, end = 2147483647 : i64, start = 0 : i64, step = 1 : i64}> : (tensor<40x160xf16>) -> tensor<40x160xf16>
    %1186 = "mix.prim.unsqueeze"(%1185) <{axis = 1 : i32}> : (tensor<40x160xf16>) -> tensor<40x1x160xf16>
    %1187 = "mix.prim.slice"(%1186) <{dim = 2 : i64, end = 2147483647 : i64, start = 0 : i64, step = 1 : i64}> : (tensor<40x1x160xf16>) -> tensor<40x1x160xf16>
    %1188 = "mix.prim.constant"() <{value = 1.000000e+00 : f16}> : () -> f16
    %1189 = "mix.prim.mul"(%1187, %1188) : (tensor<40x1x160xf16>, f16) -> tensor<40x1x160xf16>
    %1190 = "mix.prim.sin"(%1183) : (tensor<40x160xf16>) -> tensor<40x160xf16>
    %1191 = "mix.prim.slice"(%1190) <{dim = 0 : i64, end = 2147483647 : i64, start = 0 : i64, step = 1 : i64}> : (tensor<40x160xf16>) -> tensor<40x160xf16>
    %1192 = "mix.prim.unsqueeze"(%1191) <{axis = 1 : i32}> : (tensor<40x160xf16>) -> tensor<40x1x160xf16>
    %1193 = "mix.prim.slice"(%1192) <{dim = 2 : i64, end = 2147483647 : i64, start = 0 : i64, step = 1 : i64}> : (tensor<40x1x160xf16>) -> tensor<40x1x160xf16>
    %1194 = "mix.prim.constant"() <{value = 1.000000e+00 : f16}> : () -> f16
    %1195 = "mix.prim.mul"(%1193, %1194) : (tensor<40x1x160xf16>, f16) -> tensor<40x1x160xf16>
    %1196 = "mix.prim.slice"(%1189) <{dim = 0 : i64, end = 40 : i64, start = 0 : i64, step = 1 : i64}> : (tensor<40x1x160xf16>) -> tensor<40x1x160xf16>
    %1197 = "mix.prim.slice"(%1195) <{dim = 0 : i64, end = 40 : i64, start = 0 : i64, step = 1 : i64}> : (tensor<40x1x160xf16>) -> tensor<40x1x160xf16>
    %1198 = "mix.prim.mul"(%1166, %1196) : (tensor<40x32x160xf16>, tensor<40x1x160xf16>) -> tensor<40x32x160xf16>
    %1199 = "mix.prim.slice"(%1166) <{dim = 2 : i64, end = 80 : i64, start = 0 : i64, step = 1 : i64}> : (tensor<40x32x160xf16>) -> tensor<40x32x80xf16>
    %1200 = "mix.prim.slice"(%1166) <{dim = 2 : i64, end = 2147483647 : i64, start = 80 : i64, step = 1 : i64}> : (tensor<40x32x160xf16>) -> tensor<40x32x80xf16>
    %1201 = "mix.prim.neg"(%1200) : (tensor<40x32x80xf16>) -> tensor<40x32x80xf16>
    %1202 = "mix.prim.concat"(%1201, %1199) <{axis = 2 : i64}> : (tensor<40x32x80xf16>, tensor<40x32x80xf16>) -> tensor<40x32x160xf16>
    %1203 = "mix.prim.mul"(%1202, %1197) : (tensor<40x32x160xf16>, tensor<40x1x160xf16>) -> tensor<40x32x160xf16>
    %1204 = "mix.prim.add"(%1198, %1203) : (tensor<40x32x160xf16>, tensor<40x32x160xf16>) -> tensor<40x32x160xf16>
    %1205 = "mix.prim.mul"(%1167, %1196) : (tensor<40x32x160xf16>, tensor<40x1x160xf16>) -> tensor<40x32x160xf16>
    %1206 = "mix.prim.slice"(%1167) <{dim = 2 : i64, end = 80 : i64, start = 0 : i64, step = 1 : i64}> : (tensor<40x32x160xf16>) -> tensor<40x32x80xf16>
    %1207 = "mix.prim.slice"(%1167) <{dim = 2 : i64, end = 2147483647 : i64, start = 80 : i64, step = 1 : i64}> : (tensor<40x32x160xf16>) -> tensor<40x32x80xf16>
    %1208 = "mix.prim.neg"(%1207) : (tensor<40x32x80xf16>) -> tensor<40x32x80xf16>
    %1209 = "mix.prim.concat"(%1208, %1206) <{axis = 2 : i64}> : (tensor<40x32x80xf16>, tensor<40x32x80xf16>) -> tensor<40x32x160xf16>
    %1210 = "mix.prim.mul"(%1209, %1197) : (tensor<40x32x160xf16>, tensor<40x1x160xf16>) -> tensor<40x32x160xf16>
    %1211 = "mix.prim.add"(%1205, %1210) : (tensor<40x32x160xf16>, tensor<40x32x160xf16>) -> tensor<40x32x160xf16>
    %1212 = "mix.prim.reshape"(%1204) <{shape = [40, 1, 32, 160]}> : (tensor<40x32x160xf16>) -> tensor<40x1x32x160xf16>
    %1213 = "mix.prim.reshape"(%1211) <{shape = [40, 1, 32, 160]}> : (tensor<40x32x160xf16>) -> tensor<40x1x32x160xf16>
    %1214 = "mix.prim.reshape"(%1212) <{shape = [40, 32, 160]}> : (tensor<40x1x32x160xf16>) -> tensor<40x32x160xf16>
    %1215 = "mix.prim.reshape"(%1213) <{shape = [40, 32, 160]}> : (tensor<40x1x32x160xf16>) -> tensor<40x32x160xf16>
    %1216 = "mix.prim.transpose"(%1214) <{dim1 = 0 : i32, dim2 = 1 : i32}> : (tensor<40x32x160xf16>) -> tensor<32x40x160xf16>
    %1217 = "mix.prim.transpose"(%1215) <{dim1 = 0 : i32, dim2 = 1 : i32}> : (tensor<40x32x160xf16>) -> tensor<32x40x160xf16>
    %1218 = "mix.prim.transpose"(%1217) <{dim1 = 1 : i32, dim2 = 2 : i32}> : (tensor<32x40x160xf16>) -> tensor<32x160x40xf16>
    %1219 = "mix.prim.unsqueeze"(%1216) <{axis = 3 : i32}> : (tensor<32x40x160xf16>) -> tensor<32x40x160x1xf16>
    %1220 = "mix.prim.permute"(%1219) <{dims = [0, 1, 3, 2]}> : (tensor<32x40x160x1xf16>) -> tensor<32x40x1x160xf16>
    %1221 = "mix.prim.unsqueeze"(%1218) <{axis = 3 : i32}> : (tensor<32x160x40xf16>) -> tensor<32x160x40x1xf16>
    %1222 = "mix.prim.permute"(%1221) <{dims = [0, 3, 2, 1]}> : (tensor<32x160x40x1xf16>) -> tensor<32x1x40x160xf16>
    %1223 = "mix.prim.permute"(%1220) <{dims = [0, 1, 3, 2]}> : (tensor<32x40x1x160xf16>) -> tensor<32x40x160x1xf16>
    %1224 = "mix.prim.reshape"(%1223) <{shape = [32, 40, 160]}> : (tensor<32x40x160x1xf16>) -> tensor<32x40x160xf16>
    %1225 = "mix.prim.permute"(%1222) <{dims = [0, 3, 2, 1]}> : (tensor<32x1x40x160xf16>) -> tensor<32x160x40x1xf16>
    %1226 = "mix.prim.reshape"(%1225) <{shape = [32, 160, 40]}> : (tensor<32x160x40x1xf16>) -> tensor<32x160x40xf16>
    %1227 = "mix.prim.batch_matmul"(%1224, %1226) : (tensor<32x40x160xf16>, tensor<32x160x40xf16>) -> tensor<32x40x40xf16>
    %1228 = "mix.prim.reshape"(%1227) <{shape = [32, 40, 1, 40]}> : (tensor<32x40x40xf16>) -> tensor<32x40x1x40xf16>
    %1229 = "mix.prim.permute"(%1228) <{dims = [0, 1, 3, 2]}> : (tensor<32x40x1x40xf16>) -> tensor<32x40x40x1xf16>
    %1230 = "mix.prim.reshape"(%1229) <{shape = [32, 40, 40]}> : (tensor<32x40x40x1xf16>) -> tensor<32x40x40xf16>
    %1231 = "mix.prim.constant"() <{value = 7.904050e-02 : f16}> : () -> f16
    %1232 = "mix.prim.mul"(%1230, %1231) : (tensor<32x40x40xf16>, f16) -> tensor<32x40x40xf16>
    %1233 = "mix.prim.reshape"(%1232) <{shape = [1, 32, 40, 40]}> : (tensor<32x40x40xf16>) -> tensor<1x32x40x40xf16>
    %1234 = "mix.prim.constant"() <{value = 0xFC00 : f16}> : () -> f16
    %1235 = "mix.comp.masked_fill"(%1233, %14, %1234) : (tensor<1x32x40x40xf16>, tensor<1x1x40x40xi1>, f16) -> tensor<1x32x40x40xf16>
    %1236 = "mix.comp.softmax"(%1235) <{axis = -1 : si32}> : (tensor<1x32x40x40xf16>) -> tensor<1x32x40x40xf16>
    %1237 = "mix.prim.reshape"(%1236) <{shape = [32, 40, 40]}> : (tensor<1x32x40x40xf16>) -> tensor<32x40x40xf16>
    %1238 = "mix.prim.reshape"(%1165) <{shape = [40, 32, 160]}> : (tensor<40x1x32x160xf16>) -> tensor<40x32x160xf16>
    %1239 = "mix.prim.transpose"(%1238) <{dim1 = 0 : i32, dim2 = 1 : i32}> : (tensor<40x32x160xf16>) -> tensor<32x40x160xf16>
    %1240 = "mix.prim.batch_matmul"(%1237, %1239) : (tensor<32x40x40xf16>, tensor<32x40x160xf16>) -> tensor<32x40x160xf16>
    %1241 = "mix.prim.reshape"(%1240) <{shape = [1, 32, 40, 160]}> : (tensor<32x40x160xf16>) -> tensor<1x32x40x160xf16>
    %1242 = "mix.prim.permute"(%1241) <{dims = [0, 2, 1, 3]}> : (tensor<1x32x40x160xf16>) -> tensor<1x40x32x160xf16>
    %1243 = "mix.prim.reshape"(%1242) <{shape = [1, 40, 5120]}> : (tensor<1x40x32x160xf16>) -> tensor<1x40x5120xf16>
    %1244 = "mix.prim.reshape"(%1243) <{shape = [40, 5120]}> : (tensor<1x40x5120xf16>) -> tensor<40x5120xf16>
    %1245 = "mix.prim.transpose"(%1151) <{dim1 = 0 : i32, dim2 = 1 : i32}> : (tensor<5120x5120xf16>) -> tensor<5120x5120xf16>
    %1246 = "mix.prim.matmul"(%1244, %1245) : (tensor<40x5120xf16>, tensor<5120x5120xf16>) -> tensor<40x5120xf16>
    %1247 = "mix.prim.add"(%1246, %1152) : (tensor<40x5120xf16>, tensor<5120xf16>) -> tensor<40x5120xf16>
    %1248 = "mix.prim.reshape"(%1247) <{shape = [1, 40, 5120]}> : (tensor<40x5120xf16>) -> tensor<1x40x5120xf16>
    %1249 = "mix.prim.mul"(%1139, %1248) : (tensor<1x40x5120xf16>, tensor<1x40x5120xf16>) -> tensor<1x40x5120xf16>
    %1250 = "mix.comp.weight"() <{param_loc = "transformer.h.9.post_attention_layernorm.weight"}> : () -> tensor<5120xf16>
    %1251 = "mix.prim.constant"() <{value = dense<1.000000e+00> : tensor<1xf16>}> : () -> tensor<1xf16>
    %1252 = "mix.prim.pow"(%1249, %1251) : (tensor<1x40x5120xf16>, tensor<1xf16>) -> tensor<1x40x5120xf16>
    %1253 = "mix.comp.mean"(%1252) <{dims = [2 : i32], keepDim = true}> : (tensor<1x40x5120xf16>) -> tensor<1x40x1xf16>
    %1254 = "mix.prim.constant"() <{value = 1.013280e-06 : f16}> : () -> f16
    %1255 = "mix.prim.add"(%1253, %1254) : (tensor<1x40x1xf16>, f16) -> tensor<1x40x1xf16>
    %1256 = "mix.prim.rsqrt"(%1255) : (tensor<1x40x1xf16>) -> tensor<1x40x1xf16>
    %1257 = "mix.prim.mul"(%1249, %1256) : (tensor<1x40x5120xf16>, tensor<1x40x1xf16>) -> tensor<1x40x5120xf16>
    %1258 = "mix.prim.mul"(%1250, %1257) : (tensor<5120xf16>, tensor<1x40x5120xf16>) -> tensor<1x40x5120xf16>
    %1259 = "mix.module.linear"(%1258) <{dtype = f16, in_feature = 5120 : i32, out_feature = 12288 : i32, params_loc = "transformer.h.9.mlp.gate_proj"}> : (tensor<1x40x5120xf16>) -> tensor<1x40x12288xf16>
    %1260 = "mix.comp.silu"(%1259) : (tensor<1x40x12288xf16>) -> tensor<1x40x12288xf16>
    %1261 = "mix.module.linear"(%1258) <{dtype = f16, in_feature = 5120 : i32, out_feature = 12288 : i32, params_loc = "transformer.h.9.mlp.up_proj"}> : (tensor<1x40x5120xf16>) -> tensor<1x40x12288xf16>
    %1262 = "mix.prim.mul"(%1260, %1261) : (tensor<1x40x12288xf16>, tensor<1x40x12288xf16>) -> tensor<1x40x12288xf16>
    %1263 = "mix.module.linear"(%1262) <{dtype = f16, has_bias, in_feature = 12288 : i32, out_feature = 5120 : i32, params_loc = "transformer.h.9.mlp.down_proj"}> : (tensor<1x40x12288xf16>) -> tensor<1x40x5120xf16>
    %1264 = "mix.prim.add"(%1263, %1249) : (tensor<1x40x5120xf16>, tensor<1x40x5120xf16>) -> tensor<1x40x5120xf16>
    %1265 = "mix.comp.weight"() <{param_loc = "transformer.h.10.input_layernorm.weight"}> : () -> tensor<5120xf16>
    %1266 = "mix.prim.constant"() <{value = dense<1.000000e+00> : tensor<1xf16>}> : () -> tensor<1xf16>
    %1267 = "mix.prim.pow"(%1264, %1266) : (tensor<1x40x5120xf16>, tensor<1xf16>) -> tensor<1x40x5120xf16>
    %1268 = "mix.comp.mean"(%1267) <{dims = [2 : i32], keepDim = true}> : (tensor<1x40x5120xf16>) -> tensor<1x40x1xf16>
    %1269 = "mix.prim.constant"() <{value = 1.013280e-06 : f16}> : () -> f16
    %1270 = "mix.prim.add"(%1268, %1269) : (tensor<1x40x1xf16>, f16) -> tensor<1x40x1xf16>
    %1271 = "mix.prim.rsqrt"(%1270) : (tensor<1x40x1xf16>) -> tensor<1x40x1xf16>
    %1272 = "mix.prim.mul"(%1264, %1271) : (tensor<1x40x5120xf16>, tensor<1x40x1xf16>) -> tensor<1x40x5120xf16>
    %1273 = "mix.prim.mul"(%1265, %1272) : (tensor<5120xf16>, tensor<1x40x5120xf16>) -> tensor<1x40x5120xf16>
    %1274 = "mix.comp.weight"() <{param_loc = "transformer.h.10.self_attention.query.weight"}> : () -> tensor<5120x5120xf16>
    %1275 = "mix.comp.weight"() <{param_loc = "transformer.h.10.self_attention.key_value.weight"}> : () -> tensor<10240x5120xf16>
    %1276 = "mix.comp.weight"() <{param_loc = "transformer.h.10.self_attention.dense.weight"}> : () -> tensor<5120x5120xf16>
    %1277 = "mix.comp.weight"() <{param_loc = "transformer.h.10.self_attention.dense.bias"}> : () -> tensor<5120xf16>
    %1278 = "mix.prim.transpose"(%1273) <{dim1 = 0 : i32, dim2 = 1 : i32}> : (tensor<1x40x5120xf16>) -> tensor<40x1x5120xf16>
    %1279 = "mix.prim.transpose"(%1274) <{dim1 = 0 : i32, dim2 = 1 : i32}> : (tensor<5120x5120xf16>) -> tensor<5120x5120xf16>
    %1280 = "mix.prim.reshape"(%1278) <{shape = [40, 5120]}> : (tensor<40x1x5120xf16>) -> tensor<40x5120xf16>
    %1281 = "mix.prim.matmul"(%1280, %1279) : (tensor<40x5120xf16>, tensor<5120x5120xf16>) -> tensor<40x5120xf16>
    %1282 = "mix.prim.reshape"(%1281) <{shape = [40, 1, 5120]}> : (tensor<40x5120xf16>) -> tensor<40x1x5120xf16>
    %1283 = "mix.prim.reshape"(%1282) <{shape = [40, 1, 32, 160]}> : (tensor<40x1x5120xf16>) -> tensor<40x1x32x160xf16>
    %1284 = "mix.prim.transpose"(%1275) <{dim1 = 0 : i32, dim2 = 1 : i32}> : (tensor<10240x5120xf16>) -> tensor<5120x10240xf16>
    %1285 = "mix.prim.reshape"(%1278) <{shape = [40, 5120]}> : (tensor<40x1x5120xf16>) -> tensor<40x5120xf16>
    %1286 = "mix.prim.matmul"(%1285, %1284) : (tensor<40x5120xf16>, tensor<5120x10240xf16>) -> tensor<40x10240xf16>
    %1287 = "mix.prim.reshape"(%1286) <{shape = [40, 1, 10240]}> : (tensor<40x10240xf16>) -> tensor<40x1x10240xf16>
    %1288 = "mix.prim.reshape"(%1287) <{shape = [40, 1, 32, 320]}> : (tensor<40x1x10240xf16>) -> tensor<40x1x32x320xf16>
    %1289 = "mix.prim.slice"(%1288) <{dim = 3 : i64, end = 160 : i64, start = 0 : i64, step = 1 : i64}> : (tensor<40x1x32x320xf16>) -> tensor<40x1x32x160xf16>
    %1290 = "mix.prim.slice"(%1288) <{dim = 3 : i64, end = 320 : i64, start = 160 : i64, step = 1 : i64}> : (tensor<40x1x32x320xf16>) -> tensor<40x1x32x160xf16>
    %1291 = "mix.prim.reshape"(%1283) <{shape = [40, 32, -1]}> : (tensor<40x1x32x160xf16>) -> tensor<40x32x160xf16>
…
    %4352 = "mix.prim.batch_matmul"(%4349, %4351) : (tensor<32x40x160xf16>, tensor<32x160x40xf16>) -> tensor<32x40x40xf16>
    %4353 = "mix.prim.reshape"(%4352) <{shape = [32, 40, 1, 40]}> : (tensor<32x40x40xf16>) -> tensor<32x40x1x40xf16>
    %4354 = "mix.prim.permute"(%4353) <{dims = [0, 1, 3, 2]}> : (tensor<32x40x1x40xf16>) -> tensor<32x40x40x1xf16>
    %4355 = "mix.prim.reshape"(%4354) <{shape = [32, 40, 40]}> : (tensor<32x40x40x1xf16>) -> tensor<32x40x40xf16>
    %4356 = "mix.prim.constant"() <{value = 7.904050e-02 : f16}> : () -> f16
    %4357 = "mix.prim.mul"(%4355, %4356) : (tensor<32x40x40xf16>, f16) -> tensor<32x40x40xf16>
    %4358 = "mix.prim.reshape"(%4357) <{shape = [1, 32, 40, 40]}> : (tensor<32x40x40xf16>) -> tensor<1x32x40x40xf16>
    %4359 = "mix.prim.constant"() <{value = 0xFC00 : f16}> : () -> f16
    %4360 = "mix.comp.masked_fill"(%4358, %14, %4359) : (tensor<1x32x40x40xf16>, tensor<1x1x40x40xi1>, f16) -> tensor<1x32x40x40xf16>
    %4361 = "mix.comp.softmax"(%4360) <{axis = -1 : si32}> : (tensor<1x32x40x40xf16>) -> tensor<1x32x40x40xf16>
    %4362 = "mix.prim.reshape"(%4361) <{shape = [32, 40, 40]}> : (tensor<1x32x40x40xf16>) -> tensor<32x40x40xf16>
    %4363 = "mix.prim.reshape"(%4290) <{shape = [40, 32, 160]}> : (tensor<40x1x32x160xf16>) -> tensor<40x32x160xf16>
    %4364 = "mix.prim.transpose"(%4363) <{dim1 = 0 : i32, dim2 = 1 : i32}> : (tensor<40x32x160xf16>) -> tensor<32x40x160xf16>
    %4365 = "mix.prim.batch_matmul"(%4362, %4364) : (tensor<32x40x40xf16>, tensor<32x40x160xf16>) -> tensor<32x40x160xf16>
    %4366 = "mix.prim.reshape"(%4365) <{shape = [1, 32, 40, 160]}> : (tensor<32x40x160xf16>) -> tensor<1x32x40x160xf16>
    %4367 = "mix.prim.permute"(%4366) <{dims = [0, 2, 1, 3]}> : (tensor<1x32x40x160xf16>) -> tensor<1x40x32x160xf16>
    %4368 = "mix.prim.reshape"(%4367) <{shape = [1, 40, 5120]}> : (tensor<1x40x32x160xf16>) -> tensor<1x40x5120xf16>
    %4369 = "mix.prim.reshape"(%4368) <{shape = [40, 5120]}> : (tensor<1x40x5120xf16>) -> tensor<40x5120xf16>
    %4370 = "mix.prim.transpose"(%4276) <{dim1 = 0 : i32, dim2 = 1 : i32}> : (tensor<5120x5120xf16>) -> tensor<5120x5120xf16>
    %4371 = "mix.prim.matmul"(%4369, %4370) : (tensor<40x5120xf16>, tensor<5120x5120xf16>) -> tensor<40x5120xf16>
    %4372 = "mix.prim.add"(%4371, %4277) : (tensor<40x5120xf16>, tensor<5120xf16>) -> tensor<40x5120xf16>
    %4373 = "mix.prim.reshape"(%4372) <{shape = [1, 40, 5120]}> : (tensor<40x5120xf16>) -> tensor<1x40x5120xf16>
    %4374 = "mix.prim.mul"(%4264, %4373) : (tensor<1x40x5120xf16>, tensor<1x40x5120xf16>) -> tensor<1x40x5120xf16>
    %4375 = "mix.comp.weight"() <{param_loc = "transformer.h.34.post_attention_layernorm.weight"}> : () -> tensor<5120xf16>
    %4376 = "mix.prim.constant"() <{value = dense<1.000000e+00> : tensor<1xf16>}> : () -> tensor<1xf16>
    %4377 = "mix.prim.pow"(%4374, %4376) : (tensor<1x40x5120xf16>, tensor<1xf16>) -> tensor<1x40x5120xf16>
    %4378 = "mix.comp.mean"(%4377) <{dims = [2 : i32], keepDim = true}> : (tensor<1x40x5120xf16>) -> tensor<1x40x1xf16>
    %4379 = "mix.prim.constant"() <{value = 1.013280e-06 : f16}> : () -> f16
    %4380 = "mix.prim.add"(%4378, %4379) : (tensor<1x40x1xf16>, f16) -> tensor<1x40x1xf16>
    %4381 = "mix.prim.rsqrt"(%4380) : (tensor<1x40x1xf16>) -> tensor<1x40x1xf16>
    %4382 = "mix.prim.mul"(%4374, %4381) : (tensor<1x40x5120xf16>, tensor<1x40x1xf16>) -> tensor<1x40x5120xf16>
    %4383 = "mix.prim.mul"(%4375, %4382) : (tensor<5120xf16>, tensor<1x40x5120xf16>) -> tensor<1x40x5120xf16>
    %4384 = "mix.module.linear"(%4383) <{dtype = f16, in_feature = 5120 : i32, out_feature = 12288 : i32, params_loc = "transformer.h.34.mlp.gate_proj"}> : (tensor<1x40x5120xf16>) -> tensor<1x40x12288xf16>
    %4385 = "mix.comp.silu"(%4384) : (tensor<1x40x12288xf16>) -> tensor<1x40x12288xf16>
    %4386 = "mix.module.linear"(%4383) <{dtype = f16, in_feature = 5120 : i32, out_feature = 12288 : i32, params_loc = "transformer.h.34.mlp.up_proj"}> : (tensor<1x40x5120xf16>) -> tensor<1x40x12288xf16>
    %4387 = "mix.prim.mul"(%4385, %4386) : (tensor<1x40x12288xf16>, tensor<1x40x12288xf16>) -> tensor<1x40x12288xf16>
    %4388 = "mix.module.linear"(%4387) <{dtype = f16, has_bias, in_feature = 12288 : i32, out_feature = 5120 : i32, params_loc = "transformer.h.34.mlp.down_proj"}> : (tensor<1x40x12288xf16>) -> tensor<1x40x5120xf16>
    %4389 = "mix.prim.add"(%4388, %4374) : (tensor<1x40x5120xf16>, tensor<1x40x5120xf16>) -> tensor<1x40x5120xf16>
    %4390 = "mix.comp.weight"() <{param_loc = "transformer.h.35.input_layernorm.weight"}> : () -> tensor<5120xf16>
    %4391 = "mix.prim.constant"() <{value = dense<1.000000e+00> : tensor<1xf16>}> : () -> tensor<1xf16>
    %4392 = "mix.prim.pow"(%4389, %4391) : (tensor<1x40x5120xf16>, tensor<1xf16>) -> tensor<1x40x5120xf16>
    %4393 = "mix.comp.mean"(%4392) <{dims = [2 : i32], keepDim = true}> : (tensor<1x40x5120xf16>) -> tensor<1x40x1xf16>
    %4394 = "mix.prim.constant"() <{value = 1.013280e-06 : f16}> : () -> f16
    %4395 = "mix.prim.add"(%4393, %4394) : (tensor<1x40x1xf16>, f16) -> tensor<1x40x1xf16>
    %4396 = "mix.prim.rsqrt"(%4395) : (tensor<1x40x1xf16>) -> tensor<1x40x1xf16>
    %4397 = "mix.prim.mul"(%4389, %4396) : (tensor<1x40x5120xf16>, tensor<1x40x1xf16>) -> tensor<1x40x5120xf16>
    %4398 = "mix.prim.mul"(%4390, %4397) : (tensor<5120xf16>, tensor<1x40x5120xf16>) -> tensor<1x40x5120xf16>
    %4399 = "mix.comp.weight"() <{param_loc = "transformer.h.35.self_attention.query.weight"}> : () -> tensor<5120x5120xf16>
    %4400 = "mix.comp.weight"() <{param_loc = "transformer.h.35.self_attention.key_value.weight"}> : () -> tensor<10240x5120xf16>
    %4401 = "mix.comp.weight"() <{param_loc = "transformer.h.35.self_attention.dense.weight"}> : () -> tensor<5120x5120xf16>
    %4402 = "mix.comp.weight"() <{param_loc = "transformer.h.35.self_attention.dense.bias"}> : () -> tensor<5120xf16>
    %4403 = "mix.prim.transpose"(%4398) <{dim1 = 0 : i32, dim2 = 1 : i32}> : (tensor<1x40x5120xf16>) -> tensor<40x1x5120xf16>
    %4404 = "mix.prim.transpose"(%4399) <{dim1 = 0 : i32, dim2 = 1 : i32}> : (tensor<5120x5120xf16>) -> tensor<5120x5120xf16>
    %4405 = "mix.prim.reshape"(%4403) <{shape = [40, 5120]}> : (tensor<40x1x5120xf16>) -> tensor<40x5120xf16>
    %4406 = "mix.prim.matmul"(%4405, %4404) : (tensor<40x5120xf16>, tensor<5120x5120xf16>) -> tensor<40x5120xf16>
    %4407 = "mix.prim.reshape"(%4406) <{shape = [40, 1, 5120]}> : (tensor<40x5120xf16>) -> tensor<40x1x5120xf16>
    %4408 = "mix.prim.reshape"(%4407) <{shape = [40, 1, 32, 160]}> : (tensor<40x1x5120xf16>) -> tensor<40x1x32x160xf16>
    %4409 = "mix.prim.transpose"(%4400) <{dim1 = 0 : i32, dim2 = 1 : i32}> : (tensor<10240x5120xf16>) -> tensor<5120x10240xf16>
    %4410 = "mix.prim.reshape"(%4403) <{shape = [40, 5120]}> : (tensor<40x1x5120xf16>) -> tensor<40x5120xf16>
    %4411 = "mix.prim.matmul"(%4410, %4409) : (tensor<40x5120xf16>, tensor<5120x10240xf16>) -> tensor<40x10240xf16>
    %4412 = "mix.prim.reshape"(%4411) <{shape = [40, 1, 10240]}> : (tensor<40x10240xf16>) -> tensor<40x1x10240xf16>
    %4413 = "mix.prim.reshape"(%4412) <{shape = [40, 1, 32, 320]}> : (tensor<40x1x10240xf16>) -> tensor<40x1x32x320xf16>
    %4414 = "mix.prim.slice"(%4413) <{dim = 3 : i64, end = 160 : i64, start = 0 : i64, step = 1 : i64}> : (tensor<40x1x32x320xf16>) -> tensor<40x1x32x160xf16>
    %4415 = "mix.prim.slice"(%4413) <{dim = 3 : i64, end = 320 : i64, start = 160 : i64, step = 1 : i64}> : (tensor<40x1x32x320xf16>) -> tensor<40x1x32x160xf16>
    %4416 = "mix.prim.reshape"(%4408) <{shape = [40, 32, -1]}> : (tensor<40x1x32x160xf16>) -> tensor<40x32x160xf16>
    %4417 = "mix.prim.reshape"(%4414) <{shape = [40, 32, -1]}> : (tensor<40x1x32x160xf16>) -> tensor<40x32x160xf16>
    %4418 = "mix.prim.constant"() <{value = dense<[0, 2, 4, 6, 8, 10, 12, 14, 16, 18, 20, 22, 24, 26, 28, 30, 32, 34, 36, 38, 40, 42, 44, 46, 48, 50, 52, 54, 56, 58, 60, 62, 64, 66, 68, 70, 72, 74, 76, 78, 80, 82, 84, 86, 88, 90, 92, 94, 96, 98, 100, 102, 104, 106, 108, 110, 112, 114, 116, 118, 120, 122, 124, 126, 128, 130, 132, 134, 136, 138, 140, 142, 144, 146, 148, 150, 152, 154, 156, 158]> : tensor<80xi32>}> : () -> tensor<80xi32>
    %4419 = "mix.prim.convert"(%4418) <{element_ty = f16}> : (tensor<80xi32>) -> tensor<80xf16>
    %4420 = "mix.prim.constant"() <{value = 1.600000e+02 : f16}> : () -> f16
    %4421 = "mix.prim.div"(%4419, %4420) : (tensor<80xf16>, f16) -> tensor<80xf16>
    %4422 = "mix.prim.constant"() <{value = 3.041600e+04 : f16}> : () -> f16
    %4423 = "mix.prim.pow"(%4422, %4421) : (f16, tensor<80xf16>) -> tensor<80xf16>
    %4424 = "mix.prim.reciprocal"(%4423) : (tensor<80xf16>) -> tensor<80xf16>
    %4425 = "mix.prim.constant"() <{value = 1.000000e+00 : f16}> : () -> f16
    %4426 = "mix.prim.mul"(%4425, %4424) : (f16, tensor<80xf16>) -> tensor<80xf16>
    %4427 = "mix.prim.constant"() <{value = dense<[… > : tensor<40xf16>}> : () -> tensor<40xf16>
    %4428 = "mix.prim.unsqueeze"(%4427) <{axis = 1 : i32}> : (tensor<40xf16>) -> tensor<40x1xf16>
    %4429 = "mix.prim.permute"(%4428) <{dims = [0, 1]}> : (tensor<40x1xf16>) -> tensor<40x1xf16>
    %4430 = "mix.prim.unsqueeze"(%4426) <{axis = 1 : i32}> : (tensor<80xf16>) -> tensor<80x1xf16>
    %4431 = "mix.prim.permute"(%4430) <{dims = [1, 0]}> : (tensor<80x1xf16>) -> tensor<1x80xf16>
    %4432 = "mix.prim.mul"(%4429, %4431) : (tensor<40x1xf16>, tensor<1x80xf16>) -> tensor<40x80xf16>
    %4433 = "mix.prim.concat"(%4432, %4432) <{axis = 1 : i64}> : (tensor<40x80xf16>, tensor<40x80xf16>) -> tensor<40x160xf16>
    %4434 = "mix.prim.cos"(%4433) : (tensor<40x160xf16>) -> tensor<40x160xf16>
    %4435 = "mix.prim.slice"(%4434) <{dim = 0 : i64, end = 2147483647 : i64, start = 0 : i64, step = 1 : i64}> : (tensor<40x160xf16>) -> tensor<40x160xf16>
    %4436 = "mix.prim.unsqueeze"(%4435) <{axis = 1 : i32}> : (tensor<40x160xf16>) -> tensor<40x1x160xf16>
    %4437 = "mix.prim.slice"(%4436) <{dim = 2 : i64, end = 2147483647 : i64, start = 0 : i64, step = 1 : i64}> : (tensor<40x1x160xf16>) -> tensor<40x1x160xf16>
    %4438 = "mix.prim.constant"() <{value = 1.000000e+00 : f16}> : () -> f16
    %4439 = "mix.prim.mul"(%4437, %4438) : (tensor<40x1x160xf16>, f16) -> tensor<40x1x160xf16>
    %4440 = "mix.prim.sin"(%4433) : (tensor<40x160xf16>) -> tensor<40x160xf16>
    %4441 = "mix.prim.slice"(%4440) <{dim = 0 : i64, end = 2147483647 : i64, start = 0 : i64, step = 1 : i64}> : (tensor<40x160xf16>) -> tensor<40x160xf16>
    %4442 = "mix.prim.unsqueeze"(%4441) <{axis = 1 : i32}> : (tensor<40x160xf16>) -> tensor<40x1x160xf16>
    %4443 = "mix.prim.slice"(%4442) <{dim = 2 : i64, end = 2147483647 : i64, start = 0 : i64, step = 1 : i64}> : (tensor<40x1x160xf16>) -> tensor<40x1x160xf16>
    %4444 = "mix.prim.constant"() <{value = 1.000000e+00 : f16}> : () -> f16
    %4445 = "mix.prim.mul"(%4443, %4444) : (tensor<40x1x160xf16>, f16) -> tensor<40x1x160xf16>
    %4446 = "mix.prim.slice"(%4439) <{dim = 0 : i64, end = 40 : i64, start = 0 : i64, step = 1 : i64}> : (tensor<40x1x160xf16>) -> tensor<40x1x160xf16>
    %4447 = "mix.prim.slice"(%4445) <{dim = 0 : i64, end = 40 : i64, start = 0 : i64, step = 1 : i64}> : (tensor<40x1x160xf16>) -> tensor<40x1x160xf16>
    %4448 = "mix.prim.mul"(%4416, %4446) : (tensor<40x32x160xf16>, tensor<40x1x160xf16>) -> tensor<40x32x160xf16>
    %4449 = "mix.prim.slice"(%4416) <{dim = 2 : i64, end = 80 : i64, start = 0 : i64, step = 1 : i64}> : (tensor<40x32x160xf16>) -> tensor<40x32x80xf16>
    %4450 = "mix.prim.slice"(%4416) <{dim = 2 : i64, end = 2147483647 : i64, start = 80 : i64, step = 1 : i64}> : (tensor<40x32x160xf16>) -> tensor<40x32x80xf16>
    %4451 = "mix.prim.neg"(%4450) : (tensor<40x32x80xf16>) -> tensor<40x32x80xf16>
    %4452 = "mix.prim.concat"(%4451, %4449) <{axis = 2 : i64}> : (tensor<40x32x80xf16>, tensor<40x32x80xf16>) -> tensor<40x32x160xf16>
    %4453 = "mix.prim.mul"(%4452, %4447) : (tensor<40x32x160xf16>, tensor<40x1x160xf16>) -> tensor<40x32x160xf16>
    %4454 = "mix.prim.add"(%4448, %4453) : (tensor<40x32x160xf16>, tensor<40x32x160xf16>) -> tensor<40x32x160xf16>
    %4455 = "mix.prim.mul"(%4417, %4446) : (tensor<40x32x160xf16>, tensor<40x1x160xf16>) -> tensor<40x32x160xf16>
    %4456 = "mix.prim.slice"(%4417) <{dim = 2 : i64, end = 80 : i64, start = 0 : i64, step = 1 : i64}> : (tensor<40x32x160xf16>) -> tensor<40x32x80xf16>
    %4457 = "mix.prim.slice"(%4417) <{dim = 2 : i64, end = 2147483647 : i64, start = 80 : i64, step = 1 : i64}> : (tensor<40x32x160xf16>) -> tensor<40x32x80xf16>
    %4458 = "mix.prim.neg"(%4457) : (tensor<40x32x80xf16>) -> tensor<40x32x80xf16>
    %4459 = "mix.prim.concat"(%4458, %4456) <{axis = 2 : i64}> : (tensor<40x32x80xf16>, tensor<40x32x80xf16>) -> tensor<40x32x160xf16>
    %4460 = "mix.prim.mul"(%4459, %4447) : (tensor<40x32x160xf16>, tensor<40x1x160xf16>) -> tensor<40x32x160xf16>
    %4461 = "mix.prim.add"(%4455, %4460) : (tensor<40x32x160xf16>, tensor<40x32x160xf16>) -> tensor<40x32x160xf16>
    %4462 = "mix.prim.reshape"(%4454) <{shape = [40, 1, 32, 160]}> : (tensor<40x32x160xf16>) -> tensor<40x1x32x160xf16>
    %4463 = "mix.prim.reshape"(%4461) <{shape = [40, 1, 32, 160]}> : (tensor<40x32x160xf16>) -> tensor<40x1x32x160xf16>
    %4464 = "mix.prim.reshape"(%4462) <{shape = [40, 32, 160]}> : (tensor<40x1x32x160xf16>) -> tensor<40x32x160xf16>
    %4465 = "mix.prim.reshape"(%4463) <{shape = [40, 32, 160]}> : (tensor<40x1x32x160xf16>) -> tensor<40x32x160xf16>
    %4466 = "mix.prim.transpose"(%4464) <{dim1 = 0 : i32, dim2 = 1 : i32}> : (tensor<40x32x160xf16>) -> tensor<32x40x160xf16>
    %4467 = "mix.prim.transpose"(%4465) <{dim1 = 0 : i32, dim2 = 1 : i32}> : (tensor<40x32x160xf16>) -> tensor<32x40x160xf16>
    %4468 = "mix.prim.transpose"(%4467) <{dim1 = 1 : i32, dim2 = 2 : i32}> : (tensor<32x40x160xf16>) -> tensor<32x160x40xf16>
    %4469 = "mix.prim.unsqueeze"(%4466) <{axis = 3 : i32}> : (tensor<32x40x160xf16>) -> tensor<32x40x160x1xf16>
    %4470 = "mix.prim.permute"(%4469) <{dims = [0, 1, 3, 2]}> : (tensor<32x40x160x1xf16>) -> tensor<32x40x1x160xf16>
    %4471 = "mix.prim.unsqueeze"(%4468) <{axis = 3 : i32}> : (tensor<32x160x40xf16>) -> tensor<32x160x40x1xf16>
    %4472 = "mix.prim.permute"(%4471) <{dims = [0, 3, 2, 1]}> : (tensor<32x160x40x1xf16>) -> tensor<32x1x40x160xf16>
    %4473 = "mix.prim.permute"(%4470) <{dims = [0, 1, 3, 2]}> : (tensor<32x40x1x160xf16>) -> tensor<32x40x160x1xf16>
    %4474 = "mix.prim.reshape"(%4473) <{shape = [32, 40, 160]}> : (tensor<32x40x160x1xf16>) -> tensor<32x40x160xf16>
    %4475 = "mix.prim.permute"(%4472) <{dims = [0, 3, 2, 1]}> : (tensor<32x1x40x160xf16>) -> tensor<32x160x40x1xf16>
    %4476 = "mix.prim.reshape"(%4475) <{shape = [32, 160, 40]}> : (tensor<32x160x40x1xf16>) -> tensor<32x160x40xf16>
    %4477 = "mix.prim.batch_matmul"(%4474, %4476) : (tensor<32x40x160xf16>, tensor<32x160x40xf16>) -> tensor<32x40x40xf16>
    %4478 = "mix.prim.reshape"(%4477) <{shape = [32, 40, 1, 40]}> : (tensor<32x40x40xf16>) -> tensor<32x40x1x40xf16>
    %4479 = "mix.prim.permute"(%4478) <{dims = [0, 1, 3, 2]}> : (tensor<32x40x1x40xf16>) -> tensor<32x40x40x1xf16>
    %4480 = "mix.prim.reshape"(%4479) <{shape = [32, 40, 40]}> : (tensor<32x40x40x1xf16>) -> tensor<32x40x40xf16>
    %4481 = "mix.prim.constant"() <{value = 7.904050e-02 : f16}> : () -> f16
    %4482 = "mix.prim.mul"(%4480, %4481) : (tensor<32x40x40xf16>, f16) -> tensor<32x40x40xf16>
    %4483 = "mix.prim.reshape"(%4482) <{shape = [1, 32, 40, 40]}> : (tensor<32x40x40xf16>) -> tensor<1x32x40x40xf16>
    %4484 = "mix.prim.constant"() <{value = 0xFC00 : f16}> : () -> f16
    %4485 = "mix.comp.masked_fill"(%4483, %14, %4484) : (tensor<1x32x40x40xf16>, tensor<1x1x40x40xi1>, f16) -> tensor<1x32x40x40xf16>
    %4486 = "mix.comp.softmax"(%4485) <{axis = -1 : si32}> : (tensor<1x32x40x40xf16>) -> tensor<1x32x40x40xf16>
    %4487 = "mix.prim.reshape"(%4486) <{shape = [32, 40, 40]}> : (tensor<1x32x40x40xf16>) -> tensor<32x40x40xf16>
    %4488 = "mix.prim.reshape"(%4415) <{shape = [40, 32, 160]}> : (tensor<40x1x32x160xf16>) -> tensor<40x32x160xf16>
    %4489 = "mix.prim.transpose"(%4488) <{dim1 = 0 : i32, dim2 = 1 : i32}> : (tensor<40x32x160xf16>) -> tensor<32x40x160xf16>
    %4490 = "mix.prim.batch_matmul"(%4487, %4489) : (tensor<32x40x40xf16>, tensor<32x40x160xf16>) -> tensor<32x40x160xf16>
    %4491 = "mix.prim.reshape"(%4490) <{shape = [1, 32, 40, 160]}> : (tensor<32x40x160xf16>) -> tensor<1x32x40x160xf16>
    %4492 = "mix.prim.permute"(%4491) <{dims = [0, 2, 1, 3]}> : (tensor<1x32x40x160xf16>) -> tensor<1x40x32x160xf16>
    %4493 = "mix.prim.reshape"(%4492) <{shape = [1, 40, 5120]}> : (tensor<1x40x32x160xf16>) -> tensor<1x40x5120xf16>
    %4494 = "mix.prim.reshape"(%4493) <{shape = [40, 5120]}> : (tensor<1x40x5120xf16>) -> tensor<40x5120xf16>
    %4495 = "mix.prim.transpose"(%4401) <{dim1 = 0 : i32, dim2 = 1 : i32}> : (tensor<5120x5120xf16>) -> tensor<5120x5120xf16>
    %4496 = "mix.prim.matmul"(%4494, %4495) : (tensor<40x5120xf16>, tensor<5120x5120xf16>) -> tensor<40x5120xf16>
    %4497 = "mix.prim.add"(%4496, %4402) : (tensor<40x5120xf16>, tensor<5120xf16>) -> tensor<40x5120xf16>
    %4498 = "mix.prim.reshape"(%4497) <{shape = [1, 40, 5120]}> : (tensor<40x5120xf16>) -> tensor<1x40x5120xf16>
    %4499 = "mix.prim.mul"(%4389, %4498) : (tensor<1x40x5120xf16>, tensor<1x40x5120xf16>) -> tensor<1x40x5120xf16>
    %4500 = "mix.comp.weight"() <{param_loc = "transformer.h.35.post_attention_layernorm.weight"}> : () -> tensor<5120xf16>
    %4501 = "mix.prim.constant"() <{value = dense<1.000000e+00> : tensor<1xf16>}> : () -> tensor<1xf16>
    %4502 = "mix.prim.pow"(%4499, %4501) : (tensor<1x40x5120xf16>, tensor<1xf16>) -> tensor<1x40x5120xf16>
    %4503 = "mix.comp.mean"(%4502) <{dims = [2 : i32], keepDim = true}> : (tensor<1x40x5120xf16>) -> tensor<1x40x1xf16>
    %4504 = "mix.prim.constant"() <{value = 1.013280e-06 : f16}> : () -> f16
    %4505 = "mix.prim.add"(%4503, %4504) : (tensor<1x40x1xf16>, f16) -> tensor<1x40x1xf16>
    %4506 = "mix.prim.rsqrt"(%4505) : (tensor<1x40x1xf16>) -> tensor<1x40x1xf16>
    %4507 = "mix.prim.mul"(%4499, %4506) : (tensor<1x40x5120xf16>, tensor<1x40x1xf16>) -> tensor<1x40x5120xf16>
    %4508 = "mix.prim.mul"(%4500, %4507) : (tensor<5120xf16>, tensor<1x40x5120xf16>) -> tensor<1x40x5120xf16>
    %4509 = "mix.module.linear"(%4508) <{dtype = f16, in_feature = 5120 : i32, out_feature = 12288 : i32, params_loc = "transformer.h.35.mlp.gate_proj"}> : (tensor<1x40x5120xf16>) -> tensor<1x40x12288xf16>
    %4510 = "mix.comp.silu"(%4509) : (tensor<1x40x12288xf16>) -> tensor<1x40x12288xf16>
    %4511 = "mix.module.linear"(%4508) <{dtype = f16, in_feature = 5120 : i32, out_feature = 12288 : i32, params_loc = "transformer.h.35.mlp.up_proj"}> : (tensor<1x40x5120xf16>) -> tensor<1x40x12288xf16>
    %4512 = "mix.prim.mul"(%4510, %4511) : (tensor<1x40x12288xf16>, tensor<1x40x12288xf16>) -> tensor<1x40x12288xf16>
    %4513 = "mix.module.linear"(%4512) <{dtype = f16, has_bias, in_feature = 12288 : i32, out_feature = 5120 : i32, params_loc = "transformer.h.35.mlp.down_proj"}> : (tensor<1x40x12288xf16>) -> tensor<1x40x5120xf16>
    %4514 = "mix.prim.add"(%4513, %4499) : (tensor<1x40x5120xf16>, tensor<1x40x5120xf16>) -> tensor<1x40x5120xf16>
    %4515 = "mix.comp.weight"() <{param_loc = "transformer.h.36.input_layernorm.weight"}> : () -> tensor<5120xf16>
    %4516 = "mix.prim.constant"() <{value = dense<1.000000e+00> : tensor<1xf16>}> : () -> tensor<1xf16>
    %4517 = "mix.prim.pow"(%4514, %4516) : (tensor<1x40x5120xf16>, tensor<1xf16>) -> tensor<1x40x5120xf16>
    %4518 = "mix.comp.mean"(%4517) <{dims = [2 : i32], keepDim = true}> : (tensor<1x40x5120xf16>) -> tensor<1x40x1xf16>
    %4519 = "mix.prim.constant"() <{value = 1.013280e-06 : f16}> : () -> f16
    %4520 = "mix.prim.add"(%4518, %4519) : (tensor<1x40x1xf16>, f16) -> tensor<1x40x1xf16>
    %4521 = "mix.prim.rsqrt"(%4520) : (tensor<1x40x1xf16>) -> tensor<1x40x1xf16>
    %4522 = "mix.prim.mul"(%4514, %4521) : (tensor<1x40x5120xf16>, tensor<1x40x1xf16>) -> tensor<1x40x5120xf16>
    %4523 = "mix.prim.mul"(%4515, %4522) : (tensor<5120xf16>, tensor<1x40x5120xf16>) -> tensor<1x40x5120xf16>
    %4524 = "mix.comp.weight"() <{param_loc = "transformer.h.36.self_attention.query.weight"}> : () -> tensor<5120x5120xf16>
    %4525 = "mix.comp.weight"() <{param_loc = "transformer.h.36.self_attention.key_value.weight"}> : () -> tensor<10240x5120xf16>
    %4526 = "mix.comp.weight"() <{param_loc = "transformer.h.36.self_attention.dense.weight"}> : () -> tensor<5120x5120xf16>
    %4527 = "mix.comp.weight"() <{param_loc = "transformer.h.36.self_attention.dense.bias"}> : () -> tensor<5120xf16>
    %4528 = "mix.prim.transpose"(%4523) <{dim1 = 0 : i32, dim2 = 1 : i32}> : (tensor<1x40x5120xf16>) -> tensor<40x1x5120xf16>
    %4529 = "mix.prim.transpose"(%4524) <{dim1 = 0 : i32, dim2 = 1 : i32}> : (tensor<5120x5120xf16>) -> tensor<5120x5120xf16>
    %4530 = "mix.prim.reshape"(%4528) <{shape = [40, 5120]}> : (tensor<40x1x5120xf16>) -> tensor<40x5120xf16>
    %4531 = "mix.prim.matmul"(%4530, %4529) : (tensor<40x5120xf16>, tensor<5120x5120xf16>) -> tensor<40x5120xf16>
    %4532 = "mix.prim.reshape"(%4531) <{shape = [40, 1, 5120]}> : (tensor<40x5120xf16>) -> tensor<40x1x5120xf16>
    %4533 = "mix.prim.reshape"(%4532) <{shape = [40, 1, 32, 160]}> : (tensor<40x1x5120xf16>) -> tensor<40x1x32x160xf16>
    %4534 = "mix.prim.transpose"(%4525) <{dim1 = 0 : i32, dim2 = 1 : i32}> : (tensor<10240x5120xf16>) -> tensor<5120x10240xf16>
    %4535 = "mix.prim.reshape"(%4528) <{shape = [40, 5120]}> : (tensor<40x1x5120xf16>) -> tensor<40x5120xf16>
    %4536 = "mix.prim.matmul"(%4535, %4534) : (tensor<40x5120xf16>, tensor<5120x10240xf16>) -> tensor<40x10240xf16>
    %4537 = "mix.prim.reshape"(%4536) <{shape = [40, 1, 10240]}> : (tensor<40x10240xf16>) -> tensor<40x1x10240xf16>
    %4538 = "mix.prim.reshape"(%4537) <{shape = [40, 1, 32, 320]}> : (tensor<40x1x10240xf16>) -> tensor<40x1x32x320xf16>
    %4539 = "mix.prim.slice"(%4538) <{dim = 3 : i64, end = 160 : i64, start = 0 : i64, step = 1 : i64}> : (tensor<40x1x32x320xf16>) -> tensor<40x1x32x160xf16>
    %4540 = "mix.prim.slice"(%4538) <{dim = 3 : i64, end = 320 : i64, start = 160 : i64, step = 1 : i64}> : (tensor<40x1x32x320xf16>) -> tensor<40x1x32x160xf16>
    %4541 = "mix.prim.reshape"(%4533) <{shape = [40, 32, -1]}> : (tensor<40x1x32x160xf16>) -> tensor<40x32x160xf16>
    %4542 = "mix.prim.reshape"(%4539) <{shape = [40, 32, -1]}> : (tensor<40x1x32x160xf16>) -> tensor<40x32x160xf16>
    %4543 = "mix.prim.constant"() <{value = dense<[0, 2, 4, 6, 8, 10, 12, 14, 16, 18, 20, 22, 24, 26, 28, 30, 32, 34, 36, 38, 40, 42, 44, 46, 48, 50, 52, 54, 56, 58, 60, 62, 64, 66, 68, 70, 72, 74, 76, 78, 80, 82, 84, 86, 88, 90, 92, 94, 96, 98, 100, 102, 104, 106, 108, 110, 112, 114, 116, 118, 120, 122, 124, 126, 128, 130, 132, 134, 136, 138, 140, 142, 144, 146, 148, 150, 152, 154, 156, 158]> : tensor<80xi32>}> : () -> tensor<80xi32>
    %4544 = "mix.prim.convert"(%4543) <{element_ty = f16}> : (tensor<80xi32>) -> tensor<80xf16>
    %4545 = "mix.prim.constant"() <{value = 1.600000e+02 : f16}> : () -> f16
    %4546 = "mix.prim.div"(%4544, %4545) : (tensor<80xf16>, f16) -> tensor<80xf16>
    %4547 = "mix.prim.constant"() <{value = 3.041600e+04 : f16}> : () -> f16
    %4548 = "mix.prim.pow"(%4547, %4546) : (f16, tensor<80xf16>) -> tensor<80xf16>
    %4549 = "mix.prim.reciprocal"(%4548) : (tensor<80xf16>) -> tensor<80xf16>
    %4550 = "mix.prim.constant"() <{value = 1.000000e+00 : f16}> : () -> f16
    %4551 = "mix.prim.mul"(%4550, %4549) : (f16, tensor<80xf16>) -> tensor<80xf16>
    %4552 = "mix.prim.constant"() <{value = dense<[… > : tensor<40xf16>}> : () -> tensor<40xf16>
    %4553 = "mix.prim.unsqueeze"(%4552) <{axis = 1 : i32}> : (tensor<40xf16>) -> tensor<40x1xf16>
    %4554 = "mix.prim.permute"(%4553) <{dims = [0, 1]}> : (tensor<40x1xf16>) -> tensor<40x1xf16>
    %4555 = "mix.prim.unsqueeze"(%4551) <{axis = 1 : i32}> : (tensor<80xf16>) -> tensor<80x1xf16>
    %4556 = "mix.prim.permute"(%4555) <{dims = [1, 0]}> : (tensor<80x1xf16>) -> tensor<1x80xf16>
    %4557 = "mix.prim.mul"(%4554, %4556) : (tensor<40x1xf16>, tensor<1x80xf16>) -> tensor<40x80xf16>
    %4558 = "mix.prim.concat"(%4557, %4557) <{axis = 1 : i64}> : (tensor<40x80xf16>, tensor<40x80xf16>) -> tensor<40x160xf16>
    %4559 = "mix.prim.cos"(%4558) : (tensor<40x160xf16>) -> tensor<40x160xf16>
    %4560 = "mix.prim.slice"(%4559) <{dim = 0 : i64, end = 2147483647 : i64, start = 0 : i64, step = 1 : i64}> : (tensor<40x160xf16>) -> tensor<40x160xf16>
    %4561 = "mix.prim.unsqueeze"(%4560) <{axis = 1 : i32}> : (tensor<40x160xf16>) -> tensor<40x1x160xf16>
    %4562 = "mix.prim.slice"(%4561) <{dim = 2 : i64, end = 2147483647 : i64, start = 0 : i64, step = 1 : i64}> : (tensor<40x1x160xf16>) -> tensor<40x1x160xf16>
    %4563 = "mix.prim.constant"() <{value = 1.000000e+00 : f16}> : () -> f16
    %4564 = "mix.prim.mul"(%4562, %4563) : (tensor<40x1x160xf16>, f16) -> tensor<40x1x160xf16>
    %4565 = "mix.prim.sin"(%4558) : (tensor<40x160xf16>) -> tensor<40x160xf16>
    %4566 = "mix.prim.slice"(%4565) <{dim = 0 : i64, end = 2147483647 : i64, start = 0 : i64, step = 1 : i64}> : (tensor<40x160xf16>) -> tensor<40x160xf16>
    %4567 = "mix.prim.unsqueeze"(%4566) <{axis = 1 : i32}> : (tensor<40x160xf16>) -> tensor<40x1x160xf16>
    %4568 = "mix.prim.slice"(%4567) <{dim = 2 : i64, end = 2147483647 : i64, start = 0 : i64, step = 1 : i64}> : (tensor<40x1x160xf16>) -> tensor<40x1x160xf16>
    %4569 = "mix.prim.constant"() <{value = 1.000000e+00 : f16}> : () -> f16
    %4570 = "mix.prim.mul"(%4568, %4569) : (tensor<40x1x160xf16>, f16) -> tensor<40x1x160xf16>
    %4571 = "mix.prim.slice"(%4564) <{dim = 0 : i64, end = 40 : i64, start = 0 : i64, step = 1 : i64}> : (tensor<40x1x160xf16>) -> tensor<40x1x160xf16>
    %4572 = "mix.prim.slice"(%4570) <{dim = 0 : i64, end = 40 : i64, start = 0 : i64, step = 1 : i64}> : (tensor<40x1x160xf16>) -> tensor<40x1x160xf16>
    %4573 = "mix.prim.mul"(%4541, %4571) : (tensor<40x32x160xf16>, tensor<40x1x160xf16>) -> tensor<40x32x160xf16>
    %4574 = "mix.prim.slice"(%4541) <{dim = 2 : i64, end = 80 : i64, start = 0 : i64, step = 1 : i64}> : (tensor<40x32x160xf16>) -> tensor<40x32x80xf16>
    %4575 = "mix.prim.slice"(%4541) <{dim = 2 : i64, end = 2147483647 : i64, start = 80 : i64, step = 1 : i64}> : (tensor<40x32x160xf16>) -> tensor<40x32x80xf16>
    %4576 = "mix.prim.neg"(%4575) : (tensor<40x32x80xf16>) -> tensor<40x32x80xf16>
    %4577 = "mix.prim.concat"(%4576, %4574) <{axis = 2 : i64}> : (tensor<40x32x80xf16>, tensor<40x32x80xf16>) -> tensor<40x32x160xf16>
    %4578 = "mix.prim.mul"(%4577, %4572) : (tensor<40x32x160xf16>, tensor<40x1x160xf16>) -> tensor<40x32x160xf16>
    %4579 = "mix.prim.add"(%4573, %4578) : (tensor<40x32x160xf16>, tensor<40x32x160xf16>) -> tensor<40x32x160xf16>
    %4580 = "mix.prim.mul"(%4542, %4571) : (tensor<40x32x160xf16>, tensor<40x1x160xf16>) -> tensor<40x32x160xf16>
    %4581 = "mix.prim.slice"(%4542) <{dim = 2 : i64, end = 80 : i64, start = 0 : i64, step = 1 : i64}> : (tensor<40x32x160xf16>) -> tensor<40x32x80xf16>
    %4582 = "mix.prim.slice"(%4542) <{dim = 2 : i64, end = 2147483647 : i64, start = 80 : i64, step = 1 : i64}> : (tensor<40x32x160xf16>) -> tensor<40x32x80xf16>
    %4583 = "mix.prim.neg"(%4582) : (tensor<40x32x80xf16>) -> tensor<40x32x80xf16>
    %4584 = "mix.prim.concat"(%4583, %4581) <{axis = 2 : i64}> : (tensor<40x32x80xf16>, tensor<40x32x80xf16>) -> tensor<40x32x160xf16>
    %4585 = "mix.prim.mul"(%4584, %4572) : (tensor<40x32x160xf16>, tensor<40x1x160xf16>) -> tensor<40x32x160xf16>
    %4586 = "mix.prim.add"(%4580, %4585) : (tensor<40x32x160xf16>, tensor<40x32x160xf16>) -> tensor<40x32x160xf16>
    %4587 = "mix.prim.reshape"(%4579) <{shape = [40, 1, 32, 160]}> : (tensor<40x32x160xf16>) -> tensor<40x1x32x160xf16>
    %4588 = "mix.prim.reshape"(%4586) <{shape = [40, 1, 32, 160]}> : (tensor<40x32x160xf16>) -> tensor<40x1x32x160xf16>
    %4589 = "mix.prim.reshape"(%4587) <{shape = [40, 32, 160]}> : (tensor<40x1x32x160xf16>) -> tensor<40x32x160xf16>
    %4590 = "mix.prim.reshape"(%4588) <{shape = [40, 32, 160]}> : (tensor<40x1x32x160xf16>) -> tensor<40x32x160xf16>
    %4591 = "mix.prim.transpose"(%4589) <{dim1 = 0 : i32, dim2 = 1 : i32}> : (tensor<40x32x160xf16>) -> tensor<32x40x160xf16>
    %4592 = "mix.prim.transpose"(%4590) <{dim1 = 0 : i32, dim2 = 1 : i32}> : (tensor<40x32x160xf16>) -> tensor<32x40x160xf16>
    %4593 = "mix.prim.transpose"(%4592) <{dim1 = 1 : i32, dim2 = 2 : i32}> : (tensor<32x40x160xf16>) -> tensor<32x160x40xf16>
    %4594 = "mix.prim.unsqueeze"(%4591) <{axis = 3 : i32}> : (tensor<32x40x160xf16>) -> tensor<32x40x160x1xf16>
    %4595 = "mix.prim.permute"(%4594) <{dims = [0, 1, 3, 2]}> : (tensor<32x40x160x1xf16>) -> tensor<32x40x1x160xf16>
    %4596 = "mix.prim.unsqueeze"(%4593) <{axis = 3 : i32}> : (tensor<32x160x40xf16>) -> tensor<32x160x40x1xf16>
    %4597 = "mix.prim.permute"(%4596) <{dims = [0, 3, 2, 1]}> : (tensor<32x160x40x1xf16>) -> tensor<32x1x40x160xf16>
    %4598 = "mix.prim.permute"(%4595) <{dims = [0, 1, 3, 2]}> : (tensor<32x40x1x160xf16>) -> tensor<32x40x160x1xf16>
    %4599 = "mix.prim.reshape"(%4598) <{shape = [32, 40, 160]}> : (tensor<32x40x160x1xf16>) -> tensor<32x40x160xf16>
    %4600 = "mix.prim.permute"(%4597) <{dims = [0, 3, 2, 1]}> : (tensor<32x1x40x160xf16>) -> tensor<32x160x40x1xf16>
    %4601 = "mix.prim.reshape"(%4600) <{shape = [32, 160, 40]}> : (tensor<32x160x40x1xf16>) -> tensor<32x160x40xf16>
    %4602 = "mix.prim.batch_matmul"(%4599, %4601) : (tensor<32x40x160xf16>, tensor<32x160x40xf16>) -> tensor<32x40x40xf16>
    %4603 = "mix.prim.reshape"(%4602) <{shape = [32, 40, 1, 40]}> : (tensor<32x40x40xf16>) -> tensor<32x40x1x40xf16>
    %4604 = "mix.prim.permute"(%4603) <{dims = [0, 1, 3, 2]}> : (tensor<32x40x1x40xf16>) -> tensor<32x40x40x1xf16>
    %4605 = "mix.prim.reshape"(%4604) <{shape = [32, 40, 40]}> : (tensor<32x40x40x1xf16>) -> tensor<32x40x40xf16>
    %4606 = "mix.prim.constant"() <{value = 7.904050e-02 : f16}> : () -> f16
    %4607 = "mix.prim.mul"(%4605, %4606) : (tensor<32x40x40xf16>, f16) -> tensor<32x40x40xf16>
    %4608 = "mix.prim.reshape"(%4607) <{shape = [1, 32, 40, 40]}> : (tensor<32x40x40xf16>) -> tensor<1x32x40x40xf16>
    %4609 = "mix.prim.constant"() <{value = 0xFC00 : f16}> : () -> f16
    %4610 = "mix.comp.masked_fill"(%4608, %14, %4609) : (tensor<1x32x40x40xf16>, tensor<1x1x40x40xi1>, f16) -> tensor<1x32x40x40xf16>
    %4611 = "mix.comp.softmax"(%4610) <{axis = -1 : si32}> : (tensor<1x32x40x40xf16>) -> tensor<1x32x40x40xf16>
    %4612 = "mix.prim.reshape"(%4611) <{shape = [32, 40, 40]}> : (tensor<1x32x40x40xf16>) -> tensor<32x40x40xf16>
    %4613 = "mix.prim.reshape"(%4540) <{shape = [40, 32, 160]}> : (tensor<40x1x32x160xf16>) -> tensor<40x32x160xf16>
    %4614 = "mix.prim.transpose"(%4613) <{dim1 = 0 : i32, dim2 = 1 : i32}> : (tensor<40x32x160xf16>) -> tensor<32x40x160xf16>
    %4615 = "mix.prim.batch_matmul"(%4612, %4614) : (tensor<32x40x40xf16>, tensor<32x40x160xf16>) -> tensor<32x40x160xf16>
    %4616 = "mix.prim.reshape"(%4615) <{shape = [1, 32, 40, 160]}> : (tensor<32x40x160xf16>) -> tensor<1x32x40x160xf16>
    %4617 = "mix.prim.permute"(%4616) <{dims = [0, 2, 1, 3]}> : (tensor<1x32x40x160xf16>) -> tensor<1x40x32x160xf16>
    %4618 = "mix.prim.reshape"(%4617) <{shape = [1, 40, 5120]}> : (tensor<1x40x32x160xf16>) -> tensor<1x40x5120xf16>
    %4619 = "mix.prim.reshape"(%4618) <{shape = [40, 5120]}> : (tensor<1x40x5120xf16>) -> tensor<40x5120xf16>
    %4620 = "mix.prim.transpose"(%4526) <{dim1 = 0 : i32, dim2 = 1 : i32}> : (tensor<5120x5120xf16>) -> tensor<5120x5120xf16>
    %4621 = "mix.prim.matmul"(%4619, %4620) : (tensor<40x5120xf16>, tensor<5120x5120xf16>) -> tensor<40x5120xf16>
    %4622 = "mix.prim.add"(%4621, %4527) : (tensor<40x5120xf16>, tensor<5120xf16>) -> tensor<40x5120xf16>
    %4623 = "mix.prim.reshape"(%4622) <{shape = [1, 40, 5120]}> : (tensor<40x5120xf16>) -> tensor<1x40x5120xf16>
    %4624 = "mix.prim.mul"(%4514, %4623) : (tensor<1x40x5120xf16>, tensor<1x40x5120xf16>) -> tensor<1x40x5120xf16>
    %4625 = "mix.comp.weight"() <{param_loc = "transformer.h.36.post_attention_layernorm.weight"}> : () -> tensor<5120xf16>
    %4626 = "mix.prim.constant"() <{value = dense<1.000000e+00> : tensor<1xf16>}> : () -> tensor<1xf16>
    %4627 = "mix.prim.pow"(%4624, %4626) : (tensor<1x40x5120xf16>, tensor<1xf16>) -> tensor<1x40x5120xf16>
    %4628 = "mix.comp.mean"(%4627) <{dims = [2 : i32], keepDim = true}> : (tensor<1x40x5120xf16>) -> tensor<1x40x1xf16>
    %4629 = "mix.prim.constant"() <{value = 1.013280e-06 : f16}> : () -> f16
    %4630 = "mix.prim.add"(%4628, %4629) : (tensor<1x40x1xf16>, f16) -> tensor<1x40x1xf16>
    %4631 = "mix.prim.rsqrt"(%4630) : (tensor<1x40x1xf16>) -> tensor<1x40x1xf16>
    %4632 = "mix.prim.mul"(%4624, %4631) : (tensor<1x40x5120xf16>, tensor<1x40x1xf16>) -> tensor<1x40x5120xf16>
    %4633 = "mix.prim.mul"(%4625, %4632) : (tensor<5120xf16>, tensor<1x40x5120xf16>) -> tensor<1x40x5120xf16>
    %4634 = "mix.module.linear"(%4633) <{dtype = f16, in_feature = 5120 : i32, out_feature = 12288 : i32, params_loc = "transformer.h.36.mlp.gate_proj"}> : (tensor<1x40x5120xf16>) -> tensor<1x40x12288xf16>
    %4635 = "mix.comp.silu"(%4634) : (tensor<1x40x12288xf16>) -> tensor<1x40x12288xf16>
    %4636 = "mix.module.linear"(%4633) <{dtype = f16, in_feature = 5120 : i32, out_feature = 12288 : i32, params_loc = "transformer.h.36.mlp.up_proj"}> : (tensor<1x40x5120xf16>) -> tensor<1x40x12288xf16>
    %4637 = "mix.prim.mul"(%4635, %4636) : (tensor<1x40x12288xf16>, tensor<1x40x12288xf16>) -> tensor<1x40x12288xf16>
    %4638 = "mix.module.linear"(%4637) <{dtype = f16, has_bias, in_feature = 12288 : i32, out_feature = 5120 : i32, params_loc = "transformer.h.36.mlp.down_proj"}> : (tensor<1x40x12288xf16>) -> tensor<1x40x5120xf16>
    %4639 = "mix.prim.add"(%4638, %4624) : (tensor<1x40x5120xf16>, tensor<1x40x5120xf16>) -> tensor<1x40x5120xf16>
    %4640 = "mix.comp.weight"() <{param_loc = "transformer.h.37.input_layernorm.weight"}> : () -> tensor<5120xf16>
    %4641 = "mix.prim.constant"() <{value = dense<1.000000e+00> : tensor<1xf16>}> : () -> tensor<1xf16>
    %4642 = "mix.prim.pow"(%4639, %4641) : (tensor<1x40x5120xf16>, tensor<1xf16>) -> tensor<1x40x5120xf16>
    %4643 = "mix.comp.mean"(%4642) <{dims = [2 : i32], keepDim = true}> : (tensor<1x40x5120xf16>) -> tensor<1x40x1xf16>
    %4644 = "mix.prim.constant"() <{value = 1.013280e-06 : f16}> : () -> f16
    %4645 = "mix.prim.add"(%4643, %4644) : (tensor<1x40x1xf16>, f16) -> tensor<1x40x1xf16>
    %4646 = "mix.prim.rsqrt"(%4645) : (tensor<1x40x1xf16>) -> tensor<1x40x1xf16>
    %4647 = "mix.prim.mul"(%4639, %4646) : (tensor<1x40x5120xf16>, tensor<1x40x1xf16>) -> tensor<1x40x5120xf16>
    %4648 = "mix.prim.mul"(%4640, %4647) : (tensor<5120xf16>, tensor<1x40x5120xf16>) -> tensor<1x40x5120xf16>
    %4649 = "mix.comp.weight"() <{param_loc = "transformer.h.37.self_attention.query.weight"}> : () -> tensor<5120x5120xf16>
    %4650 = "mix.comp.weight"() <{param_loc = "transformer.h.37.self_attention.key_value.weight"}> : () -> tensor<10240x5120xf16>
    %4651 = "mix.comp.weight"() <{param_loc = "transformer.h.37.self_attention.dense.weight"}> : () -> tensor<5120x5120xf16>
    %4652 = "mix.comp.weight"() <{param_loc = "transformer.h.37.self_attention.dense.bias"}> : () -> tensor<5120xf16>
    %4653 = "mix.prim.transpose"(%4648) <{dim1 = 0 : i32, dim2 = 1 : i32}> : (tensor<1x40x5120xf16>) -> tensor<40x1x5120xf16>
    %4654 = "mix.prim.transpose"(%4649) <{dim1 = 0 : i32, dim2 = 1 : i32}> : (tensor<5120x5120xf16>) -> tensor<5120x5120xf16>
    %4655 = "mix.prim.reshape"(%4653) <{shape = [40, 5120]}> : (tensor<40x1x5120xf16>) -> tensor<40x5120xf16>
    %4656 = "mix.prim.matmul"(%4655, %4654) : (tensor<40x5120xf16>, tensor<5120x5120xf16>) -> tensor<40x5120xf16>
    %4657 = "mix.prim.reshape"(%4656) <{shape = [40, 1, 5120]}> : (tensor<40x5120xf16>) -> tensor<40x1x5120xf16>
    %4658 = "mix.prim.reshape"(%4657) <{shape = [40, 1, 32, 160]}> : (tensor<40x1x5120xf16>) -> tensor<40x1x32x160xf16>
    %4659 = "mix.prim.transpose"(%4650) <{dim1 = 0 : i32, dim2 = 1 : i32}> : (tensor<10240x5120xf16>) -> tensor<5120x10240xf16>
    %4660 = "mix.prim.reshape"(%4653) <{shape = [40, 5120]}> : (tensor<40x1x5120xf16>) -> tensor<40x5120xf16>
    %4661 = "mix.prim.matmul"(%4660, %4659) : (tensor<40x5120xf16>, tensor<5120x10240xf16>) -> tensor<40x10240xf16>
    %4662 = "mix.prim.reshape"(%4661) <{shape = [40, 1, 10240]}> : (tensor<40x10240xf16>) -> tensor<40x1x10240xf16>
    %4663 = "mix.prim.reshape"(%4662) <{shape = [40, 1, 32, 320]}> : (tensor<40x1x10240xf16>) -> tensor<40x1x32x320xf16>
    %4664 = "mix.prim.slice"(%4663) <{dim = 3 : i64, end = 160 : i64, start = 0 : i64, step = 1 : i64}> : (tensor<40x1x32x320xf16>) -> tensor<40x1x32x160xf16>
    %4665 = "mix.prim.slice"(%4663) <{dim = 3 : i64, end = 320 : i64, start = 160 : i64, step = 1 : i64}> : (tensor<40x1x32x320xf16>) -> tensor<40x1x32x160xf16>
    %4666 = "mix.prim.reshape"(%4658) <{shape = [40, 32, -1]}> : (tensor<40x1x32x160xf16>) -> tensor<40x32x160xf16>
    %4667 = "mix.prim.reshape"(%4664) <{shape = [40, 32, -1]}> : (tensor<40x1x32x160xf16>) -> tensor<40x32x160xf16>
    %4668 = "mix.prim.constant"() <{value = dense<[0, 2, 4, 6, 8, 10, 12, 14, 16, 18, 20, 22, 24, 26, 28, 30, 32, 34, 36, 38, 40, 42, 44, 46, 48, 50, 52, 54, 56, 58, 60, 62, 64, 66, 68, 70, 72, 74, 76, 78, 80, 82, 84, 86, 88, 90, 92, 94, 96, 98, 100, 102, 104, 106, 108, 110, 112, 114, 116, 118, 120, 122, 124, 126, 128, 130, 132, 134, 136, 138, 140, 142, 144, 146, 148, 150, 152, 154, 156, 158]> : tensor<80xi32>}> : () -> tensor<80xi32>
    %4669 = "mix.prim.convert"(%4668) <{element_ty = f16}> : (tensor<80xi32>) -> tensor<80xf16>
    %4670 = "mix.prim.constant"() <{value = 1.600000e+02 : f16}> : () -> f16
    %4671 = "mix.prim.div"(%4669, %4670) : (tensor<80xf16>, f16) -> tensor<80xf16>
    %4672 = "mix.prim.constant"() <{value = 3.041600e+04 : f16}> : () -> f16
    %4673 = "mix.prim.pow"(%4672, %4671) : (f16, tensor<80xf16>) -> tensor<80xf16>
    %4674 = "mix.prim.reciprocal"(%4673) : (tensor<80xf16>) -> tensor<80xf16>
    %4675 = "mix.prim.constant"() <{value = 1.000000e+00 : f16}> : () -> f16
    %4676 = "mix.prim.mul"(%4675, %4674) : (f16, tensor<80xf16>) -> tensor<80xf16>
    %4677 = "mix.prim.constant"() <{value = dense<[… > : tensor<40xf16>}> : () -> tensor<40xf16>
    %4678 = "mix.prim.unsqueeze"(%4677) <{axis = 1 : i32}> : (tensor<40xf16>) -> tensor<40x1xf16>
    %4679 = "mix.prim.permute"(%4678) <{dims = [0, 1]}> : (tensor<40x1xf16>) -> tensor<40x1xf16>
    %4680 = "mix.prim.unsqueeze"(%4676) <{axis = 1 : i32}> : (tensor<80xf16>) -> tensor<80x1xf16>
    %4681 = "mix.prim.permute"(%4680) <{dims = [1, 0]}> : (tensor<80x1xf16>) -> tensor<1x80xf16>
    %4682 = "mix.prim.mul"(%4679, %4681) : (tensor<40x1xf16>, tensor<1x80xf16>) -> tensor<40x80xf16>
    %4683 = "mix.prim.concat"(%4682, %4682) <{axis = 1 : i64}> : (tensor<40x80xf16>, tensor<40x80xf16>) -> tensor<40x160xf16>
    %4684 = "mix.prim.cos"(%4683) : (tensor<40x160xf16>) -> tensor<40x160xf16>
    %4685 = "mix.prim.slice"(%4684) <{dim = 0 : i64, end = 2147483647 : i64, start = 0 : i64, step = 1 : i64}> : (tensor<40x160xf16>) -> tensor<40x160xf16>
    %4686 = "mix.prim.unsqueeze"(%4685) <{axis = 1 : i32}> : (tensor<40x160xf16>) -> tensor<40x1x160xf16>
    %4687 = "mix.prim.slice"(%4686) <{dim = 2 : i64, end = 2147483647 : i64, start = 0 : i64, step = 1 : i64}> : (tensor<40x1x160xf16>) -> tensor<40x1x160xf16>
    %4688 = "mix.prim.constant"() <{value = 1.000000e+00 : f16}> : () -> f16
    %4689 = "mix.prim.mul"(%4687, %4688) : (tensor<40x1x160xf16>, f16) -> tensor<40x1x160xf16>
    %4690 = "mix.prim.sin"(%4683) : (tensor<40x160xf16>) -> tensor<40x160xf16>
    %4691 = "mix.prim.slice"(%4690) <{dim = 0 : i64, end = 2147483647 : i64, start = 0 : i64, step = 1 : i64}> : (tensor<40x160xf16>) -> tensor<40x160xf16>
    %4692 = "mix.prim.unsqueeze"(%4691) <{axis = 1 : i32}> : (tensor<40x160xf16>) -> tensor<40x1x160xf16>
    %4693 = "mix.prim.slice"(%4692) <{dim = 2 : i64, end = 2147483647 : i64, start = 0 : i64, step = 1 : i64}> : (tensor<40x1x160xf16>) -> tensor<40x1x160xf16>
    %4694 = "mix.prim.constant"() <{value = 1.000000e+00 : f16}> : () -> f16
    %4695 = "mix.prim.mul"(%4693, %4694) : (tensor<40x1x160xf16>, f16) -> tensor<40x1x160xf16>
    %4696 = "mix.prim.slice"(%4689) <{dim = 0 : i64, end = 40 : i64, start = 0 : i64, step = 1 : i64}> : (tensor<40x1x160xf16>) -> tensor<40x1x160xf16>
    %4697 = "mix.prim.slice"(%4695) <{dim = 0 : i64, end = 40 : i64, start = 0 : i64, step = 1 : i64}> : (tensor<40x1x160xf16>) -> tensor<40x1x160xf16>
    %4698 = "mix.prim.mul"(%4666, %4696) : (tensor<40x32x160xf16>, tensor<40x1x160xf16>) -> tensor<40x32x160xf16>
    %4699 = "mix.prim.slice"(%4666) <{dim = 2 : i64, end = 80 : i64, start = 0 : i64, step = 1 : i64}> : (tensor<40x32x160xf16>) -> tensor<40x32x80xf16>
    %4700 = "mix.prim.slice"(%4666) <{dim = 2 : i64, end = 2147483647 : i64, start = 80 : i64, step = 1 : i64}> : (tensor<40x32x160xf16>) -> tensor<40x32x80xf16>
    %4701 = "mix.prim.neg"(%4700) : (tensor<40x32x80xf16>) -> tensor<40x32x80xf16>
    %4702 = "mix.prim.concat"(%4701, %4699) <{axis = 2 : i64}> : (tensor<40x32x80xf16>, tensor<40x32x80xf16>) -> tensor<40x32x160xf16>
    %4703 = "mix.prim.mul"(%4702, %4697) : (tensor<40x32x160xf16>, tensor<40x1x160xf16>) -> tensor<40x32x160xf16>
    %4704 = "mix.prim.add"(%4698, %4703) : (tensor<40x32x160xf16>, tensor<40x32x160xf16>) -> tensor<40x32x160xf16>
    %4705 = "mix.prim.mul"(%4667, %4696) : (tensor<40x32x160xf16>, tensor<40x1x160xf16>) -> tensor<40x32x160xf16>
    %4706 = "mix.prim.slice"(%4667) <{dim = 2 : i64, end = 80 : i64, start = 0 : i64, step = 1 : i64}> : (tensor<40x32x160xf16>) -> tensor<40x32x80xf16>
    %4707 = "mix.prim.slice"(%4667) <{dim = 2 : i64, end = 2147483647 : i64, start = 80 : i64, step = 1 : i64}> : (tensor<40x32x160xf16>) -> tensor<40x32x80xf16>
    %4708 = "mix.prim.neg"(%4707) : (tensor<40x32x80xf16>) -> tensor<40x32x80xf16>
    %4709 = "mix.prim.concat"(%4708, %4706) <{axis = 2 : i64}> : (tensor<40x32x80xf16>, tensor<40x32x80xf16>) -> tensor<40x32x160xf16>
    %4710 = "mix.prim.mul"(%4709, %4697) : (tensor<40x32x160xf16>, tensor<40x1x160xf16>) -> tensor<40x32x160xf16>
    %4711 = "mix.prim.add"(%4705, %4710) : (tensor<40x32x160xf16>, tensor<40x32x160xf16>) -> tensor<40x32x160xf16>
    %4712 = "mix.prim.reshape"(%4704) <{shape = [40, 1, 32, 160]}> : (tensor<40x32x160xf16>) -> tensor<40x1x32x160xf16>
    %4713 = "mix.prim.reshape"(%4711) <{shape = [40, 1, 32, 160]}> : (tensor<40x32x160xf16>) -> tensor<40x1x32x160xf16>
    %4714 = "mix.prim.reshape"(%4712) <{shape = [40, 32, 160]}> : (tensor<40x1x32x160xf16>) -> tensor<40x32x160xf16>
    %4715 = "mix.prim.reshape"(%4713) <{shape = [40, 32, 160]}> : (tensor<40x1x32x160xf16>) -> tensor<40x32x160xf16>
    %4716 = "mix.prim.transpose"(%4714) <{dim1 = 0 : i32, dim2 = 1 : i32}> : (tensor<40x32x160xf16>) -> tensor<32x40x160xf16>
    %4717 = "mix.prim.transpose"(%4715) <{dim1 = 0 : i32, dim2 = 1 : i32}> : (tensor<40x32x160xf16>) -> tensor<32x40x160xf16>
    %4718 = "mix.prim.transpose"(%4717) <{dim1 = 1 : i32, dim2 = 2 : i32}> : (tensor<32x40x160xf16>) -> tensor<32x160x40xf16>
    %4719 = "mix.prim.unsqueeze"(%4716) <{axis = 3 : i32}> : (tensor<32x40x160xf16>) -> tensor<32x40x160x1xf16>
    %4720 = "mix.prim.permute"(%4719) <{dims = [0, 1, 3, 2]}> : (tensor<32x40x160x1xf16>) -> tensor<32x40x1x160xf16>
    %4721 = "mix.prim.unsqueeze"(%4718) <{axis = 3 : i32}> : (tensor<32x160x40xf16>) -> tensor<32x160x40x1xf16>
    %4722 = "mix.prim.permute"(%4721) <{dims = [0, 3, 2, 1]}> : (tensor<32x160x40x1xf16>) -> tensor<32x1x40x160xf16>
    %4723 = "mix.prim.permute"(%4720) <{dims = [0, 1, 3, 2]}> : (tensor<32x40x1x160xf16>) -> tensor<32x40x160x1xf16>
    %4724 = "mix.prim.reshape"(%4723) <{shape = [32, 40, 160]}> : (tensor<32x40x160x1xf16>) -> tensor<32x40x160xf16>
    %4725 = "mix.prim.permute"(%4722) <{dims = [0, 3, 2, 1]}> : (tensor<32x1x40x160xf16>) -> tensor<32x160x40x1xf16>
    %4726 = "mix.prim.reshape"(%4725) <{shape = [32, 160, 40]}> : (tensor<32x160x40x1xf16>) -> tensor<32x160x40xf16>
    %4727 = "mix.prim.batch_matmul"(%4724, %4726) : (tensor<32x40x160xf16>, tensor<32x160x40xf16>) -> tensor<32x40x40xf16>
    %4728 = "mix.prim.reshape"(%4727) <{shape = [32, 40, 1, 40]}> : (tensor<32x40x40xf16>) -> tensor<32x40x1x40xf16>
    %4729 = "mix.prim.permute"(%4728) <{dims = [0, 1, 3, 2]}> : (tensor<32x40x1x40xf16>) -> tensor<32x40x40x1xf16>
    %4730 = "mix.prim.reshape"(%4729) <{shape = [32, 40, 40]}> : (tensor<32x40x40x1xf16>) -> tensor<32x40x40xf16>
    %4731 = "mix.prim.constant"() <{value = 7.904050e-02 : f16}> : () -> f16
    %4732 = "mix.prim.mul"(%4730, %4731) : (tensor<32x40x40xf16>, f16) -> tensor<32x40x40xf16>
    %4733 = "mix.prim.reshape"(%4732) <{shape = [1, 32, 40, 40]}> : (tensor<32x40x40xf16>) -> tensor<1x32x40x40xf16>
    %4734 = "mix.prim.constant"() <{value = 0xFC00 : f16}> : () -> f16
    %4735 = "mix.comp.masked_fill"(%4733, %14, %4734) : (tensor<1x32x40x40xf16>, tensor<1x1x40x40xi1>, f16) -> tensor<1x32x40x40xf16>
    %4736 = "mix.comp.softmax"(%4735) <{axis = -1 : si32}> : (tensor<1x32x40x40xf16>) -> tensor<1x32x40x40xf16>
    %4737 = "mix.prim.reshape"(%4736) <{shape = [32, 40, 40]}> : (tensor<1x32x40x40xf16>) -> tensor<32x40x40xf16>
    %4738 = "mix.prim.reshape"(%4665) <{shape = [40, 32, 160]}> : (tensor<40x1x32x160xf16>) -> tensor<40x32x160xf16>
    %4739 = "mix.prim.transpose"(%4738) <{dim1 = 0 : i32, dim2 = 1 : i32}> : (tensor<40x32x160xf16>) -> tensor<32x40x160xf16>
    %4740 = "mix.prim.batch_matmul"(%4737, %4739) : (tensor<32x40x40xf16>, tensor<32x40x160xf16>) -> tensor<32x40x160xf16>
    %4741 = "mix.prim.reshape"(%4740) <{shape = [1, 32, 40, 160]}> : (tensor<32x40x160xf16>) -> tensor<1x32x40x160xf16>
    %4742 = "mix.prim.permute"(%4741) <{dims = [0, 2, 1, 3]}> : (tensor<1x32x40x160xf16>) -> tensor<1x40x32x160xf16>
    %4743 = "mix.prim.reshape"(%4742) <{shape = [1, 40, 5120]}> : (tensor<1x40x32x160xf16>) -> tensor<1x40x5120xf16>
    %4744 = "mix.prim.reshape"(%4743) <{shape = [40, 5120]}> : (tensor<1x40x5120xf16>) -> tensor<40x5120xf16>
    %4745 = "mix.prim.transpose"(%4651) <{dim1 = 0 : i32, dim2 = 1 : i32}> : (tensor<5120x5120xf16>) -> tensor<5120x5120xf16>
    %4746 = "mix.prim.matmul"(%4744, %4745) : (tensor<40x5120xf16>, tensor<5120x5120xf16>) -> tensor<40x5120xf16>
    %4747 = "mix.prim.add"(%4746, %4652) : (tensor<40x5120xf16>, tensor<5120xf16>) -> tensor<40x5120xf16>
    %4748 = "mix.prim.reshape"(%4747) <{shape = [1, 40, 5120]}> : (tensor<40x5120xf16>) -> tensor<1x40x5120xf16>
    %4749 = "mix.prim.mul"(%4639, %4748) : (tensor<1x40x5120xf16>, tensor<1x40x5120xf16>) -> tensor<1x40x5120xf16>
    %4750 = "mix.comp.weight"() <{param_loc = "transformer.h.37.post_attention_layernorm.weight"}> : () -> tensor<5120xf16>
    %4751 = "mix.prim.constant"() <{value = dense<1.000000e+00> : tensor<1xf16>}> : () -> tensor<1xf16>
    %4752 = "mix.prim.pow"(%4749, %4751) : (tensor<1x40x5120xf16>, tensor<1xf16>) -> tensor<1x40x5120xf16>
    %4753 = "mix.comp.mean"(%4752) <{dims = [2 : i32], keepDim = true}> : (tensor<1x40x5120xf16>) -> tensor<1x40x1xf16>
    %4754 = "mix.prim.constant"() <{value = 1.013280e-06 : f16}> : () -> f16
    %4755 = "mix.prim.add"(%4753, %4754) : (tensor<1x40x1xf16>, f16) -> tensor<1x40x1xf16>
    %4756 = "mix.prim.rsqrt"(%4755) : (tensor<1x40x1xf16>) -> tensor<1x40x1xf16>
    %4757 = "mix.prim.mul"(%4749, %4756) : (tensor<1x40x5120xf16>, tensor<1x40x1xf16>) -> tensor<1x40x5120xf16>
    %4758 = "mix.prim.mul"(%4750, %4757) : (tensor<5120xf16>, tensor<1x40x5120xf16>) -> tensor<1x40x5120xf16>
    %4759 = "mix.module.linear"(%4758) <{dtype = f16, in_feature = 5120 : i32, out_feature = 12288 : i32, params_loc = "transformer.h.37.mlp.gate_proj"}> : (tensor<1x40x5120xf16>) -> tensor<1x40x12288xf16>
    %4760 = "mix.comp.silu"(%4759) : (tensor<1x40x12288xf16>) -> tensor<1x40x12288xf16>
    %4761 = "mix.module.linear"(%4758) <{dtype = f16, in_feature = 5120 : i32, out_feature = 12288 : i32, params_loc = "transformer.h.37.mlp.up_proj"}> : (tensor<1x40x5120xf16>) -> tensor<1x40x12288xf16>
    %4762 = "mix.prim.mul"(%4760, %4761) : (tensor<1x40x12288xf16>, tensor<1x40x12288xf16>) -> tensor<1x40x12288xf16>
    %4763 = "mix.module.linear"(%4762) <{dtype = f16, has_bias, in_feature = 12288 : i32, out_feature = 5120 : i32, params_loc = "transformer.h.37.mlp.down_proj"}> : (tensor<1x40x12288xf16>) -> tensor<1x40x5120xf16>
    %4764 = "mix.prim.add"(%4763, %4749) : (tensor<1x40x5120xf16>, tensor<1x40x5120xf16>) -> tensor<1x40x5120xf16>
    %4765 = "mix.comp.weight"() <{param_loc = "transformer.ln_f.weight"}> : () -> tensor<5120xf16>
    %4766 = "mix.prim.constant"() <{value = dense<1.000000e+00> : tensor<1xf16>}> : () -> tensor<1xf16>
    %4767 = "mix.prim.pow"(%4764, %4766) : (tensor<1x40x5120xf16>, tensor<1xf16>) -> tensor<1x40x5120xf16>
    %4768 = "mix.comp.mean"(%4767) <{dims = [2 : i32], keepDim = true}> : (tensor<1x40x5120xf16>) -> tensor<1x40x1xf16>
    %4769 = "mix.prim.constant"() <{value = 1.013280e-06 : f16}> : () -> f16
    %4770 = "mix.prim.add"(%4768, %4769) : (tensor<1x40x1xf16>, f16) -> tensor<1x40x1xf16>
    %4771 = "mix.prim.rsqrt"(%4770) : (tensor<1x40x1xf16>) -> tensor<1x40x1xf16>
    %4772 = "mix.prim.mul"(%4764, %4771) : (tensor<1x40x5120xf16>, tensor<1x40x1xf16>) -> tensor<1x40x5120xf16>
    %4773 = "mix.prim.mul"(%4765, %4772) : (tensor<5120xf16>, tensor<1x40x5120xf16>) -> tensor<1x40x5120xf16>
    %4774 = "mix.module.linear"(%4773) <{dtype = f16, in_feature = 5120 : i32, out_feature = 120000 : i32, params_loc = "lm_head"}> : (tensor<1x40x5120xf16>) -> tensor<1x40x120000xf16>
    return %4774 : tensor<1x40x120000xf16>
  }
  func.func private @main() {
    %0 = "mix.prim.constant"() <{value = dense<1> : tensor<1x40xi32>}> : () -> tensor<1x40xi32>
    %1 = call @Telechat(%0) : (tensor<1x40xi32>) -> tensor<1x40x120000xf16>
    %cast = tensor.cast %1 : tensor<1x40x120000xf16> to tensor<*xf16>
    call @printMemrefF16(%cast) : (tensor<*xf16>) -> ()
    return
  }
}
