"builtin.module"() ({
  "func.func"() <{function_type = (tensor<1x40xf16>) -> tensor<40x120000xf16>, sym_name = "Telechat", sym_visibility = "private"}> ({
  ^bb0(%arg0: tensor<1x40xf16>):
    %0 = "mix.module.embedding"(%arg0) <{dtype = f16, embedding_dim = 5120 : i32, num_embeddings = 120000 : i32, params_loc = "transformer.word_embeddings.weight"}> : (tensor<1x40xf16>) -> tensor<1x40x5120xf16>
    %1 = "mix.prim.constant"() <{value = dense<true> : tensor<1x1x5x5xi1>}> : () -> tensor<1x1x5x5xi1>
    %2 = "mix.comp.weight"() <{param_loc = "transformer.h.0.input_layernorm.weight"}> : () -> tensor<5120xf16>
    %3 = "arith.constant"() <{value = dense<1.000000e+00> : tensor<1xf16>}> : () -> tensor<1xf16>
    %4 = "mix.prim.pow"(%0, %3) : (tensor<1x40x5120xf16>, tensor<1xf16>) -> tensor<1x40x5120xf16>
    %5 = "mix.comp.mean"(%4) <{dims = [2 : i32], keepDim = true}> : (tensor<1x40x5120xf16>) -> tensor<1x40x1xf16>
    %6 = "arith.constant"() <{value = 1.013280e-06 : f16}> : () -> f16
    %7 = "mix.prim.add"(%5, %6) : (tensor<1x40x1xf16>, f16) -> tensor<1x40x1xf16>
    %8 = "mix.prim.rsqrt"(%7) : (tensor<1x40x1xf16>) -> tensor<1x40x1xf16>
    %9 = "mix.prim.mul"(%0, %8) : (tensor<1x40x5120xf16>, tensor<1x40x1xf16>) -> tensor<1x40x5120xf16>
    %10 = "mix.prim.mul"(%2, %9) : (tensor<5120xf16>, tensor<1x40x5120xf16>) -> tensor<1x40x5120xf16>
    %11 = "mix.comp.weight"() <{param_loc = "transformer.h.0.self_attention.query.weight"}> : () -> tensor<5120x5120xf16>
    %12 = "mix.comp.weight"() <{param_loc = "transformer.h.0.self_attention.key_value.weight"}> : () -> tensor<10240x5120xf16>
    %13 = "mix.comp.weight"() <{param_loc = "transformer.h.0.self_attention.dense.weight"}> : () -> tensor<5120x5120xf16>
    %14 = "mix.comp.weight"() <{param_loc = "transformer.h.0.self_attention.dense.bias"}> : () -> tensor<5120xf16>
    %15 = "mix.prim.transpose"(%10) <{dim1 = 0 : i32, dim2 = 1 : i32}> : (tensor<1x40x5120xf16>) -> tensor<40x1x5120xf16>
    %16 = "mix.prim.transpose"(%11) <{dim1 = 0 : i32, dim2 = 1 : i32}> : (tensor<5120x5120xf16>) -> tensor<5120x5120xf16>
    %17 = "mix.prim.reshape"(%15) <{shape = [40, 5120]}> : (tensor<40x1x5120xf16>) -> tensor<40x5120xf16>
    %18 = "mix.prim.matmul"(%17, %16) : (tensor<40x5120xf16>, tensor<5120x5120xf16>) -> tensor<40x5120xf16>
    %19 = "mix.prim.reshape"(%18) <{shape = [40, 1, 5120]}> : (tensor<40x5120xf16>) -> tensor<40x1x5120xf16>
    %20 = "mix.prim.reshape"(%19) <{shape = [40, 1, 32, 160]}> : (tensor<40x1x5120xf16>) -> tensor<40x1x32x160xf16>
    %21 = "mix.prim.transpose"(%12) <{dim1 = 0 : i32, dim2 = 1 : i32}> : (tensor<10240x5120xf16>) -> tensor<5120x10240xf16>
    %22 = "mix.prim.reshape"(%15) <{shape = [40, 5120]}> : (tensor<40x1x5120xf16>) -> tensor<40x5120xf16>
    %23 = "mix.prim.matmul"(%22, %21) : (tensor<40x5120xf16>, tensor<5120x10240xf16>) -> tensor<40x10240xf16>
    %24 = "mix.prim.reshape"(%23) <{shape = [40, 1, 10240]}> : (tensor<40x10240xf16>) -> tensor<40x1x10240xf16>
    %25 = "mix.prim.reshape"(%24) <{shape = [40, 1, 32, 320]}> : (tensor<40x1x10240xf16>) -> tensor<40x1x32x320xf16>
    %26 = "mix.prim.slice"(%25) <{dim = 3 : i64, end = 160 : i64, start = 0 : i64, step = 1 : i64}> : (tensor<40x1x32x320xf16>) -> tensor<40x1x32x160xf16>
    %27 = "mix.prim.slice"(%25) <{dim = 3 : i64, end = 320 : i64, start = 160 : i64, step = 1 : i64}> : (tensor<40x1x32x320xf16>) -> tensor<40x1x32x160xf16>
    %28 = "mix.prim.reshape"(%20) <{shape = [40, 32, -1]}> : (tensor<40x1x32x160xf16>) -> tensor<40x32x160xf16>
    %29 = "mix.prim.reshape"(%26) <{shape = [40, 32, -1]}> : (tensor<40x1x32x160xf16>) -> tensor<40x32x160xf16>
    %30 = "mix.prim.constant"() <{value = dense<[0, 1, 2, 3, 4, 5, 6, 7, 8, 9, 10, 11, 12, 13, 14, 15, 16, 17, 18, 19, 20, 21, 22, 23, 24, 25, 26, 27, 28, 29, 30, 31, 32, 33, 34, 35, 36, 37, 38, 39, 40, 41, 42, 43, 44, 45, 46, 47, 48, 49, 50, 51, 52, 53, 54, 55, 56, 57, 58, 59, 60, 61, 62, 63, 64, 65, 66, 67, 68, 69, 70, 71, 72, 73, 74, 75, 76, 77, 78, 79]> : tensor<80xi32>}> : () -> tensor<80xi32>
    %31 = "mix.prim.convert"(%30) <{element_ty = f16}> : (tensor<80xi32>) -> tensor<80xf16>
    %32 = "mix.prim.constant"() <{value = 160 : i32}> : () -> i32
    %33 = "mix.prim.div"(%31, %32) : (tensor<80xf16>, i32) -> tensor<80xf16>
    %34 = "mix.prim.constant"() <{value = 3.041600e+04 : f16}> : () -> f16
    %35 = "mix.prim.pow"(%34, %33) : (f16, tensor<80xf16>) -> tensor<80xf16>
    %36 = "mix.prim.reciprocal"(%35) : (tensor<80xf16>) -> tensor<80xf16>
    %37 = "mix.prim.constant"() <{value = 1.000000e+00 : f16}> : () -> f16
    %38 = "mix.prim.mul"(%37, %36) : (f16, tensor<80xf16>) -> tensor<80xf16>
    %39 = "mix.prim.constant"() <{value = dense<1.000000e+00> : tensor<40xf16>}> : () -> tensor<40xf16>
    %40 = "mix.prim.unsqueeze"(%39) <{axis = 1 : i32}> : (tensor<40xf16>) -> tensor<40x1xf16>
    %41 = "mix.prim.permute"(%40) <{dims = [0, 1]}> : (tensor<40x1xf16>) -> tensor<40x1xf16>
    %42 = "mix.prim.unsqueeze"(%38) <{axis = 1 : i32}> : (tensor<80xf16>) -> tensor<80x1xf16>
    %43 = "mix.prim.permute"(%42) <{dims = [1, 0]}> : (tensor<80x1xf16>) -> tensor<1x80xf16>
    %44 = "mix.prim.mul"(%41, %43) : (tensor<40x1xf16>, tensor<1x80xf16>) -> tensor<40x80xf16>
    %45 = "mix.prim.concat"(%44, %44) <{axis = 1 : i64}> : (tensor<40x80xf16>, tensor<40x80xf16>) -> tensor<40x160xf16>
    %46 = "mix.prim.cos"(%45) : (tensor<40x160xf16>) -> tensor<40x160xf16>
    %47 = "mix.prim.slice"(%46) <{dim = 0 : i64, end = 2147483647 : i64, start = 0 : i64, step = 1 : i64}> : (tensor<40x160xf16>) -> tensor<40x160xf16>
    %48 = "mix.prim.unsqueeze"(%47) <{axis = 1 : i32}> : (tensor<40x160xf16>) -> tensor<40x1x160xf16>
    %49 = "mix.prim.slice"(%48) <{dim = 2 : i64, end = 2147483647 : i64, start = 0 : i64, step = 1 : i64}> : (tensor<40x1x160xf16>) -> tensor<40x1x160xf16>
    %50 = "mix.prim.constant"() <{value = 1.000000e+00 : f16}> : () -> f16
    %51 = "mix.prim.mul"(%49, %50) : (tensor<40x1x160xf16>, f16) -> tensor<40x1x160xf16>
    %52 = "mix.prim.sin"(%45) : (tensor<40x160xf16>) -> tensor<40x160xf16>
    %53 = "mix.prim.slice"(%52) <{dim = 0 : i64, end = 2147483647 : i64, start = 0 : i64, step = 1 : i64}> : (tensor<40x160xf16>) -> tensor<40x160xf16>
    %54 = "mix.prim.unsqueeze"(%53) <{axis = 1 : i32}> : (tensor<40x160xf16>) -> tensor<40x1x160xf16>
    %55 = "mix.prim.slice"(%54) <{dim = 2 : i64, end = 2147483647 : i64, start = 0 : i64, step = 1 : i64}> : (tensor<40x1x160xf16>) -> tensor<40x1x160xf16>
    %56 = "mix.prim.constant"() <{value = 1.000000e+00 : f16}> : () -> f16
    %57 = "mix.prim.mul"(%55, %56) : (tensor<40x1x160xf16>, f16) -> tensor<40x1x160xf16>
    %58 = "mix.prim.slice"(%51) <{dim = 0 : i64, end = 40 : i64, start = 0 : i64, step = 1 : i64}> : (tensor<40x1x160xf16>) -> tensor<40x1x160xf16>
    %59 = "mix.prim.slice"(%57) <{dim = 0 : i64, end = 40 : i64, start = 0 : i64, step = 1 : i64}> : (tensor<40x1x160xf16>) -> tensor<40x1x160xf16>
    %60 = "mix.prim.mul"(%28, %58) : (tensor<40x32x160xf16>, tensor<40x1x160xf16>) -> tensor<40x32x160xf16>
    %61 = "mix.prim.slice"(%28) <{dim = 2 : i64, end = 80 : i64, start = 0 : i64, step = 1 : i64}> : (tensor<40x32x160xf16>) -> tensor<40x32x80xf16>
    %62 = "mix.prim.slice"(%28) <{dim = 2 : i64, end = 2147483647 : i64, start = 80 : i64, step = 1 : i64}> : (tensor<40x32x160xf16>) -> tensor<40x32x80xf16>
    %63 = "mix.prim.neg"(%62) : (tensor<40x32x80xf16>) -> tensor<40x32x80xf16>
    %64 = "mix.prim.concat"(%63, %61) <{axis = 2 : i64}> : (tensor<40x32x80xf16>, tensor<40x32x80xf16>) -> tensor<40x32x160xf16>
    %65 = "mix.prim.mul"(%64, %59) : (tensor<40x32x160xf16>, tensor<40x1x160xf16>) -> tensor<40x32x160xf16>
    %66 = "mix.prim.add"(%60, %65) : (tensor<40x32x160xf16>, tensor<40x32x160xf16>) -> tensor<40x32x160xf16>
    %67 = "mix.prim.mul"(%29, %58) : (tensor<40x32x160xf16>, tensor<40x1x160xf16>) -> tensor<40x32x160xf16>
    %68 = "mix.prim.slice"(%29) <{dim = 2 : i64, end = 80 : i64, start = 0 : i64, step = 1 : i64}> : (tensor<40x32x160xf16>) -> tensor<40x32x80xf16>
    %69 = "mix.prim.slice"(%29) <{dim = 2 : i64, end = 2147483647 : i64, start = 80 : i64, step = 1 : i64}> : (tensor<40x32x160xf16>) -> tensor<40x32x80xf16>
    %70 = "mix.prim.neg"(%69) : (tensor<40x32x80xf16>) -> tensor<40x32x80xf16>
    %71 = "mix.prim.concat"(%70, %68) <{axis = 2 : i64}> : (tensor<40x32x80xf16>, tensor<40x32x80xf16>) -> tensor<40x32x160xf16>
    %72 = "mix.prim.mul"(%71, %59) : (tensor<40x32x160xf16>, tensor<40x1x160xf16>) -> tensor<40x32x160xf16>
    %73 = "mix.prim.add"(%67, %72) : (tensor<40x32x160xf16>, tensor<40x32x160xf16>) -> tensor<40x32x160xf16>
    %74 = "mix.prim.reshape"(%66) <{shape = [40, 1, 32, 160]}> : (tensor<40x32x160xf16>) -> tensor<40x1x32x160xf16>
    %75 = "mix.prim.reshape"(%73) <{shape = [40, 1, 32, 160]}> : (tensor<40x32x160xf16>) -> tensor<40x1x32x160xf16>
    %76 = "mix.prim.reshape"(%74) <{shape = [40, 32, 160]}> : (tensor<40x1x32x160xf16>) -> tensor<40x32x160xf16>
    %77 = "mix.prim.reshape"(%75) <{shape = [40, 32, 160]}> : (tensor<40x1x32x160xf16>) -> tensor<40x32x160xf16>
    %78 = "mix.prim.transpose"(%76) <{dim1 = 0 : i32, dim2 = 1 : i32}> : (tensor<40x32x160xf16>) -> tensor<32x40x160xf16>
    %79 = "mix.prim.transpose"(%77) <{dim1 = 0 : i32, dim2 = 1 : i32}> : (tensor<40x32x160xf16>) -> tensor<32x40x160xf16>
    %80 = "mix.prim.transpose"(%79) <{dim1 = 1 : i32, dim2 = 2 : i32}> : (tensor<32x40x160xf16>) -> tensor<32x160x40xf16>
    %81 = "mix.prim.unsqueeze"(%78) <{axis = 3 : i32}> : (tensor<32x40x160xf16>) -> tensor<32x40x160x1xf16>
    %82 = "mix.prim.permute"(%81) <{dims = [0, 1, 3, 2]}> : (tensor<32x40x160x1xf16>) -> tensor<32x40x1x160xf16>
    %83 = "mix.prim.unsqueeze"(%80) <{axis = 3 : i32}> : (tensor<32x160x40xf16>) -> tensor<32x160x40x1xf16>
    %84 = "mix.prim.permute"(%83) <{dims = [0, 3, 2, 1]}> : (tensor<32x160x40x1xf16>) -> tensor<32x1x40x160xf16>
    %85 = "mix.prim.permute"(%82) <{dims = [0, 1, 3, 2]}> : (tensor<32x40x1x160xf16>) -> tensor<32x40x160x1xf16>
    %86 = "mix.prim.reshape"(%85) <{shape = [32, 40, 160]}> : (tensor<32x40x160x1xf16>) -> tensor<32x40x160xf16>
    %87 = "mix.prim.permute"(%84) <{dims = [0, 3, 2, 1]}> : (tensor<32x1x40x160xf16>) -> tensor<32x160x40x1xf16>
    %88 = "mix.prim.reshape"(%87) <{shape = [32, 160, 40]}> : (tensor<32x160x40x1xf16>) -> tensor<32x160x40xf16>
    %89 = "mix.prim.batch_matmul"(%86, %88) : (tensor<32x40x160xf16>, tensor<32x160x40xf16>) -> tensor<32x40x40xf16>
    %90 = "mix.prim.reshape"(%89) <{shape = [32, 40, 1, 40]}> : (tensor<32x40x40xf16>) -> tensor<32x40x1x40xf16>
    %91 = "mix.prim.permute"(%90) <{dims = [0, 1, 3, 2]}> : (tensor<32x40x1x40xf16>) -> tensor<32x40x40x1xf16>
    %92 = "mix.prim.reshape"(%91) <{shape = [32, 40, 40]}> : (tensor<32x40x40x1xf16>) -> tensor<32x40x40xf16>
    %93 = "mix.prim.constant"() <{value = 7.904050e-02 : f16}> : () -> f16
    %94 = "mix.prim.mul"(%92, %93) : (tensor<32x40x40xf16>, f16) -> tensor<32x40x40xf16>
    %95 = "mix.prim.reshape"(%94) <{shape = [1, 32, 40, 40]}> : (tensor<32x40x40xf16>) -> tensor<1x32x40x40xf16>
    %96 = "mix.comp.masked_fill"(%95, %1) <{value = 0xFC00 : f16}> : (tensor<1x32x40x40xf16>, tensor<1x1x5x5xi1>) -> tensor<1x32x40x40xf16>
    %97 = "mix.comp.softmax"(%96) <{axis = -1 : si32}> : (tensor<1x32x40x40xf16>) -> tensor<1x32x40x40xf16>
    %98 = "mix.prim.reshape"(%97) <{shape = [32, 40, 40]}> : (tensor<1x32x40x40xf16>) -> tensor<32x40x40xf16>
    %99 = "mix.prim.reshape"(%27) <{shape = [40, 32, 160]}> : (tensor<40x1x32x160xf16>) -> tensor<40x32x160xf16>
    %100 = "mix.prim.transpose"(%99) <{dim1 = 0 : i32, dim2 = 1 : i32}> : (tensor<40x32x160xf16>) -> tensor<32x40x160xf16>
    %101 = "mix.prim.batch_matmul"(%98, %100) : (tensor<32x40x40xf16>, tensor<32x40x160xf16>) -> tensor<32x40x160xf16>
    %102 = "mix.prim.reshape"(%101) <{shape = [1, 32, 40, 160]}> : (tensor<32x40x160xf16>) -> tensor<1x32x40x160xf16>
    %103 = "mix.prim.permute"(%102) <{dims = [0, 2, 1, 3]}> : (tensor<1x32x40x160xf16>) -> tensor<1x40x32x160xf16>
    %104 = "mix.prim.reshape"(%103) <{shape = [1, 40, 5120]}> : (tensor<1x40x32x160xf16>) -> tensor<1x40x5120xf16>
    %105 = "mix.prim.reshape"(%104) <{shape = [40, 5120]}> : (tensor<1x40x5120xf16>) -> tensor<40x5120xf16>
    %106 = "mix.prim.transpose"(%13) <{dim1 = 0 : i32, dim2 = 1 : i32}> : (tensor<5120x5120xf16>) -> tensor<5120x5120xf16>
    %107 = "mix.prim.matmul"(%105, %106) : (tensor<40x5120xf16>, tensor<5120x5120xf16>) -> tensor<40x5120xf16>
    %108 = "mix.prim.add"(%107, %14) : (tensor<40x5120xf16>, tensor<5120xf16>) -> tensor<40x5120xf16>
    %109 = "mix.prim.reshape"(%108) <{shape = [1, 40, 5120]}> : (tensor<40x5120xf16>) -> tensor<1x40x5120xf16>
    %110 = "mix.prim.mul"(%0, %109) : (tensor<1x40x5120xf16>, tensor<1x40x5120xf16>) -> tensor<1x40x5120xf16>
    %111 = "mix.comp.weight"() <{param_loc = "transformer.h.0.post_attention_layernorm.weight"}> : () -> tensor<5120xf16>
    %112 = "arith.constant"() <{value = dense<1.000000e+00> : tensor<1xf16>}> : () -> tensor<1xf16>
    %113 = "mix.prim.pow"(%110, %112) : (tensor<1x40x5120xf16>, tensor<1xf16>) -> tensor<1x40x5120xf16>
    %114 = "mix.comp.mean"(%113) <{dims = [2 : i32], keepDim = true}> : (tensor<1x40x5120xf16>) -> tensor<1x40x1xf16>
    %115 = "arith.constant"() <{value = 1.013280e-06 : f16}> : () -> f16
    %116 = "mix.prim.add"(%114, %115) : (tensor<1x40x1xf16>, f16) -> tensor<1x40x1xf16>
    %117 = "mix.prim.rsqrt"(%116) : (tensor<1x40x1xf16>) -> tensor<1x40x1xf16>
    %118 = "mix.prim.mul"(%110, %117) : (tensor<1x40x5120xf16>, tensor<1x40x1xf16>) -> tensor<1x40x5120xf16>
    %119 = "mix.prim.mul"(%111, %118) : (tensor<5120xf16>, tensor<1x40x5120xf16>) -> tensor<1x40x5120xf16>
    %120 = "mix.module.linear"(%119) <{dtype = f16, in_feature = 5120 : i32, out_feature = 12288 : i32, params_loc = "transformer.h.0.mlp.gate_proj"}> : (tensor<1x40x5120xf16>) -> tensor<1x40x12288xf16>
    %121 = "mix.comp.silu"(%120) : (tensor<1x40x12288xf16>) -> tensor<1x40x12288xf16>
    %122 = "mix.module.linear"(%119) <{dtype = f16, in_feature = 5120 : i32, out_feature = 12288 : i32, params_loc = "transformer.h.0.mlp.up_proj"}> : (tensor<1x40x5120xf16>) -> tensor<1x40x12288xf16>
    %123 = "mix.prim.mul"(%121, %122) : (tensor<1x40x12288xf16>, tensor<1x40x12288xf16>) -> tensor<1x40x12288xf16>
    %124 = "mix.module.linear"(%123) <{dtype = f16, has_bias, in_feature = 12288 : i32, out_feature = 5120 : i32, params_loc = "transformer.h.0.mlp.down_proj"}> : (tensor<1x40x12288xf16>) -> tensor<1x40x5120xf16>
    %125 = "mix.prim.add"(%124, %110) : (tensor<1x40x5120xf16>, tensor<1x40x5120xf16>) -> tensor<1x40x5120xf16>
    %126 = "mix.comp.weight"() <{param_loc = "transformer.h.1.input_layernorm.weight"}> : () -> tensor<5120xf16>
    %127 = "arith.constant"() <{value = dense<1.000000e+00> : tensor<1xf16>}> : () -> tensor<1xf16>
    %128 = "mix.prim.pow"(%125, %127) : (tensor<1x40x5120xf16>, tensor<1xf16>) -> tensor<1x40x5120xf16>
    %129 = "mix.comp.mean"(%128) <{dims = [2 : i32], keepDim = true}> : (tensor<1x40x5120xf16>) -> tensor<1x40x1xf16>
    %130 = "arith.constant"() <{value = 1.013280e-06 : f16}> : () -> f16
    %131 = "mix.prim.add"(%129, %130) : (tensor<1x40x1xf16>, f16) -> tensor<1x40x1xf16>
    %132 = "mix.prim.rsqrt"(%131) : (tensor<1x40x1xf16>) -> tensor<1x40x1xf16>
    %133 = "mix.prim.mul"(%125, %132) : (tensor<1x40x5120xf16>, tensor<1x40x1xf16>) -> tensor<1x40x5120xf16>
    %134 = "mix.prim.mul"(%126, %133) : (tensor<5120xf16>, tensor<1x40x5120xf16>) -> tensor<1x40x5120xf16>
    %135 = "mix.comp.weight"() <{param_loc = "transformer.h.1.self_attention.query.weight"}> : () -> tensor<5120x5120xf16>
    %136 = "mix.comp.weight"() <{param_loc = "transformer.h.1.self_attention.key_value.weight"}> : () -> tensor<10240x5120xf16>
    %137 = "mix.comp.weight"() <{param_loc = "transformer.h.1.self_attention.dense.weight"}> : () -> tensor<5120x5120xf16>
    %138 = "mix.comp.weight"() <{param_loc = "transformer.h.1.self_attention.dense.bias"}> : () -> tensor<5120xf16>
    %139 = "mix.prim.transpose"(%134) <{dim1 = 0 : i32, dim2 = 1 : i32}> : (tensor<1x40x5120xf16>) -> tensor<40x1x5120xf16>
    %140 = "mix.prim.transpose"(%135) <{dim1 = 0 : i32, dim2 = 1 : i32}> : (tensor<5120x5120xf16>) -> tensor<5120x5120xf16>
    %141 = "mix.prim.reshape"(%139) <{shape = [40, 5120]}> : (tensor<40x1x5120xf16>) -> tensor<40x5120xf16>
    %142 = "mix.prim.matmul"(%141, %140) : (tensor<40x5120xf16>, tensor<5120x5120xf16>) -> tensor<40x5120xf16>
    %143 = "mix.prim.reshape"(%142) <{shape = [40, 1, 5120]}> : (tensor<40x5120xf16>) -> tensor<40x1x5120xf16>
    %144 = "mix.prim.reshape"(%143) <{shape = [40, 1, 32, 160]}> : (tensor<40x1x5120xf16>) -> tensor<40x1x32x160xf16>
    %145 = "mix.prim.transpose"(%136) <{dim1 = 0 : i32, dim2 = 1 : i32}> : (tensor<10240x5120xf16>) -> tensor<5120x10240xf16>
    %146 = "mix.prim.reshape"(%139) <{shape = [40, 5120]}> : (tensor<40x1x5120xf16>) -> tensor<40x5120xf16>
    %147 = "mix.prim.matmul"(%146, %145) : (tensor<40x5120xf16>, tensor<5120x10240xf16>) -> tensor<40x10240xf16>
    %148 = "mix.prim.reshape"(%147) <{shape = [40, 1, 10240]}> : (tensor<40x10240xf16>) -> tensor<40x1x10240xf16>
    %149 = "mix.prim.reshape"(%148) <{shape = [40, 1, 32, 320]}> : (tensor<40x1x10240xf16>) -> tensor<40x1x32x320xf16>
    %150 = "mix.prim.slice"(%149) <{dim = 3 : i64, end = 160 : i64, start = 0 : i64, step = 1 : i64}> : (tensor<40x1x32x320xf16>) -> tensor<40x1x32x160xf16>
    %151 = "mix.prim.slice"(%149) <{dim = 3 : i64, end = 320 : i64, start = 160 : i64, step = 1 : i64}> : (tensor<40x1x32x320xf16>) -> tensor<40x1x32x160xf16>
    %152 = "mix.prim.reshape"(%144) <{shape = [40, 32, -1]}> : (tensor<40x1x32x160xf16>) -> tensor<40x32x160xf16>
    %153 = "mix.prim.reshape"(%150) <{shape = [40, 32, -1]}> : (tensor<40x1x32x160xf16>) -> tensor<40x32x160xf16>
    %154 = "mix.prim.constant"() <{value = dense<[0, 1, 2, 3, 4, 5, 6, 7, 8, 9, 10, 11, 12, 13, 14, 15, 16, 17, 18, 19, 20, 21, 22, 23, 24, 25, 26, 27, 28, 29, 30, 31, 32, 33, 34, 35, 36, 37, 38, 39, 40, 41, 42, 43, 44, 45, 46, 47, 48, 49, 50, 51, 52, 53, 54, 55, 56, 57, 58, 59, 60, 61, 62, 63, 64, 65, 66, 67, 68, 69, 70, 71, 72, 73, 74, 75, 76, 77, 78, 79]> : tensor<80xi32>}> : () -> tensor<80xi32>
    %155 = "mix.prim.convert"(%154) <{element_ty = f16}> : (tensor<80xi32>) -> tensor<80xf16>
    %156 = "mix.prim.constant"() <{value = 160 : i32}> : () -> i32
    %157 = "mix.prim.div"(%155, %156) : (tensor<80xf16>, i32) -> tensor<80xf16>
    %158 = "mix.prim.constant"() <{value = 3.041600e+04 : f16}> : () -> f16
    %159 = "mix.prim.pow"(%158, %157) : (f16, tensor<80xf16>) -> tensor<80xf16>
    %160 = "mix.prim.reciprocal"(%159) : (tensor<80xf16>) -> tensor<80xf16>
    %161 = "mix.prim.constant"() <{value = 1.000000e+00 : f16}> : () -> f16
    %162 = "mix.prim.mul"(%161, %160) : (f16, tensor<80xf16>) -> tensor<80xf16>
    %163 = "mix.prim.constant"() <{value = dense<1.000000e+00> : tensor<40xf16>}> : () -> tensor<40xf16>
    %164 = "mix.prim.unsqueeze"(%163) <{axis = 1 : i32}> : (tensor<40xf16>) -> tensor<40x1xf16>
    %165 = "mix.prim.permute"(%164) <{dims = [0, 1]}> : (tensor<40x1xf16>) -> tensor<40x1xf16>
    %166 = "mix.prim.unsqueeze"(%162) <{axis = 1 : i32}> : (tensor<80xf16>) -> tensor<80x1xf16>
    %167 = "mix.prim.permute"(%166) <{dims = [1, 0]}> : (tensor<80x1xf16>) -> tensor<1x80xf16>
    %168 = "mix.prim.mul"(%165, %167) : (tensor<40x1xf16>, tensor<1x80xf16>) -> tensor<40x80xf16>
    %169 = "mix.prim.concat"(%168, %168) <{axis = 1 : i64}> : (tensor<40x80xf16>, tensor<40x80xf16>) -> tensor<40x160xf16>
    %170 = "mix.prim.cos"(%169) : (tensor<40x160xf16>) -> tensor<40x160xf16>
    %171 = "mix.prim.slice"(%170) <{dim = 0 : i64, end = 2147483647 : i64, start = 0 : i64, step = 1 : i64}> : (tensor<40x160xf16>) -> tensor<40x160xf16>
    %172 = "mix.prim.unsqueeze"(%171) <{axis = 1 : i32}> : (tensor<40x160xf16>) -> tensor<40x1x160xf16>
    %173 = "mix.prim.slice"(%172) <{dim = 2 : i64, end = 2147483647 : i64, start = 0 : i64, step = 1 : i64}> : (tensor<40x1x160xf16>) -> tensor<40x1x160xf16>
    %174 = "mix.prim.constant"() <{value = 1.000000e+00 : f16}> : () -> f16
    %175 = "mix.prim.mul"(%173, %174) : (tensor<40x1x160xf16>, f16) -> tensor<40x1x160xf16>
    %176 = "mix.prim.sin"(%169) : (tensor<40x160xf16>) -> tensor<40x160xf16>
    %177 = "mix.prim.slice"(%176) <{dim = 0 : i64, end = 2147483647 : i64, start = 0 : i64, step = 1 : i64}> : (tensor<40x160xf16>) -> tensor<40x160xf16>
    %178 = "mix.prim.unsqueeze"(%177) <{axis = 1 : i32}> : (tensor<40x160xf16>) -> tensor<40x1x160xf16>
    %179 = "mix.prim.slice"(%178) <{dim = 2 : i64, end = 2147483647 : i64, start = 0 : i64, step = 1 : i64}> : (tensor<40x1x160xf16>) -> tensor<40x1x160xf16>
    %180 = "mix.prim.constant"() <{value = 1.000000e+00 : f16}> : () -> f16
    %181 = "mix.prim.mul"(%179, %180) : (tensor<40x1x160xf16>, f16) -> tensor<40x1x160xf16>
    %182 = "mix.prim.slice"(%175) <{dim = 0 : i64, end = 40 : i64, start = 0 : i64, step = 1 : i64}> : (tensor<40x1x160xf16>) -> tensor<40x1x160xf16>
    %183 = "mix.prim.slice"(%181) <{dim = 0 : i64, end = 40 : i64, start = 0 : i64, step = 1 : i64}> : (tensor<40x1x160xf16>) -> tensor<40x1x160xf16>
    %184 = "mix.prim.mul"(%152, %182) : (tensor<40x32x160xf16>, tensor<40x1x160xf16>) -> tensor<40x32x160xf16>
    %185 = "mix.prim.slice"(%152) <{dim = 2 : i64, end = 80 : i64, start = 0 : i64, step = 1 : i64}> : (tensor<40x32x160xf16>) -> tensor<40x32x80xf16>
    %186 = "mix.prim.slice"(%152) <{dim = 2 : i64, end = 2147483647 : i64, start = 80 : i64, step = 1 : i64}> : (tensor<40x32x160xf16>) -> tensor<40x32x80xf16>
    %187 = "mix.prim.neg"(%186) : (tensor<40x32x80xf16>) -> tensor<40x32x80xf16>
    %188 = "mix.prim.concat"(%187, %185) <{axis = 2 : i64}> : (tensor<40x32x80xf16>, tensor<40x32x80xf16>) -> tensor<40x32x160xf16>
    %189 = "mix.prim.mul"(%188, %183) : (tensor<40x32x160xf16>, tensor<40x1x160xf16>) -> tensor<40x32x160xf16>
    %190 = "mix.prim.add"(%184, %189) : (tensor<40x32x160xf16>, tensor<40x32x160xf16>) -> tensor<40x32x160xf16>
    %191 = "mix.prim.mul"(%153, %182) : (tensor<40x32x160xf16>, tensor<40x1x160xf16>) -> tensor<40x32x160xf16>
    %192 = "mix.prim.slice"(%153) <{dim = 2 : i64, end = 80 : i64, start = 0 : i64, step = 1 : i64}> : (tensor<40x32x160xf16>) -> tensor<40x32x80xf16>
    %193 = "mix.prim.slice"(%153) <{dim = 2 : i64, end = 2147483647 : i64, start = 80 : i64, step = 1 : i64}> : (tensor<40x32x160xf16>) -> tensor<40x32x80xf16>
    %194 = "mix.prim.neg"(%193) : (tensor<40x32x80xf16>) -> tensor<40x32x80xf16>
    %195 = "mix.prim.concat"(%194, %192) <{axis = 2 : i64}> : (tensor<40x32x80xf16>, tensor<40x32x80xf16>) -> tensor<40x32x160xf16>
    %196 = "mix.prim.mul"(%195, %183) : (tensor<40x32x160xf16>, tensor<40x1x160xf16>) -> tensor<40x32x160xf16>
    %197 = "mix.prim.add"(%191, %196) : (tensor<40x32x160xf16>, tensor<40x32x160xf16>) -> tensor<40x32x160xf16>
    %198 = "mix.prim.reshape"(%190) <{shape = [40, 1, 32, 160]}> : (tensor<40x32x160xf16>) -> tensor<40x1x32x160xf16>
    %199 = "mix.prim.reshape"(%197) <{shape = [40, 1, 32, 160]}> : (tensor<40x32x160xf16>) -> tensor<40x1x32x160xf16>
    %200 = "mix.prim.reshape"(%198) <{shape = [40, 32, 160]}> : (tensor<40x1x32x160xf16>) -> tensor<40x32x160xf16>
    %201 = "mix.prim.reshape"(%199) <{shape = [40, 32, 160]}> : (tensor<40x1x32x160xf16>) -> tensor<40x32x160xf16>
    %202 = "mix.prim.transpose"(%200) <{dim1 = 0 : i32, dim2 = 1 : i32}> : (tensor<40x32x160xf16>) -> tensor<32x40x160xf16>
    %203 = "mix.prim.transpose"(%201) <{dim1 = 0 : i32, dim2 = 1 : i32}> : (tensor<40x32x160xf16>) -> tensor<32x40x160xf16>
    %204 = "mix.prim.transpose"(%203) <{dim1 = 1 : i32, dim2 = 2 : i32}> : (tensor<32x40x160xf16>) -> tensor<32x160x40xf16>
    %205 = "mix.prim.unsqueeze"(%202) <{axis = 3 : i32}> : (tensor<32x40x160xf16>) -> tensor<32x40x160x1xf16>
    %206 = "mix.prim.permute"(%205) <{dims = [0, 1, 3, 2]}> : (tensor<32x40x160x1xf16>) -> tensor<32x40x1x160xf16>
    %207 = "mix.prim.unsqueeze"(%204) <{axis = 3 : i32}> : (tensor<32x160x40xf16>) -> tensor<32x160x40x1xf16>
    %208 = "mix.prim.permute"(%207) <{dims = [0, 3, 2, 1]}> : (tensor<32x160x40x1xf16>) -> tensor<32x1x40x160xf16>
    %209 = "mix.prim.permute"(%206) <{dims = [0, 1, 3, 2]}> : (tensor<32x40x1x160xf16>) -> tensor<32x40x160x1xf16>
    %210 = "mix.prim.reshape"(%209) <{shape = [32, 40, 160]}> : (tensor<32x40x160x1xf16>) -> tensor<32x40x160xf16>
    %211 = "mix.prim.permute"(%208) <{dims = [0, 3, 2, 1]}> : (tensor<32x1x40x160xf16>) -> tensor<32x160x40x1xf16>
    %212 = "mix.prim.reshape"(%211) <{shape = [32, 160, 40]}> : (tensor<32x160x40x1xf16>) -> tensor<32x160x40xf16>
    %213 = "mix.prim.batch_matmul"(%210, %212) : (tensor<32x40x160xf16>, tensor<32x160x40xf16>) -> tensor<32x40x40xf16>
    %214 = "mix.prim.reshape"(%213) <{shape = [32, 40, 1, 40]}> : (tensor<32x40x40xf16>) -> tensor<32x40x1x40xf16>
    %215 = "mix.prim.permute"(%214) <{dims = [0, 1, 3, 2]}> : (tensor<32x40x1x40xf16>) -> tensor<32x40x40x1xf16>
    %216 = "mix.prim.reshape"(%215) <{shape = [32, 40, 40]}> : (tensor<32x40x40x1xf16>) -> tensor<32x40x40xf16>
    %217 = "mix.prim.constant"() <{value = 7.904050e-02 : f16}> : () -> f16
    %218 = "mix.prim.mul"(%216, %217) : (tensor<32x40x40xf16>, f16) -> tensor<32x40x40xf16>
    %219 = "mix.prim.reshape"(%218) <{shape = [1, 32, 40, 40]}> : (tensor<32x40x40xf16>) -> tensor<1x32x40x40xf16>
    %220 = "mix.comp.masked_fill"(%219, %1) <{value = 0xFC00 : f16}> : (tensor<1x32x40x40xf16>, tensor<1x1x5x5xi1>) -> tensor<1x32x40x40xf16>
    %221 = "mix.comp.softmax"(%220) <{axis = -1 : si32}> : (tensor<1x32x40x40xf16>) -> tensor<1x32x40x40xf16>
    %222 = "mix.prim.reshape"(%221) <{shape = [32, 40, 40]}> : (tensor<1x32x40x40xf16>) -> tensor<32x40x40xf16>
    %223 = "mix.prim.reshape"(%151) <{shape = [40, 32, 160]}> : (tensor<40x1x32x160xf16>) -> tensor<40x32x160xf16>
    %224 = "mix.prim.transpose"(%223) <{dim1 = 0 : i32, dim2 = 1 : i32}> : (tensor<40x32x160xf16>) -> tensor<32x40x160xf16>
    %225 = "mix.prim.batch_matmul"(%222, %224) : (tensor<32x40x40xf16>, tensor<32x40x160xf16>) -> tensor<32x40x160xf16>
    %226 = "mix.prim.reshape"(%225) <{shape = [1, 32, 40, 160]}> : (tensor<32x40x160xf16>) -> tensor<1x32x40x160xf16>
    %227 = "mix.prim.permute"(%226) <{dims = [0, 2, 1, 3]}> : (tensor<1x32x40x160xf16>) -> tensor<1x40x32x160xf16>
    %228 = "mix.prim.reshape"(%227) <{shape = [1, 40, 5120]}> : (tensor<1x40x32x160xf16>) -> tensor<1x40x5120xf16>
    %229 = "mix.prim.reshape"(%228) <{shape = [40, 5120]}> : (tensor<1x40x5120xf16>) -> tensor<40x5120xf16>
    %230 = "mix.prim.transpose"(%137) <{dim1 = 0 : i32, dim2 = 1 : i32}> : (tensor<5120x5120xf16>) -> tensor<5120x5120xf16>
    %231 = "mix.prim.matmul"(%229, %230) : (tensor<40x5120xf16>, tensor<5120x5120xf16>) -> tensor<40x5120xf16>
    %232 = "mix.prim.add"(%231, %138) : (tensor<40x5120xf16>, tensor<5120xf16>) -> tensor<40x5120xf16>
    %233 = "mix.prim.reshape"(%232) <{shape = [1, 40, 5120]}> : (tensor<40x5120xf16>) -> tensor<1x40x5120xf16>
    %234 = "mix.prim.mul"(%125, %233) : (tensor<1x40x5120xf16>, tensor<1x40x5120xf16>) -> tensor<1x40x5120xf16>
    %235 = "mix.comp.weight"() <{param_loc = "transformer.h.1.post_attention_layernorm.weight"}> : () -> tensor<5120xf16>
    %236 = "arith.constant"() <{value = dense<1.000000e+00> : tensor<1xf16>}> : () -> tensor<1xf16>
    %237 = "mix.prim.pow"(%234, %236) : (tensor<1x40x5120xf16>, tensor<1xf16>) -> tensor<1x40x5120xf16>
    %238 = "mix.comp.mean"(%237) <{dims = [2 : i32], keepDim = true}> : (tensor<1x40x5120xf16>) -> tensor<1x40x1xf16>
    %239 = "arith.constant"() <{value = 1.013280e-06 : f16}> : () -> f16
    %240 = "mix.prim.add"(%238, %239) : (tensor<1x40x1xf16>, f16) -> tensor<1x40x1xf16>
    %241 = "mix.prim.rsqrt"(%240) : (tensor<1x40x1xf16>) -> tensor<1x40x1xf16>
    %242 = "mix.prim.mul"(%234, %241) : (tensor<1x40x5120xf16>, tensor<1x40x1xf16>) -> tensor<1x40x5120xf16>
    %243 = "mix.prim.mul"(%235, %242) : (tensor<5120xf16>, tensor<1x40x5120xf16>) -> tensor<1x40x5120xf16>
    %244 = "mix.module.linear"(%243) <{dtype = f16, in_feature = 5120 : i32, out_feature = 12288 : i32, params_loc = "transformer.h.1.mlp.gate_proj"}> : (tensor<1x40x5120xf16>) -> tensor<1x40x12288xf16>
    %245 = "mix.comp.silu"(%244) : (tensor<1x40x12288xf16>) -> tensor<1x40x12288xf16>
    %246 = "mix.module.linear"(%243) <{dtype = f16, in_feature = 5120 : i32, out_feature = 12288 : i32, params_loc = "transformer.h.1.mlp.up_proj"}> : (tensor<1x40x5120xf16>) -> tensor<1x40x12288xf16>
    %247 = "mix.prim.mul"(%245, %246) : (tensor<1x40x12288xf16>, tensor<1x40x12288xf16>) -> tensor<1x40x12288xf16>
    %248 = "mix.module.linear"(%247) <{dtype = f16, has_bias, in_feature = 12288 : i32, out_feature = 5120 : i32, params_loc = "transformer.h.1.mlp.down_proj"}> : (tensor<1x40x12288xf16>) -> tensor<1x40x5120xf16>
    %249 = "mix.prim.add"(%248, %234) : (tensor<1x40x5120xf16>, tensor<1x40x5120xf16>) -> tensor<1x40x5120xf16>
    %250 = "mix.comp.weight"() <{param_loc = "transformer.h.2.input_layernorm.weight"}> : () -> tensor<5120xf16>
    %251 = "arith.constant"() <{value = dense<1.000000e+00> : tensor<1xf16>}> : () -> tensor<1xf16>
    %252 = "mix.prim.pow"(%249, %251) : (tensor<1x40x5120xf16>, tensor<1xf16>) -> tensor<1x40x5120xf16>
    %253 = "mix.comp.mean"(%252) <{dims = [2 : i32], keepDim = true}> : (tensor<1x40x5120xf16>) -> tensor<1x40x1xf16>
    %254 = "arith.constant"() <{value = 1.013280e-06 : f16}> : () -> f16
    %255 = "mix.prim.add"(%253, %254) : (tensor<1x40x1xf16>, f16) -> tensor<1x40x1xf16>
    %256 = "mix.prim.rsqrt"(%255) : (tensor<1x40x1xf16>) -> tensor<1x40x1xf16>
    %257 = "mix.prim.mul"(%249, %256) : (tensor<1x40x5120xf16>, tensor<1x40x1xf16>) -> tensor<1x40x5120xf16>
    %258 = "mix.prim.mul"(%250, %257) : (tensor<5120xf16>, tensor<1x40x5120xf16>) -> tensor<1x40x5120xf16>
    %259 = "mix.comp.weight"() <{param_loc = "transformer.h.2.self_attention.query.weight"}> : () -> tensor<5120x5120xf16>
    %260 = "mix.comp.weight"() <{param_loc = "transformer.h.2.self_attention.key_value.weight"}> : () -> tensor<10240x5120xf16>
    %261 = "mix.comp.weight"() <{param_loc = "transformer.h.2.self_attention.dense.weight"}> : () -> tensor<5120x5120xf16>
    %262 = "mix.comp.weight"() <{param_loc = "transformer.h.2.self_attention.dense.bias"}> : () -> tensor<5120xf16>
    %263 = "mix.prim.transpose"(%258) <{dim1 = 0 : i32, dim2 = 1 : i32}> : (tensor<1x40x5120xf16>) -> tensor<40x1x5120xf16>
    %264 = "mix.prim.transpose"(%259) <{dim1 = 0 : i32, dim2 = 1 : i32}> : (tensor<5120x5120xf16>) -> tensor<5120x5120xf16>
    %265 = "mix.prim.reshape"(%263) <{shape = [40, 5120]}> : (tensor<40x1x5120xf16>) -> tensor<40x5120xf16>
    %266 = "mix.prim.matmul"(%265, %264) : (tensor<40x5120xf16>, tensor<5120x5120xf16>) -> tensor<40x5120xf16>
    %267 = "mix.prim.reshape"(%266) <{shape = [40, 1, 5120]}> : (tensor<40x5120xf16>) -> tensor<40x1x5120xf16>
    %268 = "mix.prim.reshape"(%267) <{shape = [40, 1, 32, 160]}> : (tensor<40x1x5120xf16>) -> tensor<40x1x32x160xf16>
    %269 = "mix.prim.transpose"(%260) <{dim1 = 0 : i32, dim2 = 1 : i32}> : (tensor<10240x5120xf16>) -> tensor<5120x10240xf16>
    %270 = "mix.prim.reshape"(%263) <{shape = [40, 5120]}> : (tensor<40x1x5120xf16>) -> tensor<40x5120xf16>
    %271 = "mix.prim.matmul"(%270, %269) : (tensor<40x5120xf16>, tensor<5120x10240xf16>) -> tensor<40x10240xf16>
    %272 = "mix.prim.reshape"(%271) <{shape = [40, 1, 10240]}> : (tensor<40x10240xf16>) -> tensor<40x1x10240xf16>
    %273 = "mix.prim.reshape"(%272) <{shape = [40, 1, 32, 320]}> : (tensor<40x1x10240xf16>) -> tensor<40x1x32x320xf16>
    %274 = "mix.prim.slice"(%273) <{dim = 3 : i64, end = 160 : i64, start = 0 : i64, step = 1 : i64}> : (tensor<40x1x32x320xf16>) -> tensor<40x1x32x160xf16>
    %275 = "mix.prim.slice"(%273) <{dim = 3 : i64, end = 320 : i64, start = 160 : i64, step = 1 : i64}> : (tensor<40x1x32x320xf16>) -> tensor<40x1x32x160xf16>
    %276 = "mix.prim.reshape"(%268) <{shape = [40, 32, -1]}> : (tensor<40x1x32x160xf16>) -> tensor<40x32x160xf16>
    %277 = "mix.prim.reshape"(%274) <{shape = [40, 32, -1]}> : (tensor<40x1x32x160xf16>) -> tensor<40x32x160xf16>
    %278 = "mix.prim.constant"() <{value = dense<[0, 1, 2, 3, 4, 5, 6, 7, 8, 9, 10, 11, 12, 13, 14, 15, 16, 17, 18, 19, 20, 21, 22, 23, 24, 25, 26, 27, 28, 29, 30, 31, 32, 33, 34, 35, 36, 37, 38, 39, 40, 41, 42, 43, 44, 45, 46, 47, 48, 49, 50, 51, 52, 53, 54, 55, 56, 57, 58, 59, 60, 61, 62, 63, 64, 65, 66, 67, 68, 69, 70, 71, 72, 73, 74, 75, 76, 77, 78, 79]> : tensor<80xi32>}> : () -> tensor<80xi32>
    %279 = "mix.prim.convert"(%278) <{element_ty = f16}> : (tensor<80xi32>) -> tensor<80xf16>
    %280 = "mix.prim.constant"() <{value = 160 : i32}> : () -> i32
    %281 = "mix.prim.div"(%279, %280) : (tensor<80xf16>, i32) -> tensor<80xf16>
    %282 = "mix.prim.constant"() <{value = 3.041600e+04 : f16}> : () -> f16
    %283 = "mix.prim.pow"(%282, %281) : (f16, tensor<80xf16>) -> tensor<80xf16>
    %284 = "mix.prim.reciprocal"(%283) : (tensor<80xf16>) -> tensor<80xf16>
    %285 = "mix.prim.constant"() <{value = 1.000000e+00 : f16}> : () -> f16
    %286 = "mix.prim.mul"(%285, %284) : (f16, tensor<80xf16>) -> tensor<80xf16>
    %287 = "mix.prim.constant"() <{value = dense<1.000000e+00> : tensor<40xf16>}> : () -> tensor<40xf16>
    %288 = "mix.prim.unsqueeze"(%287) <{axis = 1 : i32}> : (tensor<40xf16>) -> tensor<40x1xf16>
    %289 = "mix.prim.permute"(%288) <{dims = [0, 1]}> : (tensor<40x1xf16>) -> tensor<40x1xf16>
    %290 = "mix.prim.unsqueeze"(%286) <{axis = 1 : i32}> : (tensor<80xf16>) -> tensor<80x1xf16>
    %291 = "mix.prim.permute"(%290) <{dims = [1, 0]}> : (tensor<80x1xf16>) -> tensor<1x80xf16>
    %292 = "mix.prim.mul"(%289, %291) : (tensor<40x1xf16>, tensor<1x80xf16>) -> tensor<40x80xf16>
    %293 = "mix.prim.concat"(%292, %292) <{axis = 1 : i64}> : (tensor<40x80xf16>, tensor<40x80xf16>) -> tensor<40x160xf16>
    %294 = "mix.prim.cos"(%293) : (tensor<40x160xf16>) -> tensor<40x160xf16>
    %295 = "mix.prim.slice"(%294) <{dim = 0 : i64, end = 2147483647 : i64, start = 0 : i64, step = 1 : i64}> : (tensor<40x160xf16>) -> tensor<40x160xf16>
    %296 = "mix.prim.unsqueeze"(%295) <{axis = 1 : i32}> : (tensor<40x160xf16>) -> tensor<40x1x160xf16>
    %297 = "mix.prim.slice"(%296) <{dim = 2 : i64, end = 2147483647 : i64, start = 0 : i64, step = 1 : i64}> : (tensor<40x1x160xf16>) -> tensor<40x1x160xf16>
    %298 = "mix.prim.constant"() <{value = 1.000000e+00 : f16}> : () -> f16
    %299 = "mix.prim.mul"(%297, %298) : (tensor<40x1x160xf16>, f16) -> tensor<40x1x160xf16>
    %300 = "mix.prim.sin"(%293) : (tensor<40x160xf16>) -> tensor<40x160xf16>
    %301 = "mix.prim.slice"(%300) <{dim = 0 : i64, end = 2147483647 : i64, start = 0 : i64, step = 1 : i64}> : (tensor<40x160xf16>) -> tensor<40x160xf16>
    %302 = "mix.prim.unsqueeze"(%301) <{axis = 1 : i32}> : (tensor<40x160xf16>) -> tensor<40x1x160xf16>
    %303 = "mix.prim.slice"(%302) <{dim = 2 : i64, end = 2147483647 : i64, start = 0 : i64, step = 1 : i64}> : (tensor<40x1x160xf16>) -> tensor<40x1x160xf16>
    %304 = "mix.prim.constant"() <{value = 1.000000e+00 : f16}> : () -> f16
    %305 = "mix.prim.mul"(%303, %304) : (tensor<40x1x160xf16>, f16) -> tensor<40x1x160xf16>
    %306 = "mix.prim.slice"(%299) <{dim = 0 : i64, end = 40 : i64, start = 0 : i64, step = 1 : i64}> : (tensor<40x1x160xf16>) -> tensor<40x1x160xf16>
    %307 = "mix.prim.slice"(%305) <{dim = 0 : i64, end = 40 : i64, start = 0 : i64, step = 1 : i64}> : (tensor<40x1x160xf16>) -> tensor<40x1x160xf16>
    %308 = "mix.prim.mul"(%276, %306) : (tensor<40x32x160xf16>, tensor<40x1x160xf16>) -> tensor<40x32x160xf16>
    %309 = "mix.prim.slice"(%276) <{dim = 2 : i64, end = 80 : i64, start = 0 : i64, step = 1 : i64}> : (tensor<40x32x160xf16>) -> tensor<40x32x80xf16>
    %310 = "mix.prim.slice"(%276) <{dim = 2 : i64, end = 2147483647 : i64, start = 80 : i64, step = 1 : i64}> : (tensor<40x32x160xf16>) -> tensor<40x32x80xf16>
    %311 = "mix.prim.neg"(%310) : (tensor<40x32x80xf16>) -> tensor<40x32x80xf16>
    %312 = "mix.prim.concat"(%311, %309) <{axis = 2 : i64}> : (tensor<40x32x80xf16>, tensor<40x32x80xf16>) -> tensor<40x32x160xf16>
    %313 = "mix.prim.mul"(%312, %307) : (tensor<40x32x160xf16>, tensor<40x1x160xf16>) -> tensor<40x32x160xf16>
    %314 = "mix.prim.add"(%308, %313) : (tensor<40x32x160xf16>, tensor<40x32x160xf16>) -> tensor<40x32x160xf16>
    %315 = "mix.prim.mul"(%277, %306) : (tensor<40x32x160xf16>, tensor<40x1x160xf16>) -> tensor<40x32x160xf16>
    %316 = "mix.prim.slice"(%277) <{dim = 2 : i64, end = 80 : i64, start = 0 : i64, step = 1 : i64}> : (tensor<40x32x160xf16>) -> tensor<40x32x80xf16>
    %317 = "mix.prim.slice"(%277) <{dim = 2 : i64, end = 2147483647 : i64, start = 80 : i64, step = 1 : i64}> : (tensor<40x32x160xf16>) -> tensor<40x32x80xf16>
    %318 = "mix.prim.neg"(%317) : (tensor<40x32x80xf16>) -> tensor<40x32x80xf16>
    %319 = "mix.prim.concat"(%318, %316) <{axis = 2 : i64}> : (tensor<40x32x80xf16>, tensor<40x32x80xf16>) -> tensor<40x32x160xf16>
    %320 = "mix.prim.mul"(%319, %307) : (tensor<40x32x160xf16>, tensor<40x1x160xf16>) -> tensor<40x32x160xf16>
    %321 = "mix.prim.add"(%315, %320) : (tensor<40x32x160xf16>, tensor<40x32x160xf16>) -> tensor<40x32x160xf16>
    %322 = "mix.prim.reshape"(%314) <{shape = [40, 1, 32, 160]}> : (tensor<40x32x160xf16>) -> tensor<40x1x32x160xf16>
    %323 = "mix.prim.reshape"(%321) <{shape = [40, 1, 32, 160]}> : (tensor<40x32x160xf16>) -> tensor<40x1x32x160xf16>
    %324 = "mix.prim.reshape"(%322) <{shape = [40, 32, 160]}> : (tensor<40x1x32x160xf16>) -> tensor<40x32x160xf16>
    %325 = "mix.prim.reshape"(%323) <{shape = [40, 32, 160]}> : (tensor<40x1x32x160xf16>) -> tensor<40x32x160xf16>
    %326 = "mix.prim.transpose"(%324) <{dim1 = 0 : i32, dim2 = 1 : i32}> : (tensor<40x32x160xf16>) -> tensor<32x40x160xf16>
    %327 = "mix.prim.transpose"(%325) <{dim1 = 0 : i32, dim2 = 1 : i32}> : (tensor<40x32x160xf16>) -> tensor<32x40x160xf16>
    %328 = "mix.prim.transpose"(%327) <{dim1 = 1 : i32, dim2 = 2 : i32}> : (tensor<32x40x160xf16>) -> tensor<32x160x40xf16>
    %329 = "mix.prim.unsqueeze"(%326) <{axis = 3 : i32}> : (tensor<32x40x160xf16>) -> tensor<32x40x160x1xf16>
    %330 = "mix.prim.permute"(%329) <{dims = [0, 1, 3, 2]}> : (tensor<32x40x160x1xf16>) -> tensor<32x40x1x160xf16>
    %331 = "mix.prim.unsqueeze"(%328) <{axis = 3 : i32}> : (tensor<32x160x40xf16>) -> tensor<32x160x40x1xf16>
    %332 = "mix.prim.permute"(%331) <{dims = [0, 3, 2, 1]}> : (tensor<32x160x40x1xf16>) -> tensor<32x1x40x160xf16>
    %333 = "mix.prim.permute"(%330) <{dims = [0, 1, 3, 2]}> : (tensor<32x40x1x160xf16>) -> tensor<32x40x160x1xf16>
    %334 = "mix.prim.reshape"(%333) <{shape = [32, 40, 160]}> : (tensor<32x40x160x1xf16>) -> tensor<32x40x160xf16>
    %335 = "mix.prim.permute"(%332) <{dims = [0, 3, 2, 1]}> : (tensor<32x1x40x160xf16>) -> tensor<32x160x40x1xf16>
    %336 = "mix.prim.reshape"(%335) <{shape = [32, 160, 40]}> : (tensor<32x160x40x1xf16>) -> tensor<32x160x40xf16>
    %337 = "mix.prim.batch_matmul"(%334, %336) : (tensor<32x40x160xf16>, tensor<32x160x40xf16>) -> tensor<32x40x40xf16>
    %338 = "mix.prim.reshape"(%337) <{shape = [32, 40, 1, 40]}> : (tensor<32x40x40xf16>) -> tensor<32x40x1x40xf16>
    %339 = "mix.prim.permute"(%338) <{dims = [0, 1, 3, 2]}> : (tensor<32x40x1x40xf16>) -> tensor<32x40x40x1xf16>
    %340 = "mix.prim.reshape"(%339) <{shape = [32, 40, 40]}> : (tensor<32x40x40x1xf16>) -> tensor<32x40x40xf16>
    %341 = "mix.prim.constant"() <{value = 7.904050e-02 : f16}> : () -> f16
    %342 = "mix.prim.mul"(%340, %341) : (tensor<32x40x40xf16>, f16) -> tensor<32x40x40xf16>
    %343 = "mix.prim.reshape"(%342) <{shape = [1, 32, 40, 40]}> : (tensor<32x40x40xf16>) -> tensor<1x32x40x40xf16>
    %344 = "mix.comp.masked_fill"(%343, %1) <{value = 0xFC00 : f16}> : (tensor<1x32x40x40xf16>, tensor<1x1x5x5xi1>) -> tensor<1x32x40x40xf16>
    %345 = "mix.comp.softmax"(%344) <{axis = -1 : si32}> : (tensor<1x32x40x40xf16>) -> tensor<1x32x40x40xf16>
    %346 = "mix.prim.reshape"(%345) <{shape = [32, 40, 40]}> : (tensor<1x32x40x40xf16>) -> tensor<32x40x40xf16>
    %347 = "mix.prim.reshape"(%275) <{shape = [40, 32, 160]}> : (tensor<40x1x32x160xf16>) -> tensor<40x32x160xf16>
    %348 = "mix.prim.transpose"(%347) <{dim1 = 0 : i32, dim2 = 1 : i32}> : (tensor<40x32x160xf16>) -> tensor<32x40x160xf16>
    %349 = "mix.prim.batch_matmul"(%346, %348) : (tensor<32x40x40xf16>, tensor<32x40x160xf16>) -> tensor<32x40x160xf16>
    %350 = "mix.prim.reshape"(%349) <{shape = [1, 32, 40, 160]}> : (tensor<32x40x160xf16>) -> tensor<1x32x40x160xf16>
    %351 = "mix.prim.permute"(%350) <{dims = [0, 2, 1, 3]}> : (tensor<1x32x40x160xf16>) -> tensor<1x40x32x160xf16>
    %352 = "mix.prim.reshape"(%351) <{shape = [1, 40, 5120]}> : (tensor<1x40x32x160xf16>) -> tensor<1x40x5120xf16>
    %353 = "mix.prim.reshape"(%352) <{shape = [40, 5120]}> : (tensor<1x40x5120xf16>) -> tensor<40x5120xf16>
    %354 = "mix.prim.transpose"(%261) <{dim1 = 0 : i32, dim2 = 1 : i32}> : (tensor<5120x5120xf16>) -> tensor<5120x5120xf16>
    %355 = "mix.prim.matmul"(%353, %354) : (tensor<40x5120xf16>, tensor<5120x5120xf16>) -> tensor<40x5120xf16>
    %356 = "mix.prim.add"(%355, %262) : (tensor<40x5120xf16>, tensor<5120xf16>) -> tensor<40x5120xf16>
    %357 = "mix.prim.reshape"(%356) <{shape = [1, 40, 5120]}> : (tensor<40x5120xf16>) -> tensor<1x40x5120xf16>
    %358 = "mix.prim.mul"(%249, %357) : (tensor<1x40x5120xf16>, tensor<1x40x5120xf16>) -> tensor<1x40x5120xf16>
    %359 = "mix.comp.weight"() <{param_loc = "transformer.h.2.post_attention_layernorm.weight"}> : () -> tensor<5120xf16>
    %360 = "arith.constant"() <{value = dense<1.000000e+00> : tensor<1xf16>}> : () -> tensor<1xf16>
    %361 = "mix.prim.pow"(%358, %360) : (tensor<1x40x5120xf16>, tensor<1xf16>) -> tensor<1x40x5120xf16>
    %362 = "mix.comp.mean"(%361) <{dims = [2 : i32], keepDim = true}> : (tensor<1x40x5120xf16>) -> tensor<1x40x1xf16>
    %363 = "arith.constant"() <{value = 1.013280e-06 : f16}> : () -> f16
    %364 = "mix.prim.add"(%362, %363) : (tensor<1x40x1xf16>, f16) -> tensor<1x40x1xf16>
    %365 = "mix.prim.rsqrt"(%364) : (tensor<1x40x1xf16>) -> tensor<1x40x1xf16>
    %366 = "mix.prim.mul"(%358, %365) : (tensor<1x40x5120xf16>, tensor<1x40x1xf16>) -> tensor<1x40x5120xf16>
    %367 = "mix.prim.mul"(%359, %366) : (tensor<5120xf16>, tensor<1x40x5120xf16>) -> tensor<1x40x5120xf16>
    %368 = "mix.module.linear"(%367) <{dtype = f16, in_feature = 5120 : i32, out_feature = 12288 : i32, params_loc = "transformer.h.2.mlp.gate_proj"}> : (tensor<1x40x5120xf16>) -> tensor<1x40x12288xf16>
    %369 = "mix.comp.silu"(%368) : (tensor<1x40x12288xf16>) -> tensor<1x40x12288xf16>
    %370 = "mix.module.linear"(%367) <{dtype = f16, in_feature = 5120 : i32, out_feature = 12288 : i32, params_loc = "transformer.h.2.mlp.up_proj"}> : (tensor<1x40x5120xf16>) -> tensor<1x40x12288xf16>
    %371 = "mix.prim.mul"(%369, %370) : (tensor<1x40x12288xf16>, tensor<1x40x12288xf16>) -> tensor<1x40x12288xf16>
    %372 = "mix.module.linear"(%371) <{dtype = f16, has_bias, in_feature = 12288 : i32, out_feature = 5120 : i32, params_loc = "transformer.h.2.mlp.down_proj"}> : (tensor<1x40x12288xf16>) -> tensor<1x40x5120xf16>
    %373 = "mix.prim.add"(%372, %358) : (tensor<1x40x5120xf16>, tensor<1x40x5120xf16>) -> tensor<1x40x5120xf16>
    %374 = "mix.comp.weight"() <{param_loc = "transformer.h.3.input_layernorm.weight"}> : () -> tensor<5120xf16>
    %375 = "arith.constant"() <{value = dense<1.000000e+00> : tensor<1xf16>}> : () -> tensor<1xf16>
    %376 = "mix.prim.pow"(%373, %375) : (tensor<1x40x5120xf16>, tensor<1xf16>) -> tensor<1x40x5120xf16>
    %377 = "mix.comp.mean"(%376) <{dims = [2 : i32], keepDim = true}> : (tensor<1x40x5120xf16>) -> tensor<1x40x1xf16>
    %378 = "arith.constant"() <{value = 1.013280e-06 : f16}> : () -> f16
    %379 = "mix.prim.add"(%377, %378) : (tensor<1x40x1xf16>, f16) -> tensor<1x40x1xf16>
    %380 = "mix.prim.rsqrt"(%379) : (tensor<1x40x1xf16>) -> tensor<1x40x1xf16>
    %381 = "mix.prim.mul"(%373, %380) : (tensor<1x40x5120xf16>, tensor<1x40x1xf16>) -> tensor<1x40x5120xf16>
    %382 = "mix.prim.mul"(%374, %381) : (tensor<5120xf16>, tensor<1x40x5120xf16>) -> tensor<1x40x5120xf16>
    %383 = "mix.comp.weight"() <{param_loc = "transformer.h.3.self_attention.query.weight"}> : () -> tensor<5120x5120xf16>
    %384 = "mix.comp.weight"() <{param_loc = "transformer.h.3.self_attention.key_value.weight"}> : () -> tensor<10240x5120xf16>
    %385 = "mix.comp.weight"() <{param_loc = "transformer.h.3.self_attention.dense.weight"}> : () -> tensor<5120x5120xf16>
    %386 = "mix.comp.weight"() <{param_loc = "transformer.h.3.self_attention.dense.bias"}> : () -> tensor<5120xf16>
    %387 = "mix.prim.transpose"(%382) <{dim1 = 0 : i32, dim2 = 1 : i32}> : (tensor<1x40x5120xf16>) -> tensor<40x1x5120xf16>
    %388 = "mix.prim.transpose"(%383) <{dim1 = 0 : i32, dim2 = 1 : i32}> : (tensor<5120x5120xf16>) -> tensor<5120x5120xf16>
    %389 = "mix.prim.reshape"(%387) <{shape = [40, 5120]}> : (tensor<40x1x5120xf16>) -> tensor<40x5120xf16>
    %390 = "mix.prim.matmul"(%389, %388) : (tensor<40x5120xf16>, tensor<5120x5120xf16>) -> tensor<40x5120xf16>
    %391 = "mix.prim.reshape"(%390) <{shape = [40, 1, 5120]}> : (tensor<40x5120xf16>) -> tensor<40x1x5120xf16>
    %392 = "mix.prim.reshape"(%391) <{shape = [40, 1, 32, 160]}> : (tensor<40x1x5120xf16>) -> tensor<40x1x32x160xf16>
    %393 = "mix.prim.transpose"(%384) <{dim1 = 0 : i32, dim2 = 1 : i32}> : (tensor<10240x5120xf16>) -> tensor<5120x10240xf16>
    %394 = "mix.prim.reshape"(%387) <{shape = [40, 5120]}> : (tensor<40x1x5120xf16>) -> tensor<40x5120xf16>
    %395 = "mix.prim.matmul"(%394, %393) : (tensor<40x5120xf16>, tensor<5120x10240xf16>) -> tensor<40x10240xf16>
    %396 = "mix.prim.reshape"(%395) <{shape = [40, 1, 10240]}> : (tensor<40x10240xf16>) -> tensor<40x1x10240xf16>
    %397 = "mix.prim.reshape"(%396) <{shape = [40, 1, 32, 320]}> : (tensor<40x1x10240xf16>) -> tensor<40x1x32x320xf16>
    %398 = "mix.prim.slice"(%397) <{dim = 3 : i64, end = 160 : i64, start = 0 : i64, step = 1 : i64}> : (tensor<40x1x32x320xf16>) -> tensor<40x1x32x160xf16>
    %399 = "mix.prim.slice"(%397) <{dim = 3 : i64, end = 320 : i64, start = 160 : i64, step = 1 : i64}> : (tensor<40x1x32x320xf16>) -> tensor<40x1x32x160xf16>
    %400 = "mix.prim.reshape"(%392) <{shape = [40, 32, -1]}> : (tensor<40x1x32x160xf16>) -> tensor<40x32x160xf16>
    %401 = "mix.prim.reshape"(%398) <{shape = [40, 32, -1]}> : (tensor<40x1x32x160xf16>) -> tensor<40x32x160xf16>
    %402 = "mix.prim.constant"() <{value = dense<[0, 1, 2, 3, 4, 5, 6, 7, 8, 9, 10, 11, 12, 13, 14, 15, 16, 17, 18, 19, 20, 21, 22, 23, 24, 25, 26, 27, 28, 29, 30, 31, 32, 33, 34, 35, 36, 37, 38, 39, 40, 41, 42, 43, 44, 45, 46, 47, 48, 49, 50, 51, 52, 53, 54, 55, 56, 57, 58, 59, 60, 61, 62, 63, 64, 65, 66, 67, 68, 69, 70, 71, 72, 73, 74, 75, 76, 77, 78, 79]> : tensor<80xi32>}> : () -> tensor<80xi32>
    %403 = "mix.prim.convert"(%402) <{element_ty = f16}> : (tensor<80xi32>) -> tensor<80xf16>
    %404 = "mix.prim.constant"() <{value = 160 : i32}> : () -> i32
    %405 = "mix.prim.div"(%403, %404) : (tensor<80xf16>, i32) -> tensor<80xf16>
    %406 = "mix.prim.constant"() <{value = 3.041600e+04 : f16}> : () -> f16
    %407 = "mix.prim.pow"(%406, %405) : (f16, tensor<80xf16>) -> tensor<80xf16>
    %408 = "mix.prim.reciprocal"(%407) : (tensor<80xf16>) -> tensor<80xf16>
    %409 = "mix.prim.constant"() <{value = 1.000000e+00 : f16}> : () -> f16
    %410 = "mix.prim.mul"(%409, %408) : (f16, tensor<80xf16>) -> tensor<80xf16>
    %411 = "mix.prim.constant"() <{value = dense<1.000000e+00> : tensor<40xf16>}> : () -> tensor<40xf16>
    %412 = "mix.prim.unsqueeze"(%411) <{axis = 1 : i32}> : (tensor<40xf16>) -> tensor<40x1xf16>
    %413 = "mix.prim.permute"(%412) <{dims = [0, 1]}> : (tensor<40x1xf16>) -> tensor<40x1xf16>
    %414 = "mix.prim.unsqueeze"(%410) <{axis = 1 : i32}> : (tensor<80xf16>) -> tensor<80x1xf16>
    %415 = "mix.prim.permute"(%414) <{dims = [1, 0]}> : (tensor<80x1xf16>) -> tensor<1x80xf16>
    %416 = "mix.prim.mul"(%413, %415) : (tensor<40x1xf16>, tensor<1x80xf16>) -> tensor<40x80xf16>
    %417 = "mix.prim.concat"(%416, %416) <{axis = 1 : i64}> : (tensor<40x80xf16>, tensor<40x80xf16>) -> tensor<40x160xf16>
    %418 = "mix.prim.cos"(%417) : (tensor<40x160xf16>) -> tensor<40x160xf16>
    %419 = "mix.prim.slice"(%418) <{dim = 0 : i64, end = 2147483647 : i64, start = 0 : i64, step = 1 : i64}> : (tensor<40x160xf16>) -> tensor<40x160xf16>
    %420 = "mix.prim.unsqueeze"(%419) <{axis = 1 : i32}> : (tensor<40x160xf16>) -> tensor<40x1x160xf16>
    %421 = "mix.prim.slice"(%420) <{dim = 2 : i64, end = 2147483647 : i64, start = 0 : i64, step = 1 : i64}> : (tensor<40x1x160xf16>) -> tensor<40x1x160xf16>
    %422 = "mix.prim.constant"() <{value = 1.000000e+00 : f16}> : () -> f16
    %423 = "mix.prim.mul"(%421, %422) : (tensor<40x1x160xf16>, f16) -> tensor<40x1x160xf16>
    %424 = "mix.prim.sin"(%417) : (tensor<40x160xf16>) -> tensor<40x160xf16>
    %425 = "mix.prim.slice"(%424) <{dim = 0 : i64, end = 2147483647 : i64, start = 0 : i64, step = 1 : i64}> : (tensor<40x160xf16>) -> tensor<40x160xf16>
    %426 = "mix.prim.unsqueeze"(%425) <{axis = 1 : i32}> : (tensor<40x160xf16>) -> tensor<40x1x160xf16>
    %427 = "mix.prim.slice"(%426) <{dim = 2 : i64, end = 2147483647 : i64, start = 0 : i64, step = 1 : i64}> : (tensor<40x1x160xf16>) -> tensor<40x1x160xf16>
    %428 = "mix.prim.constant"() <{value = 1.000000e+00 : f16}> : () -> f16
    %429 = "mix.prim.mul"(%427, %428) : (tensor<40x1x160xf16>, f16) -> tensor<40x1x160xf16>
    %430 = "mix.prim.slice"(%423) <{dim = 0 : i64, end = 40 : i64, start = 0 : i64, step = 1 : i64}> : (tensor<40x1x160xf16>) -> tensor<40x1x160xf16>
    %431 = "mix.prim.slice"(%429) <{dim = 0 : i64, end = 40 : i64, start = 0 : i64, step = 1 : i64}> : (tensor<40x1x160xf16>) -> tensor<40x1x160xf16>
    %432 = "mix.prim.mul"(%400, %430) : (tensor<40x32x160xf16>, tensor<40x1x160xf16>) -> tensor<40x32x160xf16>
    %433 = "mix.prim.slice"(%400) <{dim = 2 : i64, end = 80 : i64, start = 0 : i64, step = 1 : i64}> : (tensor<40x32x160xf16>) -> tensor<40x32x80xf16>
    %434 = "mix.prim.slice"(%400) <{dim = 2 : i64, end = 2147483647 : i64, start = 80 : i64, step = 1 : i64}> : (tensor<40x32x160xf16>) -> tensor<40x32x80xf16>
    %435 = "mix.prim.neg"(%434) : (tensor<40x32x80xf16>) -> tensor<40x32x80xf16>
    %436 = "mix.prim.concat"(%435, %433) <{axis = 2 : i64}> : (tensor<40x32x80xf16>, tensor<40x32x80xf16>) -> tensor<40x32x160xf16>
    %437 = "mix.prim.mul"(%436, %431) : (tensor<40x32x160xf16>, tensor<40x1x160xf16>) -> tensor<40x32x160xf16>
    %438 = "mix.prim.add"(%432, %437) : (tensor<40x32x160xf16>, tensor<40x32x160xf16>) -> tensor<40x32x160xf16>
    %439 = "mix.prim.mul"(%401, %430) : (tensor<40x32x160xf16>, tensor<40x1x160xf16>) -> tensor<40x32x160xf16>
    %440 = "mix.prim.slice"(%401) <{dim = 2 : i64, end = 80 : i64, start = 0 : i64, step = 1 : i64}> : (tensor<40x32x160xf16>) -> tensor<40x32x80xf16>
    %441 = "mix.prim.slice"(%401) <{dim = 2 : i64, end = 2147483647 : i64, start = 80 : i64, step = 1 : i64}> : (tensor<40x32x160xf16>) -> tensor<40x32x80xf16>
    %442 = "mix.prim.neg"(%441) : (tensor<40x32x80xf16>) -> tensor<40x32x80xf16>
    %443 = "mix.prim.concat"(%442, %440) <{axis = 2 : i64}> : (tensor<40x32x80xf16>, tensor<40x32x80xf16>) -> tensor<40x32x160xf16>
    %444 = "mix.prim.mul"(%443, %431) : (tensor<40x32x160xf16>, tensor<40x1x160xf16>) -> tensor<40x32x160xf16>
    %445 = "mix.prim.add"(%439, %444) : (tensor<40x32x160xf16>, tensor<40x32x160xf16>) -> tensor<40x32x160xf16>
    %446 = "mix.prim.reshape"(%438) <{shape = [40, 1, 32, 160]}> : (tensor<40x32x160xf16>) -> tensor<40x1x32x160xf16>
    %447 = "mix.prim.reshape"(%445) <{shape = [40, 1, 32, 160]}> : (tensor<40x32x160xf16>) -> tensor<40x1x32x160xf16>
    %448 = "mix.prim.reshape"(%446) <{shape = [40, 32, 160]}> : (tensor<40x1x32x160xf16>) -> tensor<40x32x160xf16>
    %449 = "mix.prim.reshape"(%447) <{shape = [40, 32, 160]}> : (tensor<40x1x32x160xf16>) -> tensor<40x32x160xf16>
    %450 = "mix.prim.transpose"(%448) <{dim1 = 0 : i32, dim2 = 1 : i32}> : (tensor<40x32x160xf16>) -> tensor<32x40x160xf16>
    %451 = "mix.prim.transpose"(%449) <{dim1 = 0 : i32, dim2 = 1 : i32}> : (tensor<40x32x160xf16>) -> tensor<32x40x160xf16>
    %452 = "mix.prim.transpose"(%451) <{dim1 = 1 : i32, dim2 = 2 : i32}> : (tensor<32x40x160xf16>) -> tensor<32x160x40xf16>
    %453 = "mix.prim.unsqueeze"(%450) <{axis = 3 : i32}> : (tensor<32x40x160xf16>) -> tensor<32x40x160x1xf16>
    %454 = "mix.prim.permute"(%453) <{dims = [0, 1, 3, 2]}> : (tensor<32x40x160x1xf16>) -> tensor<32x40x1x160xf16>
    %455 = "mix.prim.unsqueeze"(%452) <{axis = 3 : i32}> : (tensor<32x160x40xf16>) -> tensor<32x160x40x1xf16>
    %456 = "mix.prim.permute"(%455) <{dims = [0, 3, 2, 1]}> : (tensor<32x160x40x1xf16>) -> tensor<32x1x40x160xf16>
    %457 = "mix.prim.permute"(%454) <{dims = [0, 1, 3, 2]}> : (tensor<32x40x1x160xf16>) -> tensor<32x40x160x1xf16>
    %458 = "mix.prim.reshape"(%457) <{shape = [32, 40, 160]}> : (tensor<32x40x160x1xf16>) -> tensor<32x40x160xf16>
    %459 = "mix.prim.permute"(%456) <{dims = [0, 3, 2, 1]}> : (tensor<32x1x40x160xf16>) -> tensor<32x160x40x1xf16>
    %460 = "mix.prim.reshape"(%459) <{shape = [32, 160, 40]}> : (tensor<32x160x40x1xf16>) -> tensor<32x160x40xf16>
    %461 = "mix.prim.batch_matmul"(%458, %460) : (tensor<32x40x160xf16>, tensor<32x160x40xf16>) -> tensor<32x40x40xf16>
    %462 = "mix.prim.reshape"(%461) <{shape = [32, 40, 1, 40]}> : (tensor<32x40x40xf16>) -> tensor<32x40x1x40xf16>
    %463 = "mix.prim.permute"(%462) <{dims = [0, 1, 3, 2]}> : (tensor<32x40x1x40xf16>) -> tensor<32x40x40x1xf16>
    %464 = "mix.prim.reshape"(%463) <{shape = [32, 40, 40]}> : (tensor<32x40x40x1xf16>) -> tensor<32x40x40xf16>
    %465 = "mix.prim.constant"() <{value = 7.904050e-02 : f16}> : () -> f16
    %466 = "mix.prim.mul"(%464, %465) : (tensor<32x40x40xf16>, f16) -> tensor<32x40x40xf16>
    %467 = "mix.prim.reshape"(%466) <{shape = [1, 32, 40, 40]}> : (tensor<32x40x40xf16>) -> tensor<1x32x40x40xf16>
    %468 = "mix.comp.masked_fill"(%467, %1) <{value = 0xFC00 : f16}> : (tensor<1x32x40x40xf16>, tensor<1x1x5x5xi1>) -> tensor<1x32x40x40xf16>
    %469 = "mix.comp.softmax"(%468) <{axis = -1 : si32}> : (tensor<1x32x40x40xf16>) -> tensor<1x32x40x40xf16>
    %470 = "mix.prim.reshape"(%469) <{shape = [32, 40, 40]}> : (tensor<1x32x40x40xf16>) -> tensor<32x40x40xf16>
    %471 = "mix.prim.reshape"(%399) <{shape = [40, 32, 160]}> : (tensor<40x1x32x160xf16>) -> tensor<40x32x160xf16>
    %472 = "mix.prim.transpose"(%471) <{dim1 = 0 : i32, dim2 = 1 : i32}> : (tensor<40x32x160xf16>) -> tensor<32x40x160xf16>
    %473 = "mix.prim.batch_matmul"(%470, %472) : (tensor<32x40x40xf16>, tensor<32x40x160xf16>) -> tensor<32x40x160xf16>
    %474 = "mix.prim.reshape"(%473) <{shape = [1, 32, 40, 160]}> : (tensor<32x40x160xf16>) -> tensor<1x32x40x160xf16>
    %475 = "mix.prim.permute"(%474) <{dims = [0, 2, 1, 3]}> : (tensor<1x32x40x160xf16>) -> tensor<1x40x32x160xf16>
    %476 = "mix.prim.reshape"(%475) <{shape = [1, 40, 5120]}> : (tensor<1x40x32x160xf16>) -> tensor<1x40x5120xf16>
    %477 = "mix.prim.reshape"(%476) <{shape = [40, 5120]}> : (tensor<1x40x5120xf16>) -> tensor<40x5120xf16>
    %478 = "mix.prim.transpose"(%385) <{dim1 = 0 : i32, dim2 = 1 : i32}> : (tensor<5120x5120xf16>) -> tensor<5120x5120xf16>
    %479 = "mix.prim.matmul"(%477, %478) : (tensor<40x5120xf16>, tensor<5120x5120xf16>) -> tensor<40x5120xf16>
    %480 = "mix.prim.add"(%479, %386) : (tensor<40x5120xf16>, tensor<5120xf16>) -> tensor<40x5120xf16>
    %481 = "mix.prim.reshape"(%480) <{shape = [1, 40, 5120]}> : (tensor<40x5120xf16>) -> tensor<1x40x5120xf16>
    %482 = "mix.prim.mul"(%373, %481) : (tensor<1x40x5120xf16>, tensor<1x40x5120xf16>) -> tensor<1x40x5120xf16>
    %483 = "mix.comp.weight"() <{param_loc = "transformer.h.3.post_attention_layernorm.weight"}> : () -> tensor<5120xf16>
    %484 = "arith.constant"() <{value = dense<1.000000e+00> : tensor<1xf16>}> : () -> tensor<1xf16>
    %485 = "mix.prim.pow"(%482, %484) : (tensor<1x40x5120xf16>, tensor<1xf16>) -> tensor<1x40x5120xf16>
    %486 = "mix.comp.mean"(%485) <{dims = [2 : i32], keepDim = true}> : (tensor<1x40x5120xf16>) -> tensor<1x40x1xf16>
    %487 = "arith.constant"() <{value = 1.013280e-06 : f16}> : () -> f16
    %488 = "mix.prim.add"(%486, %487) : (tensor<1x40x1xf16>, f16) -> tensor<1x40x1xf16>
    %489 = "mix.prim.rsqrt"(%488) : (tensor<1x40x1xf16>) -> tensor<1x40x1xf16>
    %490 = "mix.prim.mul"(%482, %489) : (tensor<1x40x5120xf16>, tensor<1x40x1xf16>) -> tensor<1x40x5120xf16>
    %491 = "mix.prim.mul"(%483, %490) : (tensor<5120xf16>, tensor<1x40x5120xf16>) -> tensor<1x40x5120xf16>
    %492 = "mix.module.linear"(%491) <{dtype = f16, in_feature = 5120 : i32, out_feature = 12288 : i32, params_loc = "transformer.h.3.mlp.gate_proj"}> : (tensor<1x40x5120xf16>) -> tensor<1x40x12288xf16>
    %493 = "mix.comp.silu"(%492) : (tensor<1x40x12288xf16>) -> tensor<1x40x12288xf16>
    %494 = "mix.module.linear"(%491) <{dtype = f16, in_feature = 5120 : i32, out_feature = 12288 : i32, params_loc = "transformer.h.3.mlp.up_proj"}> : (tensor<1x40x5120xf16>) -> tensor<1x40x12288xf16>
    %495 = "mix.prim.mul"(%493, %494) : (tensor<1x40x12288xf16>, tensor<1x40x12288xf16>) -> tensor<1x40x12288xf16>
    %496 = "mix.module.linear"(%495) <{dtype = f16, has_bias, in_feature = 12288 : i32, out_feature = 5120 : i32, params_loc = "transformer.h.3.mlp.down_proj"}> : (tensor<1x40x12288xf16>) -> tensor<1x40x5120xf16>
    %497 = "mix.prim.add"(%496, %482) : (tensor<1x40x5120xf16>, tensor<1x40x5120xf16>) -> tensor<1x40x5120xf16>
    %498 = "mix.comp.weight"() <{param_loc = "transformer.h.4.input_layernorm.weight"}> : () -> tensor<5120xf16>
    %499 = "arith.constant"() <{value = dense<1.000000e+00> : tensor<1xf16>}> : () -> tensor<1xf16>
    %500 = "mix.prim.pow"(%497, %499) : (tensor<1x40x5120xf16>, tensor<1xf16>) -> tensor<1x40x5120xf16>
    %501 = "mix.comp.mean"(%500) <{dims = [2 : i32], keepDim = true}> : (tensor<1x40x5120xf16>) -> tensor<1x40x1xf16>
    %502 = "arith.constant"() <{value = 1.013280e-06 : f16}> : () -> f16
    %503 = "mix.prim.add"(%501, %502) : (tensor<1x40x1xf16>, f16) -> tensor<1x40x1xf16>
    %504 = "mix.prim.rsqrt"(%503) : (tensor<1x40x1xf16>) -> tensor<1x40x1xf16>
    %505 = "mix.prim.mul"(%497, %504) : (tensor<1x40x5120xf16>, tensor<1x40x1xf16>) -> tensor<1x40x5120xf16>
    %506 = "mix.prim.mul"(%498, %505) : (tensor<5120xf16>, tensor<1x40x5120xf16>) -> tensor<1x40x5120xf16>
    %507 = "mix.comp.weight"() <{param_loc = "transformer.h.4.self_attention.query.weight"}> : () -> tensor<5120x5120xf16>
    %508 = "mix.comp.weight"() <{param_loc = "transformer.h.4.self_attention.key_value.weight"}> : () -> tensor<10240x5120xf16>
    %509 = "mix.comp.weight"() <{param_loc = "transformer.h.4.self_attention.dense.weight"}> : () -> tensor<5120x5120xf16>
    %510 = "mix.comp.weight"() <{param_loc = "transformer.h.4.self_attention.dense.bias"}> : () -> tensor<5120xf16>
    %511 = "mix.prim.transpose"(%506) <{dim1 = 0 : i32, dim2 = 1 : i32}> : (tensor<1x40x5120xf16>) -> tensor<40x1x5120xf16>
    %512 = "mix.prim.transpose"(%507) <{dim1 = 0 : i32, dim2 = 1 : i32}> : (tensor<5120x5120xf16>) -> tensor<5120x5120xf16>
    %513 = "mix.prim.reshape"(%511) <{shape = [40, 5120]}> : (tensor<40x1x5120xf16>) -> tensor<40x5120xf16>
    %514 = "mix.prim.matmul"(%513, %512) : (tensor<40x5120xf16>, tensor<5120x5120xf16>) -> tensor<40x5120xf16>
    %515 = "mix.prim.reshape"(%514) <{shape = [40, 1, 5120]}> : (tensor<40x5120xf16>) -> tensor<40x1x5120xf16>
    %516 = "mix.prim.reshape"(%515) <{shape = [40, 1, 32, 160]}> : (tensor<40x1x5120xf16>) -> tensor<40x1x32x160xf16>
    %517 = "mix.prim.transpose"(%508) <{dim1 = 0 : i32, dim2 = 1 : i32}> : (tensor<10240x5120xf16>) -> tensor<5120x10240xf16>
    %518 = "mix.prim.reshape"(%511) <{shape = [40, 5120]}> : (tensor<40x1x5120xf16>) -> tensor<40x5120xf16>
    %519 = "mix.prim.matmul"(%518, %517) : (tensor<40x5120xf16>, tensor<5120x10240xf16>) -> tensor<40x10240xf16>
    %520 = "mix.prim.reshape"(%519) <{shape = [40, 1, 10240]}> : (tensor<40x10240xf16>) -> tensor<40x1x10240xf16>
    %521 = "mix.prim.reshape"(%520) <{shape = [40, 1, 32, 320]}> : (tensor<40x1x10240xf16>) -> tensor<40x1x32x320xf16>
    %522 = "mix.prim.slice"(%521) <{dim = 3 : i64, end = 160 : i64, start = 0 : i64, step = 1 : i64}> : (tensor<40x1x32x320xf16>) -> tensor<40x1x32x160xf16>
    %523 = "mix.prim.slice"(%521) <{dim = 3 : i64, end = 320 : i64, start = 160 : i64, step = 1 : i64}> : (tensor<40x1x32x320xf16>) -> tensor<40x1x32x160xf16>
    %524 = "mix.prim.reshape"(%516) <{shape = [40, 32, -1]}> : (tensor<40x1x32x160xf16>) -> tensor<40x32x160xf16>
    %525 = "mix.prim.reshape"(%522) <{shape = [40, 32, -1]}> : (tensor<40x1x32x160xf16>) -> tensor<40x32x160xf16>
    %526 = "mix.prim.constant"() <{value = dense<[0, 1, 2, 3, 4, 5, 6, 7, 8, 9, 10, 11, 12, 13, 14, 15, 16, 17, 18, 19, 20, 21, 22, 23, 24, 25, 26, 27, 28, 29, 30, 31, 32, 33, 34, 35, 36, 37, 38, 39, 40, 41, 42, 43, 44, 45, 46, 47, 48, 49, 50, 51, 52, 53, 54, 55, 56, 57, 58, 59, 60, 61, 62, 63, 64, 65, 66, 67, 68, 69, 70, 71, 72, 73, 74, 75, 76, 77, 78, 79]> : tensor<80xi32>}> : () -> tensor<80xi32>
    %527 = "mix.prim.convert"(%526) <{element_ty = f16}> : (tensor<80xi32>) -> tensor<80xf16>
    %528 = "mix.prim.constant"() <{value = 160 : i32}> : () -> i32
    %529 = "mix.prim.div"(%527, %528) : (tensor<80xf16>, i32) -> tensor<80xf16>
    %530 = "mix.prim.constant"() <{value = 3.041600e+04 : f16}> : () -> f16
    %531 = "mix.prim.pow"(%530, %529) : (f16, tensor<80xf16>) -> tensor<80xf16>
    %532 = "mix.prim.reciprocal"(%531) : (tensor<80xf16>) -> tensor<80xf16>
    %533 = "mix.prim.constant"() <{value = 1.000000e+00 : f16}> : () -> f16
    %534 = "mix.prim.mul"(%533, %532) : (f16, tensor<80xf16>) -> tensor<80xf16>
    %535 = "mix.prim.constant"() <{value = dense<1.000000e+00> : tensor<40xf16>}> : () -> tensor<40xf16>
    %536 = "mix.prim.unsqueeze"(%535) <{axis = 1 : i32}> : (tensor<40xf16>) -> tensor<40x1xf16>
    %537 = "mix.prim.permute"(%536) <{dims = [0, 1]}> : (tensor<40x1xf16>) -> tensor<40x1xf16>
    %538 = "mix.prim.unsqueeze"(%534) <{axis = 1 : i32}> : (tensor<80xf16>) -> tensor<80x1xf16>
    %539 = "mix.prim.permute"(%538) <{dims = [1, 0]}> : (tensor<80x1xf16>) -> tensor<1x80xf16>
    %540 = "mix.prim.mul"(%537, %539) : (tensor<40x1xf16>, tensor<1x80xf16>) -> tensor<40x80xf16>
    %541 = "mix.prim.concat"(%540, %540) <{axis = 1 : i64}> : (tensor<40x80xf16>, tensor<40x80xf16>) -> tensor<40x160xf16>
    %542 = "mix.prim.cos"(%541) : (tensor<40x160xf16>) -> tensor<40x160xf16>
    %543 = "mix.prim.slice"(%542) <{dim = 0 : i64, end = 2147483647 : i64, start = 0 : i64, step = 1 : i64}> : (tensor<40x160xf16>) -> tensor<40x160xf16>
    %544 = "mix.prim.unsqueeze"(%543) <{axis = 1 : i32}> : (tensor<40x160xf16>) -> tensor<40x1x160xf16>
    %545 = "mix.prim.slice"(%544) <{dim = 2 : i64, end = 2147483647 : i64, start = 0 : i64, step = 1 : i64}> : (tensor<40x1x160xf16>) -> tensor<40x1x160xf16>
    %546 = "mix.prim.constant"() <{value = 1.000000e+00 : f16}> : () -> f16
    %547 = "mix.prim.mul"(%545, %546) : (tensor<40x1x160xf16>, f16) -> tensor<40x1x160xf16>
    %548 = "mix.prim.sin"(%541) : (tensor<40x160xf16>) -> tensor<40x160xf16>
    %549 = "mix.prim.slice"(%548) <{dim = 0 : i64, end = 2147483647 : i64, start = 0 : i64, step = 1 : i64}> : (tensor<40x160xf16>) -> tensor<40x160xf16>
    %550 = "mix.prim.unsqueeze"(%549) <{axis = 1 : i32}> : (tensor<40x160xf16>) -> tensor<40x1x160xf16>
    %551 = "mix.prim.slice"(%550) <{dim = 2 : i64, end = 2147483647 : i64, start = 0 : i64, step = 1 : i64}> : (tensor<40x1x160xf16>) -> tensor<40x1x160xf16>
    %552 = "mix.prim.constant"() <{value = 1.000000e+00 : f16}> : () -> f16
    %553 = "mix.prim.mul"(%551, %552) : (tensor<40x1x160xf16>, f16) -> tensor<40x1x160xf16>
    %554 = "mix.prim.slice"(%547) <{dim = 0 : i64, end = 40 : i64, start = 0 : i64, step = 1 : i64}> : (tensor<40x1x160xf16>) -> tensor<40x1x160xf16>
    %555 = "mix.prim.slice"(%553) <{dim = 0 : i64, end = 40 : i64, start = 0 : i64, step = 1 : i64}> : (tensor<40x1x160xf16>) -> tensor<40x1x160xf16>
    %556 = "mix.prim.mul"(%524, %554) : (tensor<40x32x160xf16>, tensor<40x1x160xf16>) -> tensor<40x32x160xf16>
    %557 = "mix.prim.slice"(%524) <{dim = 2 : i64, end = 80 : i64, start = 0 : i64, step = 1 : i64}> : (tensor<40x32x160xf16>) -> tensor<40x32x80xf16>
    %558 = "mix.prim.slice"(%524) <{dim = 2 : i64, end = 2147483647 : i64, start = 80 : i64, step = 1 : i64}> : (tensor<40x32x160xf16>) -> tensor<40x32x80xf16>
    %559 = "mix.prim.neg"(%558) : (tensor<40x32x80xf16>) -> tensor<40x32x80xf16>
    %560 = "mix.prim.concat"(%559, %557) <{axis = 2 : i64}> : (tensor<40x32x80xf16>, tensor<40x32x80xf16>) -> tensor<40x32x160xf16>
    %561 = "mix.prim.mul"(%560, %555) : (tensor<40x32x160xf16>, tensor<40x1x160xf16>) -> tensor<40x32x160xf16>
    %562 = "mix.prim.add"(%556, %561) : (tensor<40x32x160xf16>, tensor<40x32x160xf16>) -> tensor<40x32x160xf16>
    %563 = "mix.prim.mul"(%525, %554) : (tensor<40x32x160xf16>, tensor<40x1x160xf16>) -> tensor<40x32x160xf16>
    %564 = "mix.prim.slice"(%525) <{dim = 2 : i64, end = 80 : i64, start = 0 : i64, step = 1 : i64}> : (tensor<40x32x160xf16>) -> tensor<40x32x80xf16>
    %565 = "mix.prim.slice"(%525) <{dim = 2 : i64, end = 2147483647 : i64, start = 80 : i64, step = 1 : i64}> : (tensor<40x32x160xf16>) -> tensor<40x32x80xf16>
    %566 = "mix.prim.neg"(%565) : (tensor<40x32x80xf16>) -> tensor<40x32x80xf16>
    %567 = "mix.prim.concat"(%566, %564) <{axis = 2 : i64}> : (tensor<40x32x80xf16>, tensor<40x32x80xf16>) -> tensor<40x32x160xf16>
    %568 = "mix.prim.mul"(%567, %555) : (tensor<40x32x160xf16>, tensor<40x1x160xf16>) -> tensor<40x32x160xf16>
    %569 = "mix.prim.add"(%563, %568) : (tensor<40x32x160xf16>, tensor<40x32x160xf16>) -> tensor<40x32x160xf16>
    %570 = "mix.prim.reshape"(%562) <{shape = [40, 1, 32, 160]}> : (tensor<40x32x160xf16>) -> tensor<40x1x32x160xf16>
    %571 = "mix.prim.reshape"(%569) <{shape = [40, 1, 32, 160]}> : (tensor<40x32x160xf16>) -> tensor<40x1x32x160xf16>
    %572 = "mix.prim.reshape"(%570) <{shape = [40, 32, 160]}> : (tensor<40x1x32x160xf16>) -> tensor<40x32x160xf16>
    %573 = "mix.prim.reshape"(%571) <{shape = [40, 32, 160]}> : (tensor<40x1x32x160xf16>) -> tensor<40x32x160xf16>
    %574 = "mix.prim.transpose"(%572) <{dim1 = 0 : i32, dim2 = 1 : i32}> : (tensor<40x32x160xf16>) -> tensor<32x40x160xf16>
    %575 = "mix.prim.transpose"(%573) <{dim1 = 0 : i32, dim2 = 1 : i32}> : (tensor<40x32x160xf16>) -> tensor<32x40x160xf16>
    %576 = "mix.prim.transpose"(%575) <{dim1 = 1 : i32, dim2 = 2 : i32}> : (tensor<32x40x160xf16>) -> tensor<32x160x40xf16>
    %577 = "mix.prim.unsqueeze"(%574) <{axis = 3 : i32}> : (tensor<32x40x160xf16>) -> tensor<32x40x160x1xf16>
    %578 = "mix.prim.permute"(%577) <{dims = [0, 1, 3, 2]}> : (tensor<32x40x160x1xf16>) -> tensor<32x40x1x160xf16>
    %579 = "mix.prim.unsqueeze"(%576) <{axis = 3 : i32}> : (tensor<32x160x40xf16>) -> tensor<32x160x40x1xf16>
    %580 = "mix.prim.permute"(%579) <{dims = [0, 3, 2, 1]}> : (tensor<32x160x40x1xf16>) -> tensor<32x1x40x160xf16>
    %581 = "mix.prim.permute"(%578) <{dims = [0, 1, 3, 2]}> : (tensor<32x40x1x160xf16>) -> tensor<32x40x160x1xf16>
    %582 = "mix.prim.reshape"(%581) <{shape = [32, 40, 160]}> : (tensor<32x40x160x1xf16>) -> tensor<32x40x160xf16>
    %583 = "mix.prim.permute"(%580) <{dims = [0, 3, 2, 1]}> : (tensor<32x1x40x160xf16>) -> tensor<32x160x40x1xf16>
    %584 = "mix.prim.reshape"(%583) <{shape = [32, 160, 40]}> : (tensor<32x160x40x1xf16>) -> tensor<32x160x40xf16>
    %585 = "mix.prim.batch_matmul"(%582, %584) : (tensor<32x40x160xf16>, tensor<32x160x40xf16>) -> tensor<32x40x40xf16>
    %586 = "mix.prim.reshape"(%585) <{shape = [32, 40, 1, 40]}> : (tensor<32x40x40xf16>) -> tensor<32x40x1x40xf16>
    %587 = "mix.prim.permute"(%586) <{dims = [0, 1, 3, 2]}> : (tensor<32x40x1x40xf16>) -> tensor<32x40x40x1xf16>
    %588 = "mix.prim.reshape"(%587) <{shape = [32, 40, 40]}> : (tensor<32x40x40x1xf16>) -> tensor<32x40x40xf16>
    %589 = "mix.prim.constant"() <{value = 7.904050e-02 : f16}> : () -> f16
    %590 = "mix.prim.mul"(%588, %589) : (tensor<32x40x40xf16>, f16) -> tensor<32x40x40xf16>
    %591 = "mix.prim.reshape"(%590) <{shape = [1, 32, 40, 40]}> : (tensor<32x40x40xf16>) -> tensor<1x32x40x40xf16>
    %592 = "mix.comp.masked_fill"(%591, %1) <{value = 0xFC00 : f16}> : (tensor<1x32x40x40xf16>, tensor<1x1x5x5xi1>) -> tensor<1x32x40x40xf16>
    %593 = "mix.comp.softmax"(%592) <{axis = -1 : si32}> : (tensor<1x32x40x40xf16>) -> tensor<1x32x40x40xf16>
    %594 = "mix.prim.reshape"(%593) <{shape = [32, 40, 40]}> : (tensor<1x32x40x40xf16>) -> tensor<32x40x40xf16>
    %595 = "mix.prim.reshape"(%523) <{shape = [40, 32, 160]}> : (tensor<40x1x32x160xf16>) -> tensor<40x32x160xf16>
    %596 = "mix.prim.transpose"(%595) <{dim1 = 0 : i32, dim2 = 1 : i32}> : (tensor<40x32x160xf16>) -> tensor<32x40x160xf16>
    %597 = "mix.prim.batch_matmul"(%594, %596) : (tensor<32x40x40xf16>, tensor<32x40x160xf16>) -> tensor<32x40x160xf16>
    %598 = "mix.prim.reshape"(%597) <{shape = [1, 32, 40, 160]}> : (tensor<32x40x160xf16>) -> tensor<1x32x40x160xf16>
    %599 = "mix.prim.permute"(%598) <{dims = [0, 2, 1, 3]}> : (tensor<1x32x40x160xf16>) -> tensor<1x40x32x160xf16>
    %600 = "mix.prim.reshape"(%599) <{shape = [1, 40, 5120]}> : (tensor<1x40x32x160xf16>) -> tensor<1x40x5120xf16>
    %601 = "mix.prim.reshape"(%600) <{shape = [40, 5120]}> : (tensor<1x40x5120xf16>) -> tensor<40x5120xf16>
    %602 = "mix.prim.transpose"(%509) <{dim1 = 0 : i32, dim2 = 1 : i32}> : (tensor<5120x5120xf16>) -> tensor<5120x5120xf16>
    %603 = "mix.prim.matmul"(%601, %602) : (tensor<40x5120xf16>, tensor<5120x5120xf16>) -> tensor<40x5120xf16>
    %604 = "mix.prim.add"(%603, %510) : (tensor<40x5120xf16>, tensor<5120xf16>) -> tensor<40x5120xf16>
    %605 = "mix.prim.reshape"(%604) <{shape = [1, 40, 5120]}> : (tensor<40x5120xf16>) -> tensor<1x40x5120xf16>
    %606 = "mix.prim.mul"(%497, %605) : (tensor<1x40x5120xf16>, tensor<1x40x5120xf16>) -> tensor<1x40x5120xf16>
    %607 = "mix.comp.weight"() <{param_loc = "transformer.h.4.post_attention_layernorm.weight"}> : () -> tensor<5120xf16>
    %608 = "arith.constant"() <{value = dense<1.000000e+00> : tensor<1xf16>}> : () -> tensor<1xf16>
    %609 = "mix.prim.pow"(%606, %608) : (tensor<1x40x5120xf16>, tensor<1xf16>) -> tensor<1x40x5120xf16>
    %610 = "mix.comp.mean"(%609) <{dims = [2 : i32], keepDim = true}> : (tensor<1x40x5120xf16>) -> tensor<1x40x1xf16>
    %611 = "arith.constant"() <{value = 1.013280e-06 : f16}> : () -> f16
    %612 = "mix.prim.add"(%610, %611) : (tensor<1x40x1xf16>, f16) -> tensor<1x40x1xf16>
    %613 = "mix.prim.rsqrt"(%612) : (tensor<1x40x1xf16>) -> tensor<1x40x1xf16>
    %614 = "mix.prim.mul"(%606, %613) : (tensor<1x40x5120xf16>, tensor<1x40x1xf16>) -> tensor<1x40x5120xf16>
    %615 = "mix.prim.mul"(%607, %614) : (tensor<5120xf16>, tensor<1x40x5120xf16>) -> tensor<1x40x5120xf16>
    %616 = "mix.module.linear"(%615) <{dtype = f16, in_feature = 5120 : i32, out_feature = 12288 : i32, params_loc = "transformer.h.4.mlp.gate_proj"}> : (tensor<1x40x5120xf16>) -> tensor<1x40x12288xf16>
    %617 = "mix.comp.silu"(%616) : (tensor<1x40x12288xf16>) -> tensor<1x40x12288xf16>
    %618 = "mix.module.linear"(%615) <{dtype = f16, in_feature = 5120 : i32, out_feature = 12288 : i32, params_loc = "transformer.h.4.mlp.up_proj"}> : (tensor<1x40x5120xf16>) -> tensor<1x40x12288xf16>
    %619 = "mix.prim.mul"(%617, %618) : (tensor<1x40x12288xf16>, tensor<1x40x12288xf16>) -> tensor<1x40x12288xf16>
    %620 = "mix.module.linear"(%619) <{dtype = f16, has_bias, in_feature = 12288 : i32, out_feature = 5120 : i32, params_loc = "transformer.h.4.mlp.down_proj"}> : (tensor<1x40x12288xf16>) -> tensor<1x40x5120xf16>
    %621 = "mix.prim.add"(%620, %606) : (tensor<1x40x5120xf16>, tensor<1x40x5120xf16>) -> tensor<1x40x5120xf16>
    %622 = "mix.comp.weight"() <{param_loc = "transformer.h.5.input_layernorm.weight"}> : () -> tensor<5120xf16>
    %623 = "arith.constant"() <{value = dense<1.000000e+00> : tensor<1xf16>}> : () -> tensor<1xf16>
    %624 = "mix.prim.pow"(%621, %623) : (tensor<1x40x5120xf16>, tensor<1xf16>) -> tensor<1x40x5120xf16>
    %625 = "mix.comp.mean"(%624) <{dims = [2 : i32], keepDim = true}> : (tensor<1x40x5120xf16>) -> tensor<1x40x1xf16>
    %626 = "arith.constant"() <{value = 1.013280e-06 : f16}> : () -> f16
    %627 = "mix.prim.add"(%625, %626) : (tensor<1x40x1xf16>, f16) -> tensor<1x40x1xf16>
    %628 = "mix.prim.rsqrt"(%627) : (tensor<1x40x1xf16>) -> tensor<1x40x1xf16>
    %629 = "mix.prim.mul"(%621, %628) : (tensor<1x40x5120xf16>, tensor<1x40x1xf16>) -> tensor<1x40x5120xf16>
    %630 = "mix.prim.mul"(%622, %629) : (tensor<5120xf16>, tensor<1x40x5120xf16>) -> tensor<1x40x5120xf16>
    %631 = "mix.comp.weight"() <{param_loc = "transformer.h.5.self_attention.query.weight"}> : () -> tensor<5120x5120xf16>
    %632 = "mix.comp.weight"() <{param_loc = "transformer.h.5.self_attention.key_value.weight"}> : () -> tensor<10240x5120xf16>
    %633 = "mix.comp.weight"() <{param_loc = "transformer.h.5.self_attention.dense.weight"}> : () -> tensor<5120x5120xf16>
    %634 = "mix.comp.weight"() <{param_loc = "transformer.h.5.self_attention.dense.bias"}> : () -> tensor<5120xf16>
    %635 = "mix.prim.transpose"(%630) <{dim1 = 0 : i32, dim2 = 1 : i32}> : (tensor<1x40x5120xf16>) -> tensor<40x1x5120xf16>
    %636 = "mix.prim.transpose"(%631) <{dim1 = 0 : i32, dim2 = 1 : i32}> : (tensor<5120x5120xf16>) -> tensor<5120x5120xf16>
    %637 = "mix.prim.reshape"(%635) <{shape = [40, 5120]}> : (tensor<40x1x5120xf16>) -> tensor<40x5120xf16>
    %638 = "mix.prim.matmul"(%637, %636) : (tensor<40x5120xf16>, tensor<5120x5120xf16>) -> tensor<40x5120xf16>
    %639 = "mix.prim.reshape"(%638) <{shape = [40, 1, 5120]}> : (tensor<40x5120xf16>) -> tensor<40x1x5120xf16>
    %640 = "mix.prim.reshape"(%639) <{shape = [40, 1, 32, 160]}> : (tensor<40x1x5120xf16>) -> tensor<40x1x32x160xf16>
    %641 = "mix.prim.transpose"(%632) <{dim1 = 0 : i32, dim2 = 1 : i32}> : (tensor<10240x5120xf16>) -> tensor<5120x10240xf16>
    %642 = "mix.prim.reshape"(%635) <{shape = [40, 5120]}> : (tensor<40x1x5120xf16>) -> tensor<40x5120xf16>
    %643 = "mix.prim.matmul"(%642, %641) : (tensor<40x5120xf16>, tensor<5120x10240xf16>) -> tensor<40x10240xf16>
    %644 = "mix.prim.reshape"(%643) <{shape = [40, 1, 10240]}> : (tensor<40x10240xf16>) -> tensor<40x1x10240xf16>
    %645 = "mix.prim.reshape"(%644) <{shape = [40, 1, 32, 320]}> : (tensor<40x1x10240xf16>) -> tensor<40x1x32x320xf16>
    %646 = "mix.prim.slice"(%645) <{dim = 3 : i64, end = 160 : i64, start = 0 : i64, step = 1 : i64}> : (tensor<40x1x32x320xf16>) -> tensor<40x1x32x160xf16>
    %647 = "mix.prim.slice"(%645) <{dim = 3 : i64, end = 320 : i64, start = 160 : i64, step = 1 : i64}> : (tensor<40x1x32x320xf16>) -> tensor<40x1x32x160xf16>
    %648 = "mix.prim.reshape"(%640) <{shape = [40, 32, -1]}> : (tensor<40x1x32x160xf16>) -> tensor<40x32x160xf16>
    %649 = "mix.prim.reshape"(%646) <{shape = [40, 32, -1]}> : (tensor<40x1x32x160xf16>) -> tensor<40x32x160xf16>
    %650 = "mix.prim.constant"() <{value = dense<[0, 1, 2, 3, 4, 5, 6, 7, 8, 9, 10, 11, 12, 13, 14, 15, 16, 17, 18, 19, 20, 21, 22, 23, 24, 25, 26, 27, 28, 29, 30, 31, 32, 33, 34, 35, 36, 37, 38, 39, 40, 41, 42, 43, 44, 45, 46, 47, 48, 49, 50, 51, 52, 53, 54, 55, 56, 57, 58, 59, 60, 61, 62, 63, 64, 65, 66, 67, 68, 69, 70, 71, 72, 73, 74, 75, 76, 77, 78, 79]> : tensor<80xi32>}> : () -> tensor<80xi32>
    %651 = "mix.prim.convert"(%650) <{element_ty = f16}> : (tensor<80xi32>) -> tensor<80xf16>
    %652 = "mix.prim.constant"() <{value = 160 : i32}> : () -> i32
    %653 = "mix.prim.div"(%651, %652) : (tensor<80xf16>, i32) -> tensor<80xf16>
    %654 = "mix.prim.constant"() <{value = 3.041600e+04 : f16}> : () -> f16
    %655 = "mix.prim.pow"(%654, %653) : (f16, tensor<80xf16>) -> tensor<80xf16>
    %656 = "mix.prim.reciprocal"(%655) : (tensor<80xf16>) -> tensor<80xf16>
    %657 = "mix.prim.constant"() <{value = 1.000000e+00 : f16}> : () -> f16
    %658 = "mix.prim.mul"(%657, %656) : (f16, tensor<80xf16>) -> tensor<80xf16>
    %659 = "mix.prim.constant"() <{value = dense<1.000000e+00> : tensor<40xf16>}> : () -> tensor<40xf16>
    %660 = "mix.prim.unsqueeze"(%659) <{axis = 1 : i32}> : (tensor<40xf16>) -> tensor<40x1xf16>
    %661 = "mix.prim.permute"(%660) <{dims = [0, 1]}> : (tensor<40x1xf16>) -> tensor<40x1xf16>
    %662 = "mix.prim.unsqueeze"(%658) <{axis = 1 : i32}> : (tensor<80xf16>) -> tensor<80x1xf16>
    %663 = "mix.prim.permute"(%662) <{dims = [1, 0]}> : (tensor<80x1xf16>) -> tensor<1x80xf16>
    %664 = "mix.prim.mul"(%661, %663) : (tensor<40x1xf16>, tensor<1x80xf16>) -> tensor<40x80xf16>
    %665 = "mix.prim.concat"(%664, %664) <{axis = 1 : i64}> : (tensor<40x80xf16>, tensor<40x80xf16>) -> tensor<40x160xf16>
    %666 = "mix.prim.cos"(%665) : (tensor<40x160xf16>) -> tensor<40x160xf16>
    %667 = "mix.prim.slice"(%666) <{dim = 0 : i64, end = 2147483647 : i64, start = 0 : i64, step = 1 : i64}> : (tensor<40x160xf16>) -> tensor<40x160xf16>
    %668 = "mix.prim.unsqueeze"(%667) <{axis = 1 : i32}> : (tensor<40x160xf16>) -> tensor<40x1x160xf16>
    %669 = "mix.prim.slice"(%668) <{dim = 2 : i64, end = 2147483647 : i64, start = 0 : i64, step = 1 : i64}> : (tensor<40x1x160xf16>) -> tensor<40x1x160xf16>
    %670 = "mix.prim.constant"() <{value = 1.000000e+00 : f16}> : () -> f16
    %671 = "mix.prim.mul"(%669, %670) : (tensor<40x1x160xf16>, f16) -> tensor<40x1x160xf16>
    %672 = "mix.prim.sin"(%665) : (tensor<40x160xf16>) -> tensor<40x160xf16>
    %673 = "mix.prim.slice"(%672) <{dim = 0 : i64, end = 2147483647 : i64, start = 0 : i64, step = 1 : i64}> : (tensor<40x160xf16>) -> tensor<40x160xf16>
    %674 = "mix.prim.unsqueeze"(%673) <{axis = 1 : i32}> : (tensor<40x160xf16>) -> tensor<40x1x160xf16>
    %675 = "mix.prim.slice"(%674) <{dim = 2 : i64, end = 2147483647 : i64, start = 0 : i64, step = 1 : i64}> : (tensor<40x1x160xf16>) -> tensor<40x1x160xf16>
    %676 = "mix.prim.constant"() <{value = 1.000000e+00 : f16}> : () -> f16
    %677 = "mix.prim.mul"(%675, %676) : (tensor<40x1x160xf16>, f16) -> tensor<40x1x160xf16>
    %678 = "mix.prim.slice"(%671) <{dim = 0 : i64, end = 40 : i64, start = 0 : i64, step = 1 : i64}> : (tensor<40x1x160xf16>) -> tensor<40x1x160xf16>
    %679 = "mix.prim.slice"(%677) <{dim = 0 : i64, end = 40 : i64, start = 0 : i64, step = 1 : i64}> : (tensor<40x1x160xf16>) -> tensor<40x1x160xf16>
    %680 = "mix.prim.mul"(%648, %678) : (tensor<40x32x160xf16>, tensor<40x1x160xf16>) -> tensor<40x32x160xf16>
    %681 = "mix.prim.slice"(%648) <{dim = 2 : i64, end = 80 : i64, start = 0 : i64, step = 1 : i64}> : (tensor<40x32x160xf16>) -> tensor<40x32x80xf16>
    %682 = "mix.prim.slice"(%648) <{dim = 2 : i64, end = 2147483647 : i64, start = 80 : i64, step = 1 : i64}> : (tensor<40x32x160xf16>) -> tensor<40x32x80xf16>
    %683 = "mix.prim.neg"(%682) : (tensor<40x32x80xf16>) -> tensor<40x32x80xf16>
    %684 = "mix.prim.concat"(%683, %681) <{axis = 2 : i64}> : (tensor<40x32x80xf16>, tensor<40x32x80xf16>) -> tensor<40x32x160xf16>
    %685 = "mix.prim.mul"(%684, %679) : (tensor<40x32x160xf16>, tensor<40x1x160xf16>) -> tensor<40x32x160xf16>
    %686 = "mix.prim.add"(%680, %685) : (tensor<40x32x160xf16>, tensor<40x32x160xf16>) -> tensor<40x32x160xf16>
    %687 = "mix.prim.mul"(%649, %678) : (tensor<40x32x160xf16>, tensor<40x1x160xf16>) -> tensor<40x32x160xf16>
    %688 = "mix.prim.slice"(%649) <{dim = 2 : i64, end = 80 : i64, start = 0 : i64, step = 1 : i64}> : (tensor<40x32x160xf16>) -> tensor<40x32x80xf16>
    %689 = "mix.prim.slice"(%649) <{dim = 2 : i64, end = 2147483647 : i64, start = 80 : i64, step = 1 : i64}> : (tensor<40x32x160xf16>) -> tensor<40x32x80xf16>
    %690 = "mix.prim.neg"(%689) : (tensor<40x32x80xf16>) -> tensor<40x32x80xf16>
    %691 = "mix.prim.concat"(%690, %688) <{axis = 2 : i64}> : (tensor<40x32x80xf16>, tensor<40x32x80xf16>) -> tensor<40x32x160xf16>
    %692 = "mix.prim.mul"(%691, %679) : (tensor<40x32x160xf16>, tensor<40x1x160xf16>) -> tensor<40x32x160xf16>
    %693 = "mix.prim.add"(%687, %692) : (tensor<40x32x160xf16>, tensor<40x32x160xf16>) -> tensor<40x32x160xf16>
    %694 = "mix.prim.reshape"(%686) <{shape = [40, 1, 32, 160]}> : (tensor<40x32x160xf16>) -> tensor<40x1x32x160xf16>
    %695 = "mix.prim.reshape"(%693) <{shape = [40, 1, 32, 160]}> : (tensor<40x32x160xf16>) -> tensor<40x1x32x160xf16>
    %696 = "mix.prim.reshape"(%694) <{shape = [40, 32, 160]}> : (tensor<40x1x32x160xf16>) -> tensor<40x32x160xf16>
    %697 = "mix.prim.reshape"(%695) <{shape = [40, 32, 160]}> : (tensor<40x1x32x160xf16>) -> tensor<40x32x160xf16>
    %698 = "mix.prim.transpose"(%696) <{dim1 = 0 : i32, dim2 = 1 : i32}> : (tensor<40x32x160xf16>) -> tensor<32x40x160xf16>
    %699 = "mix.prim.transpose"(%697) <{dim1 = 0 : i32, dim2 = 1 : i32}> : (tensor<40x32x160xf16>) -> tensor<32x40x160xf16>
    %700 = "mix.prim.transpose"(%699) <{dim1 = 1 : i32, dim2 = 2 : i32}> : (tensor<32x40x160xf16>) -> tensor<32x160x40xf16>
    %701 = "mix.prim.unsqueeze"(%698) <{axis = 3 : i32}> : (tensor<32x40x160xf16>) -> tensor<32x40x160x1xf16>
    %702 = "mix.prim.permute"(%701) <{dims = [0, 1, 3, 2]}> : (tensor<32x40x160x1xf16>) -> tensor<32x40x1x160xf16>
    %703 = "mix.prim.unsqueeze"(%700) <{axis = 3 : i32}> : (tensor<32x160x40xf16>) -> tensor<32x160x40x1xf16>
    %704 = "mix.prim.permute"(%703) <{dims = [0, 3, 2, 1]}> : (tensor<32x160x40x1xf16>) -> tensor<32x1x40x160xf16>
    %705 = "mix.prim.permute"(%702) <{dims = [0, 1, 3, 2]}> : (tensor<32x40x1x160xf16>) -> tensor<32x40x160x1xf16>
    %706 = "mix.prim.reshape"(%705) <{shape = [32, 40, 160]}> : (tensor<32x40x160x1xf16>) -> tensor<32x40x160xf16>
    %707 = "mix.prim.permute"(%704) <{dims = [0, 3, 2, 1]}> : (tensor<32x1x40x160xf16>) -> tensor<32x160x40x1xf16>
    %708 = "mix.prim.reshape"(%707) <{shape = [32, 160, 40]}> : (tensor<32x160x40x1xf16>) -> tensor<32x160x40xf16>
    %709 = "mix.prim.batch_matmul"(%706, %708) : (tensor<32x40x160xf16>, tensor<32x160x40xf16>) -> tensor<32x40x40xf16>
    %710 = "mix.prim.reshape"(%709) <{shape = [32, 40, 1, 40]}> : (tensor<32x40x40xf16>) -> tensor<32x40x1x40xf16>
    %711 = "mix.prim.permute"(%710) <{dims = [0, 1, 3, 2]}> : (tensor<32x40x1x40xf16>) -> tensor<32x40x40x1xf16>
    %712 = "mix.prim.reshape"(%711) <{shape = [32, 40, 40]}> : (tensor<32x40x40x1xf16>) -> tensor<32x40x40xf16>
    %713 = "mix.prim.constant"() <{value = 7.904050e-02 : f16}> : () -> f16
    %714 = "mix.prim.mul"(%712, %713) : (tensor<32x40x40xf16>, f16) -> tensor<32x40x40xf16>
    %715 = "mix.prim.reshape"(%714) <{shape = [1, 32, 40, 40]}> : (tensor<32x40x40xf16>) -> tensor<1x32x40x40xf16>
    %716 = "mix.comp.masked_fill"(%715, %1) <{value = 0xFC00 : f16}> : (tensor<1x32x40x40xf16>, tensor<1x1x5x5xi1>) -> tensor<1x32x40x40xf16>
    %717 = "mix.comp.softmax"(%716) <{axis = -1 : si32}> : (tensor<1x32x40x40xf16>) -> tensor<1x32x40x40xf16>
    %718 = "mix.prim.reshape"(%717) <{shape = [32, 40, 40]}> : (tensor<1x32x40x40xf16>) -> tensor<32x40x40xf16>
    %719 = "mix.prim.reshape"(%647) <{shape = [40, 32, 160]}> : (tensor<40x1x32x160xf16>) -> tensor<40x32x160xf16>
    %720 = "mix.prim.transpose"(%719) <{dim1 = 0 : i32, dim2 = 1 : i32}> : (tensor<40x32x160xf16>) -> tensor<32x40x160xf16>
    %721 = "mix.prim.batch_matmul"(%718, %720) : (tensor<32x40x40xf16>, tensor<32x40x160xf16>) -> tensor<32x40x160xf16>
    %722 = "mix.prim.reshape"(%721) <{shape = [1, 32, 40, 160]}> : (tensor<32x40x160xf16>) -> tensor<1x32x40x160xf16>
    %723 = "mix.prim.permute"(%722) <{dims = [0, 2, 1, 3]}> : (tensor<1x32x40x160xf16>) -> tensor<1x40x32x160xf16>
    %724 = "mix.prim.reshape"(%723) <{shape = [1, 40, 5120]}> : (tensor<1x40x32x160xf16>) -> tensor<1x40x5120xf16>
    %725 = "mix.prim.reshape"(%724) <{shape = [40, 5120]}> : (tensor<1x40x5120xf16>) -> tensor<40x5120xf16>
    %726 = "mix.prim.transpose"(%633) <{dim1 = 0 : i32, dim2 = 1 : i32}> : (tensor<5120x5120xf16>) -> tensor<5120x5120xf16>
    %727 = "mix.prim.matmul"(%725, %726) : (tensor<40x5120xf16>, tensor<5120x5120xf16>) -> tensor<40x5120xf16>
    %728 = "mix.prim.add"(%727, %634) : (tensor<40x5120xf16>, tensor<5120xf16>) -> tensor<40x5120xf16>
    %729 = "mix.prim.reshape"(%728) <{shape = [1, 40, 5120]}> : (tensor<40x5120xf16>) -> tensor<1x40x5120xf16>
    %730 = "mix.prim.mul"(%621, %729) : (tensor<1x40x5120xf16>, tensor<1x40x5120xf16>) -> tensor<1x40x5120xf16>
    %731 = "mix.comp.weight"() <{param_loc = "transformer.h.5.post_attention_layernorm.weight"}> : () -> tensor<5120xf16>
    %732 = "arith.constant"() <{value = dense<1.000000e+00> : tensor<1xf16>}> : () -> tensor<1xf16>
    %733 = "mix.prim.pow"(%730, %732) : (tensor<1x40x5120xf16>, tensor<1xf16>) -> tensor<1x40x5120xf16>
    %734 = "mix.comp.mean"(%733) <{dims = [2 : i32], keepDim = true}> : (tensor<1x40x5120xf16>) -> tensor<1x40x1xf16>
    %735 = "arith.constant"() <{value = 1.013280e-06 : f16}> : () -> f16
    %736 = "mix.prim.add"(%734, %735) : (tensor<1x40x1xf16>, f16) -> tensor<1x40x1xf16>
    %737 = "mix.prim.rsqrt"(%736) : (tensor<1x40x1xf16>) -> tensor<1x40x1xf16>
    %738 = "mix.prim.mul"(%730, %737) : (tensor<1x40x5120xf16>, tensor<1x40x1xf16>) -> tensor<1x40x5120xf16>
    %739 = "mix.prim.mul"(%731, %738) : (tensor<5120xf16>, tensor<1x40x5120xf16>) -> tensor<1x40x5120xf16>
    %740 = "mix.module.linear"(%739) <{dtype = f16, in_feature = 5120 : i32, out_feature = 12288 : i32, params_loc = "transformer.h.5.mlp.gate_proj"}> : (tensor<1x40x5120xf16>) -> tensor<1x40x12288xf16>
    %741 = "mix.comp.silu"(%740) : (tensor<1x40x12288xf16>) -> tensor<1x40x12288xf16>
    %742 = "mix.module.linear"(%739) <{dtype = f16, in_feature = 5120 : i32, out_feature = 12288 : i32, params_loc = "transformer.h.5.mlp.up_proj"}> : (tensor<1x40x5120xf16>) -> tensor<1x40x12288xf16>
    %743 = "mix.prim.mul"(%741, %742) : (tensor<1x40x12288xf16>, tensor<1x40x12288xf16>) -> tensor<1x40x12288xf16>
    %744 = "mix.module.linear"(%743) <{dtype = f16, has_bias, in_feature = 12288 : i32, out_feature = 5120 : i32, params_loc = "transformer.h.5.mlp.down_proj"}> : (tensor<1x40x12288xf16>) -> tensor<1x40x5120xf16>
    %745 = "mix.prim.add"(%744, %730) : (tensor<1x40x5120xf16>, tensor<1x40x5120xf16>) -> tensor<1x40x5120xf16>
    %746 = "mix.comp.weight"() <{param_loc = "transformer.h.6.input_layernorm.weight"}> : () -> tensor<5120xf16>
    %747 = "arith.constant"() <{value = dense<1.000000e+00> : tensor<1xf16>}> : () -> tensor<1xf16>
    %748 = "mix.prim.pow"(%745, %747) : (tensor<1x40x5120xf16>, tensor<1xf16>) -> tensor<1x40x5120xf16>
    %749 = "mix.comp.mean"(%748) <{dims = [2 : i32], keepDim = true}> : (tensor<1x40x5120xf16>) -> tensor<1x40x1xf16>
    %750 = "arith.constant"() <{value = 1.013280e-06 : f16}> : () -> f16
    %751 = "mix.prim.add"(%749, %750) : (tensor<1x40x1xf16>, f16) -> tensor<1x40x1xf16>
    %752 = "mix.prim.rsqrt"(%751) : (tensor<1x40x1xf16>) -> tensor<1x40x1xf16>
    %753 = "mix.prim.mul"(%745, %752) : (tensor<1x40x5120xf16>, tensor<1x40x1xf16>) -> tensor<1x40x5120xf16>
    %754 = "mix.prim.mul"(%746, %753) : (tensor<5120xf16>, tensor<1x40x5120xf16>) -> tensor<1x40x5120xf16>
    %755 = "mix.comp.weight"() <{param_loc = "transformer.h.6.self_attention.query.weight"}> : () -> tensor<5120x5120xf16>
    %756 = "mix.comp.weight"() <{param_loc = "transformer.h.6.self_attention.key_value.weight"}> : () -> tensor<10240x5120xf16>
    %757 = "mix.comp.weight"() <{param_loc = "transformer.h.6.self_attention.dense.weight"}> : () -> tensor<5120x5120xf16>
    %758 = "mix.comp.weight"() <{param_loc = "transformer.h.6.self_attention.dense.bias"}> : () -> tensor<5120xf16>
    %759 = "mix.prim.transpose"(%754) <{dim1 = 0 : i32, dim2 = 1 : i32}> : (tensor<1x40x5120xf16>) -> tensor<40x1x5120xf16>
    %760 = "mix.prim.transpose"(%755) <{dim1 = 0 : i32, dim2 = 1 : i32}> : (tensor<5120x5120xf16>) -> tensor<5120x5120xf16>
    %761 = "mix.prim.reshape"(%759) <{shape = [40, 5120]}> : (tensor<40x1x5120xf16>) -> tensor<40x5120xf16>
    %762 = "mix.prim.matmul"(%761, %760) : (tensor<40x5120xf16>, tensor<5120x5120xf16>) -> tensor<40x5120xf16>
    %763 = "mix.prim.reshape"(%762) <{shape = [40, 1, 5120]}> : (tensor<40x5120xf16>) -> tensor<40x1x5120xf16>
    %764 = "mix.prim.reshape"(%763) <{shape = [40, 1, 32, 160]}> : (tensor<40x1x5120xf16>) -> tensor<40x1x32x160xf16>
    %765 = "mix.prim.transpose"(%756) <{dim1 = 0 : i32, dim2 = 1 : i32}> : (tensor<10240x5120xf16>) -> tensor<5120x10240xf16>
    %766 = "mix.prim.reshape"(%759) <{shape = [40, 5120]}> : (tensor<40x1x5120xf16>) -> tensor<40x5120xf16>
    %767 = "mix.prim.matmul"(%766, %765) : (tensor<40x5120xf16>, tensor<5120x10240xf16>) -> tensor<40x10240xf16>
    %768 = "mix.prim.reshape"(%767) <{shape = [40, 1, 10240]}> : (tensor<40x10240xf16>) -> tensor<40x1x10240xf16>
    %769 = "mix.prim.reshape"(%768) <{shape = [40, 1, 32, 320]}> : (tensor<40x1x10240xf16>) -> tensor<40x1x32x320xf16>
    %770 = "mix.prim.slice"(%769) <{dim = 3 : i64, end = 160 : i64, start = 0 : i64, step = 1 : i64}> : (tensor<40x1x32x320xf16>) -> tensor<40x1x32x160xf16>
    %771 = "mix.prim.slice"(%769) <{dim = 3 : i64, end = 320 : i64, start = 160 : i64, step = 1 : i64}> : (tensor<40x1x32x320xf16>) -> tensor<40x1x32x160xf16>
    %772 = "mix.prim.reshape"(%764) <{shape = [40, 32, -1]}> : (tensor<40x1x32x160xf16>) -> tensor<40x32x160xf16>
    %773 = "mix.prim.reshape"(%770) <{shape = [40, 32, -1]}> : (tensor<40x1x32x160xf16>) -> tensor<40x32x160xf16>
    %774 = "mix.prim.constant"() <{value = dense<[0, 1, 2, 3, 4, 5, 6, 7, 8, 9, 10, 11, 12, 13, 14, 15, 16, 17, 18, 19, 20, 21, 22, 23, 24, 25, 26, 27, 28, 29, 30, 31, 32, 33, 34, 35, 36, 37, 38, 39, 40, 41, 42, 43, 44, 45, 46, 47, 48, 49, 50, 51, 52, 53, 54, 55, 56, 57, 58, 59, 60, 61, 62, 63, 64, 65, 66, 67, 68, 69, 70, 71, 72, 73, 74, 75, 76, 77, 78, 79]> : tensor<80xi32>}> : () -> tensor<80xi32>
    %775 = "mix.prim.convert"(%774) <{element_ty = f16}> : (tensor<80xi32>) -> tensor<80xf16>
    %776 = "mix.prim.constant"() <{value = 160 : i32}> : () -> i32
    %777 = "mix.prim.div"(%775, %776) : (tensor<80xf16>, i32) -> tensor<80xf16>
    %778 = "mix.prim.constant"() <{value = 3.041600e+04 : f16}> : () -> f16
    %779 = "mix.prim.pow"(%778, %777) : (f16, tensor<80xf16>) -> tensor<80xf16>
    %780 = "mix.prim.reciprocal"(%779) : (tensor<80xf16>) -> tensor<80xf16>
    %781 = "mix.prim.constant"() <{value = 1.000000e+00 : f16}> : () -> f16
    %782 = "mix.prim.mul"(%781, %780) : (f16, tensor<80xf16>) -> tensor<80xf16>
    %783 = "mix.prim.constant"() <{value = dense<1.000000e+00> : tensor<40xf16>}> : () -> tensor<40xf16>
    %784 = "mix.prim.unsqueeze"(%783) <{axis = 1 : i32}> : (tensor<40xf16>) -> tensor<40x1xf16>
    %785 = "mix.prim.permute"(%784) <{dims = [0, 1]}> : (tensor<40x1xf16>) -> tensor<40x1xf16>
    %786 = "mix.prim.unsqueeze"(%782) <{axis = 1 : i32}> : (tensor<80xf16>) -> tensor<80x1xf16>
    %787 = "mix.prim.permute"(%786) <{dims = [1, 0]}> : (tensor<80x1xf16>) -> tensor<1x80xf16>
    %788 = "mix.prim.mul"(%785, %787) : (tensor<40x1xf16>, tensor<1x80xf16>) -> tensor<40x80xf16>
    %789 = "mix.prim.concat"(%788, %788) <{axis = 1 : i64}> : (tensor<40x80xf16>, tensor<40x80xf16>) -> tensor<40x160xf16>
    %790 = "mix.prim.cos"(%789) : (tensor<40x160xf16>) -> tensor<40x160xf16>
    %791 = "mix.prim.slice"(%790) <{dim = 0 : i64, end = 2147483647 : i64, start = 0 : i64, step = 1 : i64}> : (tensor<40x160xf16>) -> tensor<40x160xf16>
    %792 = "mix.prim.unsqueeze"(%791) <{axis = 1 : i32}> : (tensor<40x160xf16>) -> tensor<40x1x160xf16>
    %793 = "mix.prim.slice"(%792) <{dim = 2 : i64, end = 2147483647 : i64, start = 0 : i64, step = 1 : i64}> : (tensor<40x1x160xf16>) -> tensor<40x1x160xf16>
    %794 = "mix.prim.constant"() <{value = 1.000000e+00 : f16}> : () -> f16
    %795 = "mix.prim.mul"(%793, %794) : (tensor<40x1x160xf16>, f16) -> tensor<40x1x160xf16>
    %796 = "mix.prim.sin"(%789) : (tensor<40x160xf16>) -> tensor<40x160xf16>
    %797 = "mix.prim.slice"(%796) <{dim = 0 : i64, end = 2147483647 : i64, start = 0 : i64, step = 1 : i64}> : (tensor<40x160xf16>) -> tensor<40x160xf16>
    %798 = "mix.prim.unsqueeze"(%797) <{axis = 1 : i32}> : (tensor<40x160xf16>) -> tensor<40x1x160xf16>
    %799 = "mix.prim.slice"(%798) <{dim = 2 : i64, end = 2147483647 : i64, start = 0 : i64, step = 1 : i64}> : (tensor<40x1x160xf16>) -> tensor<40x1x160xf16>
    %800 = "mix.prim.constant"() <{value = 1.000000e+00 : f16}> : () -> f16
    %801 = "mix.prim.mul"(%799, %800) : (tensor<40x1x160xf16>, f16) -> tensor<40x1x160xf16>
    %802 = "mix.prim.slice"(%795) <{dim = 0 : i64, end = 40 : i64, start = 0 : i64, step = 1 : i64}> : (tensor<40x1x160xf16>) -> tensor<40x1x160xf16>
    %803 = "mix.prim.slice"(%801) <{dim = 0 : i64, end = 40 : i64, start = 0 : i64, step = 1 : i64}> : (tensor<40x1x160xf16>) -> tensor<40x1x160xf16>
    %804 = "mix.prim.mul"(%772, %802) : (tensor<40x32x160xf16>, tensor<40x1x160xf16>) -> tensor<40x32x160xf16>
    %805 = "mix.prim.slice"(%772) <{dim = 2 : i64, end = 80 : i64, start = 0 : i64, step = 1 : i64}> : (tensor<40x32x160xf16>) -> tensor<40x32x80xf16>
    %806 = "mix.prim.slice"(%772) <{dim = 2 : i64, end = 2147483647 : i64, start = 80 : i64, step = 1 : i64}> : (tensor<40x32x160xf16>) -> tensor<40x32x80xf16>
    %807 = "mix.prim.neg"(%806) : (tensor<40x32x80xf16>) -> tensor<40x32x80xf16>
    %808 = "mix.prim.concat"(%807, %805) <{axis = 2 : i64}> : (tensor<40x32x80xf16>, tensor<40x32x80xf16>) -> tensor<40x32x160xf16>
    %809 = "mix.prim.mul"(%808, %803) : (tensor<40x32x160xf16>, tensor<40x1x160xf16>) -> tensor<40x32x160xf16>
    %810 = "mix.prim.add"(%804, %809) : (tensor<40x32x160xf16>, tensor<40x32x160xf16>) -> tensor<40x32x160xf16>
    %811 = "mix.prim.mul"(%773, %802) : (tensor<40x32x160xf16>, tensor<40x1x160xf16>) -> tensor<40x32x160xf16>
    %812 = "mix.prim.slice"(%773) <{dim = 2 : i64, end = 80 : i64, start = 0 : i64, step = 1 : i64}> : (tensor<40x32x160xf16>) -> tensor<40x32x80xf16>
    %813 = "mix.prim.slice"(%773) <{dim = 2 : i64, end = 2147483647 : i64, start = 80 : i64, step = 1 : i64}> : (tensor<40x32x160xf16>) -> tensor<40x32x80xf16>
    %814 = "mix.prim.neg"(%813) : (tensor<40x32x80xf16>) -> tensor<40x32x80xf16>
    %815 = "mix.prim.concat"(%814, %812) <{axis = 2 : i64}> : (tensor<40x32x80xf16>, tensor<40x32x80xf16>) -> tensor<40x32x160xf16>
    %816 = "mix.prim.mul"(%815, %803) : (tensor<40x32x160xf16>, tensor<40x1x160xf16>) -> tensor<40x32x160xf16>
    %817 = "mix.prim.add"(%811, %816) : (tensor<40x32x160xf16>, tensor<40x32x160xf16>) -> tensor<40x32x160xf16>
    %818 = "mix.prim.reshape"(%810) <{shape = [40, 1, 32, 160]}> : (tensor<40x32x160xf16>) -> tensor<40x1x32x160xf16>
    %819 = "mix.prim.reshape"(%817) <{shape = [40, 1, 32, 160]}> : (tensor<40x32x160xf16>) -> tensor<40x1x32x160xf16>
    %820 = "mix.prim.reshape"(%818) <{shape = [40, 32, 160]}> : (tensor<40x1x32x160xf16>) -> tensor<40x32x160xf16>
    %821 = "mix.prim.reshape"(%819) <{shape = [40, 32, 160]}> : (tensor<40x1x32x160xf16>) -> tensor<40x32x160xf16>
    %822 = "mix.prim.transpose"(%820) <{dim1 = 0 : i32, dim2 = 1 : i32}> : (tensor<40x32x160xf16>) -> tensor<32x40x160xf16>
    %823 = "mix.prim.transpose"(%821) <{dim1 = 0 : i32, dim2 = 1 : i32}> : (tensor<40x32x160xf16>) -> tensor<32x40x160xf16>
    %824 = "mix.prim.transpose"(%823) <{dim1 = 1 : i32, dim2 = 2 : i32}> : (tensor<32x40x160xf16>) -> tensor<32x160x40xf16>
    %825 = "mix.prim.unsqueeze"(%822) <{axis = 3 : i32}> : (tensor<32x40x160xf16>) -> tensor<32x40x160x1xf16>
    %826 = "mix.prim.permute"(%825) <{dims = [0, 1, 3, 2]}> : (tensor<32x40x160x1xf16>) -> tensor<32x40x1x160xf16>
    %827 = "mix.prim.unsqueeze"(%824) <{axis = 3 : i32}> : (tensor<32x160x40xf16>) -> tensor<32x160x40x1xf16>
    %828 = "mix.prim.permute"(%827) <{dims = [0, 3, 2, 1]}> : (tensor<32x160x40x1xf16>) -> tensor<32x1x40x160xf16>
    %829 = "mix.prim.permute"(%826) <{dims = [0, 1, 3, 2]}> : (tensor<32x40x1x160xf16>) -> tensor<32x40x160x1xf16>
    %830 = "mix.prim.reshape"(%829) <{shape = [32, 40, 160]}> : (tensor<32x40x160x1xf16>) -> tensor<32x40x160xf16>
    %831 = "mix.prim.permute"(%828) <{dims = [0, 3, 2, 1]}> : (tensor<32x1x40x160xf16>) -> tensor<32x160x40x1xf16>
    %832 = "mix.prim.reshape"(%831) <{shape = [32, 160, 40]}> : (tensor<32x160x40x1xf16>) -> tensor<32x160x40xf16>
    %833 = "mix.prim.batch_matmul"(%830, %832) : (tensor<32x40x160xf16>, tensor<32x160x40xf16>) -> tensor<32x40x40xf16>
    %834 = "mix.prim.reshape"(%833) <{shape = [32, 40, 1, 40]}> : (tensor<32x40x40xf16>) -> tensor<32x40x1x40xf16>
    %835 = "mix.prim.permute"(%834) <{dims = [0, 1, 3, 2]}> : (tensor<32x40x1x40xf16>) -> tensor<32x40x40x1xf16>
    %836 = "mix.prim.reshape"(%835) <{shape = [32, 40, 40]}> : (tensor<32x40x40x1xf16>) -> tensor<32x40x40xf16>
    %837 = "mix.prim.constant"() <{value = 7.904050e-02 : f16}> : () -> f16
    %838 = "mix.prim.mul"(%836, %837) : (tensor<32x40x40xf16>, f16) -> tensor<32x40x40xf16>
    %839 = "mix.prim.reshape"(%838) <{shape = [1, 32, 40, 40]}> : (tensor<32x40x40xf16>) -> tensor<1x32x40x40xf16>
    %840 = "mix.comp.masked_fill"(%839, %1) <{value = 0xFC00 : f16}> : (tensor<1x32x40x40xf16>, tensor<1x1x5x5xi1>) -> tensor<1x32x40x40xf16>
    %841 = "mix.comp.softmax"(%840) <{axis = -1 : si32}> : (tensor<1x32x40x40xf16>) -> tensor<1x32x40x40xf16>
    %842 = "mix.prim.reshape"(%841) <{shape = [32, 40, 40]}> : (tensor<1x32x40x40xf16>) -> tensor<32x40x40xf16>
    %843 = "mix.prim.reshape"(%771) <{shape = [40, 32, 160]}> : (tensor<40x1x32x160xf16>) -> tensor<40x32x160xf16>
    %844 = "mix.prim.transpose"(%843) <{dim1 = 0 : i32, dim2 = 1 : i32}> : (tensor<40x32x160xf16>) -> tensor<32x40x160xf16>
    %845 = "mix.prim.batch_matmul"(%842, %844) : (tensor<32x40x40xf16>, tensor<32x40x160xf16>) -> tensor<32x40x160xf16>
    %846 = "mix.prim.reshape"(%845) <{shape = [1, 32, 40, 160]}> : (tensor<32x40x160xf16>) -> tensor<1x32x40x160xf16>
    %847 = "mix.prim.permute"(%846) <{dims = [0, 2, 1, 3]}> : (tensor<1x32x40x160xf16>) -> tensor<1x40x32x160xf16>
    %848 = "mix.prim.reshape"(%847) <{shape = [1, 40, 5120]}> : (tensor<1x40x32x160xf16>) -> tensor<1x40x5120xf16>
    %849 = "mix.prim.reshape"(%848) <{shape = [40, 5120]}> : (tensor<1x40x5120xf16>) -> tensor<40x5120xf16>
    %850 = "mix.prim.transpose"(%757) <{dim1 = 0 : i32, dim2 = 1 : i32}> : (tensor<5120x5120xf16>) -> tensor<5120x5120xf16>
    %851 = "mix.prim.matmul"(%849, %850) : (tensor<40x5120xf16>, tensor<5120x5120xf16>) -> tensor<40x5120xf16>
    %852 = "mix.prim.add"(%851, %758) : (tensor<40x5120xf16>, tensor<5120xf16>) -> tensor<40x5120xf16>
    %853 = "mix.prim.reshape"(%852) <{shape = [1, 40, 5120]}> : (tensor<40x5120xf16>) -> tensor<1x40x5120xf16>
    %854 = "mix.prim.mul"(%745, %853) : (tensor<1x40x5120xf16>, tensor<1x40x5120xf16>) -> tensor<1x40x5120xf16>
    %855 = "mix.comp.weight"() <{param_loc = "transformer.h.6.post_attention_layernorm.weight"}> : () -> tensor<5120xf16>
    %856 = "arith.constant"() <{value = dense<1.000000e+00> : tensor<1xf16>}> : () -> tensor<1xf16>
    %857 = "mix.prim.pow"(%854, %856) : (tensor<1x40x5120xf16>, tensor<1xf16>) -> tensor<1x40x5120xf16>
    %858 = "mix.comp.mean"(%857) <{dims = [2 : i32], keepDim = true}> : (tensor<1x40x5120xf16>) -> tensor<1x40x1xf16>
    %859 = "arith.constant"() <{value = 1.013280e-06 : f16}> : () -> f16
    %860 = "mix.prim.add"(%858, %859) : (tensor<1x40x1xf16>, f16) -> tensor<1x40x1xf16>
    %861 = "mix.prim.rsqrt"(%860) : (tensor<1x40x1xf16>) -> tensor<1x40x1xf16>
    %862 = "mix.prim.mul"(%854, %861) : (tensor<1x40x5120xf16>, tensor<1x40x1xf16>) -> tensor<1x40x5120xf16>
    %863 = "mix.prim.mul"(%855, %862) : (tensor<5120xf16>, tensor<1x40x5120xf16>) -> tensor<1x40x5120xf16>
    %864 = "mix.module.linear"(%863) <{dtype = f16, in_feature = 5120 : i32, out_feature = 12288 : i32, params_loc = "transformer.h.6.mlp.gate_proj"}> : (tensor<1x40x5120xf16>) -> tensor<1x40x12288xf16>
    %865 = "mix.comp.silu"(%864) : (tensor<1x40x12288xf16>) -> tensor<1x40x12288xf16>
    %866 = "mix.module.linear"(%863) <{dtype = f16, in_feature = 5120 : i32, out_feature = 12288 : i32, params_loc = "transformer.h.6.mlp.up_proj"}> : (tensor<1x40x5120xf16>) -> tensor<1x40x12288xf16>
    %867 = "mix.prim.mul"(%865, %866) : (tensor<1x40x12288xf16>, tensor<1x40x12288xf16>) -> tensor<1x40x12288xf16>
    %868 = "mix.module.linear"(%867) <{dtype = f16, has_bias, in_feature = 12288 : i32, out_feature = 5120 : i32, params_loc = "transformer.h.6.mlp.down_proj"}> : (tensor<1x40x12288xf16>) -> tensor<1x40x5120xf16>
    %869 = "mix.prim.add"(%868, %854) : (tensor<1x40x5120xf16>, tensor<1x40x5120xf16>) -> tensor<1x40x5120xf16>
    %870 = "mix.comp.weight"() <{param_loc = "transformer.h.7.input_layernorm.weight"}> : () -> tensor<5120xf16>
    %871 = "arith.constant"() <{value = dense<1.000000e+00> : tensor<1xf16>}> : () -> tensor<1xf16>
    %872 = "mix.prim.pow"(%869, %871) : (tensor<1x40x5120xf16>, tensor<1xf16>) -> tensor<1x40x5120xf16>
    %873 = "mix.comp.mean"(%872) <{dims = [2 : i32], keepDim = true}> : (tensor<1x40x5120xf16>) -> tensor<1x40x1xf16>
    %874 = "arith.constant"() <{value = 1.013280e-06 : f16}> : () -> f16
    %875 = "mix.prim.add"(%873, %874) : (tensor<1x40x1xf16>, f16) -> tensor<1x40x1xf16>
    %876 = "mix.prim.rsqrt"(%875) : (tensor<1x40x1xf16>) -> tensor<1x40x1xf16>
    %877 = "mix.prim.mul"(%869, %876) : (tensor<1x40x5120xf16>, tensor<1x40x1xf16>) -> tensor<1x40x5120xf16>
    %878 = "mix.prim.mul"(%870, %877) : (tensor<5120xf16>, tensor<1x40x5120xf16>) -> tensor<1x40x5120xf16>
    %879 = "mix.comp.weight"() <{param_loc = "transformer.h.7.self_attention.query.weight"}> : () -> tensor<5120x5120xf16>
    %880 = "mix.comp.weight"() <{param_loc = "transformer.h.7.self_attention.key_value.weight"}> : () -> tensor<10240x5120xf16>
    %881 = "mix.comp.weight"() <{param_loc = "transformer.h.7.self_attention.dense.weight"}> : () -> tensor<5120x5120xf16>
    %882 = "mix.comp.weight"() <{param_loc = "transformer.h.7.self_attention.dense.bias"}> : () -> tensor<5120xf16>
    %883 = "mix.prim.transpose"(%878) <{dim1 = 0 : i32, dim2 = 1 : i32}> : (tensor<1x40x5120xf16>) -> tensor<40x1x5120xf16>
    %884 = "mix.prim.transpose"(%879) <{dim1 = 0 : i32, dim2 = 1 : i32}> : (tensor<5120x5120xf16>) -> tensor<5120x5120xf16>
    %885 = "mix.prim.reshape"(%883) <{shape = [40, 5120]}> : (tensor<40x1x5120xf16>) -> tensor<40x5120xf16>
    %886 = "mix.prim.matmul"(%885, %884) : (tensor<40x5120xf16>, tensor<5120x5120xf16>) -> tensor<40x5120xf16>
    %887 = "mix.prim.reshape"(%886) <{shape = [40, 1, 5120]}> : (tensor<40x5120xf16>) -> tensor<40x1x5120xf16>
    %888 = "mix.prim.reshape"(%887) <{shape = [40, 1, 32, 160]}> : (tensor<40x1x5120xf16>) -> tensor<40x1x32x160xf16>
    %889 = "mix.prim.transpose"(%880) <{dim1 = 0 : i32, dim2 = 1 : i32}> : (tensor<10240x5120xf16>) -> tensor<5120x10240xf16>
    %890 = "mix.prim.reshape"(%883) <{shape = [40, 5120]}> : (tensor<40x1x5120xf16>) -> tensor<40x5120xf16>
    %891 = "mix.prim.matmul"(%890, %889) : (tensor<40x5120xf16>, tensor<5120x10240xf16>) -> tensor<40x10240xf16>
    %892 = "mix.prim.reshape"(%891) <{shape = [40, 1, 10240]}> : (tensor<40x10240xf16>) -> tensor<40x1x10240xf16>
    %893 = "mix.prim.reshape"(%892) <{shape = [40, 1, 32, 320]}> : (tensor<40x1x10240xf16>) -> tensor<40x1x32x320xf16>
    %894 = "mix.prim.slice"(%893) <{dim = 3 : i64, end = 160 : i64, start = 0 : i64, step = 1 : i64}> : (tensor<40x1x32x320xf16>) -> tensor<40x1x32x160xf16>
    %895 = "mix.prim.slice"(%893) <{dim = 3 : i64, end = 320 : i64, start = 160 : i64, step = 1 : i64}> : (tensor<40x1x32x320xf16>) -> tensor<40x1x32x160xf16>
    %896 = "mix.prim.reshape"(%888) <{shape = [40, 32, -1]}> : (tensor<40x1x32x160xf16>) -> tensor<40x32x160xf16>
    %897 = "mix.prim.reshape"(%894) <{shape = [40, 32, -1]}> : (tensor<40x1x32x160xf16>) -> tensor<40x32x160xf16>
    %898 = "mix.prim.constant"() <{value = dense<[0, 1, 2, 3, 4, 5, 6, 7, 8, 9, 10, 11, 12, 13, 14, 15, 16, 17, 18, 19, 20, 21, 22, 23, 24, 25, 26, 27, 28, 29, 30, 31, 32, 33, 34, 35, 36, 37, 38, 39, 40, 41, 42, 43, 44, 45, 46, 47, 48, 49, 50, 51, 52, 53, 54, 55, 56, 57, 58, 59, 60, 61, 62, 63, 64, 65, 66, 67, 68, 69, 70, 71, 72, 73, 74, 75, 76, 77, 78, 79]> : tensor<80xi32>}> : () -> tensor<80xi32>
    %899 = "mix.prim.convert"(%898) <{element_ty = f16}> : (tensor<80xi32>) -> tensor<80xf16>
    %900 = "mix.prim.constant"() <{value = 160 : i32}> : () -> i32
    %901 = "mix.prim.div"(%899, %900) : (tensor<80xf16>, i32) -> tensor<80xf16>
    %902 = "mix.prim.constant"() <{value = 3.041600e+04 : f16}> : () -> f16
    %903 = "mix.prim.pow"(%902, %901) : (f16, tensor<80xf16>) -> tensor<80xf16>
    %904 = "mix.prim.reciprocal"(%903) : (tensor<80xf16>) -> tensor<80xf16>
    %905 = "mix.prim.constant"() <{value = 1.000000e+00 : f16}> : () -> f16
    %906 = "mix.prim.mul"(%905, %904) : (f16, tensor<80xf16>) -> tensor<80xf16>
    %907 = "mix.prim.constant"() <{value = dense<1.000000e+00> : tensor<40xf16>}> : () -> tensor<40xf16>
    %908 = "mix.prim.unsqueeze"(%907) <{axis = 1 : i32}> : (tensor<40xf16>) -> tensor<40x1xf16>
    %909 = "mix.prim.permute"(%908) <{dims = [0, 1]}> : (tensor<40x1xf16>) -> tensor<40x1xf16>
    %910 = "mix.prim.unsqueeze"(%906) <{axis = 1 : i32}> : (tensor<80xf16>) -> tensor<80x1xf16>
    %911 = "mix.prim.permute"(%910) <{dims = [1, 0]}> : (tensor<80x1xf16>) -> tensor<1x80xf16>
    %912 = "mix.prim.mul"(%909, %911) : (tensor<40x1xf16>, tensor<1x80xf16>) -> tensor<40x80xf16>
    %913 = "mix.prim.concat"(%912, %912) <{axis = 1 : i64}> : (tensor<40x80xf16>, tensor<40x80xf16>) -> tensor<40x160xf16>
    %914 = "mix.prim.cos"(%913) : (tensor<40x160xf16>) -> tensor<40x160xf16>
    %915 = "mix.prim.slice"(%914) <{dim = 0 : i64, end = 2147483647 : i64, start = 0 : i64, step = 1 : i64}> : (tensor<40x160xf16>) -> tensor<40x160xf16>
    %916 = "mix.prim.unsqueeze"(%915) <{axis = 1 : i32}> : (tensor<40x160xf16>) -> tensor<40x1x160xf16>
    %917 = "mix.prim.slice"(%916) <{dim = 2 : i64, end = 2147483647 : i64, start = 0 : i64, step = 1 : i64}> : (tensor<40x1x160xf16>) -> tensor<40x1x160xf16>
    %918 = "mix.prim.constant"() <{value = 1.000000e+00 : f16}> : () -> f16
    %919 = "mix.prim.mul"(%917, %918) : (tensor<40x1x160xf16>, f16) -> tensor<40x1x160xf16>
    %920 = "mix.prim.sin"(%913) : (tensor<40x160xf16>) -> tensor<40x160xf16>
    %921 = "mix.prim.slice"(%920) <{dim = 0 : i64, end = 2147483647 : i64, start = 0 : i64, step = 1 : i64}> : (tensor<40x160xf16>) -> tensor<40x160xf16>
    %922 = "mix.prim.unsqueeze"(%921) <{axis = 1 : i32}> : (tensor<40x160xf16>) -> tensor<40x1x160xf16>
    %923 = "mix.prim.slice"(%922) <{dim = 2 : i64, end = 2147483647 : i64, start = 0 : i64, step = 1 : i64}> : (tensor<40x1x160xf16>) -> tensor<40x1x160xf16>
    %924 = "mix.prim.constant"() <{value = 1.000000e+00 : f16}> : () -> f16
    %925 = "mix.prim.mul"(%923, %924) : (tensor<40x1x160xf16>, f16) -> tensor<40x1x160xf16>
    %926 = "mix.prim.slice"(%919) <{dim = 0 : i64, end = 40 : i64, start = 0 : i64, step = 1 : i64}> : (tensor<40x1x160xf16>) -> tensor<40x1x160xf16>
    %927 = "mix.prim.slice"(%925) <{dim = 0 : i64, end = 40 : i64, start = 0 : i64, step = 1 : i64}> : (tensor<40x1x160xf16>) -> tensor<40x1x160xf16>
    %928 = "mix.prim.mul"(%896, %926) : (tensor<40x32x160xf16>, tensor<40x1x160xf16>) -> tensor<40x32x160xf16>
    %929 = "mix.prim.slice"(%896) <{dim = 2 : i64, end = 80 : i64, start = 0 : i64, step = 1 : i64}> : (tensor<40x32x160xf16>) -> tensor<40x32x80xf16>
    %930 = "mix.prim.slice"(%896) <{dim = 2 : i64, end = 2147483647 : i64, start = 80 : i64, step = 1 : i64}> : (tensor<40x32x160xf16>) -> tensor<40x32x80xf16>
    %931 = "mix.prim.neg"(%930) : (tensor<40x32x80xf16>) -> tensor<40x32x80xf16>
    %932 = "mix.prim.concat"(%931, %929) <{axis = 2 : i64}> : (tensor<40x32x80xf16>, tensor<40x32x80xf16>) -> tensor<40x32x160xf16>
    %933 = "mix.prim.mul"(%932, %927) : (tensor<40x32x160xf16>, tensor<40x1x160xf16>) -> tensor<40x32x160xf16>
    %934 = "mix.prim.add"(%928, %933) : (tensor<40x32x160xf16>, tensor<40x32x160xf16>) -> tensor<40x32x160xf16>
    %935 = "mix.prim.mul"(%897, %926) : (tensor<40x32x160xf16>, tensor<40x1x160xf16>) -> tensor<40x32x160xf16>
    %936 = "mix.prim.slice"(%897) <{dim = 2 : i64, end = 80 : i64, start = 0 : i64, step = 1 : i64}> : (tensor<40x32x160xf16>) -> tensor<40x32x80xf16>
    %937 = "mix.prim.slice"(%897) <{dim = 2 : i64, end = 2147483647 : i64, start = 80 : i64, step = 1 : i64}> : (tensor<40x32x160xf16>) -> tensor<40x32x80xf16>
    %938 = "mix.prim.neg"(%937) : (tensor<40x32x80xf16>) -> tensor<40x32x80xf16>
    %939 = "mix.prim.concat"(%938, %936) <{axis = 2 : i64}> : (tensor<40x32x80xf16>, tensor<40x32x80xf16>) -> tensor<40x32x160xf16>
    %940 = "mix.prim.mul"(%939, %927) : (tensor<40x32x160xf16>, tensor<40x1x160xf16>) -> tensor<40x32x160xf16>
    %941 = "mix.prim.add"(%935, %940) : (tensor<40x32x160xf16>, tensor<40x32x160xf16>) -> tensor<40x32x160xf16>
    %942 = "mix.prim.reshape"(%934) <{shape = [40, 1, 32, 160]}> : (tensor<40x32x160xf16>) -> tensor<40x1x32x160xf16>
    %943 = "mix.prim.reshape"(%941) <{shape = [40, 1, 32, 160]}> : (tensor<40x32x160xf16>) -> tensor<40x1x32x160xf16>
    %944 = "mix.prim.reshape"(%942) <{shape = [40, 32, 160]}> : (tensor<40x1x32x160xf16>) -> tensor<40x32x160xf16>
    %945 = "mix.prim.reshape"(%943) <{shape = [40, 32, 160]}> : (tensor<40x1x32x160xf16>) -> tensor<40x32x160xf16>
    %946 = "mix.prim.transpose"(%944) <{dim1 = 0 : i32, dim2 = 1 : i32}> : (tensor<40x32x160xf16>) -> tensor<32x40x160xf16>
    %947 = "mix.prim.transpose"(%945) <{dim1 = 0 : i32, dim2 = 1 : i32}> : (tensor<40x32x160xf16>) -> tensor<32x40x160xf16>
    %948 = "mix.prim.transpose"(%947) <{dim1 = 1 : i32, dim2 = 2 : i32}> : (tensor<32x40x160xf16>) -> tensor<32x160x40xf16>
    %949 = "mix.prim.unsqueeze"(%946) <{axis = 3 : i32}> : (tensor<32x40x160xf16>) -> tensor<32x40x160x1xf16>
    %950 = "mix.prim.permute"(%949) <{dims = [0, 1, 3, 2]}> : (tensor<32x40x160x1xf16>) -> tensor<32x40x1x160xf16>
    %951 = "mix.prim.unsqueeze"(%948) <{axis = 3 : i32}> : (tensor<32x160x40xf16>) -> tensor<32x160x40x1xf16>
    %952 = "mix.prim.permute"(%951) <{dims = [0, 3, 2, 1]}> : (tensor<32x160x40x1xf16>) -> tensor<32x1x40x160xf16>
    %953 = "mix.prim.permute"(%950) <{dims = [0, 1, 3, 2]}> : (tensor<32x40x1x160xf16>) -> tensor<32x40x160x1xf16>
    %954 = "mix.prim.reshape"(%953) <{shape = [32, 40, 160]}> : (tensor<32x40x160x1xf16>) -> tensor<32x40x160xf16>
    %955 = "mix.prim.permute"(%952) <{dims = [0, 3, 2, 1]}> : (tensor<32x1x40x160xf16>) -> tensor<32x160x40x1xf16>
    %956 = "mix.prim.reshape"(%955) <{shape = [32, 160, 40]}> : (tensor<32x160x40x1xf16>) -> tensor<32x160x40xf16>
    %957 = "mix.prim.batch_matmul"(%954, %956) : (tensor<32x40x160xf16>, tensor<32x160x40xf16>) -> tensor<32x40x40xf16>
    %958 = "mix.prim.reshape"(%957) <{shape = [32, 40, 1, 40]}> : (tensor<32x40x40xf16>) -> tensor<32x40x1x40xf16>
    %959 = "mix.prim.permute"(%958) <{dims = [0, 1, 3, 2]}> : (tensor<32x40x1x40xf16>) -> tensor<32x40x40x1xf16>
    %960 = "mix.prim.reshape"(%959) <{shape = [32, 40, 40]}> : (tensor<32x40x40x1xf16>) -> tensor<32x40x40xf16>
    %961 = "mix.prim.constant"() <{value = 7.904050e-02 : f16}> : () -> f16
    %962 = "mix.prim.mul"(%960, %961) : (tensor<32x40x40xf16>, f16) -> tensor<32x40x40xf16>
    %963 = "mix.prim.reshape"(%962) <{shape = [1, 32, 40, 40]}> : (tensor<32x40x40xf16>) -> tensor<1x32x40x40xf16>
    %964 = "mix.comp.masked_fill"(%963, %1) <{value = 0xFC00 : f16}> : (tensor<1x32x40x40xf16>, tensor<1x1x5x5xi1>) -> tensor<1x32x40x40xf16>
    %965 = "mix.comp.softmax"(%964) <{axis = -1 : si32}> : (tensor<1x32x40x40xf16>) -> tensor<1x32x40x40xf16>
    %966 = "mix.prim.reshape"(%965) <{shape = [32, 40, 40]}> : (tensor<1x32x40x40xf16>) -> tensor<32x40x40xf16>
    %967 = "mix.prim.reshape"(%895) <{shape = [40, 32, 160]}> : (tensor<40x1x32x160xf16>) -> tensor<40x32x160xf16>
    %968 = "mix.prim.transpose"(%967) <{dim1 = 0 : i32, dim2 = 1 : i32}> : (tensor<40x32x160xf16>) -> tensor<32x40x160xf16>
    %969 = "mix.prim.batch_matmul"(%966, %968) : (tensor<32x40x40xf16>, tensor<32x40x160xf16>) -> tensor<32x40x160xf16>
    %970 = "mix.prim.reshape"(%969) <{shape = [1, 32, 40, 160]}> : (tensor<32x40x160xf16>) -> tensor<1x32x40x160xf16>
    %971 = "mix.prim.permute"(%970) <{dims = [0, 2, 1, 3]}> : (tensor<1x32x40x160xf16>) -> tensor<1x40x32x160xf16>
    %972 = "mix.prim.reshape"(%971) <{shape = [1, 40, 5120]}> : (tensor<1x40x32x160xf16>) -> tensor<1x40x5120xf16>
    %973 = "mix.prim.reshape"(%972) <{shape = [40, 5120]}> : (tensor<1x40x5120xf16>) -> tensor<40x5120xf16>
    %974 = "mix.prim.transpose"(%881) <{dim1 = 0 : i32, dim2 = 1 : i32}> : (tensor<5120x5120xf16>) -> tensor<5120x5120xf16>
    %975 = "mix.prim.matmul"(%973, %974) : (tensor<40x5120xf16>, tensor<5120x5120xf16>) -> tensor<40x5120xf16>
    %976 = "mix.prim.add"(%975, %882) : (tensor<40x5120xf16>, tensor<5120xf16>) -> tensor<40x5120xf16>
    %977 = "mix.prim.reshape"(%976) <{shape = [1, 40, 5120]}> : (tensor<40x5120xf16>) -> tensor<1x40x5120xf16>
    %978 = "mix.prim.mul"(%869, %977) : (tensor<1x40x5120xf16>, tensor<1x40x5120xf16>) -> tensor<1x40x5120xf16>
    %979 = "mix.comp.weight"() <{param_loc = "transformer.h.7.post_attention_layernorm.weight"}> : () -> tensor<5120xf16>
    %980 = "arith.constant"() <{value = dense<1.000000e+00> : tensor<1xf16>}> : () -> tensor<1xf16>
    %981 = "mix.prim.pow"(%978, %980) : (tensor<1x40x5120xf16>, tensor<1xf16>) -> tensor<1x40x5120xf16>
    %982 = "mix.comp.mean"(%981) <{dims = [2 : i32], keepDim = true}> : (tensor<1x40x5120xf16>) -> tensor<1x40x1xf16>
    %983 = "arith.constant"() <{value = 1.013280e-06 : f16}> : () -> f16
    %984 = "mix.prim.add"(%982, %983) : (tensor<1x40x1xf16>, f16) -> tensor<1x40x1xf16>
    %985 = "mix.prim.rsqrt"(%984) : (tensor<1x40x1xf16>) -> tensor<1x40x1xf16>
    %986 = "mix.prim.mul"(%978, %985) : (tensor<1x40x5120xf16>, tensor<1x40x1xf16>) -> tensor<1x40x5120xf16>
    %987 = "mix.prim.mul"(%979, %986) : (tensor<5120xf16>, tensor<1x40x5120xf16>) -> tensor<1x40x5120xf16>
    %988 = "mix.module.linear"(%987) <{dtype = f16, in_feature = 5120 : i32, out_feature = 12288 : i32, params_loc = "transformer.h.7.mlp.gate_proj"}> : (tensor<1x40x5120xf16>) -> tensor<1x40x12288xf16>
    %989 = "mix.comp.silu"(%988) : (tensor<1x40x12288xf16>) -> tensor<1x40x12288xf16>
    %990 = "mix.module.linear"(%987) <{dtype = f16, in_feature = 5120 : i32, out_feature = 12288 : i32, params_loc = "transformer.h.7.mlp.up_proj"}> : (tensor<1x40x5120xf16>) -> tensor<1x40x12288xf16>
    %991 = "mix.prim.mul"(%989, %990) : (tensor<1x40x12288xf16>, tensor<1x40x12288xf16>) -> tensor<1x40x12288xf16>
    %992 = "mix.module.linear"(%991) <{dtype = f16, has_bias, in_feature = 12288 : i32, out_feature = 5120 : i32, params_loc = "transformer.h.7.mlp.down_proj"}> : (tensor<1x40x12288xf16>) -> tensor<1x40x5120xf16>
    %993 = "mix.prim.add"(%992, %978) : (tensor<1x40x5120xf16>, tensor<1x40x5120xf16>) -> tensor<1x40x5120xf16>
    %994 = "mix.comp.weight"() <{param_loc = "transformer.h.8.input_layernorm.weight"}> : () -> tensor<5120xf16>
    %995 = "arith.constant"() <{value = dense<1.000000e+00> : tensor<1xf16>}> : () -> tensor<1xf16>
    %996 = "mix.prim.pow"(%993, %995) : (tensor<1x40x5120xf16>, tensor<1xf16>) -> tensor<1x40x5120xf16>
    %997 = "mix.comp.mean"(%996) <{dims = [2 : i32], keepDim = true}> : (tensor<1x40x5120xf16>) -> tensor<1x40x1xf16>
    %998 = "arith.constant"() <{value = 1.013280e-06 : f16}> : () -> f16
    %999 = "mix.prim.add"(%997, %998) : (tensor<1x40x1xf16>, f16) -> tensor<1x40x1xf16>
    %1000 = "mix.prim.rsqrt"(%999) : (tensor<1x40x1xf16>) -> tensor<1x40x1xf16>
    %1001 = "mix.prim.mul"(%993, %1000) : (tensor<1x40x5120xf16>, tensor<1x40x1xf16>) -> tensor<1x40x5120xf16>
    %1002 = "mix.prim.mul"(%994, %1001) : (tensor<5120xf16>, tensor<1x40x5120xf16>) -> tensor<1x40x5120xf16>
    %1003 = "mix.comp.weight"() <{param_loc = "transformer.h.8.self_attention.query.weight"}> : () -> tensor<5120x5120xf16>
    %1004 = "mix.comp.weight"() <{param_loc = "transformer.h.8.self_attention.key_value.weight"}> : () -> tensor<10240x5120xf16>
    %1005 = "mix.comp.weight"() <{param_loc = "transformer.h.8.self_attention.dense.weight"}> : () -> tensor<5120x5120xf16>
    %1006 = "mix.comp.weight"() <{param_loc = "transformer.h.8.self_attention.dense.bias"}> : () -> tensor<5120xf16>
    %1007 = "mix.prim.transpose"(%1002) <{dim1 = 0 : i32, dim2 = 1 : i32}> : (tensor<1x40x5120xf16>) -> tensor<40x1x5120xf16>
    %1008 = "mix.prim.transpose"(%1003) <{dim1 = 0 : i32, dim2 = 1 : i32}> : (tensor<5120x5120xf16>) -> tensor<5120x5120xf16>
    %1009 = "mix.prim.reshape"(%1007) <{shape = [40, 5120]}> : (tensor<40x1x5120xf16>) -> tensor<40x5120xf16>
    %1010 = "mix.prim.matmul"(%1009, %1008) : (tensor<40x5120xf16>, tensor<5120x5120xf16>) -> tensor<40x5120xf16>
    %1011 = "mix.prim.reshape"(%1010) <{shape = [40, 1, 5120]}> : (tensor<40x5120xf16>) -> tensor<40x1x5120xf16>
    %1012 = "mix.prim.reshape"(%1011) <{shape = [40, 1, 32, 160]}> : (tensor<40x1x5120xf16>) -> tensor<40x1x32x160xf16>
    %1013 = "mix.prim.transpose"(%1004) <{dim1 = 0 : i32, dim2 = 1 : i32}> : (tensor<10240x5120xf16>) -> tensor<5120x10240xf16>
    %1014 = "mix.prim.reshape"(%1007) <{shape = [40, 5120]}> : (tensor<40x1x5120xf16>) -> tensor<40x5120xf16>
    %1015 = "mix.prim.matmul"(%1014, %1013) : (tensor<40x5120xf16>, tensor<5120x10240xf16>) -> tensor<40x10240xf16>
    %1016 = "mix.prim.reshape"(%1015) <{shape = [40, 1, 10240]}> : (tensor<40x10240xf16>) -> tensor<40x1x10240xf16>
    %1017 = "mix.prim.reshape"(%1016) <{shape = [40, 1, 32, 320]}> : (tensor<40x1x10240xf16>) -> tensor<40x1x32x320xf16>
    %1018 = "mix.prim.slice"(%1017) <{dim = 3 : i64, end = 160 : i64, start = 0 : i64, step = 1 : i64}> : (tensor<40x1x32x320xf16>) -> tensor<40x1x32x160xf16>
    %1019 = "mix.prim.slice"(%1017) <{dim = 3 : i64, end = 320 : i64, start = 160 : i64, step = 1 : i64}> : (tensor<40x1x32x320xf16>) -> tensor<40x1x32x160xf16>
    %1020 = "mix.prim.reshape"(%1012) <{shape = [40, 32, -1]}> : (tensor<40x1x32x160xf16>) -> tensor<40x32x160xf16>
    %1021 = "mix.prim.reshape"(%1018) <{shape = [40, 32, -1]}> : (tensor<40x1x32x160xf16>) -> tensor<40x32x160xf16>
    %1022 = "mix.prim.constant"() <{value = dense<[0, 1, 2, 3, 4, 5, 6, 7, 8, 9, 10, 11, 12, 13, 14, 15, 16, 17, 18, 19, 20, 21, 22, 23, 24, 25, 26, 27, 28, 29, 30, 31, 32, 33, 34, 35, 36, 37, 38, 39, 40, 41, 42, 43, 44, 45, 46, 47, 48, 49, 50, 51, 52, 53, 54, 55, 56, 57, 58, 59, 60, 61, 62, 63, 64, 65, 66, 67, 68, 69, 70, 71, 72, 73, 74, 75, 76, 77, 78, 79]> : tensor<80xi32>}> : () -> tensor<80xi32>
    %1023 = "mix.prim.convert"(%1022) <{element_ty = f16}> : (tensor<80xi32>) -> tensor<80xf16>
    %1024 = "mix.prim.constant"() <{value = 160 : i32}> : () -> i32
    %1025 = "mix.prim.div"(%1023, %1024) : (tensor<80xf16>, i32) -> tensor<80xf16>
    %1026 = "mix.prim.constant"() <{value = 3.041600e+04 : f16}> : () -> f16
    %1027 = "mix.prim.pow"(%1026, %1025) : (f16, tensor<80xf16>) -> tensor<80xf16>
    %1028 = "mix.prim.reciprocal"(%1027) : (tensor<80xf16>) -> tensor<80xf16>
    %1029 = "mix.prim.constant"() <{value = 1.000000e+00 : f16}> : () -> f16
    %1030 = "mix.prim.mul"(%1029, %1028) : (f16, tensor<80xf16>) -> tensor<80xf16>
    %1031 = "mix.prim.constant"() <{value = dense<1.000000e+00> : tensor<40xf16>}> : () -> tensor<40xf16>
    %1032 = "mix.prim.unsqueeze"(%1031) <{axis = 1 : i32}> : (tensor<40xf16>) -> tensor<40x1xf16>
    %1033 = "mix.prim.permute"(%1032) <{dims = [0, 1]}> : (tensor<40x1xf16>) -> tensor<40x1xf16>
    %1034 = "mix.prim.unsqueeze"(%1030) <{axis = 1 : i32}> : (tensor<80xf16>) -> tensor<80x1xf16>
    %1035 = "mix.prim.permute"(%1034) <{dims = [1, 0]}> : (tensor<80x1xf16>) -> tensor<1x80xf16>
    %1036 = "mix.prim.mul"(%1033, %1035) : (tensor<40x1xf16>, tensor<1x80xf16>) -> tensor<40x80xf16>
    %1037 = "mix.prim.concat"(%1036, %1036) <{axis = 1 : i64}> : (tensor<40x80xf16>, tensor<40x80xf16>) -> tensor<40x160xf16>
    %1038 = "mix.prim.cos"(%1037) : (tensor<40x160xf16>) -> tensor<40x160xf16>
    %1039 = "mix.prim.slice"(%1038) <{dim = 0 : i64, end = 2147483647 : i64, start = 0 : i64, step = 1 : i64}> : (tensor<40x160xf16>) -> tensor<40x160xf16>
    %1040 = "mix.prim.unsqueeze"(%1039) <{axis = 1 : i32}> : (tensor<40x160xf16>) -> tensor<40x1x160xf16>
    %1041 = "mix.prim.slice"(%1040) <{dim = 2 : i64, end = 2147483647 : i64, start = 0 : i64, step = 1 : i64}> : (tensor<40x1x160xf16>) -> tensor<40x1x160xf16>
    %1042 = "mix.prim.constant"() <{value = 1.000000e+00 : f16}> : () -> f16
    %1043 = "mix.prim.mul"(%1041, %1042) : (tensor<40x1x160xf16>, f16) -> tensor<40x1x160xf16>
    %1044 = "mix.prim.sin"(%1037) : (tensor<40x160xf16>) -> tensor<40x160xf16>
    %1045 = "mix.prim.slice"(%1044) <{dim = 0 : i64, end = 2147483647 : i64, start = 0 : i64, step = 1 : i64}> : (tensor<40x160xf16>) -> tensor<40x160xf16>
    %1046 = "mix.prim.unsqueeze"(%1045) <{axis = 1 : i32}> : (tensor<40x160xf16>) -> tensor<40x1x160xf16>
    %1047 = "mix.prim.slice"(%1046) <{dim = 2 : i64, end = 2147483647 : i64, start = 0 : i64, step = 1 : i64}> : (tensor<40x1x160xf16>) -> tensor<40x1x160xf16>
    %1048 = "mix.prim.constant"() <{value = 1.000000e+00 : f16}> : () -> f16
    %1049 = "mix.prim.mul"(%1047, %1048) : (tensor<40x1x160xf16>, f16) -> tensor<40x1x160xf16>
    %1050 = "mix.prim.slice"(%1043) <{dim = 0 : i64, end = 40 : i64, start = 0 : i64, step = 1 : i64}> : (tensor<40x1x160xf16>) -> tensor<40x1x160xf16>
    %1051 = "mix.prim.slice"(%1049) <{dim = 0 : i64, end = 40 : i64, start = 0 : i64, step = 1 : i64}> : (tensor<40x1x160xf16>) -> tensor<40x1x160xf16>
    %1052 = "mix.prim.mul"(%1020, %1050) : (tensor<40x32x160xf16>, tensor<40x1x160xf16>) -> tensor<40x32x160xf16>
    %1053 = "mix.prim.slice"(%1020) <{dim = 2 : i64, end = 80 : i64, start = 0 : i64, step = 1 : i64}> : (tensor<40x32x160xf16>) -> tensor<40x32x80xf16>
    %1054 = "mix.prim.slice"(%1020) <{dim = 2 : i64, end = 2147483647 : i64, start = 80 : i64, step = 1 : i64}> : (tensor<40x32x160xf16>) -> tensor<40x32x80xf16>
    %1055 = "mix.prim.neg"(%1054) : (tensor<40x32x80xf16>) -> tensor<40x32x80xf16>
    %1056 = "mix.prim.concat"(%1055, %1053) <{axis = 2 : i64}> : (tensor<40x32x80xf16>, tensor<40x32x80xf16>) -> tensor<40x32x160xf16>
    %1057 = "mix.prim.mul"(%1056, %1051) : (tensor<40x32x160xf16>, tensor<40x1x160xf16>) -> tensor<40x32x160xf16>
    %1058 = "mix.prim.add"(%1052, %1057) : (tensor<40x32x160xf16>, tensor<40x32x160xf16>) -> tensor<40x32x160xf16>
    %1059 = "mix.prim.mul"(%1021, %1050) : (tensor<40x32x160xf16>, tensor<40x1x160xf16>) -> tensor<40x32x160xf16>
    %1060 = "mix.prim.slice"(%1021) <{dim = 2 : i64, end = 80 : i64, start = 0 : i64, step = 1 : i64}> : (tensor<40x32x160xf16>) -> tensor<40x32x80xf16>
    %1061 = "mix.prim.slice"(%1021) <{dim = 2 : i64, end = 2147483647 : i64, start = 80 : i64, step = 1 : i64}> : (tensor<40x32x160xf16>) -> tensor<40x32x80xf16>
    %1062 = "mix.prim.neg"(%1061) : (tensor<40x32x80xf16>) -> tensor<40x32x80xf16>
    %1063 = "mix.prim.concat"(%1062, %1060) <{axis = 2 : i64}> : (tensor<40x32x80xf16>, tensor<40x32x80xf16>) -> tensor<40x32x160xf16>
    %1064 = "mix.prim.mul"(%1063, %1051) : (tensor<40x32x160xf16>, tensor<40x1x160xf16>) -> tensor<40x32x160xf16>
    %1065 = "mix.prim.add"(%1059, %1064) : (tensor<40x32x160xf16>, tensor<40x32x160xf16>) -> tensor<40x32x160xf16>
    %1066 = "mix.prim.reshape"(%1058) <{shape = [40, 1, 32, 160]}> : (tensor<40x32x160xf16>) -> tensor<40x1x32x160xf16>
    %1067 = "mix.prim.reshape"(%1065) <{shape = [40, 1, 32, 160]}> : (tensor<40x32x160xf16>) -> tensor<40x1x32x160xf16>
    %1068 = "mix.prim.reshape"(%1066) <{shape = [40, 32, 160]}> : (tensor<40x1x32x160xf16>) -> tensor<40x32x160xf16>
    %1069 = "mix.prim.reshape"(%1067) <{shape = [40, 32, 160]}> : (tensor<40x1x32x160xf16>) -> tensor<40x32x160xf16>
    %1070 = "mix.prim.transpose"(%1068) <{dim1 = 0 : i32, dim2 = 1 : i32}> : (tensor<40x32x160xf16>) -> tensor<32x40x160xf16>
    %1071 = "mix.prim.transpose"(%1069) <{dim1 = 0 : i32, dim2 = 1 : i32}> : (tensor<40x32x160xf16>) -> tensor<32x40x160xf16>
    %1072 = "mix.prim.transpose"(%1071) <{dim1 = 1 : i32, dim2 = 2 : i32}> : (tensor<32x40x160xf16>) -> tensor<32x160x40xf16>
    %1073 = "mix.prim.unsqueeze"(%1070) <{axis = 3 : i32}> : (tensor<32x40x160xf16>) -> tensor<32x40x160x1xf16>
    %1074 = "mix.prim.permute"(%1073) <{dims = [0, 1, 3, 2]}> : (tensor<32x40x160x1xf16>) -> tensor<32x40x1x160xf16>
    %1075 = "mix.prim.unsqueeze"(%1072) <{axis = 3 : i32}> : (tensor<32x160x40xf16>) -> tensor<32x160x40x1xf16>
    %1076 = "mix.prim.permute"(%1075) <{dims = [0, 3, 2, 1]}> : (tensor<32x160x40x1xf16>) -> tensor<32x1x40x160xf16>
    %1077 = "mix.prim.permute"(%1074) <{dims = [0, 1, 3, 2]}> : (tensor<32x40x1x160xf16>) -> tensor<32x40x160x1xf16>
    %1078 = "mix.prim.reshape"(%1077) <{shape = [32, 40, 160]}> : (tensor<32x40x160x1xf16>) -> tensor<32x40x160xf16>
    %1079 = "mix.prim.permute"(%1076) <{dims = [0, 3, 2, 1]}> : (tensor<32x1x40x160xf16>) -> tensor<32x160x40x1xf16>
    %1080 = "mix.prim.reshape"(%1079) <{shape = [32, 160, 40]}> : (tensor<32x160x40x1xf16>) -> tensor<32x160x40xf16>
    %1081 = "mix.prim.batch_matmul"(%1078, %1080) : (tensor<32x40x160xf16>, tensor<32x160x40xf16>) -> tensor<32x40x40xf16>
    %1082 = "mix.prim.reshape"(%1081) <{shape = [32, 40, 1, 40]}> : (tensor<32x40x40xf16>) -> tensor<32x40x1x40xf16>
    %1083 = "mix.prim.permute"(%1082) <{dims = [0, 1, 3, 2]}> : (tensor<32x40x1x40xf16>) -> tensor<32x40x40x1xf16>
    %1084 = "mix.prim.reshape"(%1083) <{shape = [32, 40, 40]}> : (tensor<32x40x40x1xf16>) -> tensor<32x40x40xf16>
    %1085 = "mix.prim.constant"() <{value = 7.904050e-02 : f16}> : () -> f16
    %1086 = "mix.prim.mul"(%1084, %1085) : (tensor<32x40x40xf16>, f16) -> tensor<32x40x40xf16>
    %1087 = "mix.prim.reshape"(%1086) <{shape = [1, 32, 40, 40]}> : (tensor<32x40x40xf16>) -> tensor<1x32x40x40xf16>
    %1088 = "mix.comp.masked_fill"(%1087, %1) <{value = 0xFC00 : f16}> : (tensor<1x32x40x40xf16>, tensor<1x1x5x5xi1>) -> tensor<1x32x40x40xf16>
    %1089 = "mix.comp.softmax"(%1088) <{axis = -1 : si32}> : (tensor<1x32x40x40xf16>) -> tensor<1x32x40x40xf16>
    %1090 = "mix.prim.reshape"(%1089) <{shape = [32, 40, 40]}> : (tensor<1x32x40x40xf16>) -> tensor<32x40x40xf16>
    %1091 = "mix.prim.reshape"(%1019) <{shape = [40, 32, 160]}> : (tensor<40x1x32x160xf16>) -> tensor<40x32x160xf16>
    %1092 = "mix.prim.transpose"(%1091) <{dim1 = 0 : i32, dim2 = 1 : i32}> : (tensor<40x32x160xf16>) -> tensor<32x40x160xf16>
    %1093 = "mix.prim.batch_matmul"(%1090, %1092) : (tensor<32x40x40xf16>, tensor<32x40x160xf16>) -> tensor<32x40x160xf16>
    %1094 = "mix.prim.reshape"(%1093) <{shape = [1, 32, 40, 160]}> : (tensor<32x40x160xf16>) -> tensor<1x32x40x160xf16>
    %1095 = "mix.prim.permute"(%1094) <{dims = [0, 2, 1, 3]}> : (tensor<1x32x40x160xf16>) -> tensor<1x40x32x160xf16>
    %1096 = "mix.prim.reshape"(%1095) <{shape = [1, 40, 5120]}> : (tensor<1x40x32x160xf16>) -> tensor<1x40x5120xf16>
    %1097 = "mix.prim.reshape"(%1096) <{shape = [40, 5120]}> : (tensor<1x40x5120xf16>) -> tensor<40x5120xf16>
    %1098 = "mix.prim.transpose"(%1005) <{dim1 = 0 : i32, dim2 = 1 : i32}> : (tensor<5120x5120xf16>) -> tensor<5120x5120xf16>
    %1099 = "mix.prim.matmul"(%1097, %1098) : (tensor<40x5120xf16>, tensor<5120x5120xf16>) -> tensor<40x5120xf16>
    %1100 = "mix.prim.add"(%1099, %1006) : (tensor<40x5120xf16>, tensor<5120xf16>) -> tensor<40x5120xf16>
    %1101 = "mix.prim.reshape"(%1100) <{shape = [1, 40, 5120]}> : (tensor<40x5120xf16>) -> tensor<1x40x5120xf16>
    %1102 = "mix.prim.mul"(%993, %1101) : (tensor<1x40x5120xf16>, tensor<1x40x5120xf16>) -> tensor<1x40x5120xf16>
    %1103 = "mix.comp.weight"() <{param_loc = "transformer.h.8.post_attention_layernorm.weight"}> : () -> tensor<5120xf16>
    %1104 = "arith.constant"() <{value = dense<1.000000e+00> : tensor<1xf16>}> : () -> tensor<1xf16>
    %1105 = "mix.prim.pow"(%1102, %1104) : (tensor<1x40x5120xf16>, tensor<1xf16>) -> tensor<1x40x5120xf16>
    %1106 = "mix.comp.mean"(%1105) <{dims = [2 : i32], keepDim = true}> : (tensor<1x40x5120xf16>) -> tensor<1x40x1xf16>
    %1107 = "arith.constant"() <{value = 1.013280e-06 : f16}> : () -> f16
    %1108 = "mix.prim.add"(%1106, %1107) : (tensor<1x40x1xf16>, f16) -> tensor<1x40x1xf16>
    %1109 = "mix.prim.rsqrt"(%1108) : (tensor<1x40x1xf16>) -> tensor<1x40x1xf16>
    %1110 = "mix.prim.mul"(%1102, %1109) : (tensor<1x40x5120xf16>, tensor<1x40x1xf16>) -> tensor<1x40x5120xf16>
    %1111 = "mix.prim.mul"(%1103, %1110) : (tensor<5120xf16>, tensor<1x40x5120xf16>) -> tensor<1x40x5120xf16>
    %1112 = "mix.module.linear"(%1111) <{dtype = f16, in_feature = 5120 : i32, out_feature = 12288 : i32, params_loc = "transformer.h.8.mlp.gate_proj"}> : (tensor<1x40x5120xf16>) -> tensor<1x40x12288xf16>
    %1113 = "mix.comp.silu"(%1112) : (tensor<1x40x12288xf16>) -> tensor<1x40x12288xf16>
    %1114 = "mix.module.linear"(%1111) <{dtype = f16, in_feature = 5120 : i32, out_feature = 12288 : i32, params_loc = "transformer.h.8.mlp.up_proj"}> : (tensor<1x40x5120xf16>) -> tensor<1x40x12288xf16>
    %1115 = "mix.prim.mul"(%1113, %1114) : (tensor<1x40x12288xf16>, tensor<1x40x12288xf16>) -> tensor<1x40x12288xf16>
    %1116 = "mix.module.linear"(%1115) <{dtype = f16, has_bias, in_feature = 12288 : i32, out_feature = 5120 : i32, params_loc = "transformer.h.8.mlp.down_proj"}> : (tensor<1x40x12288xf16>) -> tensor<1x40x5120xf16>
    %1117 = "mix.prim.add"(%1116, %1102) : (tensor<1x40x5120xf16>, tensor<1x40x5120xf16>) -> tensor<1x40x5120xf16>
    %1118 = "mix.comp.weight"() <{param_loc = "transformer.h.9.input_layernorm.weight"}> : () -> tensor<5120xf16>
    %1119 = "arith.constant"() <{value = dense<1.000000e+00> : tensor<1xf16>}> : () -> tensor<1xf16>
    %1120 = "mix.prim.pow"(%1117, %1119) : (tensor<1x40x5120xf16>, tensor<1xf16>) -> tensor<1x40x5120xf16>
    %1121 = "mix.comp.mean"(%1120) <{dims = [2 : i32], keepDim = true}> : (tensor<1x40x5120xf16>) -> tensor<1x40x1xf16>
    %1122 = "arith.constant"() <{value = 1.013280e-06 : f16}> : () -> f16
    %1123 = "mix.prim.add"(%1121, %1122) : (tensor<1x40x1xf16>, f16) -> tensor<1x40x1xf16>
    %1124 = "mix.prim.rsqrt"(%1123) : (tensor<1x40x1xf16>) -> tensor<1x40x1xf16>
    %1125 = "mix.prim.mul"(%1117, %1124) : (tensor<1x40x5120xf16>, tensor<1x40x1xf16>) -> tensor<1x40x5120xf16>
    %1126 = "mix.prim.mul"(%1118, %1125) : (tensor<5120xf16>, tensor<1x40x5120xf16>) -> tensor<1x40x5120xf16>
    %1127 = "mix.comp.weight"() <{param_loc = "transformer.h.9.self_attention.query.weight"}> : () -> tensor<5120x5120xf16>
    %1128 = "mix.comp.weight"() <{param_loc = "transformer.h.9.self_attention.key_value.weight"}> : () -> tensor<10240x5120xf16>
    %1129 = "mix.comp.weight"() <{param_loc = "transformer.h.9.self_attention.dense.weight"}> : () -> tensor<5120x5120xf16>
    %1130 = "mix.comp.weight"() <{param_loc = "transformer.h.9.self_attention.dense.bias"}> : () -> tensor<5120xf16>
    %1131 = "mix.prim.transpose"(%1126) <{dim1 = 0 : i32, dim2 = 1 : i32}> : (tensor<1x40x5120xf16>) -> tensor<40x1x5120xf16>
    %1132 = "mix.prim.transpose"(%1127) <{dim1 = 0 : i32, dim2 = 1 : i32}> : (tensor<5120x5120xf16>) -> tensor<5120x5120xf16>
    %1133 = "mix.prim.reshape"(%1131) <{shape = [40, 5120]}> : (tensor<40x1x5120xf16>) -> tensor<40x5120xf16>
    %1134 = "mix.prim.matmul"(%1133, %1132) : (tensor<40x5120xf16>, tensor<5120x5120xf16>) -> tensor<40x5120xf16>
    %1135 = "mix.prim.reshape"(%1134) <{shape = [40, 1, 5120]}> : (tensor<40x5120xf16>) -> tensor<40x1x5120xf16>
    %1136 = "mix.prim.reshape"(%1135) <{shape = [40, 1, 32, 160]}> : (tensor<40x1x5120xf16>) -> tensor<40x1x32x160xf16>
    %1137 = "mix.prim.transpose"(%1128) <{dim1 = 0 : i32, dim2 = 1 : i32}> : (tensor<10240x5120xf16>) -> tensor<5120x10240xf16>
    %1138 = "mix.prim.reshape"(%1131) <{shape = [40, 5120]}> : (tensor<40x1x5120xf16>) -> tensor<40x5120xf16>
    %1139 = "mix.prim.matmul"(%1138, %1137) : (tensor<40x5120xf16>, tensor<5120x10240xf16>) -> tensor<40x10240xf16>
    %1140 = "mix.prim.reshape"(%1139) <{shape = [40, 1, 10240]}> : (tensor<40x10240xf16>) -> tensor<40x1x10240xf16>
    %1141 = "mix.prim.reshape"(%1140) <{shape = [40, 1, 32, 320]}> : (tensor<40x1x10240xf16>) -> tensor<40x1x32x320xf16>
    %1142 = "mix.prim.slice"(%1141) <{dim = 3 : i64, end = 160 : i64, start = 0 : i64, step = 1 : i64}> : (tensor<40x1x32x320xf16>) -> tensor<40x1x32x160xf16>
    %1143 = "mix.prim.slice"(%1141) <{dim = 3 : i64, end = 320 : i64, start = 160 : i64, step = 1 : i64}> : (tensor<40x1x32x320xf16>) -> tensor<40x1x32x160xf16>
    %1144 = "mix.prim.reshape"(%1136) <{shape = [40, 32, -1]}> : (tensor<40x1x32x160xf16>) -> tensor<40x32x160xf16>
    %1145 = "mix.prim.reshape"(%1142) <{shape = [40, 32, -1]}> : (tensor<40x1x32x160xf16>) -> tensor<40x32x160xf16>
    %1146 = "mix.prim.constant"() <{value = dense<[0, 1, 2, 3, 4, 5, 6, 7, 8, 9, 10, 11, 12, 13, 14, 15, 16, 17, 18, 19, 20, 21, 22, 23, 24, 25, 26, 27, 28, 29, 30, 31, 32, 33, 34, 35, 36, 37, 38, 39, 40, 41, 42, 43, 44, 45, 46, 47, 48, 49, 50, 51, 52, 53, 54, 55, 56, 57, 58, 59, 60, 61, 62, 63, 64, 65, 66, 67, 68, 69, 70, 71, 72, 73, 74, 75, 76, 77, 78, 79]> : tensor<80xi32>}> : () -> tensor<80xi32>
    %1147 = "mix.prim.convert"(%1146) <{element_ty = f16}> : (tensor<80xi32>) -> tensor<80xf16>
    %1148 = "mix.prim.constant"() <{value = 160 : i32}> : () -> i32
    %1149 = "mix.prim.div"(%1147, %1148) : (tensor<80xf16>, i32) -> tensor<80xf16>
    %1150 = "mix.prim.constant"() <{value = 3.041600e+04 : f16}> : () -> f16
    %1151 = "mix.prim.pow"(%1150, %1149) : (f16, tensor<80xf16>) -> tensor<80xf16>
    %1152 = "mix.prim.reciprocal"(%1151) : (tensor<80xf16>) -> tensor<80xf16>
    %1153 = "mix.prim.constant"() <{value = 1.000000e+00 : f16}> : () -> f16
    %1154 = "mix.prim.mul"(%1153, %1152) : (f16, tensor<80xf16>) -> tensor<80xf16>
    %1155 = "mix.prim.constant"() <{value = dense<1.000000e+00> : tensor<40xf16>}> : () -> tensor<40xf16>
    %1156 = "mix.prim.unsqueeze"(%1155) <{axis = 1 : i32}> : (tensor<40xf16>) -> tensor<40x1xf16>
    %1157 = "mix.prim.permute"(%1156) <{dims = [0, 1]}> : (tensor<40x1xf16>) -> tensor<40x1xf16>
    %1158 = "mix.prim.unsqueeze"(%1154) <{axis = 1 : i32}> : (tensor<80xf16>) -> tensor<80x1xf16>
    %1159 = "mix.prim.permute"(%1158) <{dims = [1, 0]}> : (tensor<80x1xf16>) -> tensor<1x80xf16>
    %1160 = "mix.prim.mul"(%1157, %1159) : (tensor<40x1xf16>, tensor<1x80xf16>) -> tensor<40x80xf16>
    %1161 = "mix.prim.concat"(%1160, %1160) <{axis = 1 : i64}> : (tensor<40x80xf16>, tensor<40x80xf16>) -> tensor<40x160xf16>
    %1162 = "mix.prim.cos"(%1161) : (tensor<40x160xf16>) -> tensor<40x160xf16>
    %1163 = "mix.prim.slice"(%1162) <{dim = 0 : i64, end = 2147483647 : i64, start = 0 : i64, step = 1 : i64}> : (tensor<40x160xf16>) -> tensor<40x160xf16>
    %1164 = "mix.prim.unsqueeze"(%1163) <{axis = 1 : i32}> : (tensor<40x160xf16>) -> tensor<40x1x160xf16>
    %1165 = "mix.prim.slice"(%1164) <{dim = 2 : i64, end = 2147483647 : i64, start = 0 : i64, step = 1 : i64}> : (tensor<40x1x160xf16>) -> tensor<40x1x160xf16>
    %1166 = "mix.prim.constant"() <{value = 1.000000e+00 : f16}> : () -> f16
    %1167 = "mix.prim.mul"(%1165, %1166) : (tensor<40x1x160xf16>, f16) -> tensor<40x1x160xf16>
    %1168 = "mix.prim.sin"(%1161) : (tensor<40x160xf16>) -> tensor<40x160xf16>
    %1169 = "mix.prim.slice"(%1168) <{dim = 0 : i64, end = 2147483647 : i64, start = 0 : i64, step = 1 : i64}> : (tensor<40x160xf16>) -> tensor<40x160xf16>
    %1170 = "mix.prim.unsqueeze"(%1169) <{axis = 1 : i32}> : (tensor<40x160xf16>) -> tensor<40x1x160xf16>
    %1171 = "mix.prim.slice"(%1170) <{dim = 2 : i64, end = 2147483647 : i64, start = 0 : i64, step = 1 : i64}> : (tensor<40x1x160xf16>) -> tensor<40x1x160xf16>
    %1172 = "mix.prim.constant"() <{value = 1.000000e+00 : f16}> : () -> f16
    %1173 = "mix.prim.mul"(%1171, %1172) : (tensor<40x1x160xf16>, f16) -> tensor<40x1x160xf16>
    %1174 = "mix.prim.slice"(%1167) <{dim = 0 : i64, end = 40 : i64, start = 0 : i64, step = 1 : i64}> : (tensor<40x1x160xf16>) -> tensor<40x1x160xf16>
    %1175 = "mix.prim.slice"(%1173) <{dim = 0 : i64, end = 40 : i64, start = 0 : i64, step = 1 : i64}> : (tensor<40x1x160xf16>) -> tensor<40x1x160xf16>
    %1176 = "mix.prim.mul"(%1144, %1174) : (tensor<40x32x160xf16>, tensor<40x1x160xf16>) -> tensor<40x32x160xf16>
    %1177 = "mix.prim.slice"(%1144) <{dim = 2 : i64, end = 80 : i64, start = 0 : i64, step = 1 : i64}> : (tensor<40x32x160xf16>) -> tensor<40x32x80xf16>
    %1178 = "mix.prim.slice"(%1144) <{dim = 2 : i64, end = 2147483647 : i64, start = 80 : i64, step = 1 : i64}> : (tensor<40x32x160xf16>) -> tensor<40x32x80xf16>
    %1179 = "mix.prim.neg"(%1178) : (tensor<40x32x80xf16>) -> tensor<40x32x80xf16>
    %1180 = "mix.prim.concat"(%1179, %1177) <{axis = 2 : i64}> : (tensor<40x32x80xf16>, tensor<40x32x80xf16>) -> tensor<40x32x160xf16>
    %1181 = "mix.prim.mul"(%1180, %1175) : (tensor<40x32x160xf16>, tensor<40x1x160xf16>) -> tensor<40x32x160xf16>
    %1182 = "mix.prim.add"(%1176, %1181) : (tensor<40x32x160xf16>, tensor<40x32x160xf16>) -> tensor<40x32x160xf16>
    %1183 = "mix.prim.mul"(%1145, %1174) : (tensor<40x32x160xf16>, tensor<40x1x160xf16>) -> tensor<40x32x160xf16>
    %1184 = "mix.prim.slice"(%1145) <{dim = 2 : i64, end = 80 : i64, start = 0 : i64, step = 1 : i64}> : (tensor<40x32x160xf16>) -> tensor<40x32x80xf16>
    %1185 = "mix.prim.slice"(%1145) <{dim = 2 : i64, end = 2147483647 : i64, start = 80 : i64, step = 1 : i64}> : (tensor<40x32x160xf16>) -> tensor<40x32x80xf16>
    %1186 = "mix.prim.neg"(%1185) : (tensor<40x32x80xf16>) -> tensor<40x32x80xf16>
    %1187 = "mix.prim.concat"(%1186, %1184) <{axis = 2 : i64}> : (tensor<40x32x80xf16>, tensor<40x32x80xf16>) -> tensor<40x32x160xf16>
    %1188 = "mix.prim.mul"(%1187, %1175) : (tensor<40x32x160xf16>, tensor<40x1x160xf16>) -> tensor<40x32x160xf16>
    %1189 = "mix.prim.add"(%1183, %1188) : (tensor<40x32x160xf16>, tensor<40x32x160xf16>) -> tensor<40x32x160xf16>
    %1190 = "mix.prim.reshape"(%1182) <{shape = [40, 1, 32, 160]}> : (tensor<40x32x160xf16>) -> tensor<40x1x32x160xf16>
    %1191 = "mix.prim.reshape"(%1189) <{shape = [40, 1, 32, 160]}> : (tensor<40x32x160xf16>) -> tensor<40x1x32x160xf16>
    %1192 = "mix.prim.reshape"(%1190) <{shape = [40, 32, 160]}> : (tensor<40x1x32x160xf16>) -> tensor<40x32x160xf16>
    %1193 = "mix.prim.reshape"(%1191) <{shape = [40, 32, 160]}> : (tensor<40x1x32x160xf16>) -> tensor<40x32x160xf16>
    %1194 = "mix.prim.transpose"(%1192) <{dim1 = 0 : i32, dim2 = 1 : i32}> : (tensor<40x32x160xf16>) -> tensor<32x40x160xf16>
    %1195 = "mix.prim.transpose"(%1193) <{dim1 = 0 : i32, dim2 = 1 : i32}> : (tensor<40x32x160xf16>) -> tensor<32x40x160xf16>
    %1196 = "mix.prim.transpose"(%1195) <{dim1 = 1 : i32, dim2 = 2 : i32}> : (tensor<32x40x160xf16>) -> tensor<32x160x40xf16>
    %1197 = "mix.prim.unsqueeze"(%1194) <{axis = 3 : i32}> : (tensor<32x40x160xf16>) -> tensor<32x40x160x1xf16>
    %1198 = "mix.prim.permute"(%1197) <{dims = [0, 1, 3, 2]}> : (tensor<32x40x160x1xf16>) -> tensor<32x40x1x160xf16>
    %1199 = "mix.prim.unsqueeze"(%1196) <{axis = 3 : i32}> : (tensor<32x160x40xf16>) -> tensor<32x160x40x1xf16>
    %1200 = "mix.prim.permute"(%1199) <{dims = [0, 3, 2, 1]}> : (tensor<32x160x40x1xf16>) -> tensor<32x1x40x160xf16>
    %1201 = "mix.prim.permute"(%1198) <{dims = [0, 1, 3, 2]}> : (tensor<32x40x1x160xf16>) -> tensor<32x40x160x1xf16>
    %1202 = "mix.prim.reshape"(%1201) <{shape = [32, 40, 160]}> : (tensor<32x40x160x1xf16>) -> tensor<32x40x160xf16>
    %1203 = "mix.prim.permute"(%1200) <{dims = [0, 3, 2, 1]}> : (tensor<32x1x40x160xf16>) -> tensor<32x160x40x1xf16>
    %1204 = "mix.prim.reshape"(%1203) <{shape = [32, 160, 40]}> : (tensor<32x160x40x1xf16>) -> tensor<32x160x40xf16>
    %1205 = "mix.prim.batch_matmul"(%1202, %1204) : (tensor<32x40x160xf16>, tensor<32x160x40xf16>) -> tensor<32x40x40xf16>
    %1206 = "mix.prim.reshape"(%1205) <{shape = [32, 40, 1, 40]}> : (tensor<32x40x40xf16>) -> tensor<32x40x1x40xf16>
    %1207 = "mix.prim.permute"(%1206) <{dims = [0, 1, 3, 2]}> : (tensor<32x40x1x40xf16>) -> tensor<32x40x40x1xf16>
    %1208 = "mix.prim.reshape"(%1207) <{shape = [32, 40, 40]}> : (tensor<32x40x40x1xf16>) -> tensor<32x40x40xf16>
    %1209 = "mix.prim.constant"() <{value = 7.904050e-02 : f16}> : () -> f16
    %1210 = "mix.prim.mul"(%1208, %1209) : (tensor<32x40x40xf16>, f16) -> tensor<32x40x40xf16>
    %1211 = "mix.prim.reshape"(%1210) <{shape = [1, 32, 40, 40]}> : (tensor<32x40x40xf16>) -> tensor<1x32x40x40xf16>
    %1212 = "mix.comp.masked_fill"(%1211, %1) <{value = 0xFC00 : f16}> : (tensor<1x32x40x40xf16>, tensor<1x1x5x5xi1>) -> tensor<1x32x40x40xf16>
    %1213 = "mix.comp.softmax"(%1212) <{axis = -1 : si32}> : (tensor<1x32x40x40xf16>) -> tensor<1x32x40x40xf16>
    %1214 = "mix.prim.reshape"(%1213) <{shape = [32, 40, 40]}> : (tensor<1x32x40x40xf16>) -> tensor<32x40x40xf16>
    %1215 = "mix.prim.reshape"(%1143) <{shape = [40, 32, 160]}> : (tensor<40x1x32x160xf16>) -> tensor<40x32x160xf16>
    %1216 = "mix.prim.transpose"(%1215) <{dim1 = 0 : i32, dim2 = 1 : i32}> : (tensor<40x32x160xf16>) -> tensor<32x40x160xf16>
    %1217 = "mix.prim.batch_matmul"(%1214, %1216) : (tensor<32x40x40xf16>, tensor<32x40x160xf16>) -> tensor<32x40x160xf16>
    %1218 = "mix.prim.reshape"(%1217) <{shape = [1, 32, 40, 160]}> : (tensor<32x40x160xf16>) -> tensor<1x32x40x160xf16>
    %1219 = "mix.prim.permute"(%1218) <{dims = [0, 2, 1, 3]}> : (tensor<1x32x40x160xf16>) -> tensor<1x40x32x160xf16>
    %1220 = "mix.prim.reshape"(%1219) <{shape = [1, 40, 5120]}> : (tensor<1x40x32x160xf16>) -> tensor<1x40x5120xf16>
    %1221 = "mix.prim.reshape"(%1220) <{shape = [40, 5120]}> : (tensor<1x40x5120xf16>) -> tensor<40x5120xf16>
    %1222 = "mix.prim.transpose"(%1129) <{dim1 = 0 : i32, dim2 = 1 : i32}> : (tensor<5120x5120xf16>) -> tensor<5120x5120xf16>
    %1223 = "mix.prim.matmul"(%1221, %1222) : (tensor<40x5120xf16>, tensor<5120x5120xf16>) -> tensor<40x5120xf16>
    %1224 = "mix.prim.add"(%1223, %1130) : (tensor<40x5120xf16>, tensor<5120xf16>) -> tensor<40x5120xf16>
    %1225 = "mix.prim.reshape"(%1224) <{shape = [1, 40, 5120]}> : (tensor<40x5120xf16>) -> tensor<1x40x5120xf16>
    %1226 = "mix.prim.mul"(%1117, %1225) : (tensor<1x40x5120xf16>, tensor<1x40x5120xf16>) -> tensor<1x40x5120xf16>
    %1227 = "mix.comp.weight"() <{param_loc = "transformer.h.9.post_attention_layernorm.weight"}> : () -> tensor<5120xf16>
    %1228 = "arith.constant"() <{value = dense<1.000000e+00> : tensor<1xf16>}> : () -> tensor<1xf16>
    %1229 = "mix.prim.pow"(%1226, %1228) : (tensor<1x40x5120xf16>, tensor<1xf16>) -> tensor<1x40x5120xf16>
    %1230 = "mix.comp.mean"(%1229) <{dims = [2 : i32], keepDim = true}> : (tensor<1x40x5120xf16>) -> tensor<1x40x1xf16>
    %1231 = "arith.constant"() <{value = 1.013280e-06 : f16}> : () -> f16
    %1232 = "mix.prim.add"(%1230, %1231) : (tensor<1x40x1xf16>, f16) -> tensor<1x40x1xf16>
    %1233 = "mix.prim.rsqrt"(%1232) : (tensor<1x40x1xf16>) -> tensor<1x40x1xf16>
    %1234 = "mix.prim.mul"(%1226, %1233) : (tensor<1x40x5120xf16>, tensor<1x40x1xf16>) -> tensor<1x40x5120xf16>
    %1235 = "mix.prim.mul"(%1227, %1234) : (tensor<5120xf16>, tensor<1x40x5120xf16>) -> tensor<1x40x5120xf16>
    %1236 = "mix.module.linear"(%1235) <{dtype = f16, in_feature = 5120 : i32, out_feature = 12288 : i32, params_loc = "transformer.h.9.mlp.gate_proj"}> : (tensor<1x40x5120xf16>) -> tensor<1x40x12288xf16>
    %1237 = "mix.comp.silu"(%1236) : (tensor<1x40x12288xf16>) -> tensor<1x40x12288xf16>
    %1238 = "mix.module.linear"(%1235) <{dtype = f16, in_feature = 5120 : i32, out_feature = 12288 : i32, params_loc = "transformer.h.9.mlp.up_proj"}> : (tensor<1x40x5120xf16>) -> tensor<1x40x12288xf16>
    %1239 = "mix.prim.mul"(%1237, %1238) : (tensor<1x40x12288xf16>, tensor<1x40x12288xf16>) -> tensor<1x40x12288xf16>
    %1240 = "mix.module.linear"(%1239) <{dtype = f16, has_bias, in_feature = 12288 : i32, out_feature = 5120 : i32, params_loc = "transformer.h.9.mlp.down_proj"}> : (tensor<1x40x12288xf16>) -> tensor<1x40x5120xf16>
    %1241 = "mix.prim.add"(%1240, %1226) : (tensor<1x40x5120xf16>, tensor<1x40x5120xf16>) -> tensor<1x40x5120xf16>
    %1242 = "mix.comp.weight"() <{param_loc = "transformer.h.10.input_layernorm.weight"}> : () -> tensor<5120xf16>
    %1243 = "arith.constant"() <{value = dense<1.000000e+00> : tensor<1xf16>}> : () -> tensor<1xf16>
    %1244 = "mix.prim.pow"(%1241, %1243) : (tensor<1x40x5120xf16>, tensor<1xf16>) -> tensor<1x40x5120xf16>
    %1245 = "mix.comp.mean"(%1244) <{dims = [2 : i32], keepDim = true}> : (tensor<1x40x5120xf16>) -> tensor<1x40x1xf16>
    %1246 = "arith.constant"() <{value = 1.013280e-06 : f16}> : () -> f16
    %1247 = "mix.prim.add"(%1245, %1246) : (tensor<1x40x1xf16>, f16) -> tensor<1x40x1xf16>
    %1248 = "mix.prim.rsqrt"(%1247) : (tensor<1x40x1xf16>) -> tensor<1x40x1xf16>
    %1249 = "mix.prim.mul"(%1241, %1248) : (tensor<1x40x5120xf16>, tensor<1x40x1xf16>) -> tensor<1x40x5120xf16>
    %1250 = "mix.prim.mul"(%1242, %1249) : (tensor<5120xf16>, tensor<1x40x5120xf16>) -> tensor<1x40x5120xf16>
    %1251 = "mix.comp.weight"() <{param_loc = "transformer.h.10.self_attention.query.weight"}> : () -> tensor<5120x5120xf16>
    %1252 = "mix.comp.weight"() <{param_loc = "transformer.h.10.self_attention.key_value.weight"}> : () -> tensor<10240x5120xf16>
    %1253 = "mix.comp.weight"() <{param_loc = "transformer.h.10.self_attention.dense.weight"}> : () -> tensor<5120x5120xf16>
    %1254 = "mix.comp.weight"() <{param_loc = "transformer.h.10.self_attention.dense.bias"}> : () -> tensor<5120xf16>
    %1255 = "mix.prim.transpose"(%1250) <{dim1 = 0 : i32, dim2 = 1 : i32}> : (tensor<1x40x5120xf16>) -> tensor<40x1x5120xf16>
    %1256 = "mix.prim.transpose"(%1251) <{dim1 = 0 : i32, dim2 = 1 : i32}> : (tensor<5120x5120xf16>) -> tensor<5120x5120xf16>
    %1257 = "mix.prim.reshape"(%1255) <{shape = [40, 5120]}> : (tensor<40x1x5120xf16>) -> tensor<40x5120xf16>
    %1258 = "mix.prim.matmul"(%1257, %1256) : (tensor<40x5120xf16>, tensor<5120x5120xf16>) -> tensor<40x5120xf16>
    %1259 = "mix.prim.reshape"(%1258) <{shape = [40, 1, 5120]}> : (tensor<40x5120xf16>) -> tensor<40x1x5120xf16>
    %1260 = "mix.prim.reshape"(%1259) <{shape = [40, 1, 32, 160]}> : (tensor<40x1x5120xf16>) -> tensor<40x1x32x160xf16>
    %1261 = "mix.prim.transpose"(%1252) <{dim1 = 0 : i32, dim2 = 1 : i32}> : (tensor<10240x5120xf16>) -> tensor<5120x10240xf16>
    %1262 = "mix.prim.reshape"(%1255) <{shape = [40, 5120]}> : (tensor<40x1x5120xf16>) -> tensor<40x5120xf16>
    %1263 = "mix.prim.matmul"(%1262, %1261) : (tensor<40x5120xf16>, tensor<5120x10240xf16>) -> tensor<40x10240xf16>
    %1264 = "mix.prim.reshape"(%1263) <{shape = [40, 1, 10240]}> : (tensor<40x10240xf16>) -> tensor<40x1x10240xf16>
    %1265 = "mix.prim.reshape"(%1264) <{shape = [40, 1, 32, 320]}> : (tensor<40x1x10240xf16>) -> tensor<40x1x32x320xf16>
    %1266 = "mix.prim.slice"(%1265) <{dim = 3 : i64, end = 160 : i64, start = 0 : i64, step = 1 : i64}> : (tensor<40x1x32x320xf16>) -> tensor<40x1x32x160xf16>
    %1267 = "mix.prim.slice"(%1265) <{dim = 3 : i64, end = 320 : i64, start = 160 : i64, step = 1 : i64}> : (tensor<40x1x32x320xf16>) -> tensor<40x1x32x160xf16>
    %1268 = "mix.prim.reshape"(%1260) <{shape = [40, 32, -1]}> : (tensor<40x1x32x160xf16>) -> tensor<40x32x160xf16>
    %1269 = "mix.prim.reshape"(%1266) <{shape = [40, 32, -1]}> : (tensor<40x1x32x160xf16>) -> tensor<40x32x160xf16>
    %1270 = "mix.prim.constant"() <{value = dense<[0, 1, 2, 3, 4, 5, 6, 7, 8, 9, 10, 11, 12, 13, 14, 15, 16, 17, 18, 19, 20, 21, 22, 23, 24, 25, 26, 27, 28, 29, 30, 31, 32, 33, 34, 35, 36, 37, 38, 39, 40, 41, 42, 43, 44, 45, 46, 47, 48, 49, 50, 51, 52, 53, 54, 55, 56, 57, 58, 59, 60, 61, 62, 63, 64, 65, 66, 67, 68, 69, 70, 71, 72, 73, 74, 75, 76, 77, 78, 79]> : tensor<80xi32>}> : () -> tensor<80xi32>
    %1271 = "mix.prim.convert"(%1270) <{element_ty = f16}> : (tensor<80xi32>) -> tensor<80xf16>
    %1272 = "mix.prim.constant"() <{value = 160 : i32}> : () -> i32
    %1273 = "mix.prim.div"(%1271, %1272) : (tensor<80xf16>, i32) -> tensor<80xf16>
    %1274 = "mix.prim.constant"() <{value = 3.041600e+04 : f16}> : () -> f16
    %1275 = "mix.prim.pow"(%1274, %1273) : (f16, tensor<80xf16>) -> tensor<80xf16>
    %1276 = "mix.prim.reciprocal"(%1275) : (tensor<80xf16>) -> tensor<80xf16>
    %1277 = "mix.prim.constant"() <{value = 1.000000e+00 : f16}> : () -> f16
    %1278 = "mix.prim.mul"(%1277, %1276) : (f16, tensor<80xf16>) -> tensor<80xf16>
    %1279 = "mix.prim.constant"() <{value = dense<1.000000e+00> : tensor<40xf16>}> : () -> tensor<40xf16>
    %1280 = "mix.prim.unsqueeze"(%1279) <{axis = 1 : i32}> : (tensor<40xf16>) -> tensor<40x1xf16>
    %1281 = "mix.prim.permute"(%1280) <{dims = [0, 1]}> : (tensor<40x1xf16>) -> tensor<40x1xf16>
    %1282 = "mix.prim.unsqueeze"(%1278) <{axis = 1 : i32}> : (tensor<80xf16>) -> tensor<80x1xf16>
    %1283 = "mix.prim.permute"(%1282) <{dims = [1, 0]}> : (tensor<80x1xf16>) -> tensor<1x80xf16>
    %1284 = "mix.prim.mul"(%1281, %1283) : (tensor<40x1xf16>, tensor<1x80xf16>) -> tensor<40x80xf16>
    %1285 = "mix.prim.concat"(%1284, %1284) <{axis = 1 : i64}> : (tensor<40x80xf16>, tensor<40x80xf16>) -> tensor<40x160xf16>
    %1286 = "mix.prim.cos"(%1285) : (tensor<40x160xf16>) -> tensor<40x160xf16>
    %1287 = "mix.prim.slice"(%1286) <{dim = 0 : i64, end = 2147483647 : i64, start = 0 : i64, step = 1 : i64}> : (tensor<40x160xf16>) -> tensor<40x160xf16>
    %1288 = "mix.prim.unsqueeze"(%1287) <{axis = 1 : i32}> : (tensor<40x160xf16>) -> tensor<40x1x160xf16>
    %1289 = "mix.prim.slice"(%1288) <{dim = 2 : i64, end = 2147483647 : i64, start = 0 : i64, step = 1 : i64}> : (tensor<40x1x160xf16>) -> tensor<40x1x160xf16>
    %1290 = "mix.prim.constant"() <{value = 1.000000e+00 : f16}> : () -> f16
    %1291 = "mix.prim.mul"(%1289, %1290) : (tensor<40x1x160xf16>, f16) -> tensor<40x1x160xf16>
    %1292 = "mix.prim.sin"(%1285) : (tensor<40x160xf16>) -> tensor<40x160xf16>
…
    %4299 = "mix.prim.unsqueeze"(%4296) <{axis = 3 : i32}> : (tensor<32x160x40xf16>) -> tensor<32x160x40x1xf16>
    %4300 = "mix.prim.permute"(%4299) <{dims = [0, 3, 2, 1]}> : (tensor<32x160x40x1xf16>) -> tensor<32x1x40x160xf16>
    %4301 = "mix.prim.permute"(%4298) <{dims = [0, 1, 3, 2]}> : (tensor<32x40x1x160xf16>) -> tensor<32x40x160x1xf16>
    %4302 = "mix.prim.reshape"(%4301) <{shape = [32, 40, 160]}> : (tensor<32x40x160x1xf16>) -> tensor<32x40x160xf16>
    %4303 = "mix.prim.permute"(%4300) <{dims = [0, 3, 2, 1]}> : (tensor<32x1x40x160xf16>) -> tensor<32x160x40x1xf16>
    %4304 = "mix.prim.reshape"(%4303) <{shape = [32, 160, 40]}> : (tensor<32x160x40x1xf16>) -> tensor<32x160x40xf16>
    %4305 = "mix.prim.batch_matmul"(%4302, %4304) : (tensor<32x40x160xf16>, tensor<32x160x40xf16>) -> tensor<32x40x40xf16>
    %4306 = "mix.prim.reshape"(%4305) <{shape = [32, 40, 1, 40]}> : (tensor<32x40x40xf16>) -> tensor<32x40x1x40xf16>
    %4307 = "mix.prim.permute"(%4306) <{dims = [0, 1, 3, 2]}> : (tensor<32x40x1x40xf16>) -> tensor<32x40x40x1xf16>
    %4308 = "mix.prim.reshape"(%4307) <{shape = [32, 40, 40]}> : (tensor<32x40x40x1xf16>) -> tensor<32x40x40xf16>
    %4309 = "mix.prim.constant"() <{value = 7.904050e-02 : f16}> : () -> f16
    %4310 = "mix.prim.mul"(%4308, %4309) : (tensor<32x40x40xf16>, f16) -> tensor<32x40x40xf16>
    %4311 = "mix.prim.reshape"(%4310) <{shape = [1, 32, 40, 40]}> : (tensor<32x40x40xf16>) -> tensor<1x32x40x40xf16>
    %4312 = "mix.comp.masked_fill"(%4311, %1) <{value = 0xFC00 : f16}> : (tensor<1x32x40x40xf16>, tensor<1x1x5x5xi1>) -> tensor<1x32x40x40xf16>
    %4313 = "mix.comp.softmax"(%4312) <{axis = -1 : si32}> : (tensor<1x32x40x40xf16>) -> tensor<1x32x40x40xf16>
    %4314 = "mix.prim.reshape"(%4313) <{shape = [32, 40, 40]}> : (tensor<1x32x40x40xf16>) -> tensor<32x40x40xf16>
    %4315 = "mix.prim.reshape"(%4243) <{shape = [40, 32, 160]}> : (tensor<40x1x32x160xf16>) -> tensor<40x32x160xf16>
    %4316 = "mix.prim.transpose"(%4315) <{dim1 = 0 : i32, dim2 = 1 : i32}> : (tensor<40x32x160xf16>) -> tensor<32x40x160xf16>
    %4317 = "mix.prim.batch_matmul"(%4314, %4316) : (tensor<32x40x40xf16>, tensor<32x40x160xf16>) -> tensor<32x40x160xf16>
    %4318 = "mix.prim.reshape"(%4317) <{shape = [1, 32, 40, 160]}> : (tensor<32x40x160xf16>) -> tensor<1x32x40x160xf16>
    %4319 = "mix.prim.permute"(%4318) <{dims = [0, 2, 1, 3]}> : (tensor<1x32x40x160xf16>) -> tensor<1x40x32x160xf16>
    %4320 = "mix.prim.reshape"(%4319) <{shape = [1, 40, 5120]}> : (tensor<1x40x32x160xf16>) -> tensor<1x40x5120xf16>
    %4321 = "mix.prim.reshape"(%4320) <{shape = [40, 5120]}> : (tensor<1x40x5120xf16>) -> tensor<40x5120xf16>
    %4322 = "mix.prim.transpose"(%4229) <{dim1 = 0 : i32, dim2 = 1 : i32}> : (tensor<5120x5120xf16>) -> tensor<5120x5120xf16>
    %4323 = "mix.prim.matmul"(%4321, %4322) : (tensor<40x5120xf16>, tensor<5120x5120xf16>) -> tensor<40x5120xf16>
    %4324 = "mix.prim.add"(%4323, %4230) : (tensor<40x5120xf16>, tensor<5120xf16>) -> tensor<40x5120xf16>
    %4325 = "mix.prim.reshape"(%4324) <{shape = [1, 40, 5120]}> : (tensor<40x5120xf16>) -> tensor<1x40x5120xf16>
    %4326 = "mix.prim.mul"(%4217, %4325) : (tensor<1x40x5120xf16>, tensor<1x40x5120xf16>) -> tensor<1x40x5120xf16>
    %4327 = "mix.comp.weight"() <{param_loc = "transformer.h.34.post_attention_layernorm.weight"}> : () -> tensor<5120xf16>
    %4328 = "arith.constant"() <{value = dense<1.000000e+00> : tensor<1xf16>}> : () -> tensor<1xf16>
    %4329 = "mix.prim.pow"(%4326, %4328) : (tensor<1x40x5120xf16>, tensor<1xf16>) -> tensor<1x40x5120xf16>
    %4330 = "mix.comp.mean"(%4329) <{dims = [2 : i32], keepDim = true}> : (tensor<1x40x5120xf16>) -> tensor<1x40x1xf16>
    %4331 = "arith.constant"() <{value = 1.013280e-06 : f16}> : () -> f16
    %4332 = "mix.prim.add"(%4330, %4331) : (tensor<1x40x1xf16>, f16) -> tensor<1x40x1xf16>
    %4333 = "mix.prim.rsqrt"(%4332) : (tensor<1x40x1xf16>) -> tensor<1x40x1xf16>
    %4334 = "mix.prim.mul"(%4326, %4333) : (tensor<1x40x5120xf16>, tensor<1x40x1xf16>) -> tensor<1x40x5120xf16>
    %4335 = "mix.prim.mul"(%4327, %4334) : (tensor<5120xf16>, tensor<1x40x5120xf16>) -> tensor<1x40x5120xf16>
    %4336 = "mix.module.linear"(%4335) <{dtype = f16, in_feature = 5120 : i32, out_feature = 12288 : i32, params_loc = "transformer.h.34.mlp.gate_proj"}> : (tensor<1x40x5120xf16>) -> tensor<1x40x12288xf16>
    %4337 = "mix.comp.silu"(%4336) : (tensor<1x40x12288xf16>) -> tensor<1x40x12288xf16>
    %4338 = "mix.module.linear"(%4335) <{dtype = f16, in_feature = 5120 : i32, out_feature = 12288 : i32, params_loc = "transformer.h.34.mlp.up_proj"}> : (tensor<1x40x5120xf16>) -> tensor<1x40x12288xf16>
    %4339 = "mix.prim.mul"(%4337, %4338) : (tensor<1x40x12288xf16>, tensor<1x40x12288xf16>) -> tensor<1x40x12288xf16>
    %4340 = "mix.module.linear"(%4339) <{dtype = f16, has_bias, in_feature = 12288 : i32, out_feature = 5120 : i32, params_loc = "transformer.h.34.mlp.down_proj"}> : (tensor<1x40x12288xf16>) -> tensor<1x40x5120xf16>
    %4341 = "mix.prim.add"(%4340, %4326) : (tensor<1x40x5120xf16>, tensor<1x40x5120xf16>) -> tensor<1x40x5120xf16>
    %4342 = "mix.comp.weight"() <{param_loc = "transformer.h.35.input_layernorm.weight"}> : () -> tensor<5120xf16>
    %4343 = "arith.constant"() <{value = dense<1.000000e+00> : tensor<1xf16>}> : () -> tensor<1xf16>
    %4344 = "mix.prim.pow"(%4341, %4343) : (tensor<1x40x5120xf16>, tensor<1xf16>) -> tensor<1x40x5120xf16>
    %4345 = "mix.comp.mean"(%4344) <{dims = [2 : i32], keepDim = true}> : (tensor<1x40x5120xf16>) -> tensor<1x40x1xf16>
    %4346 = "arith.constant"() <{value = 1.013280e-06 : f16}> : () -> f16
    %4347 = "mix.prim.add"(%4345, %4346) : (tensor<1x40x1xf16>, f16) -> tensor<1x40x1xf16>
    %4348 = "mix.prim.rsqrt"(%4347) : (tensor<1x40x1xf16>) -> tensor<1x40x1xf16>
    %4349 = "mix.prim.mul"(%4341, %4348) : (tensor<1x40x5120xf16>, tensor<1x40x1xf16>) -> tensor<1x40x5120xf16>
    %4350 = "mix.prim.mul"(%4342, %4349) : (tensor<5120xf16>, tensor<1x40x5120xf16>) -> tensor<1x40x5120xf16>
    %4351 = "mix.comp.weight"() <{param_loc = "transformer.h.35.self_attention.query.weight"}> : () -> tensor<5120x5120xf16>
    %4352 = "mix.comp.weight"() <{param_loc = "transformer.h.35.self_attention.key_value.weight"}> : () -> tensor<10240x5120xf16>
    %4353 = "mix.comp.weight"() <{param_loc = "transformer.h.35.self_attention.dense.weight"}> : () -> tensor<5120x5120xf16>
    %4354 = "mix.comp.weight"() <{param_loc = "transformer.h.35.self_attention.dense.bias"}> : () -> tensor<5120xf16>
    %4355 = "mix.prim.transpose"(%4350) <{dim1 = 0 : i32, dim2 = 1 : i32}> : (tensor<1x40x5120xf16>) -> tensor<40x1x5120xf16>
    %4356 = "mix.prim.transpose"(%4351) <{dim1 = 0 : i32, dim2 = 1 : i32}> : (tensor<5120x5120xf16>) -> tensor<5120x5120xf16>
    %4357 = "mix.prim.reshape"(%4355) <{shape = [40, 5120]}> : (tensor<40x1x5120xf16>) -> tensor<40x5120xf16>
    %4358 = "mix.prim.matmul"(%4357, %4356) : (tensor<40x5120xf16>, tensor<5120x5120xf16>) -> tensor<40x5120xf16>
    %4359 = "mix.prim.reshape"(%4358) <{shape = [40, 1, 5120]}> : (tensor<40x5120xf16>) -> tensor<40x1x5120xf16>
    %4360 = "mix.prim.reshape"(%4359) <{shape = [40, 1, 32, 160]}> : (tensor<40x1x5120xf16>) -> tensor<40x1x32x160xf16>
    %4361 = "mix.prim.transpose"(%4352) <{dim1 = 0 : i32, dim2 = 1 : i32}> : (tensor<10240x5120xf16>) -> tensor<5120x10240xf16>
    %4362 = "mix.prim.reshape"(%4355) <{shape = [40, 5120]}> : (tensor<40x1x5120xf16>) -> tensor<40x5120xf16>
    %4363 = "mix.prim.matmul"(%4362, %4361) : (tensor<40x5120xf16>, tensor<5120x10240xf16>) -> tensor<40x10240xf16>
    %4364 = "mix.prim.reshape"(%4363) <{shape = [40, 1, 10240]}> : (tensor<40x10240xf16>) -> tensor<40x1x10240xf16>
    %4365 = "mix.prim.reshape"(%4364) <{shape = [40, 1, 32, 320]}> : (tensor<40x1x10240xf16>) -> tensor<40x1x32x320xf16>
    %4366 = "mix.prim.slice"(%4365) <{dim = 3 : i64, end = 160 : i64, start = 0 : i64, step = 1 : i64}> : (tensor<40x1x32x320xf16>) -> tensor<40x1x32x160xf16>
    %4367 = "mix.prim.slice"(%4365) <{dim = 3 : i64, end = 320 : i64, start = 160 : i64, step = 1 : i64}> : (tensor<40x1x32x320xf16>) -> tensor<40x1x32x160xf16>
    %4368 = "mix.prim.reshape"(%4360) <{shape = [40, 32, -1]}> : (tensor<40x1x32x160xf16>) -> tensor<40x32x160xf16>
    %4369 = "mix.prim.reshape"(%4366) <{shape = [40, 32, -1]}> : (tensor<40x1x32x160xf16>) -> tensor<40x32x160xf16>
    %4370 = "mix.prim.constant"() <{value = dense<[0, 1, 2, 3, 4, 5, 6, 7, 8, 9, 10, 11, 12, 13, 14, 15, 16, 17, 18, 19, 20, 21, 22, 23, 24, 25, 26, 27, 28, 29, 30, 31, 32, 33, 34, 35, 36, 37, 38, 39, 40, 41, 42, 43, 44, 45, 46, 47, 48, 49, 50, 51, 52, 53, 54, 55, 56, 57, 58, 59, 60, 61, 62, 63, 64, 65, 66, 67, 68, 69, 70, 71, 72, 73, 74, 75, 76, 77, 78, 79]> : tensor<80xi32>}> : () -> tensor<80xi32>
    %4371 = "mix.prim.convert"(%4370) <{element_ty = f16}> : (tensor<80xi32>) -> tensor<80xf16>
    %4372 = "mix.prim.constant"() <{value = 160 : i32}> : () -> i32
    %4373 = "mix.prim.div"(%4371, %4372) : (tensor<80xf16>, i32) -> tensor<80xf16>
    %4374 = "mix.prim.constant"() <{value = 3.041600e+04 : f16}> : () -> f16
    %4375 = "mix.prim.pow"(%4374, %4373) : (f16, tensor<80xf16>) -> tensor<80xf16>
    %4376 = "mix.prim.reciprocal"(%4375) : (tensor<80xf16>) -> tensor<80xf16>
    %4377 = "mix.prim.constant"() <{value = 1.000000e+00 : f16}> : () -> f16
    %4378 = "mix.prim.mul"(%4377, %4376) : (f16, tensor<80xf16>) -> tensor<80xf16>
    %4379 = "mix.prim.constant"() <{value = dense<1.000000e+00> : tensor<40xf16>}> : () -> tensor<40xf16>
    %4380 = "mix.prim.unsqueeze"(%4379) <{axis = 1 : i32}> : (tensor<40xf16>) -> tensor<40x1xf16>
    %4381 = "mix.prim.permute"(%4380) <{dims = [0, 1]}> : (tensor<40x1xf16>) -> tensor<40x1xf16>
    %4382 = "mix.prim.unsqueeze"(%4378) <{axis = 1 : i32}> : (tensor<80xf16>) -> tensor<80x1xf16>
    %4383 = "mix.prim.permute"(%4382) <{dims = [1, 0]}> : (tensor<80x1xf16>) -> tensor<1x80xf16>
    %4384 = "mix.prim.mul"(%4381, %4383) : (tensor<40x1xf16>, tensor<1x80xf16>) -> tensor<40x80xf16>
    %4385 = "mix.prim.concat"(%4384, %4384) <{axis = 1 : i64}> : (tensor<40x80xf16>, tensor<40x80xf16>) -> tensor<40x160xf16>
    %4386 = "mix.prim.cos"(%4385) : (tensor<40x160xf16>) -> tensor<40x160xf16>
    %4387 = "mix.prim.slice"(%4386) <{dim = 0 : i64, end = 2147483647 : i64, start = 0 : i64, step = 1 : i64}> : (tensor<40x160xf16>) -> tensor<40x160xf16>
    %4388 = "mix.prim.unsqueeze"(%4387) <{axis = 1 : i32}> : (tensor<40x160xf16>) -> tensor<40x1x160xf16>
    %4389 = "mix.prim.slice"(%4388) <{dim = 2 : i64, end = 2147483647 : i64, start = 0 : i64, step = 1 : i64}> : (tensor<40x1x160xf16>) -> tensor<40x1x160xf16>
    %4390 = "mix.prim.constant"() <{value = 1.000000e+00 : f16}> : () -> f16
    %4391 = "mix.prim.mul"(%4389, %4390) : (tensor<40x1x160xf16>, f16) -> tensor<40x1x160xf16>
    %4392 = "mix.prim.sin"(%4385) : (tensor<40x160xf16>) -> tensor<40x160xf16>
    %4393 = "mix.prim.slice"(%4392) <{dim = 0 : i64, end = 2147483647 : i64, start = 0 : i64, step = 1 : i64}> : (tensor<40x160xf16>) -> tensor<40x160xf16>
    %4394 = "mix.prim.unsqueeze"(%4393) <{axis = 1 : i32}> : (tensor<40x160xf16>) -> tensor<40x1x160xf16>
    %4395 = "mix.prim.slice"(%4394) <{dim = 2 : i64, end = 2147483647 : i64, start = 0 : i64, step = 1 : i64}> : (tensor<40x1x160xf16>) -> tensor<40x1x160xf16>
    %4396 = "mix.prim.constant"() <{value = 1.000000e+00 : f16}> : () -> f16
    %4397 = "mix.prim.mul"(%4395, %4396) : (tensor<40x1x160xf16>, f16) -> tensor<40x1x160xf16>
    %4398 = "mix.prim.slice"(%4391) <{dim = 0 : i64, end = 40 : i64, start = 0 : i64, step = 1 : i64}> : (tensor<40x1x160xf16>) -> tensor<40x1x160xf16>
    %4399 = "mix.prim.slice"(%4397) <{dim = 0 : i64, end = 40 : i64, start = 0 : i64, step = 1 : i64}> : (tensor<40x1x160xf16>) -> tensor<40x1x160xf16>
    %4400 = "mix.prim.mul"(%4368, %4398) : (tensor<40x32x160xf16>, tensor<40x1x160xf16>) -> tensor<40x32x160xf16>
    %4401 = "mix.prim.slice"(%4368) <{dim = 2 : i64, end = 80 : i64, start = 0 : i64, step = 1 : i64}> : (tensor<40x32x160xf16>) -> tensor<40x32x80xf16>
    %4402 = "mix.prim.slice"(%4368) <{dim = 2 : i64, end = 2147483647 : i64, start = 80 : i64, step = 1 : i64}> : (tensor<40x32x160xf16>) -> tensor<40x32x80xf16>
    %4403 = "mix.prim.neg"(%4402) : (tensor<40x32x80xf16>) -> tensor<40x32x80xf16>
    %4404 = "mix.prim.concat"(%4403, %4401) <{axis = 2 : i64}> : (tensor<40x32x80xf16>, tensor<40x32x80xf16>) -> tensor<40x32x160xf16>
    %4405 = "mix.prim.mul"(%4404, %4399) : (tensor<40x32x160xf16>, tensor<40x1x160xf16>) -> tensor<40x32x160xf16>
    %4406 = "mix.prim.add"(%4400, %4405) : (tensor<40x32x160xf16>, tensor<40x32x160xf16>) -> tensor<40x32x160xf16>
    %4407 = "mix.prim.mul"(%4369, %4398) : (tensor<40x32x160xf16>, tensor<40x1x160xf16>) -> tensor<40x32x160xf16>
    %4408 = "mix.prim.slice"(%4369) <{dim = 2 : i64, end = 80 : i64, start = 0 : i64, step = 1 : i64}> : (tensor<40x32x160xf16>) -> tensor<40x32x80xf16>
    %4409 = "mix.prim.slice"(%4369) <{dim = 2 : i64, end = 2147483647 : i64, start = 80 : i64, step = 1 : i64}> : (tensor<40x32x160xf16>) -> tensor<40x32x80xf16>
    %4410 = "mix.prim.neg"(%4409) : (tensor<40x32x80xf16>) -> tensor<40x32x80xf16>
    %4411 = "mix.prim.concat"(%4410, %4408) <{axis = 2 : i64}> : (tensor<40x32x80xf16>, tensor<40x32x80xf16>) -> tensor<40x32x160xf16>
    %4412 = "mix.prim.mul"(%4411, %4399) : (tensor<40x32x160xf16>, tensor<40x1x160xf16>) -> tensor<40x32x160xf16>
    %4413 = "mix.prim.add"(%4407, %4412) : (tensor<40x32x160xf16>, tensor<40x32x160xf16>) -> tensor<40x32x160xf16>
    %4414 = "mix.prim.reshape"(%4406) <{shape = [40, 1, 32, 160]}> : (tensor<40x32x160xf16>) -> tensor<40x1x32x160xf16>
    %4415 = "mix.prim.reshape"(%4413) <{shape = [40, 1, 32, 160]}> : (tensor<40x32x160xf16>) -> tensor<40x1x32x160xf16>
    %4416 = "mix.prim.reshape"(%4414) <{shape = [40, 32, 160]}> : (tensor<40x1x32x160xf16>) -> tensor<40x32x160xf16>
    %4417 = "mix.prim.reshape"(%4415) <{shape = [40, 32, 160]}> : (tensor<40x1x32x160xf16>) -> tensor<40x32x160xf16>
    %4418 = "mix.prim.transpose"(%4416) <{dim1 = 0 : i32, dim2 = 1 : i32}> : (tensor<40x32x160xf16>) -> tensor<32x40x160xf16>
    %4419 = "mix.prim.transpose"(%4417) <{dim1 = 0 : i32, dim2 = 1 : i32}> : (tensor<40x32x160xf16>) -> tensor<32x40x160xf16>
    %4420 = "mix.prim.transpose"(%4419) <{dim1 = 1 : i32, dim2 = 2 : i32}> : (tensor<32x40x160xf16>) -> tensor<32x160x40xf16>
    %4421 = "mix.prim.unsqueeze"(%4418) <{axis = 3 : i32}> : (tensor<32x40x160xf16>) -> tensor<32x40x160x1xf16>
    %4422 = "mix.prim.permute"(%4421) <{dims = [0, 1, 3, 2]}> : (tensor<32x40x160x1xf16>) -> tensor<32x40x1x160xf16>
    %4423 = "mix.prim.unsqueeze"(%4420) <{axis = 3 : i32}> : (tensor<32x160x40xf16>) -> tensor<32x160x40x1xf16>
    %4424 = "mix.prim.permute"(%4423) <{dims = [0, 3, 2, 1]}> : (tensor<32x160x40x1xf16>) -> tensor<32x1x40x160xf16>
    %4425 = "mix.prim.permute"(%4422) <{dims = [0, 1, 3, 2]}> : (tensor<32x40x1x160xf16>) -> tensor<32x40x160x1xf16>
    %4426 = "mix.prim.reshape"(%4425) <{shape = [32, 40, 160]}> : (tensor<32x40x160x1xf16>) -> tensor<32x40x160xf16>
    %4427 = "mix.prim.permute"(%4424) <{dims = [0, 3, 2, 1]}> : (tensor<32x1x40x160xf16>) -> tensor<32x160x40x1xf16>
    %4428 = "mix.prim.reshape"(%4427) <{shape = [32, 160, 40]}> : (tensor<32x160x40x1xf16>) -> tensor<32x160x40xf16>
    %4429 = "mix.prim.batch_matmul"(%4426, %4428) : (tensor<32x40x160xf16>, tensor<32x160x40xf16>) -> tensor<32x40x40xf16>
    %4430 = "mix.prim.reshape"(%4429) <{shape = [32, 40, 1, 40]}> : (tensor<32x40x40xf16>) -> tensor<32x40x1x40xf16>
    %4431 = "mix.prim.permute"(%4430) <{dims = [0, 1, 3, 2]}> : (tensor<32x40x1x40xf16>) -> tensor<32x40x40x1xf16>
    %4432 = "mix.prim.reshape"(%4431) <{shape = [32, 40, 40]}> : (tensor<32x40x40x1xf16>) -> tensor<32x40x40xf16>
    %4433 = "mix.prim.constant"() <{value = 7.904050e-02 : f16}> : () -> f16
    %4434 = "mix.prim.mul"(%4432, %4433) : (tensor<32x40x40xf16>, f16) -> tensor<32x40x40xf16>
    %4435 = "mix.prim.reshape"(%4434) <{shape = [1, 32, 40, 40]}> : (tensor<32x40x40xf16>) -> tensor<1x32x40x40xf16>
    %4436 = "mix.comp.masked_fill"(%4435, %1) <{value = 0xFC00 : f16}> : (tensor<1x32x40x40xf16>, tensor<1x1x5x5xi1>) -> tensor<1x32x40x40xf16>
    %4437 = "mix.comp.softmax"(%4436) <{axis = -1 : si32}> : (tensor<1x32x40x40xf16>) -> tensor<1x32x40x40xf16>
    %4438 = "mix.prim.reshape"(%4437) <{shape = [32, 40, 40]}> : (tensor<1x32x40x40xf16>) -> tensor<32x40x40xf16>
    %4439 = "mix.prim.reshape"(%4367) <{shape = [40, 32, 160]}> : (tensor<40x1x32x160xf16>) -> tensor<40x32x160xf16>
    %4440 = "mix.prim.transpose"(%4439) <{dim1 = 0 : i32, dim2 = 1 : i32}> : (tensor<40x32x160xf16>) -> tensor<32x40x160xf16>
    %4441 = "mix.prim.batch_matmul"(%4438, %4440) : (tensor<32x40x40xf16>, tensor<32x40x160xf16>) -> tensor<32x40x160xf16>
    %4442 = "mix.prim.reshape"(%4441) <{shape = [1, 32, 40, 160]}> : (tensor<32x40x160xf16>) -> tensor<1x32x40x160xf16>
    %4443 = "mix.prim.permute"(%4442) <{dims = [0, 2, 1, 3]}> : (tensor<1x32x40x160xf16>) -> tensor<1x40x32x160xf16>
    %4444 = "mix.prim.reshape"(%4443) <{shape = [1, 40, 5120]}> : (tensor<1x40x32x160xf16>) -> tensor<1x40x5120xf16>
    %4445 = "mix.prim.reshape"(%4444) <{shape = [40, 5120]}> : (tensor<1x40x5120xf16>) -> tensor<40x5120xf16>
    %4446 = "mix.prim.transpose"(%4353) <{dim1 = 0 : i32, dim2 = 1 : i32}> : (tensor<5120x5120xf16>) -> tensor<5120x5120xf16>
    %4447 = "mix.prim.matmul"(%4445, %4446) : (tensor<40x5120xf16>, tensor<5120x5120xf16>) -> tensor<40x5120xf16>
    %4448 = "mix.prim.add"(%4447, %4354) : (tensor<40x5120xf16>, tensor<5120xf16>) -> tensor<40x5120xf16>
    %4449 = "mix.prim.reshape"(%4448) <{shape = [1, 40, 5120]}> : (tensor<40x5120xf16>) -> tensor<1x40x5120xf16>
    %4450 = "mix.prim.mul"(%4341, %4449) : (tensor<1x40x5120xf16>, tensor<1x40x5120xf16>) -> tensor<1x40x5120xf16>
    %4451 = "mix.comp.weight"() <{param_loc = "transformer.h.35.post_attention_layernorm.weight"}> : () -> tensor<5120xf16>
    %4452 = "arith.constant"() <{value = dense<1.000000e+00> : tensor<1xf16>}> : () -> tensor<1xf16>
    %4453 = "mix.prim.pow"(%4450, %4452) : (tensor<1x40x5120xf16>, tensor<1xf16>) -> tensor<1x40x5120xf16>
    %4454 = "mix.comp.mean"(%4453) <{dims = [2 : i32], keepDim = true}> : (tensor<1x40x5120xf16>) -> tensor<1x40x1xf16>
    %4455 = "arith.constant"() <{value = 1.013280e-06 : f16}> : () -> f16
    %4456 = "mix.prim.add"(%4454, %4455) : (tensor<1x40x1xf16>, f16) -> tensor<1x40x1xf16>
    %4457 = "mix.prim.rsqrt"(%4456) : (tensor<1x40x1xf16>) -> tensor<1x40x1xf16>
    %4458 = "mix.prim.mul"(%4450, %4457) : (tensor<1x40x5120xf16>, tensor<1x40x1xf16>) -> tensor<1x40x5120xf16>
    %4459 = "mix.prim.mul"(%4451, %4458) : (tensor<5120xf16>, tensor<1x40x5120xf16>) -> tensor<1x40x5120xf16>
    %4460 = "mix.module.linear"(%4459) <{dtype = f16, in_feature = 5120 : i32, out_feature = 12288 : i32, params_loc = "transformer.h.35.mlp.gate_proj"}> : (tensor<1x40x5120xf16>) -> tensor<1x40x12288xf16>
    %4461 = "mix.comp.silu"(%4460) : (tensor<1x40x12288xf16>) -> tensor<1x40x12288xf16>
    %4462 = "mix.module.linear"(%4459) <{dtype = f16, in_feature = 5120 : i32, out_feature = 12288 : i32, params_loc = "transformer.h.35.mlp.up_proj"}> : (tensor<1x40x5120xf16>) -> tensor<1x40x12288xf16>
    %4463 = "mix.prim.mul"(%4461, %4462) : (tensor<1x40x12288xf16>, tensor<1x40x12288xf16>) -> tensor<1x40x12288xf16>
    %4464 = "mix.module.linear"(%4463) <{dtype = f16, has_bias, in_feature = 12288 : i32, out_feature = 5120 : i32, params_loc = "transformer.h.35.mlp.down_proj"}> : (tensor<1x40x12288xf16>) -> tensor<1x40x5120xf16>
    %4465 = "mix.prim.add"(%4464, %4450) : (tensor<1x40x5120xf16>, tensor<1x40x5120xf16>) -> tensor<1x40x5120xf16>
    %4466 = "mix.comp.weight"() <{param_loc = "transformer.h.36.input_layernorm.weight"}> : () -> tensor<5120xf16>
    %4467 = "arith.constant"() <{value = dense<1.000000e+00> : tensor<1xf16>}> : () -> tensor<1xf16>
    %4468 = "mix.prim.pow"(%4465, %4467) : (tensor<1x40x5120xf16>, tensor<1xf16>) -> tensor<1x40x5120xf16>
    %4469 = "mix.comp.mean"(%4468) <{dims = [2 : i32], keepDim = true}> : (tensor<1x40x5120xf16>) -> tensor<1x40x1xf16>
    %4470 = "arith.constant"() <{value = 1.013280e-06 : f16}> : () -> f16
    %4471 = "mix.prim.add"(%4469, %4470) : (tensor<1x40x1xf16>, f16) -> tensor<1x40x1xf16>
    %4472 = "mix.prim.rsqrt"(%4471) : (tensor<1x40x1xf16>) -> tensor<1x40x1xf16>
    %4473 = "mix.prim.mul"(%4465, %4472) : (tensor<1x40x5120xf16>, tensor<1x40x1xf16>) -> tensor<1x40x5120xf16>
    %4474 = "mix.prim.mul"(%4466, %4473) : (tensor<5120xf16>, tensor<1x40x5120xf16>) -> tensor<1x40x5120xf16>
    %4475 = "mix.comp.weight"() <{param_loc = "transformer.h.36.self_attention.query.weight"}> : () -> tensor<5120x5120xf16>
    %4476 = "mix.comp.weight"() <{param_loc = "transformer.h.36.self_attention.key_value.weight"}> : () -> tensor<10240x5120xf16>
    %4477 = "mix.comp.weight"() <{param_loc = "transformer.h.36.self_attention.dense.weight"}> : () -> tensor<5120x5120xf16>
    %4478 = "mix.comp.weight"() <{param_loc = "transformer.h.36.self_attention.dense.bias"}> : () -> tensor<5120xf16>
    %4479 = "mix.prim.transpose"(%4474) <{dim1 = 0 : i32, dim2 = 1 : i32}> : (tensor<1x40x5120xf16>) -> tensor<40x1x5120xf16>
    %4480 = "mix.prim.transpose"(%4475) <{dim1 = 0 : i32, dim2 = 1 : i32}> : (tensor<5120x5120xf16>) -> tensor<5120x5120xf16>
    %4481 = "mix.prim.reshape"(%4479) <{shape = [40, 5120]}> : (tensor<40x1x5120xf16>) -> tensor<40x5120xf16>
    %4482 = "mix.prim.matmul"(%4481, %4480) : (tensor<40x5120xf16>, tensor<5120x5120xf16>) -> tensor<40x5120xf16>
    %4483 = "mix.prim.reshape"(%4482) <{shape = [40, 1, 5120]}> : (tensor<40x5120xf16>) -> tensor<40x1x5120xf16>
    %4484 = "mix.prim.reshape"(%4483) <{shape = [40, 1, 32, 160]}> : (tensor<40x1x5120xf16>) -> tensor<40x1x32x160xf16>
    %4485 = "mix.prim.transpose"(%4476) <{dim1 = 0 : i32, dim2 = 1 : i32}> : (tensor<10240x5120xf16>) -> tensor<5120x10240xf16>
    %4486 = "mix.prim.reshape"(%4479) <{shape = [40, 5120]}> : (tensor<40x1x5120xf16>) -> tensor<40x5120xf16>
    %4487 = "mix.prim.matmul"(%4486, %4485) : (tensor<40x5120xf16>, tensor<5120x10240xf16>) -> tensor<40x10240xf16>
    %4488 = "mix.prim.reshape"(%4487) <{shape = [40, 1, 10240]}> : (tensor<40x10240xf16>) -> tensor<40x1x10240xf16>
    %4489 = "mix.prim.reshape"(%4488) <{shape = [40, 1, 32, 320]}> : (tensor<40x1x10240xf16>) -> tensor<40x1x32x320xf16>
    %4490 = "mix.prim.slice"(%4489) <{dim = 3 : i64, end = 160 : i64, start = 0 : i64, step = 1 : i64}> : (tensor<40x1x32x320xf16>) -> tensor<40x1x32x160xf16>
    %4491 = "mix.prim.slice"(%4489) <{dim = 3 : i64, end = 320 : i64, start = 160 : i64, step = 1 : i64}> : (tensor<40x1x32x320xf16>) -> tensor<40x1x32x160xf16>
    %4492 = "mix.prim.reshape"(%4484) <{shape = [40, 32, -1]}> : (tensor<40x1x32x160xf16>) -> tensor<40x32x160xf16>
    %4493 = "mix.prim.reshape"(%4490) <{shape = [40, 32, -1]}> : (tensor<40x1x32x160xf16>) -> tensor<40x32x160xf16>
    %4494 = "mix.prim.constant"() <{value = dense<[0, 1, 2, 3, 4, 5, 6, 7, 8, 9, 10, 11, 12, 13, 14, 15, 16, 17, 18, 19, 20, 21, 22, 23, 24, 25, 26, 27, 28, 29, 30, 31, 32, 33, 34, 35, 36, 37, 38, 39, 40, 41, 42, 43, 44, 45, 46, 47, 48, 49, 50, 51, 52, 53, 54, 55, 56, 57, 58, 59, 60, 61, 62, 63, 64, 65, 66, 67, 68, 69, 70, 71, 72, 73, 74, 75, 76, 77, 78, 79]> : tensor<80xi32>}> : () -> tensor<80xi32>
    %4495 = "mix.prim.convert"(%4494) <{element_ty = f16}> : (tensor<80xi32>) -> tensor<80xf16>
    %4496 = "mix.prim.constant"() <{value = 160 : i32}> : () -> i32
    %4497 = "mix.prim.div"(%4495, %4496) : (tensor<80xf16>, i32) -> tensor<80xf16>
    %4498 = "mix.prim.constant"() <{value = 3.041600e+04 : f16}> : () -> f16
    %4499 = "mix.prim.pow"(%4498, %4497) : (f16, tensor<80xf16>) -> tensor<80xf16>
    %4500 = "mix.prim.reciprocal"(%4499) : (tensor<80xf16>) -> tensor<80xf16>
    %4501 = "mix.prim.constant"() <{value = 1.000000e+00 : f16}> : () -> f16
    %4502 = "mix.prim.mul"(%4501, %4500) : (f16, tensor<80xf16>) -> tensor<80xf16>
    %4503 = "mix.prim.constant"() <{value = dense<1.000000e+00> : tensor<40xf16>}> : () -> tensor<40xf16>
    %4504 = "mix.prim.unsqueeze"(%4503) <{axis = 1 : i32}> : (tensor<40xf16>) -> tensor<40x1xf16>
    %4505 = "mix.prim.permute"(%4504) <{dims = [0, 1]}> : (tensor<40x1xf16>) -> tensor<40x1xf16>
    %4506 = "mix.prim.unsqueeze"(%4502) <{axis = 1 : i32}> : (tensor<80xf16>) -> tensor<80x1xf16>
    %4507 = "mix.prim.permute"(%4506) <{dims = [1, 0]}> : (tensor<80x1xf16>) -> tensor<1x80xf16>
    %4508 = "mix.prim.mul"(%4505, %4507) : (tensor<40x1xf16>, tensor<1x80xf16>) -> tensor<40x80xf16>
    %4509 = "mix.prim.concat"(%4508, %4508) <{axis = 1 : i64}> : (tensor<40x80xf16>, tensor<40x80xf16>) -> tensor<40x160xf16>
    %4510 = "mix.prim.cos"(%4509) : (tensor<40x160xf16>) -> tensor<40x160xf16>
    %4511 = "mix.prim.slice"(%4510) <{dim = 0 : i64, end = 2147483647 : i64, start = 0 : i64, step = 1 : i64}> : (tensor<40x160xf16>) -> tensor<40x160xf16>
    %4512 = "mix.prim.unsqueeze"(%4511) <{axis = 1 : i32}> : (tensor<40x160xf16>) -> tensor<40x1x160xf16>
    %4513 = "mix.prim.slice"(%4512) <{dim = 2 : i64, end = 2147483647 : i64, start = 0 : i64, step = 1 : i64}> : (tensor<40x1x160xf16>) -> tensor<40x1x160xf16>
    %4514 = "mix.prim.constant"() <{value = 1.000000e+00 : f16}> : () -> f16
    %4515 = "mix.prim.mul"(%4513, %4514) : (tensor<40x1x160xf16>, f16) -> tensor<40x1x160xf16>
    %4516 = "mix.prim.sin"(%4509) : (tensor<40x160xf16>) -> tensor<40x160xf16>
    %4517 = "mix.prim.slice"(%4516) <{dim = 0 : i64, end = 2147483647 : i64, start = 0 : i64, step = 1 : i64}> : (tensor<40x160xf16>) -> tensor<40x160xf16>
    %4518 = "mix.prim.unsqueeze"(%4517) <{axis = 1 : i32}> : (tensor<40x160xf16>) -> tensor<40x1x160xf16>
    %4519 = "mix.prim.slice"(%4518) <{dim = 2 : i64, end = 2147483647 : i64, start = 0 : i64, step = 1 : i64}> : (tensor<40x1x160xf16>) -> tensor<40x1x160xf16>
    %4520 = "mix.prim.constant"() <{value = 1.000000e+00 : f16}> : () -> f16
    %4521 = "mix.prim.mul"(%4519, %4520) : (tensor<40x1x160xf16>, f16) -> tensor<40x1x160xf16>
    %4522 = "mix.prim.slice"(%4515) <{dim = 0 : i64, end = 40 : i64, start = 0 : i64, step = 1 : i64}> : (tensor<40x1x160xf16>) -> tensor<40x1x160xf16>
    %4523 = "mix.prim.slice"(%4521) <{dim = 0 : i64, end = 40 : i64, start = 0 : i64, step = 1 : i64}> : (tensor<40x1x160xf16>) -> tensor<40x1x160xf16>
    %4524 = "mix.prim.mul"(%4492, %4522) : (tensor<40x32x160xf16>, tensor<40x1x160xf16>) -> tensor<40x32x160xf16>
    %4525 = "mix.prim.slice"(%4492) <{dim = 2 : i64, end = 80 : i64, start = 0 : i64, step = 1 : i64}> : (tensor<40x32x160xf16>) -> tensor<40x32x80xf16>
    %4526 = "mix.prim.slice"(%4492) <{dim = 2 : i64, end = 2147483647 : i64, start = 80 : i64, step = 1 : i64}> : (tensor<40x32x160xf16>) -> tensor<40x32x80xf16>
    %4527 = "mix.prim.neg"(%4526) : (tensor<40x32x80xf16>) -> tensor<40x32x80xf16>
    %4528 = "mix.prim.concat"(%4527, %4525) <{axis = 2 : i64}> : (tensor<40x32x80xf16>, tensor<40x32x80xf16>) -> tensor<40x32x160xf16>
    %4529 = "mix.prim.mul"(%4528, %4523) : (tensor<40x32x160xf16>, tensor<40x1x160xf16>) -> tensor<40x32x160xf16>
    %4530 = "mix.prim.add"(%4524, %4529) : (tensor<40x32x160xf16>, tensor<40x32x160xf16>) -> tensor<40x32x160xf16>
    %4531 = "mix.prim.mul"(%4493, %4522) : (tensor<40x32x160xf16>, tensor<40x1x160xf16>) -> tensor<40x32x160xf16>
    %4532 = "mix.prim.slice"(%4493) <{dim = 2 : i64, end = 80 : i64, start = 0 : i64, step = 1 : i64}> : (tensor<40x32x160xf16>) -> tensor<40x32x80xf16>
    %4533 = "mix.prim.slice"(%4493) <{dim = 2 : i64, end = 2147483647 : i64, start = 80 : i64, step = 1 : i64}> : (tensor<40x32x160xf16>) -> tensor<40x32x80xf16>
    %4534 = "mix.prim.neg"(%4533) : (tensor<40x32x80xf16>) -> tensor<40x32x80xf16>
    %4535 = "mix.prim.concat"(%4534, %4532) <{axis = 2 : i64}> : (tensor<40x32x80xf16>, tensor<40x32x80xf16>) -> tensor<40x32x160xf16>
    %4536 = "mix.prim.mul"(%4535, %4523) : (tensor<40x32x160xf16>, tensor<40x1x160xf16>) -> tensor<40x32x160xf16>
    %4537 = "mix.prim.add"(%4531, %4536) : (tensor<40x32x160xf16>, tensor<40x32x160xf16>) -> tensor<40x32x160xf16>
    %4538 = "mix.prim.reshape"(%4530) <{shape = [40, 1, 32, 160]}> : (tensor<40x32x160xf16>) -> tensor<40x1x32x160xf16>
    %4539 = "mix.prim.reshape"(%4537) <{shape = [40, 1, 32, 160]}> : (tensor<40x32x160xf16>) -> tensor<40x1x32x160xf16>
    %4540 = "mix.prim.reshape"(%4538) <{shape = [40, 32, 160]}> : (tensor<40x1x32x160xf16>) -> tensor<40x32x160xf16>
    %4541 = "mix.prim.reshape"(%4539) <{shape = [40, 32, 160]}> : (tensor<40x1x32x160xf16>) -> tensor<40x32x160xf16>
    %4542 = "mix.prim.transpose"(%4540) <{dim1 = 0 : i32, dim2 = 1 : i32}> : (tensor<40x32x160xf16>) -> tensor<32x40x160xf16>
    %4543 = "mix.prim.transpose"(%4541) <{dim1 = 0 : i32, dim2 = 1 : i32}> : (tensor<40x32x160xf16>) -> tensor<32x40x160xf16>
    %4544 = "mix.prim.transpose"(%4543) <{dim1 = 1 : i32, dim2 = 2 : i32}> : (tensor<32x40x160xf16>) -> tensor<32x160x40xf16>
    %4545 = "mix.prim.unsqueeze"(%4542) <{axis = 3 : i32}> : (tensor<32x40x160xf16>) -> tensor<32x40x160x1xf16>
    %4546 = "mix.prim.permute"(%4545) <{dims = [0, 1, 3, 2]}> : (tensor<32x40x160x1xf16>) -> tensor<32x40x1x160xf16>
    %4547 = "mix.prim.unsqueeze"(%4544) <{axis = 3 : i32}> : (tensor<32x160x40xf16>) -> tensor<32x160x40x1xf16>
    %4548 = "mix.prim.permute"(%4547) <{dims = [0, 3, 2, 1]}> : (tensor<32x160x40x1xf16>) -> tensor<32x1x40x160xf16>
    %4549 = "mix.prim.permute"(%4546) <{dims = [0, 1, 3, 2]}> : (tensor<32x40x1x160xf16>) -> tensor<32x40x160x1xf16>
    %4550 = "mix.prim.reshape"(%4549) <{shape = [32, 40, 160]}> : (tensor<32x40x160x1xf16>) -> tensor<32x40x160xf16>
    %4551 = "mix.prim.permute"(%4548) <{dims = [0, 3, 2, 1]}> : (tensor<32x1x40x160xf16>) -> tensor<32x160x40x1xf16>
    %4552 = "mix.prim.reshape"(%4551) <{shape = [32, 160, 40]}> : (tensor<32x160x40x1xf16>) -> tensor<32x160x40xf16>
    %4553 = "mix.prim.batch_matmul"(%4550, %4552) : (tensor<32x40x160xf16>, tensor<32x160x40xf16>) -> tensor<32x40x40xf16>
    %4554 = "mix.prim.reshape"(%4553) <{shape = [32, 40, 1, 40]}> : (tensor<32x40x40xf16>) -> tensor<32x40x1x40xf16>
    %4555 = "mix.prim.permute"(%4554) <{dims = [0, 1, 3, 2]}> : (tensor<32x40x1x40xf16>) -> tensor<32x40x40x1xf16>
    %4556 = "mix.prim.reshape"(%4555) <{shape = [32, 40, 40]}> : (tensor<32x40x40x1xf16>) -> tensor<32x40x40xf16>
    %4557 = "mix.prim.constant"() <{value = 7.904050e-02 : f16}> : () -> f16
    %4558 = "mix.prim.mul"(%4556, %4557) : (tensor<32x40x40xf16>, f16) -> tensor<32x40x40xf16>
    %4559 = "mix.prim.reshape"(%4558) <{shape = [1, 32, 40, 40]}> : (tensor<32x40x40xf16>) -> tensor<1x32x40x40xf16>
    %4560 = "mix.comp.masked_fill"(%4559, %1) <{value = 0xFC00 : f16}> : (tensor<1x32x40x40xf16>, tensor<1x1x5x5xi1>) -> tensor<1x32x40x40xf16>
    %4561 = "mix.comp.softmax"(%4560) <{axis = -1 : si32}> : (tensor<1x32x40x40xf16>) -> tensor<1x32x40x40xf16>
    %4562 = "mix.prim.reshape"(%4561) <{shape = [32, 40, 40]}> : (tensor<1x32x40x40xf16>) -> tensor<32x40x40xf16>
    %4563 = "mix.prim.reshape"(%4491) <{shape = [40, 32, 160]}> : (tensor<40x1x32x160xf16>) -> tensor<40x32x160xf16>
    %4564 = "mix.prim.transpose"(%4563) <{dim1 = 0 : i32, dim2 = 1 : i32}> : (tensor<40x32x160xf16>) -> tensor<32x40x160xf16>
    %4565 = "mix.prim.batch_matmul"(%4562, %4564) : (tensor<32x40x40xf16>, tensor<32x40x160xf16>) -> tensor<32x40x160xf16>
    %4566 = "mix.prim.reshape"(%4565) <{shape = [1, 32, 40, 160]}> : (tensor<32x40x160xf16>) -> tensor<1x32x40x160xf16>
    %4567 = "mix.prim.permute"(%4566) <{dims = [0, 2, 1, 3]}> : (tensor<1x32x40x160xf16>) -> tensor<1x40x32x160xf16>
    %4568 = "mix.prim.reshape"(%4567) <{shape = [1, 40, 5120]}> : (tensor<1x40x32x160xf16>) -> tensor<1x40x5120xf16>
    %4569 = "mix.prim.reshape"(%4568) <{shape = [40, 5120]}> : (tensor<1x40x5120xf16>) -> tensor<40x5120xf16>
    %4570 = "mix.prim.transpose"(%4477) <{dim1 = 0 : i32, dim2 = 1 : i32}> : (tensor<5120x5120xf16>) -> tensor<5120x5120xf16>
    %4571 = "mix.prim.matmul"(%4569, %4570) : (tensor<40x5120xf16>, tensor<5120x5120xf16>) -> tensor<40x5120xf16>
    %4572 = "mix.prim.add"(%4571, %4478) : (tensor<40x5120xf16>, tensor<5120xf16>) -> tensor<40x5120xf16>
    %4573 = "mix.prim.reshape"(%4572) <{shape = [1, 40, 5120]}> : (tensor<40x5120xf16>) -> tensor<1x40x5120xf16>
    %4574 = "mix.prim.mul"(%4465, %4573) : (tensor<1x40x5120xf16>, tensor<1x40x5120xf16>) -> tensor<1x40x5120xf16>
    %4575 = "mix.comp.weight"() <{param_loc = "transformer.h.36.post_attention_layernorm.weight"}> : () -> tensor<5120xf16>
    %4576 = "arith.constant"() <{value = dense<1.000000e+00> : tensor<1xf16>}> : () -> tensor<1xf16>
    %4577 = "mix.prim.pow"(%4574, %4576) : (tensor<1x40x5120xf16>, tensor<1xf16>) -> tensor<1x40x5120xf16>
    %4578 = "mix.comp.mean"(%4577) <{dims = [2 : i32], keepDim = true}> : (tensor<1x40x5120xf16>) -> tensor<1x40x1xf16>
    %4579 = "arith.constant"() <{value = 1.013280e-06 : f16}> : () -> f16
    %4580 = "mix.prim.add"(%4578, %4579) : (tensor<1x40x1xf16>, f16) -> tensor<1x40x1xf16>
    %4581 = "mix.prim.rsqrt"(%4580) : (tensor<1x40x1xf16>) -> tensor<1x40x1xf16>
    %4582 = "mix.prim.mul"(%4574, %4581) : (tensor<1x40x5120xf16>, tensor<1x40x1xf16>) -> tensor<1x40x5120xf16>
    %4583 = "mix.prim.mul"(%4575, %4582) : (tensor<5120xf16>, tensor<1x40x5120xf16>) -> tensor<1x40x5120xf16>
    %4584 = "mix.module.linear"(%4583) <{dtype = f16, in_feature = 5120 : i32, out_feature = 12288 : i32, params_loc = "transformer.h.36.mlp.gate_proj"}> : (tensor<1x40x5120xf16>) -> tensor<1x40x12288xf16>
    %4585 = "mix.comp.silu"(%4584) : (tensor<1x40x12288xf16>) -> tensor<1x40x12288xf16>
    %4586 = "mix.module.linear"(%4583) <{dtype = f16, in_feature = 5120 : i32, out_feature = 12288 : i32, params_loc = "transformer.h.36.mlp.up_proj"}> : (tensor<1x40x5120xf16>) -> tensor<1x40x12288xf16>
    %4587 = "mix.prim.mul"(%4585, %4586) : (tensor<1x40x12288xf16>, tensor<1x40x12288xf16>) -> tensor<1x40x12288xf16>
    %4588 = "mix.module.linear"(%4587) <{dtype = f16, has_bias, in_feature = 12288 : i32, out_feature = 5120 : i32, params_loc = "transformer.h.36.mlp.down_proj"}> : (tensor<1x40x12288xf16>) -> tensor<1x40x5120xf16>
    %4589 = "mix.prim.add"(%4588, %4574) : (tensor<1x40x5120xf16>, tensor<1x40x5120xf16>) -> tensor<1x40x5120xf16>
    %4590 = "mix.comp.weight"() <{param_loc = "transformer.h.37.input_layernorm.weight"}> : () -> tensor<5120xf16>
    %4591 = "arith.constant"() <{value = dense<1.000000e+00> : tensor<1xf16>}> : () -> tensor<1xf16>
    %4592 = "mix.prim.pow"(%4589, %4591) : (tensor<1x40x5120xf16>, tensor<1xf16>) -> tensor<1x40x5120xf16>
    %4593 = "mix.comp.mean"(%4592) <{dims = [2 : i32], keepDim = true}> : (tensor<1x40x5120xf16>) -> tensor<1x40x1xf16>
    %4594 = "arith.constant"() <{value = 1.013280e-06 : f16}> : () -> f16
    %4595 = "mix.prim.add"(%4593, %4594) : (tensor<1x40x1xf16>, f16) -> tensor<1x40x1xf16>
    %4596 = "mix.prim.rsqrt"(%4595) : (tensor<1x40x1xf16>) -> tensor<1x40x1xf16>
    %4597 = "mix.prim.mul"(%4589, %4596) : (tensor<1x40x5120xf16>, tensor<1x40x1xf16>) -> tensor<1x40x5120xf16>
    %4598 = "mix.prim.mul"(%4590, %4597) : (tensor<5120xf16>, tensor<1x40x5120xf16>) -> tensor<1x40x5120xf16>
    %4599 = "mix.comp.weight"() <{param_loc = "transformer.h.37.self_attention.query.weight"}> : () -> tensor<5120x5120xf16>
    %4600 = "mix.comp.weight"() <{param_loc = "transformer.h.37.self_attention.key_value.weight"}> : () -> tensor<10240x5120xf16>
    %4601 = "mix.comp.weight"() <{param_loc = "transformer.h.37.self_attention.dense.weight"}> : () -> tensor<5120x5120xf16>
    %4602 = "mix.comp.weight"() <{param_loc = "transformer.h.37.self_attention.dense.bias"}> : () -> tensor<5120xf16>
    %4603 = "mix.prim.transpose"(%4598) <{dim1 = 0 : i32, dim2 = 1 : i32}> : (tensor<1x40x5120xf16>) -> tensor<40x1x5120xf16>
    %4604 = "mix.prim.transpose"(%4599) <{dim1 = 0 : i32, dim2 = 1 : i32}> : (tensor<5120x5120xf16>) -> tensor<5120x5120xf16>
    %4605 = "mix.prim.reshape"(%4603) <{shape = [40, 5120]}> : (tensor<40x1x5120xf16>) -> tensor<40x5120xf16>
    %4606 = "mix.prim.matmul"(%4605, %4604) : (tensor<40x5120xf16>, tensor<5120x5120xf16>) -> tensor<40x5120xf16>
    %4607 = "mix.prim.reshape"(%4606) <{shape = [40, 1, 5120]}> : (tensor<40x5120xf16>) -> tensor<40x1x5120xf16>
    %4608 = "mix.prim.reshape"(%4607) <{shape = [40, 1, 32, 160]}> : (tensor<40x1x5120xf16>) -> tensor<40x1x32x160xf16>
    %4609 = "mix.prim.transpose"(%4600) <{dim1 = 0 : i32, dim2 = 1 : i32}> : (tensor<10240x5120xf16>) -> tensor<5120x10240xf16>
    %4610 = "mix.prim.reshape"(%4603) <{shape = [40, 5120]}> : (tensor<40x1x5120xf16>) -> tensor<40x5120xf16>
    %4611 = "mix.prim.matmul"(%4610, %4609) : (tensor<40x5120xf16>, tensor<5120x10240xf16>) -> tensor<40x10240xf16>
    %4612 = "mix.prim.reshape"(%4611) <{shape = [40, 1, 10240]}> : (tensor<40x10240xf16>) -> tensor<40x1x10240xf16>
    %4613 = "mix.prim.reshape"(%4612) <{shape = [40, 1, 32, 320]}> : (tensor<40x1x10240xf16>) -> tensor<40x1x32x320xf16>
    %4614 = "mix.prim.slice"(%4613) <{dim = 3 : i64, end = 160 : i64, start = 0 : i64, step = 1 : i64}> : (tensor<40x1x32x320xf16>) -> tensor<40x1x32x160xf16>
    %4615 = "mix.prim.slice"(%4613) <{dim = 3 : i64, end = 320 : i64, start = 160 : i64, step = 1 : i64}> : (tensor<40x1x32x320xf16>) -> tensor<40x1x32x160xf16>
    %4616 = "mix.prim.reshape"(%4608) <{shape = [40, 32, -1]}> : (tensor<40x1x32x160xf16>) -> tensor<40x32x160xf16>
    %4617 = "mix.prim.reshape"(%4614) <{shape = [40, 32, -1]}> : (tensor<40x1x32x160xf16>) -> tensor<40x32x160xf16>
    %4618 = "mix.prim.constant"() <{value = dense<[0, 1, 2, 3, 4, 5, 6, 7, 8, 9, 10, 11, 12, 13, 14, 15, 16, 17, 18, 19, 20, 21, 22, 23, 24, 25, 26, 27, 28, 29, 30, 31, 32, 33, 34, 35, 36, 37, 38, 39, 40, 41, 42, 43, 44, 45, 46, 47, 48, 49, 50, 51, 52, 53, 54, 55, 56, 57, 58, 59, 60, 61, 62, 63, 64, 65, 66, 67, 68, 69, 70, 71, 72, 73, 74, 75, 76, 77, 78, 79]> : tensor<80xi32>}> : () -> tensor<80xi32>
    %4619 = "mix.prim.convert"(%4618) <{element_ty = f16}> : (tensor<80xi32>) -> tensor<80xf16>
    %4620 = "mix.prim.constant"() <{value = 160 : i32}> : () -> i32
    %4621 = "mix.prim.div"(%4619, %4620) : (tensor<80xf16>, i32) -> tensor<80xf16>
    %4622 = "mix.prim.constant"() <{value = 3.041600e+04 : f16}> : () -> f16
    %4623 = "mix.prim.pow"(%4622, %4621) : (f16, tensor<80xf16>) -> tensor<80xf16>
    %4624 = "mix.prim.reciprocal"(%4623) : (tensor<80xf16>) -> tensor<80xf16>
    %4625 = "mix.prim.constant"() <{value = 1.000000e+00 : f16}> : () -> f16
    %4626 = "mix.prim.mul"(%4625, %4624) : (f16, tensor<80xf16>) -> tensor<80xf16>
    %4627 = "mix.prim.constant"() <{value = dense<1.000000e+00> : tensor<40xf16>}> : () -> tensor<40xf16>
    %4628 = "mix.prim.unsqueeze"(%4627) <{axis = 1 : i32}> : (tensor<40xf16>) -> tensor<40x1xf16>
    %4629 = "mix.prim.permute"(%4628) <{dims = [0, 1]}> : (tensor<40x1xf16>) -> tensor<40x1xf16>
    %4630 = "mix.prim.unsqueeze"(%4626) <{axis = 1 : i32}> : (tensor<80xf16>) -> tensor<80x1xf16>
    %4631 = "mix.prim.permute"(%4630) <{dims = [1, 0]}> : (tensor<80x1xf16>) -> tensor<1x80xf16>
    %4632 = "mix.prim.mul"(%4629, %4631) : (tensor<40x1xf16>, tensor<1x80xf16>) -> tensor<40x80xf16>
    %4633 = "mix.prim.concat"(%4632, %4632) <{axis = 1 : i64}> : (tensor<40x80xf16>, tensor<40x80xf16>) -> tensor<40x160xf16>
    %4634 = "mix.prim.cos"(%4633) : (tensor<40x160xf16>) -> tensor<40x160xf16>
    %4635 = "mix.prim.slice"(%4634) <{dim = 0 : i64, end = 2147483647 : i64, start = 0 : i64, step = 1 : i64}> : (tensor<40x160xf16>) -> tensor<40x160xf16>
    %4636 = "mix.prim.unsqueeze"(%4635) <{axis = 1 : i32}> : (tensor<40x160xf16>) -> tensor<40x1x160xf16>
    %4637 = "mix.prim.slice"(%4636) <{dim = 2 : i64, end = 2147483647 : i64, start = 0 : i64, step = 1 : i64}> : (tensor<40x1x160xf16>) -> tensor<40x1x160xf16>
    %4638 = "mix.prim.constant"() <{value = 1.000000e+00 : f16}> : () -> f16
    %4639 = "mix.prim.mul"(%4637, %4638) : (tensor<40x1x160xf16>, f16) -> tensor<40x1x160xf16>
    %4640 = "mix.prim.sin"(%4633) : (tensor<40x160xf16>) -> tensor<40x160xf16>
    %4641 = "mix.prim.slice"(%4640) <{dim = 0 : i64, end = 2147483647 : i64, start = 0 : i64, step = 1 : i64}> : (tensor<40x160xf16>) -> tensor<40x160xf16>
    %4642 = "mix.prim.unsqueeze"(%4641) <{axis = 1 : i32}> : (tensor<40x160xf16>) -> tensor<40x1x160xf16>
    %4643 = "mix.prim.slice"(%4642) <{dim = 2 : i64, end = 2147483647 : i64, start = 0 : i64, step = 1 : i64}> : (tensor<40x1x160xf16>) -> tensor<40x1x160xf16>
    %4644 = "mix.prim.constant"() <{value = 1.000000e+00 : f16}> : () -> f16
    %4645 = "mix.prim.mul"(%4643, %4644) : (tensor<40x1x160xf16>, f16) -> tensor<40x1x160xf16>
    %4646 = "mix.prim.slice"(%4639) <{dim = 0 : i64, end = 40 : i64, start = 0 : i64, step = 1 : i64}> : (tensor<40x1x160xf16>) -> tensor<40x1x160xf16>
    %4647 = "mix.prim.slice"(%4645) <{dim = 0 : i64, end = 40 : i64, start = 0 : i64, step = 1 : i64}> : (tensor<40x1x160xf16>) -> tensor<40x1x160xf16>
    %4648 = "mix.prim.mul"(%4616, %4646) : (tensor<40x32x160xf16>, tensor<40x1x160xf16>) -> tensor<40x32x160xf16>
    %4649 = "mix.prim.slice"(%4616) <{dim = 2 : i64, end = 80 : i64, start = 0 : i64, step = 1 : i64}> : (tensor<40x32x160xf16>) -> tensor<40x32x80xf16>
    %4650 = "mix.prim.slice"(%4616) <{dim = 2 : i64, end = 2147483647 : i64, start = 80 : i64, step = 1 : i64}> : (tensor<40x32x160xf16>) -> tensor<40x32x80xf16>
    %4651 = "mix.prim.neg"(%4650) : (tensor<40x32x80xf16>) -> tensor<40x32x80xf16>
    %4652 = "mix.prim.concat"(%4651, %4649) <{axis = 2 : i64}> : (tensor<40x32x80xf16>, tensor<40x32x80xf16>) -> tensor<40x32x160xf16>
    %4653 = "mix.prim.mul"(%4652, %4647) : (tensor<40x32x160xf16>, tensor<40x1x160xf16>) -> tensor<40x32x160xf16>
    %4654 = "mix.prim.add"(%4648, %4653) : (tensor<40x32x160xf16>, tensor<40x32x160xf16>) -> tensor<40x32x160xf16>
    %4655 = "mix.prim.mul"(%4617, %4646) : (tensor<40x32x160xf16>, tensor<40x1x160xf16>) -> tensor<40x32x160xf16>
    %4656 = "mix.prim.slice"(%4617) <{dim = 2 : i64, end = 80 : i64, start = 0 : i64, step = 1 : i64}> : (tensor<40x32x160xf16>) -> tensor<40x32x80xf16>
    %4657 = "mix.prim.slice"(%4617) <{dim = 2 : i64, end = 2147483647 : i64, start = 80 : i64, step = 1 : i64}> : (tensor<40x32x160xf16>) -> tensor<40x32x80xf16>
    %4658 = "mix.prim.neg"(%4657) : (tensor<40x32x80xf16>) -> tensor<40x32x80xf16>
    %4659 = "mix.prim.concat"(%4658, %4656) <{axis = 2 : i64}> : (tensor<40x32x80xf16>, tensor<40x32x80xf16>) -> tensor<40x32x160xf16>
    %4660 = "mix.prim.mul"(%4659, %4647) : (tensor<40x32x160xf16>, tensor<40x1x160xf16>) -> tensor<40x32x160xf16>
    %4661 = "mix.prim.add"(%4655, %4660) : (tensor<40x32x160xf16>, tensor<40x32x160xf16>) -> tensor<40x32x160xf16>
    %4662 = "mix.prim.reshape"(%4654) <{shape = [40, 1, 32, 160]}> : (tensor<40x32x160xf16>) -> tensor<40x1x32x160xf16>
    %4663 = "mix.prim.reshape"(%4661) <{shape = [40, 1, 32, 160]}> : (tensor<40x32x160xf16>) -> tensor<40x1x32x160xf16>
    %4664 = "mix.prim.reshape"(%4662) <{shape = [40, 32, 160]}> : (tensor<40x1x32x160xf16>) -> tensor<40x32x160xf16>
    %4665 = "mix.prim.reshape"(%4663) <{shape = [40, 32, 160]}> : (tensor<40x1x32x160xf16>) -> tensor<40x32x160xf16>
    %4666 = "mix.prim.transpose"(%4664) <{dim1 = 0 : i32, dim2 = 1 : i32}> : (tensor<40x32x160xf16>) -> tensor<32x40x160xf16>
    %4667 = "mix.prim.transpose"(%4665) <{dim1 = 0 : i32, dim2 = 1 : i32}> : (tensor<40x32x160xf16>) -> tensor<32x40x160xf16>
    %4668 = "mix.prim.transpose"(%4667) <{dim1 = 1 : i32, dim2 = 2 : i32}> : (tensor<32x40x160xf16>) -> tensor<32x160x40xf16>
    %4669 = "mix.prim.unsqueeze"(%4666) <{axis = 3 : i32}> : (tensor<32x40x160xf16>) -> tensor<32x40x160x1xf16>
    %4670 = "mix.prim.permute"(%4669) <{dims = [0, 1, 3, 2]}> : (tensor<32x40x160x1xf16>) -> tensor<32x40x1x160xf16>
    %4671 = "mix.prim.unsqueeze"(%4668) <{axis = 3 : i32}> : (tensor<32x160x40xf16>) -> tensor<32x160x40x1xf16>
    %4672 = "mix.prim.permute"(%4671) <{dims = [0, 3, 2, 1]}> : (tensor<32x160x40x1xf16>) -> tensor<32x1x40x160xf16>
    %4673 = "mix.prim.permute"(%4670) <{dims = [0, 1, 3, 2]}> : (tensor<32x40x1x160xf16>) -> tensor<32x40x160x1xf16>
    %4674 = "mix.prim.reshape"(%4673) <{shape = [32, 40, 160]}> : (tensor<32x40x160x1xf16>) -> tensor<32x40x160xf16>
    %4675 = "mix.prim.permute"(%4672) <{dims = [0, 3, 2, 1]}> : (tensor<32x1x40x160xf16>) -> tensor<32x160x40x1xf16>
    %4676 = "mix.prim.reshape"(%4675) <{shape = [32, 160, 40]}> : (tensor<32x160x40x1xf16>) -> tensor<32x160x40xf16>
    %4677 = "mix.prim.batch_matmul"(%4674, %4676) : (tensor<32x40x160xf16>, tensor<32x160x40xf16>) -> tensor<32x40x40xf16>
    %4678 = "mix.prim.reshape"(%4677) <{shape = [32, 40, 1, 40]}> : (tensor<32x40x40xf16>) -> tensor<32x40x1x40xf16>
    %4679 = "mix.prim.permute"(%4678) <{dims = [0, 1, 3, 2]}> : (tensor<32x40x1x40xf16>) -> tensor<32x40x40x1xf16>
    %4680 = "mix.prim.reshape"(%4679) <{shape = [32, 40, 40]}> : (tensor<32x40x40x1xf16>) -> tensor<32x40x40xf16>
    %4681 = "mix.prim.constant"() <{value = 7.904050e-02 : f16}> : () -> f16
    %4682 = "mix.prim.mul"(%4680, %4681) : (tensor<32x40x40xf16>, f16) -> tensor<32x40x40xf16>
    %4683 = "mix.prim.reshape"(%4682) <{shape = [1, 32, 40, 40]}> : (tensor<32x40x40xf16>) -> tensor<1x32x40x40xf16>
    %4684 = "mix.comp.masked_fill"(%4683, %1) <{value = 0xFC00 : f16}> : (tensor<1x32x40x40xf16>, tensor<1x1x5x5xi1>) -> tensor<1x32x40x40xf16>
    %4685 = "mix.comp.softmax"(%4684) <{axis = -1 : si32}> : (tensor<1x32x40x40xf16>) -> tensor<1x32x40x40xf16>
    %4686 = "mix.prim.reshape"(%4685) <{shape = [32, 40, 40]}> : (tensor<1x32x40x40xf16>) -> tensor<32x40x40xf16>
    %4687 = "mix.prim.reshape"(%4615) <{shape = [40, 32, 160]}> : (tensor<40x1x32x160xf16>) -> tensor<40x32x160xf16>
    %4688 = "mix.prim.transpose"(%4687) <{dim1 = 0 : i32, dim2 = 1 : i32}> : (tensor<40x32x160xf16>) -> tensor<32x40x160xf16>
    %4689 = "mix.prim.batch_matmul"(%4686, %4688) : (tensor<32x40x40xf16>, tensor<32x40x160xf16>) -> tensor<32x40x160xf16>
    %4690 = "mix.prim.reshape"(%4689) <{shape = [1, 32, 40, 160]}> : (tensor<32x40x160xf16>) -> tensor<1x32x40x160xf16>
    %4691 = "mix.prim.permute"(%4690) <{dims = [0, 2, 1, 3]}> : (tensor<1x32x40x160xf16>) -> tensor<1x40x32x160xf16>
    %4692 = "mix.prim.reshape"(%4691) <{shape = [1, 40, 5120]}> : (tensor<1x40x32x160xf16>) -> tensor<1x40x5120xf16>
    %4693 = "mix.prim.reshape"(%4692) <{shape = [40, 5120]}> : (tensor<1x40x5120xf16>) -> tensor<40x5120xf16>
    %4694 = "mix.prim.transpose"(%4601) <{dim1 = 0 : i32, dim2 = 1 : i32}> : (tensor<5120x5120xf16>) -> tensor<5120x5120xf16>
    %4695 = "mix.prim.matmul"(%4693, %4694) : (tensor<40x5120xf16>, tensor<5120x5120xf16>) -> tensor<40x5120xf16>
    %4696 = "mix.prim.add"(%4695, %4602) : (tensor<40x5120xf16>, tensor<5120xf16>) -> tensor<40x5120xf16>
    %4697 = "mix.prim.reshape"(%4696) <{shape = [1, 40, 5120]}> : (tensor<40x5120xf16>) -> tensor<1x40x5120xf16>
    %4698 = "mix.prim.mul"(%4589, %4697) : (tensor<1x40x5120xf16>, tensor<1x40x5120xf16>) -> tensor<1x40x5120xf16>
    %4699 = "mix.comp.weight"() <{param_loc = "transformer.h.37.post_attention_layernorm.weight"}> : () -> tensor<5120xf16>
    %4700 = "arith.constant"() <{value = dense<1.000000e+00> : tensor<1xf16>}> : () -> tensor<1xf16>
    %4701 = "mix.prim.pow"(%4698, %4700) : (tensor<1x40x5120xf16>, tensor<1xf16>) -> tensor<1x40x5120xf16>
    %4702 = "mix.comp.mean"(%4701) <{dims = [2 : i32], keepDim = true}> : (tensor<1x40x5120xf16>) -> tensor<1x40x1xf16>
    %4703 = "arith.constant"() <{value = 1.013280e-06 : f16}> : () -> f16
    %4704 = "mix.prim.add"(%4702, %4703) : (tensor<1x40x1xf16>, f16) -> tensor<1x40x1xf16>
    %4705 = "mix.prim.rsqrt"(%4704) : (tensor<1x40x1xf16>) -> tensor<1x40x1xf16>
    %4706 = "mix.prim.mul"(%4698, %4705) : (tensor<1x40x5120xf16>, tensor<1x40x1xf16>) -> tensor<1x40x5120xf16>
    %4707 = "mix.prim.mul"(%4699, %4706) : (tensor<5120xf16>, tensor<1x40x5120xf16>) -> tensor<1x40x5120xf16>
    %4708 = "mix.module.linear"(%4707) <{dtype = f16, in_feature = 5120 : i32, out_feature = 12288 : i32, params_loc = "transformer.h.37.mlp.gate_proj"}> : (tensor<1x40x5120xf16>) -> tensor<1x40x12288xf16>
    %4709 = "mix.comp.silu"(%4708) : (tensor<1x40x12288xf16>) -> tensor<1x40x12288xf16>
    %4710 = "mix.module.linear"(%4707) <{dtype = f16, in_feature = 5120 : i32, out_feature = 12288 : i32, params_loc = "transformer.h.37.mlp.up_proj"}> : (tensor<1x40x5120xf16>) -> tensor<1x40x12288xf16>
    %4711 = "mix.prim.mul"(%4709, %4710) : (tensor<1x40x12288xf16>, tensor<1x40x12288xf16>) -> tensor<1x40x12288xf16>
    %4712 = "mix.module.linear"(%4711) <{dtype = f16, has_bias, in_feature = 12288 : i32, out_feature = 5120 : i32, params_loc = "transformer.h.37.mlp.down_proj"}> : (tensor<1x40x12288xf16>) -> tensor<1x40x5120xf16>
    %4713 = "mix.prim.add"(%4712, %4698) : (tensor<1x40x5120xf16>, tensor<1x40x5120xf16>) -> tensor<1x40x5120xf16>
    %4714 = "mix.comp.weight"() <{param_loc = "transformer.ln_f.weight"}> : () -> tensor<5120xf16>
    %4715 = "arith.constant"() <{value = dense<1.000000e+00> : tensor<1xf16>}> : () -> tensor<1xf16>
    %4716 = "mix.prim.pow"(%4713, %4715) : (tensor<1x40x5120xf16>, tensor<1xf16>) -> tensor<1x40x5120xf16>
    %4717 = "mix.comp.mean"(%4716) <{dims = [2 : i32], keepDim = true}> : (tensor<1x40x5120xf16>) -> tensor<1x40x1xf16>
    %4718 = "arith.constant"() <{value = 1.013280e-06 : f16}> : () -> f16
    %4719 = "mix.prim.add"(%4717, %4718) : (tensor<1x40x1xf16>, f16) -> tensor<1x40x1xf16>
    %4720 = "mix.prim.rsqrt"(%4719) : (tensor<1x40x1xf16>) -> tensor<1x40x1xf16>
    %4721 = "mix.prim.mul"(%4713, %4720) : (tensor<1x40x5120xf16>, tensor<1x40x1xf16>) -> tensor<1x40x5120xf16>
    %4722 = "mix.prim.mul"(%4714, %4721) : (tensor<5120xf16>, tensor<1x40x5120xf16>) -> tensor<1x40x5120xf16>
    %4723 = "mix.module.linear"(%4722) <{dtype = f16, in_feature = 5120 : i32, out_feature = 120000 : i32, params_loc = "lm_head.weight"}> : (tensor<1x40x5120xf16>) -> tensor<1x40x120000xf16>
    "func.return"(%4723) : (tensor<1x40x120000xf16>) -> ()
  }) : () -> ()
}) : () -> ()
