module {
  func.func private @Telechat(%arg0: tensor<1x40xi32>) -> tensor<1x40x120000xf16> {
    %0 = "mix.comp.weight"() <{param_loc = "transformer.word_embeddings.weight.weight"}> : () -> tensor<1x120000x5120xf16>
    %1 = "mix.prim.reshape"(%arg0) <{shape = [1, 40]}> : (tensor<1x40xi32>) -> tensor<1x40xi32>
    %2 = "mix.prim.gather"(%0, %1) : (tensor<1x120000x5120xf16>, tensor<1x40xi32>) -> tensor<1x40x5120xf16>
    %3 = "mix.prim.reshape"(%2) <{shape = [1, 40, 5120]}> : (tensor<1x40x5120xf16>) -> tensor<1x40x5120xf16>
    %4 = "mix.prim.constant"() <{value = dense<true> : tensor<1x1x40x40xi1>}> : () -> tensor<1x1x40x40xi1>
    %5 = "mix.comp.weight"() <{param_loc = "transformer.h.0.input_layernorm.weight"}> : () -> tensor<5120xf16>
    %6 = "mix.prim.constant"() <{value = dense<1.000000e+00> : tensor<1xf16>}> : () -> tensor<1xf16>
    %7 = "mix.prim.pow"(%3, %6) : (tensor<1x40x5120xf16>, tensor<1xf16>) -> tensor<1x40x5120xf16>
    %8 = "mix.comp.mean"(%7) <{dims = [2 : i32], keepDim = true}> : (tensor<1x40x5120xf16>) -> tensor<1x40x1xf16>
    %9 = "mix.prim.constant"() <{value = 1.013280e-06 : f16}> : () -> f16
    %10 = "mix.prim.add"(%8, %9) : (tensor<1x40x1xf16>, f16) -> tensor<1x40x1xf16>
    %11 = "mix.prim.rsqrt"(%10) : (tensor<1x40x1xf16>) -> tensor<1x40x1xf16>
    %12 = "mix.prim.mul"(%3, %11) : (tensor<1x40x5120xf16>, tensor<1x40x1xf16>) -> tensor<1x40x5120xf16>
    %13 = "mix.prim.mul"(%5, %12) : (tensor<5120xf16>, tensor<1x40x5120xf16>) -> tensor<1x40x5120xf16>
    %14 = "mix.comp.weight"() <{param_loc = "transformer.h.0.self_attention.query.weight"}> : () -> tensor<5120x5120xf16>
    %15 = "mix.comp.weight"() <{param_loc = "transformer.h.0.self_attention.key_value.weight"}> : () -> tensor<10240x5120xf16>
    %16 = "mix.comp.weight"() <{param_loc = "transformer.h.0.self_attention.dense.weight"}> : () -> tensor<5120x5120xf16>
    %17 = "mix.comp.weight"() <{param_loc = "transformer.h.0.self_attention.dense.bias"}> : () -> tensor<5120xf16>
    %18 = "mix.prim.transpose"(%13) <{dim1 = 0 : i32, dim2 = 1 : i32}> : (tensor<1x40x5120xf16>) -> tensor<40x1x5120xf16>
    %19 = "mix.prim.transpose"(%14) <{dim1 = 0 : i32, dim2 = 1 : i32}> : (tensor<5120x5120xf16>) -> tensor<5120x5120xf16>
    %20 = "mix.prim.reshape"(%18) <{shape = [40, 5120]}> : (tensor<40x1x5120xf16>) -> tensor<40x5120xf16>
    %21 = "mix.prim.matmul"(%20, %19) : (tensor<40x5120xf16>, tensor<5120x5120xf16>) -> tensor<40x5120xf16>
    %22 = "mix.prim.reshape"(%21) <{shape = [40, 1, 5120]}> : (tensor<40x5120xf16>) -> tensor<40x1x5120xf16>
    %23 = "mix.prim.reshape"(%22) <{shape = [40, 1, 32, 160]}> : (tensor<40x1x5120xf16>) -> tensor<40x1x32x160xf16>
    %24 = "mix.prim.transpose"(%15) <{dim1 = 0 : i32, dim2 = 1 : i32}> : (tensor<10240x5120xf16>) -> tensor<5120x10240xf16>
    %25 = "mix.prim.reshape"(%18) <{shape = [40, 5120]}> : (tensor<40x1x5120xf16>) -> tensor<40x5120xf16>
    %26 = "mix.prim.matmul"(%25, %24) : (tensor<40x5120xf16>, tensor<5120x10240xf16>) -> tensor<40x10240xf16>
    %27 = "mix.prim.reshape"(%26) <{shape = [40, 1, 10240]}> : (tensor<40x10240xf16>) -> tensor<40x1x10240xf16>
    %28 = "mix.prim.reshape"(%27) <{shape = [40, 1, 32, 320]}> : (tensor<40x1x10240xf16>) -> tensor<40x1x32x320xf16>
    %29 = "mix.prim.slice"(%28) <{dim = 3 : i64, end = 160 : i64, start = 0 : i64, step = 1 : i64}> : (tensor<40x1x32x320xf16>) -> tensor<40x1x32x160xf16>
    %30 = "mix.prim.slice"(%28) <{dim = 3 : i64, end = 320 : i64, start = 160 : i64, step = 1 : i64}> : (tensor<40x1x32x320xf16>) -> tensor<40x1x32x160xf16>
    %31 = "mix.prim.reshape"(%23) <{shape = [40, 32, -1]}> : (tensor<40x1x32x160xf16>) -> tensor<40x32x160xf16>
    %32 = "mix.prim.reshape"(%29) <{shape = [40, 32, -1]}> : (tensor<40x1x32x160xf16>) -> tensor<40x32x160xf16>
    %33 = "mix.prim.constant"() <{value = dense<[0, 1, 2, 3, 4, 5, 6, 7, 8, 9, 10, 11, 12, 13, 14, 15, 16, 17, 18, 19, 20, 21, 22, 23, 24, 25, 26, 27, 28, 29, 30, 31, 32, 33, 34, 35, 36, 37, 38, 39, 40, 41, 42, 43, 44, 45, 46, 47, 48, 49, 50, 51, 52, 53, 54, 55, 56, 57, 58, 59, 60, 61, 62, 63, 64, 65, 66, 67, 68, 69, 70, 71, 72, 73, 74, 75, 76, 77, 78, 79]> : tensor<80xi32>}> : () -> tensor<80xi32>
    %34 = "mix.prim.convert"(%33) <{element_ty = f16}> : (tensor<80xi32>) -> tensor<80xf16>
    %35 = "mix.prim.constant"() <{value = 160 : i32}> : () -> i32
    %36 = "mix.prim.div"(%34, %35) : (tensor<80xf16>, i32) -> tensor<80xf16>
    %37 = "mix.prim.constant"() <{value = 3.041600e+04 : f16}> : () -> f16
    %38 = "mix.prim.pow"(%37, %36) : (f16, tensor<80xf16>) -> tensor<80xf16>
    %39 = "mix.prim.reciprocal"(%38) : (tensor<80xf16>) -> tensor<80xf16>
    %40 = "mix.prim.constant"() <{value = 1.000000e+00 : f16}> : () -> f16
    %41 = "mix.prim.mul"(%40, %39) : (f16, tensor<80xf16>) -> tensor<80xf16>
    %42 = "mix.prim.constant"() <{value = dense<1.000000e+00> : tensor<40xf16>}> : () -> tensor<40xf16>
    %43 = "mix.prim.unsqueeze"(%42) <{axis = 1 : i32}> : (tensor<40xf16>) -> tensor<40x1xf16>
    %44 = "mix.prim.permute"(%43) <{dims = [0, 1]}> : (tensor<40x1xf16>) -> tensor<40x1xf16>
    %45 = "mix.prim.unsqueeze"(%41) <{axis = 1 : i32}> : (tensor<80xf16>) -> tensor<80x1xf16>
    %46 = "mix.prim.permute"(%45) <{dims = [1, 0]}> : (tensor<80x1xf16>) -> tensor<1x80xf16>
    %47 = "mix.prim.mul"(%44, %46) : (tensor<40x1xf16>, tensor<1x80xf16>) -> tensor<40x80xf16>
    %48 = "mix.prim.concat"(%47, %47) <{axis = 1 : i64}> : (tensor<40x80xf16>, tensor<40x80xf16>) -> tensor<40x160xf16>
    %49 = "mix.prim.cos"(%48) : (tensor<40x160xf16>) -> tensor<40x160xf16>
    %50 = "mix.prim.slice"(%49) <{dim = 0 : i64, end = 2147483647 : i64, start = 0 : i64, step = 1 : i64}> : (tensor<40x160xf16>) -> tensor<40x160xf16>
    %51 = "mix.prim.unsqueeze"(%50) <{axis = 1 : i32}> : (tensor<40x160xf16>) -> tensor<40x1x160xf16>
    %52 = "mix.prim.slice"(%51) <{dim = 2 : i64, end = 2147483647 : i64, start = 0 : i64, step = 1 : i64}> : (tensor<40x1x160xf16>) -> tensor<40x1x160xf16>
    %53 = "mix.prim.constant"() <{value = 1.000000e+00 : f16}> : () -> f16
    %54 = "mix.prim.mul"(%52, %53) : (tensor<40x1x160xf16>, f16) -> tensor<40x1x160xf16>
    %55 = "mix.prim.sin"(%48) : (tensor<40x160xf16>) -> tensor<40x160xf16>
    %56 = "mix.prim.slice"(%55) <{dim = 0 : i64, end = 2147483647 : i64, start = 0 : i64, step = 1 : i64}> : (tensor<40x160xf16>) -> tensor<40x160xf16>
    %57 = "mix.prim.unsqueeze"(%56) <{axis = 1 : i32}> : (tensor<40x160xf16>) -> tensor<40x1x160xf16>
    %58 = "mix.prim.slice"(%57) <{dim = 2 : i64, end = 2147483647 : i64, start = 0 : i64, step = 1 : i64}> : (tensor<40x1x160xf16>) -> tensor<40x1x160xf16>
    %59 = "mix.prim.constant"() <{value = 1.000000e+00 : f16}> : () -> f16
    %60 = "mix.prim.mul"(%58, %59) : (tensor<40x1x160xf16>, f16) -> tensor<40x1x160xf16>
    %61 = "mix.prim.slice"(%54) <{dim = 0 : i64, end = 40 : i64, start = 0 : i64, step = 1 : i64}> : (tensor<40x1x160xf16>) -> tensor<40x1x160xf16>
    %62 = "mix.prim.slice"(%60) <{dim = 0 : i64, end = 40 : i64, start = 0 : i64, step = 1 : i64}> : (tensor<40x1x160xf16>) -> tensor<40x1x160xf16>
    %63 = "mix.prim.mul"(%31, %61) : (tensor<40x32x160xf16>, tensor<40x1x160xf16>) -> tensor<40x32x160xf16>
    %64 = "mix.prim.slice"(%31) <{dim = 2 : i64, end = 80 : i64, start = 0 : i64, step = 1 : i64}> : (tensor<40x32x160xf16>) -> tensor<40x32x80xf16>
    %65 = "mix.prim.slice"(%31) <{dim = 2 : i64, end = 2147483647 : i64, start = 80 : i64, step = 1 : i64}> : (tensor<40x32x160xf16>) -> tensor<40x32x80xf16>
    %66 = "mix.prim.neg"(%65) : (tensor<40x32x80xf16>) -> tensor<40x32x80xf16>
    %67 = "mix.prim.concat"(%66, %64) <{axis = 2 : i64}> : (tensor<40x32x80xf16>, tensor<40x32x80xf16>) -> tensor<40x32x160xf16>
    %68 = "mix.prim.mul"(%67, %62) : (tensor<40x32x160xf16>, tensor<40x1x160xf16>) -> tensor<40x32x160xf16>
    %69 = "mix.prim.add"(%63, %68) : (tensor<40x32x160xf16>, tensor<40x32x160xf16>) -> tensor<40x32x160xf16>
    %70 = "mix.prim.mul"(%32, %61) : (tensor<40x32x160xf16>, tensor<40x1x160xf16>) -> tensor<40x32x160xf16>
    %71 = "mix.prim.slice"(%32) <{dim = 2 : i64, end = 80 : i64, start = 0 : i64, step = 1 : i64}> : (tensor<40x32x160xf16>) -> tensor<40x32x80xf16>
    %72 = "mix.prim.slice"(%32) <{dim = 2 : i64, end = 2147483647 : i64, start = 80 : i64, step = 1 : i64}> : (tensor<40x32x160xf16>) -> tensor<40x32x80xf16>
    %73 = "mix.prim.neg"(%72) : (tensor<40x32x80xf16>) -> tensor<40x32x80xf16>
    %74 = "mix.prim.concat"(%73, %71) <{axis = 2 : i64}> : (tensor<40x32x80xf16>, tensor<40x32x80xf16>) -> tensor<40x32x160xf16>
    %75 = "mix.prim.mul"(%74, %62) : (tensor<40x32x160xf16>, tensor<40x1x160xf16>) -> tensor<40x32x160xf16>
    %76 = "mix.prim.add"(%70, %75) : (tensor<40x32x160xf16>, tensor<40x32x160xf16>) -> tensor<40x32x160xf16>
    %77 = "mix.prim.reshape"(%69) <{shape = [40, 1, 32, 160]}> : (tensor<40x32x160xf16>) -> tensor<40x1x32x160xf16>
    %78 = "mix.prim.reshape"(%76) <{shape = [40, 1, 32, 160]}> : (tensor<40x32x160xf16>) -> tensor<40x1x32x160xf16>
    %79 = "mix.prim.reshape"(%77) <{shape = [40, 32, 160]}> : (tensor<40x1x32x160xf16>) -> tensor<40x32x160xf16>
    %80 = "mix.prim.reshape"(%78) <{shape = [40, 32, 160]}> : (tensor<40x1x32x160xf16>) -> tensor<40x32x160xf16>
    %81 = "mix.prim.transpose"(%79) <{dim1 = 0 : i32, dim2 = 1 : i32}> : (tensor<40x32x160xf16>) -> tensor<32x40x160xf16>
    %82 = "mix.prim.transpose"(%80) <{dim1 = 0 : i32, dim2 = 1 : i32}> : (tensor<40x32x160xf16>) -> tensor<32x40x160xf16>
    %83 = "mix.prim.transpose"(%82) <{dim1 = 1 : i32, dim2 = 2 : i32}> : (tensor<32x40x160xf16>) -> tensor<32x160x40xf16>
    %84 = "mix.prim.unsqueeze"(%81) <{axis = 3 : i32}> : (tensor<32x40x160xf16>) -> tensor<32x40x160x1xf16>
    %85 = "mix.prim.permute"(%84) <{dims = [0, 1, 3, 2]}> : (tensor<32x40x160x1xf16>) -> tensor<32x40x1x160xf16>
    %86 = "mix.prim.unsqueeze"(%83) <{axis = 3 : i32}> : (tensor<32x160x40xf16>) -> tensor<32x160x40x1xf16>
    %87 = "mix.prim.permute"(%86) <{dims = [0, 3, 2, 1]}> : (tensor<32x160x40x1xf16>) -> tensor<32x1x40x160xf16>
    %88 = "mix.prim.permute"(%85) <{dims = [0, 1, 3, 2]}> : (tensor<32x40x1x160xf16>) -> tensor<32x40x160x1xf16>
    %89 = "mix.prim.reshape"(%88) <{shape = [32, 40, 160]}> : (tensor<32x40x160x1xf16>) -> tensor<32x40x160xf16>
    %90 = "mix.prim.permute"(%87) <{dims = [0, 3, 2, 1]}> : (tensor<32x1x40x160xf16>) -> tensor<32x160x40x1xf16>
    %91 = "mix.prim.reshape"(%90) <{shape = [32, 160, 40]}> : (tensor<32x160x40x1xf16>) -> tensor<32x160x40xf16>
    %92 = "mix.prim.batch_matmul"(%89, %91) : (tensor<32x40x160xf16>, tensor<32x160x40xf16>) -> tensor<32x40x40xf16>
    %93 = "mix.prim.reshape"(%92) <{shape = [32, 40, 1, 40]}> : (tensor<32x40x40xf16>) -> tensor<32x40x1x40xf16>
    %94 = "mix.prim.permute"(%93) <{dims = [0, 1, 3, 2]}> : (tensor<32x40x1x40xf16>) -> tensor<32x40x40x1xf16>
    %95 = "mix.prim.reshape"(%94) <{shape = [32, 40, 40]}> : (tensor<32x40x40x1xf16>) -> tensor<32x40x40xf16>
    %96 = "mix.prim.constant"() <{value = 7.904050e-02 : f16}> : () -> f16
    %97 = "mix.prim.mul"(%95, %96) : (tensor<32x40x40xf16>, f16) -> tensor<32x40x40xf16>
    %98 = "mix.prim.reshape"(%97) <{shape = [1, 32, 40, 40]}> : (tensor<32x40x40xf16>) -> tensor<1x32x40x40xf16>
    %99 = "mix.prim.constant"() <{value = 0xFC00 : f16}> : () -> f16
    %100 = "mix.comp.masked_fill"(%98, %4, %99) : (tensor<1x32x40x40xf16>, tensor<1x1x40x40xi1>, f16) -> tensor<1x32x40x40xf16>
    %101 = "mix.comp.softmax"(%100) <{axis = -1 : si32}> : (tensor<1x32x40x40xf16>) -> tensor<1x32x40x40xf16>
    %102 = "mix.prim.reshape"(%101) <{shape = [32, 40, 40]}> : (tensor<1x32x40x40xf16>) -> tensor<32x40x40xf16>
    %103 = "mix.prim.reshape"(%30) <{shape = [40, 32, 160]}> : (tensor<40x1x32x160xf16>) -> tensor<40x32x160xf16>
    %104 = "mix.prim.transpose"(%103) <{dim1 = 0 : i32, dim2 = 1 : i32}> : (tensor<40x32x160xf16>) -> tensor<32x40x160xf16>
    %105 = "mix.prim.batch_matmul"(%102, %104) : (tensor<32x40x40xf16>, tensor<32x40x160xf16>) -> tensor<32x40x160xf16>
    %106 = "mix.prim.reshape"(%105) <{shape = [1, 32, 40, 160]}> : (tensor<32x40x160xf16>) -> tensor<1x32x40x160xf16>
    %107 = "mix.prim.permute"(%106) <{dims = [0, 2, 1, 3]}> : (tensor<1x32x40x160xf16>) -> tensor<1x40x32x160xf16>
    %108 = "mix.prim.reshape"(%107) <{shape = [1, 40, 5120]}> : (tensor<1x40x32x160xf16>) -> tensor<1x40x5120xf16>
    %109 = "mix.prim.reshape"(%108) <{shape = [40, 5120]}> : (tensor<1x40x5120xf16>) -> tensor<40x5120xf16>
    %110 = "mix.prim.transpose"(%16) <{dim1 = 0 : i32, dim2 = 1 : i32}> : (tensor<5120x5120xf16>) -> tensor<5120x5120xf16>
    %111 = "mix.prim.matmul"(%109, %110) : (tensor<40x5120xf16>, tensor<5120x5120xf16>) -> tensor<40x5120xf16>
    %112 = "mix.prim.add"(%111, %17) : (tensor<40x5120xf16>, tensor<5120xf16>) -> tensor<40x5120xf16>
    %113 = "mix.prim.reshape"(%112) <{shape = [1, 40, 5120]}> : (tensor<40x5120xf16>) -> tensor<1x40x5120xf16>
    %114 = "mix.prim.mul"(%3, %113) : (tensor<1x40x5120xf16>, tensor<1x40x5120xf16>) -> tensor<1x40x5120xf16>
    %115 = "mix.comp.weight"() <{param_loc = "transformer.h.0.post_attention_layernorm.weight"}> : () -> tensor<5120xf16>
    %116 = "mix.prim.constant"() <{value = dense<1.000000e+00> : tensor<1xf16>}> : () -> tensor<1xf16>
    %117 = "mix.prim.pow"(%114, %116) : (tensor<1x40x5120xf16>, tensor<1xf16>) -> tensor<1x40x5120xf16>
    %118 = "mix.comp.mean"(%117) <{dims = [2 : i32], keepDim = true}> : (tensor<1x40x5120xf16>) -> tensor<1x40x1xf16>
    %119 = "mix.prim.constant"() <{value = 1.013280e-06 : f16}> : () -> f16
    %120 = "mix.prim.add"(%118, %119) : (tensor<1x40x1xf16>, f16) -> tensor<1x40x1xf16>
    %121 = "mix.prim.rsqrt"(%120) : (tensor<1x40x1xf16>) -> tensor<1x40x1xf16>
    %122 = "mix.prim.mul"(%114, %121) : (tensor<1x40x5120xf16>, tensor<1x40x1xf16>) -> tensor<1x40x5120xf16>
    %123 = "mix.prim.mul"(%115, %122) : (tensor<5120xf16>, tensor<1x40x5120xf16>) -> tensor<1x40x5120xf16>
    %124 = "mix.comp.weight"() <{param_loc = "transformer.h.0.mlp.gate_proj.weight"}> : () -> tensor<5120x12288xf16>
    %125 = "mix.prim.reshape"(%124) <{shape = [1, 5120, 12288]}> : (tensor<5120x12288xf16>) -> tensor<1x5120x12288xf16>
    %126 = "mix.prim.batch_matmul"(%123, %125) : (tensor<1x40x5120xf16>, tensor<1x5120x12288xf16>) -> tensor<1x40x12288xf16>
    %127 = "mix.comp.silu"(%126) : (tensor<1x40x12288xf16>) -> tensor<1x40x12288xf16>
    %128 = "mix.comp.weight"() <{param_loc = "transformer.h.0.mlp.up_proj.weight"}> : () -> tensor<5120x12288xf16>
    %129 = "mix.prim.reshape"(%128) <{shape = [1, 5120, 12288]}> : (tensor<5120x12288xf16>) -> tensor<1x5120x12288xf16>
    %130 = "mix.prim.batch_matmul"(%123, %129) : (tensor<1x40x5120xf16>, tensor<1x5120x12288xf16>) -> tensor<1x40x12288xf16>
    %131 = "mix.prim.mul"(%127, %130) : (tensor<1x40x12288xf16>, tensor<1x40x12288xf16>) -> tensor<1x40x12288xf16>
    %132 = "mix.comp.weight"() <{param_loc = "transformer.h.0.mlp.down_proj.weight"}> : () -> tensor<12288x5120xf16>
    %133 = "mix.prim.reshape"(%132) <{shape = [1, 12288, 5120]}> : (tensor<12288x5120xf16>) -> tensor<1x12288x5120xf16>
    %134 = "mix.prim.batch_matmul"(%131, %133) : (tensor<1x40x12288xf16>, tensor<1x12288x5120xf16>) -> tensor<1x40x5120xf16>
    %135 = "mix.comp.weight"() <{param_loc = "transformer.h.0.mlp.down_proj.bias"}> : () -> tensor<5120xf16>
    %136 = "mix.prim.add"(%134, %135) : (tensor<1x40x5120xf16>, tensor<5120xf16>) -> tensor<1x40x5120xf16>
    %137 = "mix.prim.add"(%136, %114) : (tensor<1x40x5120xf16>, tensor<1x40x5120xf16>) -> tensor<1x40x5120xf16>
    %138 = "mix.comp.weight"() <{param_loc = "transformer.h.1.input_layernorm.weight"}> : () -> tensor<5120xf16>
    %139 = "mix.prim.constant"() <{value = dense<1.000000e+00> : tensor<1xf16>}> : () -> tensor<1xf16>
    %140 = "mix.prim.pow"(%137, %139) : (tensor<1x40x5120xf16>, tensor<1xf16>) -> tensor<1x40x5120xf16>
    %141 = "mix.comp.mean"(%140) <{dims = [2 : i32], keepDim = true}> : (tensor<1x40x5120xf16>) -> tensor<1x40x1xf16>
    %142 = "mix.prim.constant"() <{value = 1.013280e-06 : f16}> : () -> f16
    %143 = "mix.prim.add"(%141, %142) : (tensor<1x40x1xf16>, f16) -> tensor<1x40x1xf16>
    %144 = "mix.prim.rsqrt"(%143) : (tensor<1x40x1xf16>) -> tensor<1x40x1xf16>
    %145 = "mix.prim.mul"(%137, %144) : (tensor<1x40x5120xf16>, tensor<1x40x1xf16>) -> tensor<1x40x5120xf16>
    %146 = "mix.prim.mul"(%138, %145) : (tensor<5120xf16>, tensor<1x40x5120xf16>) -> tensor<1x40x5120xf16>
    %147 = "mix.comp.weight"() <{param_loc = "transformer.h.1.self_attention.query.weight"}> : () -> tensor<5120x5120xf16>
    %148 = "mix.comp.weight"() <{param_loc = "transformer.h.1.self_attention.key_value.weight"}> : () -> tensor<10240x5120xf16>
    %149 = "mix.comp.weight"() <{param_loc = "transformer.h.1.self_attention.dense.weight"}> : () -> tensor<5120x5120xf16>
    %150 = "mix.comp.weight"() <{param_loc = "transformer.h.1.self_attention.dense.bias"}> : () -> tensor<5120xf16>
    %151 = "mix.prim.transpose"(%146) <{dim1 = 0 : i32, dim2 = 1 : i32}> : (tensor<1x40x5120xf16>) -> tensor<40x1x5120xf16>
    %152 = "mix.prim.transpose"(%147) <{dim1 = 0 : i32, dim2 = 1 : i32}> : (tensor<5120x5120xf16>) -> tensor<5120x5120xf16>
    %153 = "mix.prim.reshape"(%151) <{shape = [40, 5120]}> : (tensor<40x1x5120xf16>) -> tensor<40x5120xf16>
    %154 = "mix.prim.matmul"(%153, %152) : (tensor<40x5120xf16>, tensor<5120x5120xf16>) -> tensor<40x5120xf16>
    %155 = "mix.prim.reshape"(%154) <{shape = [40, 1, 5120]}> : (tensor<40x5120xf16>) -> tensor<40x1x5120xf16>
    %156 = "mix.prim.reshape"(%155) <{shape = [40, 1, 32, 160]}> : (tensor<40x1x5120xf16>) -> tensor<40x1x32x160xf16>
    %157 = "mix.prim.transpose"(%148) <{dim1 = 0 : i32, dim2 = 1 : i32}> : (tensor<10240x5120xf16>) -> tensor<5120x10240xf16>
    %158 = "mix.prim.reshape"(%151) <{shape = [40, 5120]}> : (tensor<40x1x5120xf16>) -> tensor<40x5120xf16>
    %159 = "mix.prim.matmul"(%158, %157) : (tensor<40x5120xf16>, tensor<5120x10240xf16>) -> tensor<40x10240xf16>
    %160 = "mix.prim.reshape"(%159) <{shape = [40, 1, 10240]}> : (tensor<40x10240xf16>) -> tensor<40x1x10240xf16>
    %161 = "mix.prim.reshape"(%160) <{shape = [40, 1, 32, 320]}> : (tensor<40x1x10240xf16>) -> tensor<40x1x32x320xf16>
    %162 = "mix.prim.slice"(%161) <{dim = 3 : i64, end = 160 : i64, start = 0 : i64, step = 1 : i64}> : (tensor<40x1x32x320xf16>) -> tensor<40x1x32x160xf16>
    %163 = "mix.prim.slice"(%161) <{dim = 3 : i64, end = 320 : i64, start = 160 : i64, step = 1 : i64}> : (tensor<40x1x32x320xf16>) -> tensor<40x1x32x160xf16>
    %164 = "mix.prim.reshape"(%156) <{shape = [40, 32, -1]}> : (tensor<40x1x32x160xf16>) -> tensor<40x32x160xf16>
    %165 = "mix.prim.reshape"(%162) <{shape = [40, 32, -1]}> : (tensor<40x1x32x160xf16>) -> tensor<40x32x160xf16>
    %166 = "mix.prim.constant"() <{value = dense<[0, 1, 2, 3, 4, 5, 6, 7, 8, 9, 10, 11, 12, 13, 14, 15, 16, 17, 18, 19, 20, 21, 22, 23, 24, 25, 26, 27, 28, 29, 30, 31, 32, 33, 34, 35, 36, 37, 38, 39, 40, 41, 42, 43, 44, 45, 46, 47, 48, 49, 50, 51, 52, 53, 54, 55, 56, 57, 58, 59, 60, 61, 62, 63, 64, 65, 66, 67, 68, 69, 70, 71, 72, 73, 74, 75, 76, 77, 78, 79]> : tensor<80xi32>}> : () -> tensor<80xi32>
    %167 = "mix.prim.convert"(%166) <{element_ty = f16}> : (tensor<80xi32>) -> tensor<80xf16>
    %168 = "mix.prim.constant"() <{value = 160 : i32}> : () -> i32
    %169 = "mix.prim.div"(%167, %168) : (tensor<80xf16>, i32) -> tensor<80xf16>
    %170 = "mix.prim.constant"() <{value = 3.041600e+04 : f16}> : () -> f16
    %171 = "mix.prim.pow"(%170, %169) : (f16, tensor<80xf16>) -> tensor<80xf16>
    %172 = "mix.prim.reciprocal"(%171) : (tensor<80xf16>) -> tensor<80xf16>
    %173 = "mix.prim.constant"() <{value = 1.000000e+00 : f16}> : () -> f16
    %174 = "mix.prim.mul"(%173, %172) : (f16, tensor<80xf16>) -> tensor<80xf16>
    %175 = "mix.prim.constant"() <{value = dense<1.000000e+00> : tensor<40xf16>}> : () -> tensor<40xf16>
    %176 = "mix.prim.unsqueeze"(%175) <{axis = 1 : i32}> : (tensor<40xf16>) -> tensor<40x1xf16>
    %177 = "mix.prim.permute"(%176) <{dims = [0, 1]}> : (tensor<40x1xf16>) -> tensor<40x1xf16>
    %178 = "mix.prim.unsqueeze"(%174) <{axis = 1 : i32}> : (tensor<80xf16>) -> tensor<80x1xf16>
    %179 = "mix.prim.permute"(%178) <{dims = [1, 0]}> : (tensor<80x1xf16>) -> tensor<1x80xf16>
    %180 = "mix.prim.mul"(%177, %179) : (tensor<40x1xf16>, tensor<1x80xf16>) -> tensor<40x80xf16>
    %181 = "mix.prim.concat"(%180, %180) <{axis = 1 : i64}> : (tensor<40x80xf16>, tensor<40x80xf16>) -> tensor<40x160xf16>
    %182 = "mix.prim.cos"(%181) : (tensor<40x160xf16>) -> tensor<40x160xf16>
    %183 = "mix.prim.slice"(%182) <{dim = 0 : i64, end = 2147483647 : i64, start = 0 : i64, step = 1 : i64}> : (tensor<40x160xf16>) -> tensor<40x160xf16>
    %184 = "mix.prim.unsqueeze"(%183) <{axis = 1 : i32}> : (tensor<40x160xf16>) -> tensor<40x1x160xf16>
    %185 = "mix.prim.slice"(%184) <{dim = 2 : i64, end = 2147483647 : i64, start = 0 : i64, step = 1 : i64}> : (tensor<40x1x160xf16>) -> tensor<40x1x160xf16>
    %186 = "mix.prim.constant"() <{value = 1.000000e+00 : f16}> : () -> f16
    %187 = "mix.prim.mul"(%185, %186) : (tensor<40x1x160xf16>, f16) -> tensor<40x1x160xf16>
    %188 = "mix.prim.sin"(%181) : (tensor<40x160xf16>) -> tensor<40x160xf16>
    %189 = "mix.prim.slice"(%188) <{dim = 0 : i64, end = 2147483647 : i64, start = 0 : i64, step = 1 : i64}> : (tensor<40x160xf16>) -> tensor<40x160xf16>
    %190 = "mix.prim.unsqueeze"(%189) <{axis = 1 : i32}> : (tensor<40x160xf16>) -> tensor<40x1x160xf16>
    %191 = "mix.prim.slice"(%190) <{dim = 2 : i64, end = 2147483647 : i64, start = 0 : i64, step = 1 : i64}> : (tensor<40x1x160xf16>) -> tensor<40x1x160xf16>
    %192 = "mix.prim.constant"() <{value = 1.000000e+00 : f16}> : () -> f16
    %193 = "mix.prim.mul"(%191, %192) : (tensor<40x1x160xf16>, f16) -> tensor<40x1x160xf16>
    %194 = "mix.prim.slice"(%187) <{dim = 0 : i64, end = 40 : i64, start = 0 : i64, step = 1 : i64}> : (tensor<40x1x160xf16>) -> tensor<40x1x160xf16>
    %195 = "mix.prim.slice"(%193) <{dim = 0 : i64, end = 40 : i64, start = 0 : i64, step = 1 : i64}> : (tensor<40x1x160xf16>) -> tensor<40x1x160xf16>
    %196 = "mix.prim.mul"(%164, %194) : (tensor<40x32x160xf16>, tensor<40x1x160xf16>) -> tensor<40x32x160xf16>
    %197 = "mix.prim.slice"(%164) <{dim = 2 : i64, end = 80 : i64, start = 0 : i64, step = 1 : i64}> : (tensor<40x32x160xf16>) -> tensor<40x32x80xf16>
    %198 = "mix.prim.slice"(%164) <{dim = 2 : i64, end = 2147483647 : i64, start = 80 : i64, step = 1 : i64}> : (tensor<40x32x160xf16>) -> tensor<40x32x80xf16>
    %199 = "mix.prim.neg"(%198) : (tensor<40x32x80xf16>) -> tensor<40x32x80xf16>
    %200 = "mix.prim.concat"(%199, %197) <{axis = 2 : i64}> : (tensor<40x32x80xf16>, tensor<40x32x80xf16>) -> tensor<40x32x160xf16>
    %201 = "mix.prim.mul"(%200, %195) : (tensor<40x32x160xf16>, tensor<40x1x160xf16>) -> tensor<40x32x160xf16>
    %202 = "mix.prim.add"(%196, %201) : (tensor<40x32x160xf16>, tensor<40x32x160xf16>) -> tensor<40x32x160xf16>
    %203 = "mix.prim.mul"(%165, %194) : (tensor<40x32x160xf16>, tensor<40x1x160xf16>) -> tensor<40x32x160xf16>
    %204 = "mix.prim.slice"(%165) <{dim = 2 : i64, end = 80 : i64, start = 0 : i64, step = 1 : i64}> : (tensor<40x32x160xf16>) -> tensor<40x32x80xf16>
    %205 = "mix.prim.slice"(%165) <{dim = 2 : i64, end = 2147483647 : i64, start = 80 : i64, step = 1 : i64}> : (tensor<40x32x160xf16>) -> tensor<40x32x80xf16>
    %206 = "mix.prim.neg"(%205) : (tensor<40x32x80xf16>) -> tensor<40x32x80xf16>
    %207 = "mix.prim.concat"(%206, %204) <{axis = 2 : i64}> : (tensor<40x32x80xf16>, tensor<40x32x80xf16>) -> tensor<40x32x160xf16>
    %208 = "mix.prim.mul"(%207, %195) : (tensor<40x32x160xf16>, tensor<40x1x160xf16>) -> tensor<40x32x160xf16>
    %209 = "mix.prim.add"(%203, %208) : (tensor<40x32x160xf16>, tensor<40x32x160xf16>) -> tensor<40x32x160xf16>
    %210 = "mix.prim.reshape"(%202) <{shape = [40, 1, 32, 160]}> : (tensor<40x32x160xf16>) -> tensor<40x1x32x160xf16>
    %211 = "mix.prim.reshape"(%209) <{shape = [40, 1, 32, 160]}> : (tensor<40x32x160xf16>) -> tensor<40x1x32x160xf16>
    %212 = "mix.prim.reshape"(%210) <{shape = [40, 32, 160]}> : (tensor<40x1x32x160xf16>) -> tensor<40x32x160xf16>
    %213 = "mix.prim.reshape"(%211) <{shape = [40, 32, 160]}> : (tensor<40x1x32x160xf16>) -> tensor<40x32x160xf16>
    %214 = "mix.prim.transpose"(%212) <{dim1 = 0 : i32, dim2 = 1 : i32}> : (tensor<40x32x160xf16>) -> tensor<32x40x160xf16>
    %215 = "mix.prim.transpose"(%213) <{dim1 = 0 : i32, dim2 = 1 : i32}> : (tensor<40x32x160xf16>) -> tensor<32x40x160xf16>
    %216 = "mix.prim.transpose"(%215) <{dim1 = 1 : i32, dim2 = 2 : i32}> : (tensor<32x40x160xf16>) -> tensor<32x160x40xf16>
    %217 = "mix.prim.unsqueeze"(%214) <{axis = 3 : i32}> : (tensor<32x40x160xf16>) -> tensor<32x40x160x1xf16>
    %218 = "mix.prim.permute"(%217) <{dims = [0, 1, 3, 2]}> : (tensor<32x40x160x1xf16>) -> tensor<32x40x1x160xf16>
    %219 = "mix.prim.unsqueeze"(%216) <{axis = 3 : i32}> : (tensor<32x160x40xf16>) -> tensor<32x160x40x1xf16>
    %220 = "mix.prim.permute"(%219) <{dims = [0, 3, 2, 1]}> : (tensor<32x160x40x1xf16>) -> tensor<32x1x40x160xf16>
    %221 = "mix.prim.permute"(%218) <{dims = [0, 1, 3, 2]}> : (tensor<32x40x1x160xf16>) -> tensor<32x40x160x1xf16>
    %222 = "mix.prim.reshape"(%221) <{shape = [32, 40, 160]}> : (tensor<32x40x160x1xf16>) -> tensor<32x40x160xf16>
    %223 = "mix.prim.permute"(%220) <{dims = [0, 3, 2, 1]}> : (tensor<32x1x40x160xf16>) -> tensor<32x160x40x1xf16>
    %224 = "mix.prim.reshape"(%223) <{shape = [32, 160, 40]}> : (tensor<32x160x40x1xf16>) -> tensor<32x160x40xf16>
    %225 = "mix.prim.batch_matmul"(%222, %224) : (tensor<32x40x160xf16>, tensor<32x160x40xf16>) -> tensor<32x40x40xf16>
    %226 = "mix.prim.reshape"(%225) <{shape = [32, 40, 1, 40]}> : (tensor<32x40x40xf16>) -> tensor<32x40x1x40xf16>
    %227 = "mix.prim.permute"(%226) <{dims = [0, 1, 3, 2]}> : (tensor<32x40x1x40xf16>) -> tensor<32x40x40x1xf16>
    %228 = "mix.prim.reshape"(%227) <{shape = [32, 40, 40]}> : (tensor<32x40x40x1xf16>) -> tensor<32x40x40xf16>
    %229 = "mix.prim.constant"() <{value = 7.904050e-02 : f16}> : () -> f16
    %230 = "mix.prim.mul"(%228, %229) : (tensor<32x40x40xf16>, f16) -> tensor<32x40x40xf16>
    %231 = "mix.prim.reshape"(%230) <{shape = [1, 32, 40, 40]}> : (tensor<32x40x40xf16>) -> tensor<1x32x40x40xf16>
    %232 = "mix.prim.constant"() <{value = 0xFC00 : f16}> : () -> f16
    %233 = "mix.comp.masked_fill"(%231, %4, %232) : (tensor<1x32x40x40xf16>, tensor<1x1x40x40xi1>, f16) -> tensor<1x32x40x40xf16>
    %234 = "mix.comp.softmax"(%233) <{axis = -1 : si32}> : (tensor<1x32x40x40xf16>) -> tensor<1x32x40x40xf16>
    %235 = "mix.prim.reshape"(%234) <{shape = [32, 40, 40]}> : (tensor<1x32x40x40xf16>) -> tensor<32x40x40xf16>
    %236 = "mix.prim.reshape"(%163) <{shape = [40, 32, 160]}> : (tensor<40x1x32x160xf16>) -> tensor<40x32x160xf16>
    %237 = "mix.prim.transpose"(%236) <{dim1 = 0 : i32, dim2 = 1 : i32}> : (tensor<40x32x160xf16>) -> tensor<32x40x160xf16>
    %238 = "mix.prim.batch_matmul"(%235, %237) : (tensor<32x40x40xf16>, tensor<32x40x160xf16>) -> tensor<32x40x160xf16>
    %239 = "mix.prim.reshape"(%238) <{shape = [1, 32, 40, 160]}> : (tensor<32x40x160xf16>) -> tensor<1x32x40x160xf16>
    %240 = "mix.prim.permute"(%239) <{dims = [0, 2, 1, 3]}> : (tensor<1x32x40x160xf16>) -> tensor<1x40x32x160xf16>
    %241 = "mix.prim.reshape"(%240) <{shape = [1, 40, 5120]}> : (tensor<1x40x32x160xf16>) -> tensor<1x40x5120xf16>
    %242 = "mix.prim.reshape"(%241) <{shape = [40, 5120]}> : (tensor<1x40x5120xf16>) -> tensor<40x5120xf16>
    %243 = "mix.prim.transpose"(%149) <{dim1 = 0 : i32, dim2 = 1 : i32}> : (tensor<5120x5120xf16>) -> tensor<5120x5120xf16>
    %244 = "mix.prim.matmul"(%242, %243) : (tensor<40x5120xf16>, tensor<5120x5120xf16>) -> tensor<40x5120xf16>
    %245 = "mix.prim.add"(%244, %150) : (tensor<40x5120xf16>, tensor<5120xf16>) -> tensor<40x5120xf16>
    %246 = "mix.prim.reshape"(%245) <{shape = [1, 40, 5120]}> : (tensor<40x5120xf16>) -> tensor<1x40x5120xf16>
    %247 = "mix.prim.mul"(%137, %246) : (tensor<1x40x5120xf16>, tensor<1x40x5120xf16>) -> tensor<1x40x5120xf16>
    %248 = "mix.comp.weight"() <{param_loc = "transformer.h.1.post_attention_layernorm.weight"}> : () -> tensor<5120xf16>
    %249 = "mix.prim.constant"() <{value = dense<1.000000e+00> : tensor<1xf16>}> : () -> tensor<1xf16>
    %250 = "mix.prim.pow"(%247, %249) : (tensor<1x40x5120xf16>, tensor<1xf16>) -> tensor<1x40x5120xf16>
    %251 = "mix.comp.mean"(%250) <{dims = [2 : i32], keepDim = true}> : (tensor<1x40x5120xf16>) -> tensor<1x40x1xf16>
    %252 = "mix.prim.constant"() <{value = 1.013280e-06 : f16}> : () -> f16
    %253 = "mix.prim.add"(%251, %252) : (tensor<1x40x1xf16>, f16) -> tensor<1x40x1xf16>
    %254 = "mix.prim.rsqrt"(%253) : (tensor<1x40x1xf16>) -> tensor<1x40x1xf16>
    %255 = "mix.prim.mul"(%247, %254) : (tensor<1x40x5120xf16>, tensor<1x40x1xf16>) -> tensor<1x40x5120xf16>
    %256 = "mix.prim.mul"(%248, %255) : (tensor<5120xf16>, tensor<1x40x5120xf16>) -> tensor<1x40x5120xf16>
    %257 = "mix.comp.weight"() <{param_loc = "transformer.h.1.mlp.gate_proj.weight"}> : () -> tensor<5120x12288xf16>
    %258 = "mix.prim.reshape"(%257) <{shape = [1, 5120, 12288]}> : (tensor<5120x12288xf16>) -> tensor<1x5120x12288xf16>
    %259 = "mix.prim.batch_matmul"(%256, %258) : (tensor<1x40x5120xf16>, tensor<1x5120x12288xf16>) -> tensor<1x40x12288xf16>
    %260 = "mix.comp.silu"(%259) : (tensor<1x40x12288xf16>) -> tensor<1x40x12288xf16>
    %261 = "mix.comp.weight"() <{param_loc = "transformer.h.1.mlp.up_proj.weight"}> : () -> tensor<5120x12288xf16>
    %262 = "mix.prim.reshape"(%261) <{shape = [1, 5120, 12288]}> : (tensor<5120x12288xf16>) -> tensor<1x5120x12288xf16>
    %263 = "mix.prim.batch_matmul"(%256, %262) : (tensor<1x40x5120xf16>, tensor<1x5120x12288xf16>) -> tensor<1x40x12288xf16>
    %264 = "mix.prim.mul"(%260, %263) : (tensor<1x40x12288xf16>, tensor<1x40x12288xf16>) -> tensor<1x40x12288xf16>
    %265 = "mix.comp.weight"() <{param_loc = "transformer.h.1.mlp.down_proj.weight"}> : () -> tensor<12288x5120xf16>
    %266 = "mix.prim.reshape"(%265) <{shape = [1, 12288, 5120]}> : (tensor<12288x5120xf16>) -> tensor<1x12288x5120xf16>
    %267 = "mix.prim.batch_matmul"(%264, %266) : (tensor<1x40x12288xf16>, tensor<1x12288x5120xf16>) -> tensor<1x40x5120xf16>
    %268 = "mix.comp.weight"() <{param_loc = "transformer.h.1.mlp.down_proj.bias"}> : () -> tensor<5120xf16>
    %269 = "mix.prim.add"(%267, %268) : (tensor<1x40x5120xf16>, tensor<5120xf16>) -> tensor<1x40x5120xf16>
    %270 = "mix.prim.add"(%269, %247) : (tensor<1x40x5120xf16>, tensor<1x40x5120xf16>) -> tensor<1x40x5120xf16>
    %271 = "mix.comp.weight"() <{param_loc = "transformer.h.2.input_layernorm.weight"}> : () -> tensor<5120xf16>
    %272 = "mix.prim.constant"() <{value = dense<1.000000e+00> : tensor<1xf16>}> : () -> tensor<1xf16>
    %273 = "mix.prim.pow"(%270, %272) : (tensor<1x40x5120xf16>, tensor<1xf16>) -> tensor<1x40x5120xf16>
    %274 = "mix.comp.mean"(%273) <{dims = [2 : i32], keepDim = true}> : (tensor<1x40x5120xf16>) -> tensor<1x40x1xf16>
    %275 = "mix.prim.constant"() <{value = 1.013280e-06 : f16}> : () -> f16
    %276 = "mix.prim.add"(%274, %275) : (tensor<1x40x1xf16>, f16) -> tensor<1x40x1xf16>
    %277 = "mix.prim.rsqrt"(%276) : (tensor<1x40x1xf16>) -> tensor<1x40x1xf16>
    %278 = "mix.prim.mul"(%270, %277) : (tensor<1x40x5120xf16>, tensor<1x40x1xf16>) -> tensor<1x40x5120xf16>
    %279 = "mix.prim.mul"(%271, %278) : (tensor<5120xf16>, tensor<1x40x5120xf16>) -> tensor<1x40x5120xf16>
    %280 = "mix.comp.weight"() <{param_loc = "transformer.h.2.self_attention.query.weight"}> : () -> tensor<5120x5120xf16>
    %281 = "mix.comp.weight"() <{param_loc = "transformer.h.2.self_attention.key_value.weight"}> : () -> tensor<10240x5120xf16>
    %282 = "mix.comp.weight"() <{param_loc = "transformer.h.2.self_attention.dense.weight"}> : () -> tensor<5120x5120xf16>
    %283 = "mix.comp.weight"() <{param_loc = "transformer.h.2.self_attention.dense.bias"}> : () -> tensor<5120xf16>
    %284 = "mix.prim.transpose"(%279) <{dim1 = 0 : i32, dim2 = 1 : i32}> : (tensor<1x40x5120xf16>) -> tensor<40x1x5120xf16>
    %285 = "mix.prim.transpose"(%280) <{dim1 = 0 : i32, dim2 = 1 : i32}> : (tensor<5120x5120xf16>) -> tensor<5120x5120xf16>
    %286 = "mix.prim.reshape"(%284) <{shape = [40, 5120]}> : (tensor<40x1x5120xf16>) -> tensor<40x5120xf16>
    %287 = "mix.prim.matmul"(%286, %285) : (tensor<40x5120xf16>, tensor<5120x5120xf16>) -> tensor<40x5120xf16>
    %288 = "mix.prim.reshape"(%287) <{shape = [40, 1, 5120]}> : (tensor<40x5120xf16>) -> tensor<40x1x5120xf16>
    %289 = "mix.prim.reshape"(%288) <{shape = [40, 1, 32, 160]}> : (tensor<40x1x5120xf16>) -> tensor<40x1x32x160xf16>
    %290 = "mix.prim.transpose"(%281) <{dim1 = 0 : i32, dim2 = 1 : i32}> : (tensor<10240x5120xf16>) -> tensor<5120x10240xf16>
    %291 = "mix.prim.reshape"(%284) <{shape = [40, 5120]}> : (tensor<40x1x5120xf16>) -> tensor<40x5120xf16>
    %292 = "mix.prim.matmul"(%291, %290) : (tensor<40x5120xf16>, tensor<5120x10240xf16>) -> tensor<40x10240xf16>
    %293 = "mix.prim.reshape"(%292) <{shape = [40, 1, 10240]}> : (tensor<40x10240xf16>) -> tensor<40x1x10240xf16>
    %294 = "mix.prim.reshape"(%293) <{shape = [40, 1, 32, 320]}> : (tensor<40x1x10240xf16>) -> tensor<40x1x32x320xf16>
    %295 = "mix.prim.slice"(%294) <{dim = 3 : i64, end = 160 : i64, start = 0 : i64, step = 1 : i64}> : (tensor<40x1x32x320xf16>) -> tensor<40x1x32x160xf16>
    %296 = "mix.prim.slice"(%294) <{dim = 3 : i64, end = 320 : i64, start = 160 : i64, step = 1 : i64}> : (tensor<40x1x32x320xf16>) -> tensor<40x1x32x160xf16>
    %297 = "mix.prim.reshape"(%289) <{shape = [40, 32, -1]}> : (tensor<40x1x32x160xf16>) -> tensor<40x32x160xf16>
    %298 = "mix.prim.reshape"(%295) <{shape = [40, 32, -1]}> : (tensor<40x1x32x160xf16>) -> tensor<40x32x160xf16>
    %299 = "mix.prim.constant"() <{value = dense<[0, 1, 2, 3, 4, 5, 6, 7, 8, 9, 10, 11, 12, 13, 14, 15, 16, 17, 18, 19, 20, 21, 22, 23, 24, 25, 26, 27, 28, 29, 30, 31, 32, 33, 34, 35, 36, 37, 38, 39, 40, 41, 42, 43, 44, 45, 46, 47, 48, 49, 50, 51, 52, 53, 54, 55, 56, 57, 58, 59, 60, 61, 62, 63, 64, 65, 66, 67, 68, 69, 70, 71, 72, 73, 74, 75, 76, 77, 78, 79]> : tensor<80xi32>}> : () -> tensor<80xi32>
    %300 = "mix.prim.convert"(%299) <{element_ty = f16}> : (tensor<80xi32>) -> tensor<80xf16>
    %301 = "mix.prim.constant"() <{value = 160 : i32}> : () -> i32
    %302 = "mix.prim.div"(%300, %301) : (tensor<80xf16>, i32) -> tensor<80xf16>
    %303 = "mix.prim.constant"() <{value = 3.041600e+04 : f16}> : () -> f16
    %304 = "mix.prim.pow"(%303, %302) : (f16, tensor<80xf16>) -> tensor<80xf16>
    %305 = "mix.prim.reciprocal"(%304) : (tensor<80xf16>) -> tensor<80xf16>
    %306 = "mix.prim.constant"() <{value = 1.000000e+00 : f16}> : () -> f16
    %307 = "mix.prim.mul"(%306, %305) : (f16, tensor<80xf16>) -> tensor<80xf16>
    %308 = "mix.prim.constant"() <{value = dense<1.000000e+00> : tensor<40xf16>}> : () -> tensor<40xf16>
    %309 = "mix.prim.unsqueeze"(%308) <{axis = 1 : i32}> : (tensor<40xf16>) -> tensor<40x1xf16>
    %310 = "mix.prim.permute"(%309) <{dims = [0, 1]}> : (tensor<40x1xf16>) -> tensor<40x1xf16>
    %311 = "mix.prim.unsqueeze"(%307) <{axis = 1 : i32}> : (tensor<80xf16>) -> tensor<80x1xf16>
    %312 = "mix.prim.permute"(%311) <{dims = [1, 0]}> : (tensor<80x1xf16>) -> tensor<1x80xf16>
    %313 = "mix.prim.mul"(%310, %312) : (tensor<40x1xf16>, tensor<1x80xf16>) -> tensor<40x80xf16>
    %314 = "mix.prim.concat"(%313, %313) <{axis = 1 : i64}> : (tensor<40x80xf16>, tensor<40x80xf16>) -> tensor<40x160xf16>
    %315 = "mix.prim.cos"(%314) : (tensor<40x160xf16>) -> tensor<40x160xf16>
    %316 = "mix.prim.slice"(%315) <{dim = 0 : i64, end = 2147483647 : i64, start = 0 : i64, step = 1 : i64}> : (tensor<40x160xf16>) -> tensor<40x160xf16>
    %317 = "mix.prim.unsqueeze"(%316) <{axis = 1 : i32}> : (tensor<40x160xf16>) -> tensor<40x1x160xf16>
    %318 = "mix.prim.slice"(%317) <{dim = 2 : i64, end = 2147483647 : i64, start = 0 : i64, step = 1 : i64}> : (tensor<40x1x160xf16>) -> tensor<40x1x160xf16>
    %319 = "mix.prim.constant"() <{value = 1.000000e+00 : f16}> : () -> f16
    %320 = "mix.prim.mul"(%318, %319) : (tensor<40x1x160xf16>, f16) -> tensor<40x1x160xf16>
    %321 = "mix.prim.sin"(%314) : (tensor<40x160xf16>) -> tensor<40x160xf16>
    %322 = "mix.prim.slice"(%321) <{dim = 0 : i64, end = 2147483647 : i64, start = 0 : i64, step = 1 : i64}> : (tensor<40x160xf16>) -> tensor<40x160xf16>
    %323 = "mix.prim.unsqueeze"(%322) <{axis = 1 : i32}> : (tensor<40x160xf16>) -> tensor<40x1x160xf16>
    %324 = "mix.prim.slice"(%323) <{dim = 2 : i64, end = 2147483647 : i64, start = 0 : i64, step = 1 : i64}> : (tensor<40x1x160xf16>) -> tensor<40x1x160xf16>
    %325 = "mix.prim.constant"() <{value = 1.000000e+00 : f16}> : () -> f16
    %326 = "mix.prim.mul"(%324, %325) : (tensor<40x1x160xf16>, f16) -> tensor<40x1x160xf16>
    %327 = "mix.prim.slice"(%320) <{dim = 0 : i64, end = 40 : i64, start = 0 : i64, step = 1 : i64}> : (tensor<40x1x160xf16>) -> tensor<40x1x160xf16>
    %328 = "mix.prim.slice"(%326) <{dim = 0 : i64, end = 40 : i64, start = 0 : i64, step = 1 : i64}> : (tensor<40x1x160xf16>) -> tensor<40x1x160xf16>
    %329 = "mix.prim.mul"(%297, %327) : (tensor<40x32x160xf16>, tensor<40x1x160xf16>) -> tensor<40x32x160xf16>
    %330 = "mix.prim.slice"(%297) <{dim = 2 : i64, end = 80 : i64, start = 0 : i64, step = 1 : i64}> : (tensor<40x32x160xf16>) -> tensor<40x32x80xf16>
    %331 = "mix.prim.slice"(%297) <{dim = 2 : i64, end = 2147483647 : i64, start = 80 : i64, step = 1 : i64}> : (tensor<40x32x160xf16>) -> tensor<40x32x80xf16>
    %332 = "mix.prim.neg"(%331) : (tensor<40x32x80xf16>) -> tensor<40x32x80xf16>
    %333 = "mix.prim.concat"(%332, %330) <{axis = 2 : i64}> : (tensor<40x32x80xf16>, tensor<40x32x80xf16>) -> tensor<40x32x160xf16>
    %334 = "mix.prim.mul"(%333, %328) : (tensor<40x32x160xf16>, tensor<40x1x160xf16>) -> tensor<40x32x160xf16>
    %335 = "mix.prim.add"(%329, %334) : (tensor<40x32x160xf16>, tensor<40x32x160xf16>) -> tensor<40x32x160xf16>
    %336 = "mix.prim.mul"(%298, %327) : (tensor<40x32x160xf16>, tensor<40x1x160xf16>) -> tensor<40x32x160xf16>
    %337 = "mix.prim.slice"(%298) <{dim = 2 : i64, end = 80 : i64, start = 0 : i64, step = 1 : i64}> : (tensor<40x32x160xf16>) -> tensor<40x32x80xf16>
    %338 = "mix.prim.slice"(%298) <{dim = 2 : i64, end = 2147483647 : i64, start = 80 : i64, step = 1 : i64}> : (tensor<40x32x160xf16>) -> tensor<40x32x80xf16>
    %339 = "mix.prim.neg"(%338) : (tensor<40x32x80xf16>) -> tensor<40x32x80xf16>
    %340 = "mix.prim.concat"(%339, %337) <{axis = 2 : i64}> : (tensor<40x32x80xf16>, tensor<40x32x80xf16>) -> tensor<40x32x160xf16>
    %341 = "mix.prim.mul"(%340, %328) : (tensor<40x32x160xf16>, tensor<40x1x160xf16>) -> tensor<40x32x160xf16>
    %342 = "mix.prim.add"(%336, %341) : (tensor<40x32x160xf16>, tensor<40x32x160xf16>) -> tensor<40x32x160xf16>
    %343 = "mix.prim.reshape"(%335) <{shape = [40, 1, 32, 160]}> : (tensor<40x32x160xf16>) -> tensor<40x1x32x160xf16>
    %344 = "mix.prim.reshape"(%342) <{shape = [40, 1, 32, 160]}> : (tensor<40x32x160xf16>) -> tensor<40x1x32x160xf16>
    %345 = "mix.prim.reshape"(%343) <{shape = [40, 32, 160]}> : (tensor<40x1x32x160xf16>) -> tensor<40x32x160xf16>
    %346 = "mix.prim.reshape"(%344) <{shape = [40, 32, 160]}> : (tensor<40x1x32x160xf16>) -> tensor<40x32x160xf16>
    %347 = "mix.prim.transpose"(%345) <{dim1 = 0 : i32, dim2 = 1 : i32}> : (tensor<40x32x160xf16>) -> tensor<32x40x160xf16>
    %348 = "mix.prim.transpose"(%346) <{dim1 = 0 : i32, dim2 = 1 : i32}> : (tensor<40x32x160xf16>) -> tensor<32x40x160xf16>
    %349 = "mix.prim.transpose"(%348) <{dim1 = 1 : i32, dim2 = 2 : i32}> : (tensor<32x40x160xf16>) -> tensor<32x160x40xf16>
    %350 = "mix.prim.unsqueeze"(%347) <{axis = 3 : i32}> : (tensor<32x40x160xf16>) -> tensor<32x40x160x1xf16>
    %351 = "mix.prim.permute"(%350) <{dims = [0, 1, 3, 2]}> : (tensor<32x40x160x1xf16>) -> tensor<32x40x1x160xf16>
    %352 = "mix.prim.unsqueeze"(%349) <{axis = 3 : i32}> : (tensor<32x160x40xf16>) -> tensor<32x160x40x1xf16>
    %353 = "mix.prim.permute"(%352) <{dims = [0, 3, 2, 1]}> : (tensor<32x160x40x1xf16>) -> tensor<32x1x40x160xf16>
    %354 = "mix.prim.permute"(%351) <{dims = [0, 1, 3, 2]}> : (tensor<32x40x1x160xf16>) -> tensor<32x40x160x1xf16>
    %355 = "mix.prim.reshape"(%354) <{shape = [32, 40, 160]}> : (tensor<32x40x160x1xf16>) -> tensor<32x40x160xf16>
    %356 = "mix.prim.permute"(%353) <{dims = [0, 3, 2, 1]}> : (tensor<32x1x40x160xf16>) -> tensor<32x160x40x1xf16>
    %357 = "mix.prim.reshape"(%356) <{shape = [32, 160, 40]}> : (tensor<32x160x40x1xf16>) -> tensor<32x160x40xf16>
    %358 = "mix.prim.batch_matmul"(%355, %357) : (tensor<32x40x160xf16>, tensor<32x160x40xf16>) -> tensor<32x40x40xf16>
    %359 = "mix.prim.reshape"(%358) <{shape = [32, 40, 1, 40]}> : (tensor<32x40x40xf16>) -> tensor<32x40x1x40xf16>
    %360 = "mix.prim.permute"(%359) <{dims = [0, 1, 3, 2]}> : (tensor<32x40x1x40xf16>) -> tensor<32x40x40x1xf16>
    %361 = "mix.prim.reshape"(%360) <{shape = [32, 40, 40]}> : (tensor<32x40x40x1xf16>) -> tensor<32x40x40xf16>
    %362 = "mix.prim.constant"() <{value = 7.904050e-02 : f16}> : () -> f16
    %363 = "mix.prim.mul"(%361, %362) : (tensor<32x40x40xf16>, f16) -> tensor<32x40x40xf16>
    %364 = "mix.prim.reshape"(%363) <{shape = [1, 32, 40, 40]}> : (tensor<32x40x40xf16>) -> tensor<1x32x40x40xf16>
    %365 = "mix.prim.constant"() <{value = 0xFC00 : f16}> : () -> f16
    %366 = "mix.comp.masked_fill"(%364, %4, %365) : (tensor<1x32x40x40xf16>, tensor<1x1x40x40xi1>, f16) -> tensor<1x32x40x40xf16>
    %367 = "mix.comp.softmax"(%366) <{axis = -1 : si32}> : (tensor<1x32x40x40xf16>) -> tensor<1x32x40x40xf16>
    %368 = "mix.prim.reshape"(%367) <{shape = [32, 40, 40]}> : (tensor<1x32x40x40xf16>) -> tensor<32x40x40xf16>
    %369 = "mix.prim.reshape"(%296) <{shape = [40, 32, 160]}> : (tensor<40x1x32x160xf16>) -> tensor<40x32x160xf16>
    %370 = "mix.prim.transpose"(%369) <{dim1 = 0 : i32, dim2 = 1 : i32}> : (tensor<40x32x160xf16>) -> tensor<32x40x160xf16>
    %371 = "mix.prim.batch_matmul"(%368, %370) : (tensor<32x40x40xf16>, tensor<32x40x160xf16>) -> tensor<32x40x160xf16>
    %372 = "mix.prim.reshape"(%371) <{shape = [1, 32, 40, 160]}> : (tensor<32x40x160xf16>) -> tensor<1x32x40x160xf16>
    %373 = "mix.prim.permute"(%372) <{dims = [0, 2, 1, 3]}> : (tensor<1x32x40x160xf16>) -> tensor<1x40x32x160xf16>
    %374 = "mix.prim.reshape"(%373) <{shape = [1, 40, 5120]}> : (tensor<1x40x32x160xf16>) -> tensor<1x40x5120xf16>
    %375 = "mix.prim.reshape"(%374) <{shape = [40, 5120]}> : (tensor<1x40x5120xf16>) -> tensor<40x5120xf16>
    %376 = "mix.prim.transpose"(%282) <{dim1 = 0 : i32, dim2 = 1 : i32}> : (tensor<5120x5120xf16>) -> tensor<5120x5120xf16>
    %377 = "mix.prim.matmul"(%375, %376) : (tensor<40x5120xf16>, tensor<5120x5120xf16>) -> tensor<40x5120xf16>
    %378 = "mix.prim.add"(%377, %283) : (tensor<40x5120xf16>, tensor<5120xf16>) -> tensor<40x5120xf16>
    %379 = "mix.prim.reshape"(%378) <{shape = [1, 40, 5120]}> : (tensor<40x5120xf16>) -> tensor<1x40x5120xf16>
    %380 = "mix.prim.mul"(%270, %379) : (tensor<1x40x5120xf16>, tensor<1x40x5120xf16>) -> tensor<1x40x5120xf16>
    %381 = "mix.comp.weight"() <{param_loc = "transformer.h.2.post_attention_layernorm.weight"}> : () -> tensor<5120xf16>
    %382 = "mix.prim.constant"() <{value = dense<1.000000e+00> : tensor<1xf16>}> : () -> tensor<1xf16>
    %383 = "mix.prim.pow"(%380, %382) : (tensor<1x40x5120xf16>, tensor<1xf16>) -> tensor<1x40x5120xf16>
    %384 = "mix.comp.mean"(%383) <{dims = [2 : i32], keepDim = true}> : (tensor<1x40x5120xf16>) -> tensor<1x40x1xf16>
    %385 = "mix.prim.constant"() <{value = 1.013280e-06 : f16}> : () -> f16
    %386 = "mix.prim.add"(%384, %385) : (tensor<1x40x1xf16>, f16) -> tensor<1x40x1xf16>
    %387 = "mix.prim.rsqrt"(%386) : (tensor<1x40x1xf16>) -> tensor<1x40x1xf16>
    %388 = "mix.prim.mul"(%380, %387) : (tensor<1x40x5120xf16>, tensor<1x40x1xf16>) -> tensor<1x40x5120xf16>
    %389 = "mix.prim.mul"(%381, %388) : (tensor<5120xf16>, tensor<1x40x5120xf16>) -> tensor<1x40x5120xf16>
    %390 = "mix.comp.weight"() <{param_loc = "transformer.h.2.mlp.gate_proj.weight"}> : () -> tensor<5120x12288xf16>
    %391 = "mix.prim.reshape"(%390) <{shape = [1, 5120, 12288]}> : (tensor<5120x12288xf16>) -> tensor<1x5120x12288xf16>
    %392 = "mix.prim.batch_matmul"(%389, %391) : (tensor<1x40x5120xf16>, tensor<1x5120x12288xf16>) -> tensor<1x40x12288xf16>
    %393 = "mix.comp.silu"(%392) : (tensor<1x40x12288xf16>) -> tensor<1x40x12288xf16>
    %394 = "mix.comp.weight"() <{param_loc = "transformer.h.2.mlp.up_proj.weight"}> : () -> tensor<5120x12288xf16>
    %395 = "mix.prim.reshape"(%394) <{shape = [1, 5120, 12288]}> : (tensor<5120x12288xf16>) -> tensor<1x5120x12288xf16>
    %396 = "mix.prim.batch_matmul"(%389, %395) : (tensor<1x40x5120xf16>, tensor<1x5120x12288xf16>) -> tensor<1x40x12288xf16>
    %397 = "mix.prim.mul"(%393, %396) : (tensor<1x40x12288xf16>, tensor<1x40x12288xf16>) -> tensor<1x40x12288xf16>
    %398 = "mix.comp.weight"() <{param_loc = "transformer.h.2.mlp.down_proj.weight"}> : () -> tensor<12288x5120xf16>
    %399 = "mix.prim.reshape"(%398) <{shape = [1, 12288, 5120]}> : (tensor<12288x5120xf16>) -> tensor<1x12288x5120xf16>
    %400 = "mix.prim.batch_matmul"(%397, %399) : (tensor<1x40x12288xf16>, tensor<1x12288x5120xf16>) -> tensor<1x40x5120xf16>
    %401 = "mix.comp.weight"() <{param_loc = "transformer.h.2.mlp.down_proj.bias"}> : () -> tensor<5120xf16>
    %402 = "mix.prim.add"(%400, %401) : (tensor<1x40x5120xf16>, tensor<5120xf16>) -> tensor<1x40x5120xf16>
    %403 = "mix.prim.add"(%402, %380) : (tensor<1x40x5120xf16>, tensor<1x40x5120xf16>) -> tensor<1x40x5120xf16>
    %404 = "mix.comp.weight"() <{param_loc = "transformer.h.3.input_layernorm.weight"}> : () -> tensor<5120xf16>
    %405 = "mix.prim.constant"() <{value = dense<1.000000e+00> : tensor<1xf16>}> : () -> tensor<1xf16>
    %406 = "mix.prim.pow"(%403, %405) : (tensor<1x40x5120xf16>, tensor<1xf16>) -> tensor<1x40x5120xf16>
    %407 = "mix.comp.mean"(%406) <{dims = [2 : i32], keepDim = true}> : (tensor<1x40x5120xf16>) -> tensor<1x40x1xf16>
    %408 = "mix.prim.constant"() <{value = 1.013280e-06 : f16}> : () -> f16
    %409 = "mix.prim.add"(%407, %408) : (tensor<1x40x1xf16>, f16) -> tensor<1x40x1xf16>
    %410 = "mix.prim.rsqrt"(%409) : (tensor<1x40x1xf16>) -> tensor<1x40x1xf16>
    %411 = "mix.prim.mul"(%403, %410) : (tensor<1x40x5120xf16>, tensor<1x40x1xf16>) -> tensor<1x40x5120xf16>
    %412 = "mix.prim.mul"(%404, %411) : (tensor<5120xf16>, tensor<1x40x5120xf16>) -> tensor<1x40x5120xf16>
    %413 = "mix.comp.weight"() <{param_loc = "transformer.h.3.self_attention.query.weight"}> : () -> tensor<5120x5120xf16>
    %414 = "mix.comp.weight"() <{param_loc = "transformer.h.3.self_attention.key_value.weight"}> : () -> tensor<10240x5120xf16>
    %415 = "mix.comp.weight"() <{param_loc = "transformer.h.3.self_attention.dense.weight"}> : () -> tensor<5120x5120xf16>
    %416 = "mix.comp.weight"() <{param_loc = "transformer.h.3.self_attention.dense.bias"}> : () -> tensor<5120xf16>
    %417 = "mix.prim.transpose"(%412) <{dim1 = 0 : i32, dim2 = 1 : i32}> : (tensor<1x40x5120xf16>) -> tensor<40x1x5120xf16>
    %418 = "mix.prim.transpose"(%413) <{dim1 = 0 : i32, dim2 = 1 : i32}> : (tensor<5120x5120xf16>) -> tensor<5120x5120xf16>
    %419 = "mix.prim.reshape"(%417) <{shape = [40, 5120]}> : (tensor<40x1x5120xf16>) -> tensor<40x5120xf16>
    %420 = "mix.prim.matmul"(%419, %418) : (tensor<40x5120xf16>, tensor<5120x5120xf16>) -> tensor<40x5120xf16>
    %421 = "mix.prim.reshape"(%420) <{shape = [40, 1, 5120]}> : (tensor<40x5120xf16>) -> tensor<40x1x5120xf16>
    %422 = "mix.prim.reshape"(%421) <{shape = [40, 1, 32, 160]}> : (tensor<40x1x5120xf16>) -> tensor<40x1x32x160xf16>
    %423 = "mix.prim.transpose"(%414) <{dim1 = 0 : i32, dim2 = 1 : i32}> : (tensor<10240x5120xf16>) -> tensor<5120x10240xf16>
    %424 = "mix.prim.reshape"(%417) <{shape = [40, 5120]}> : (tensor<40x1x5120xf16>) -> tensor<40x5120xf16>
    %425 = "mix.prim.matmul"(%424, %423) : (tensor<40x5120xf16>, tensor<5120x10240xf16>) -> tensor<40x10240xf16>
    %426 = "mix.prim.reshape"(%425) <{shape = [40, 1, 10240]}> : (tensor<40x10240xf16>) -> tensor<40x1x10240xf16>
    %427 = "mix.prim.reshape"(%426) <{shape = [40, 1, 32, 320]}> : (tensor<40x1x10240xf16>) -> tensor<40x1x32x320xf16>
    %428 = "mix.prim.slice"(%427) <{dim = 3 : i64, end = 160 : i64, start = 0 : i64, step = 1 : i64}> : (tensor<40x1x32x320xf16>) -> tensor<40x1x32x160xf16>
    %429 = "mix.prim.slice"(%427) <{dim = 3 : i64, end = 320 : i64, start = 160 : i64, step = 1 : i64}> : (tensor<40x1x32x320xf16>) -> tensor<40x1x32x160xf16>
    %430 = "mix.prim.reshape"(%422) <{shape = [40, 32, -1]}> : (tensor<40x1x32x160xf16>) -> tensor<40x32x160xf16>
    %431 = "mix.prim.reshape"(%428) <{shape = [40, 32, -1]}> : (tensor<40x1x32x160xf16>) -> tensor<40x32x160xf16>
    %432 = "mix.prim.constant"() <{value = dense<[0, 1, 2, 3, 4, 5, 6, 7, 8, 9, 10, 11, 12, 13, 14, 15, 16, 17, 18, 19, 20, 21, 22, 23, 24, 25, 26, 27, 28, 29, 30, 31, 32, 33, 34, 35, 36, 37, 38, 39, 40, 41, 42, 43, 44, 45, 46, 47, 48, 49, 50, 51, 52, 53, 54, 55, 56, 57, 58, 59, 60, 61, 62, 63, 64, 65, 66, 67, 68, 69, 70, 71, 72, 73, 74, 75, 76, 77, 78, 79]> : tensor<80xi32>}> : () -> tensor<80xi32>
    %433 = "mix.prim.convert"(%432) <{element_ty = f16}> : (tensor<80xi32>) -> tensor<80xf16>
    %434 = "mix.prim.constant"() <{value = 160 : i32}> : () -> i32
    %435 = "mix.prim.div"(%433, %434) : (tensor<80xf16>, i32) -> tensor<80xf16>
    %436 = "mix.prim.constant"() <{value = 3.041600e+04 : f16}> : () -> f16
    %437 = "mix.prim.pow"(%436, %435) : (f16, tensor<80xf16>) -> tensor<80xf16>
    %438 = "mix.prim.reciprocal"(%437) : (tensor<80xf16>) -> tensor<80xf16>
    %439 = "mix.prim.constant"() <{value = 1.000000e+00 : f16}> : () -> f16
    %440 = "mix.prim.mul"(%439, %438) : (f16, tensor<80xf16>) -> tensor<80xf16>
    %441 = "mix.prim.constant"() <{value = dense<1.000000e+00> : tensor<40xf16>}> : () -> tensor<40xf16>
    %442 = "mix.prim.unsqueeze"(%441) <{axis = 1 : i32}> : (tensor<40xf16>) -> tensor<40x1xf16>
    %443 = "mix.prim.permute"(%442) <{dims = [0, 1]}> : (tensor<40x1xf16>) -> tensor<40x1xf16>
    %444 = "mix.prim.unsqueeze"(%440) <{axis = 1 : i32}> : (tensor<80xf16>) -> tensor<80x1xf16>
    %445 = "mix.prim.permute"(%444) <{dims = [1, 0]}> : (tensor<80x1xf16>) -> tensor<1x80xf16>
    %446 = "mix.prim.mul"(%443, %445) : (tensor<40x1xf16>, tensor<1x80xf16>) -> tensor<40x80xf16>
    %447 = "mix.prim.concat"(%446, %446) <{axis = 1 : i64}> : (tensor<40x80xf16>, tensor<40x80xf16>) -> tensor<40x160xf16>
    %448 = "mix.prim.cos"(%447) : (tensor<40x160xf16>) -> tensor<40x160xf16>
    %449 = "mix.prim.slice"(%448) <{dim = 0 : i64, end = 2147483647 : i64, start = 0 : i64, step = 1 : i64}> : (tensor<40x160xf16>) -> tensor<40x160xf16>
    %450 = "mix.prim.unsqueeze"(%449) <{axis = 1 : i32}> : (tensor<40x160xf16>) -> tensor<40x1x160xf16>
    %451 = "mix.prim.slice"(%450) <{dim = 2 : i64, end = 2147483647 : i64, start = 0 : i64, step = 1 : i64}> : (tensor<40x1x160xf16>) -> tensor<40x1x160xf16>
    %452 = "mix.prim.constant"() <{value = 1.000000e+00 : f16}> : () -> f16
    %453 = "mix.prim.mul"(%451, %452) : (tensor<40x1x160xf16>, f16) -> tensor<40x1x160xf16>
    %454 = "mix.prim.sin"(%447) : (tensor<40x160xf16>) -> tensor<40x160xf16>
    %455 = "mix.prim.slice"(%454) <{dim = 0 : i64, end = 2147483647 : i64, start = 0 : i64, step = 1 : i64}> : (tensor<40x160xf16>) -> tensor<40x160xf16>
    %456 = "mix.prim.unsqueeze"(%455) <{axis = 1 : i32}> : (tensor<40x160xf16>) -> tensor<40x1x160xf16>
    %457 = "mix.prim.slice"(%456) <{dim = 2 : i64, end = 2147483647 : i64, start = 0 : i64, step = 1 : i64}> : (tensor<40x1x160xf16>) -> tensor<40x1x160xf16>
    %458 = "mix.prim.constant"() <{value = 1.000000e+00 : f16}> : () -> f16
    %459 = "mix.prim.mul"(%457, %458) : (tensor<40x1x160xf16>, f16) -> tensor<40x1x160xf16>
    %460 = "mix.prim.slice"(%453) <{dim = 0 : i64, end = 40 : i64, start = 0 : i64, step = 1 : i64}> : (tensor<40x1x160xf16>) -> tensor<40x1x160xf16>
    %461 = "mix.prim.slice"(%459) <{dim = 0 : i64, end = 40 : i64, start = 0 : i64, step = 1 : i64}> : (tensor<40x1x160xf16>) -> tensor<40x1x160xf16>
    %462 = "mix.prim.mul"(%430, %460) : (tensor<40x32x160xf16>, tensor<40x1x160xf16>) -> tensor<40x32x160xf16>
    %463 = "mix.prim.slice"(%430) <{dim = 2 : i64, end = 80 : i64, start = 0 : i64, step = 1 : i64}> : (tensor<40x32x160xf16>) -> tensor<40x32x80xf16>
    %464 = "mix.prim.slice"(%430) <{dim = 2 : i64, end = 2147483647 : i64, start = 80 : i64, step = 1 : i64}> : (tensor<40x32x160xf16>) -> tensor<40x32x80xf16>
    %465 = "mix.prim.neg"(%464) : (tensor<40x32x80xf16>) -> tensor<40x32x80xf16>
    %466 = "mix.prim.concat"(%465, %463) <{axis = 2 : i64}> : (tensor<40x32x80xf16>, tensor<40x32x80xf16>) -> tensor<40x32x160xf16>
    %467 = "mix.prim.mul"(%466, %461) : (tensor<40x32x160xf16>, tensor<40x1x160xf16>) -> tensor<40x32x160xf16>
    %468 = "mix.prim.add"(%462, %467) : (tensor<40x32x160xf16>, tensor<40x32x160xf16>) -> tensor<40x32x160xf16>
    %469 = "mix.prim.mul"(%431, %460) : (tensor<40x32x160xf16>, tensor<40x1x160xf16>) -> tensor<40x32x160xf16>
    %470 = "mix.prim.slice"(%431) <{dim = 2 : i64, end = 80 : i64, start = 0 : i64, step = 1 : i64}> : (tensor<40x32x160xf16>) -> tensor<40x32x80xf16>
    %471 = "mix.prim.slice"(%431) <{dim = 2 : i64, end = 2147483647 : i64, start = 80 : i64, step = 1 : i64}> : (tensor<40x32x160xf16>) -> tensor<40x32x80xf16>
    %472 = "mix.prim.neg"(%471) : (tensor<40x32x80xf16>) -> tensor<40x32x80xf16>
    %473 = "mix.prim.concat"(%472, %470) <{axis = 2 : i64}> : (tensor<40x32x80xf16>, tensor<40x32x80xf16>) -> tensor<40x32x160xf16>
    %474 = "mix.prim.mul"(%473, %461) : (tensor<40x32x160xf16>, tensor<40x1x160xf16>) -> tensor<40x32x160xf16>
    %475 = "mix.prim.add"(%469, %474) : (tensor<40x32x160xf16>, tensor<40x32x160xf16>) -> tensor<40x32x160xf16>
    %476 = "mix.prim.reshape"(%468) <{shape = [40, 1, 32, 160]}> : (tensor<40x32x160xf16>) -> tensor<40x1x32x160xf16>
    %477 = "mix.prim.reshape"(%475) <{shape = [40, 1, 32, 160]}> : (tensor<40x32x160xf16>) -> tensor<40x1x32x160xf16>
    %478 = "mix.prim.reshape"(%476) <{shape = [40, 32, 160]}> : (tensor<40x1x32x160xf16>) -> tensor<40x32x160xf16>
    %479 = "mix.prim.reshape"(%477) <{shape = [40, 32, 160]}> : (tensor<40x1x32x160xf16>) -> tensor<40x32x160xf16>
    %480 = "mix.prim.transpose"(%478) <{dim1 = 0 : i32, dim2 = 1 : i32}> : (tensor<40x32x160xf16>) -> tensor<32x40x160xf16>
    %481 = "mix.prim.transpose"(%479) <{dim1 = 0 : i32, dim2 = 1 : i32}> : (tensor<40x32x160xf16>) -> tensor<32x40x160xf16>
    %482 = "mix.prim.transpose"(%481) <{dim1 = 1 : i32, dim2 = 2 : i32}> : (tensor<32x40x160xf16>) -> tensor<32x160x40xf16>
    %483 = "mix.prim.unsqueeze"(%480) <{axis = 3 : i32}> : (tensor<32x40x160xf16>) -> tensor<32x40x160x1xf16>
    %484 = "mix.prim.permute"(%483) <{dims = [0, 1, 3, 2]}> : (tensor<32x40x160x1xf16>) -> tensor<32x40x1x160xf16>
    %485 = "mix.prim.unsqueeze"(%482) <{axis = 3 : i32}> : (tensor<32x160x40xf16>) -> tensor<32x160x40x1xf16>
    %486 = "mix.prim.permute"(%485) <{dims = [0, 3, 2, 1]}> : (tensor<32x160x40x1xf16>) -> tensor<32x1x40x160xf16>
    %487 = "mix.prim.permute"(%484) <{dims = [0, 1, 3, 2]}> : (tensor<32x40x1x160xf16>) -> tensor<32x40x160x1xf16>
    %488 = "mix.prim.reshape"(%487) <{shape = [32, 40, 160]}> : (tensor<32x40x160x1xf16>) -> tensor<32x40x160xf16>
    %489 = "mix.prim.permute"(%486) <{dims = [0, 3, 2, 1]}> : (tensor<32x1x40x160xf16>) -> tensor<32x160x40x1xf16>
    %490 = "mix.prim.reshape"(%489) <{shape = [32, 160, 40]}> : (tensor<32x160x40x1xf16>) -> tensor<32x160x40xf16>
    %491 = "mix.prim.batch_matmul"(%488, %490) : (tensor<32x40x160xf16>, tensor<32x160x40xf16>) -> tensor<32x40x40xf16>
    %492 = "mix.prim.reshape"(%491) <{shape = [32, 40, 1, 40]}> : (tensor<32x40x40xf16>) -> tensor<32x40x1x40xf16>
    %493 = "mix.prim.permute"(%492) <{dims = [0, 1, 3, 2]}> : (tensor<32x40x1x40xf16>) -> tensor<32x40x40x1xf16>
    %494 = "mix.prim.reshape"(%493) <{shape = [32, 40, 40]}> : (tensor<32x40x40x1xf16>) -> tensor<32x40x40xf16>
    %495 = "mix.prim.constant"() <{value = 7.904050e-02 : f16}> : () -> f16
    %496 = "mix.prim.mul"(%494, %495) : (tensor<32x40x40xf16>, f16) -> tensor<32x40x40xf16>
    %497 = "mix.prim.reshape"(%496) <{shape = [1, 32, 40, 40]}> : (tensor<32x40x40xf16>) -> tensor<1x32x40x40xf16>
    %498 = "mix.prim.constant"() <{value = 0xFC00 : f16}> : () -> f16
    %499 = "mix.comp.masked_fill"(%497, %4, %498) : (tensor<1x32x40x40xf16>, tensor<1x1x40x40xi1>, f16) -> tensor<1x32x40x40xf16>
    %500 = "mix.comp.softmax"(%499) <{axis = -1 : si32}> : (tensor<1x32x40x40xf16>) -> tensor<1x32x40x40xf16>
    %501 = "mix.prim.reshape"(%500) <{shape = [32, 40, 40]}> : (tensor<1x32x40x40xf16>) -> tensor<32x40x40xf16>
    %502 = "mix.prim.reshape"(%429) <{shape = [40, 32, 160]}> : (tensor<40x1x32x160xf16>) -> tensor<40x32x160xf16>
    %503 = "mix.prim.transpose"(%502) <{dim1 = 0 : i32, dim2 = 1 : i32}> : (tensor<40x32x160xf16>) -> tensor<32x40x160xf16>
    %504 = "mix.prim.batch_matmul"(%501, %503) : (tensor<32x40x40xf16>, tensor<32x40x160xf16>) -> tensor<32x40x160xf16>
    %505 = "mix.prim.reshape"(%504) <{shape = [1, 32, 40, 160]}> : (tensor<32x40x160xf16>) -> tensor<1x32x40x160xf16>
    %506 = "mix.prim.permute"(%505) <{dims = [0, 2, 1, 3]}> : (tensor<1x32x40x160xf16>) -> tensor<1x40x32x160xf16>
    %507 = "mix.prim.reshape"(%506) <{shape = [1, 40, 5120]}> : (tensor<1x40x32x160xf16>) -> tensor<1x40x5120xf16>
    %508 = "mix.prim.reshape"(%507) <{shape = [40, 5120]}> : (tensor<1x40x5120xf16>) -> tensor<40x5120xf16>
    %509 = "mix.prim.transpose"(%415) <{dim1 = 0 : i32, dim2 = 1 : i32}> : (tensor<5120x5120xf16>) -> tensor<5120x5120xf16>
    %510 = "mix.prim.matmul"(%508, %509) : (tensor<40x5120xf16>, tensor<5120x5120xf16>) -> tensor<40x5120xf16>
    %511 = "mix.prim.add"(%510, %416) : (tensor<40x5120xf16>, tensor<5120xf16>) -> tensor<40x5120xf16>
    %512 = "mix.prim.reshape"(%511) <{shape = [1, 40, 5120]}> : (tensor<40x5120xf16>) -> tensor<1x40x5120xf16>
    %513 = "mix.prim.mul"(%403, %512) : (tensor<1x40x5120xf16>, tensor<1x40x5120xf16>) -> tensor<1x40x5120xf16>
    %514 = "mix.comp.weight"() <{param_loc = "transformer.h.3.post_attention_layernorm.weight"}> : () -> tensor<5120xf16>
    %515 = "mix.prim.constant"() <{value = dense<1.000000e+00> : tensor<1xf16>}> : () -> tensor<1xf16>
    %516 = "mix.prim.pow"(%513, %515) : (tensor<1x40x5120xf16>, tensor<1xf16>) -> tensor<1x40x5120xf16>
    %517 = "mix.comp.mean"(%516) <{dims = [2 : i32], keepDim = true}> : (tensor<1x40x5120xf16>) -> tensor<1x40x1xf16>
    %518 = "mix.prim.constant"() <{value = 1.013280e-06 : f16}> : () -> f16
    %519 = "mix.prim.add"(%517, %518) : (tensor<1x40x1xf16>, f16) -> tensor<1x40x1xf16>
    %520 = "mix.prim.rsqrt"(%519) : (tensor<1x40x1xf16>) -> tensor<1x40x1xf16>
    %521 = "mix.prim.mul"(%513, %520) : (tensor<1x40x5120xf16>, tensor<1x40x1xf16>) -> tensor<1x40x5120xf16>
    %522 = "mix.prim.mul"(%514, %521) : (tensor<5120xf16>, tensor<1x40x5120xf16>) -> tensor<1x40x5120xf16>
    %523 = "mix.comp.weight"() <{param_loc = "transformer.h.3.mlp.gate_proj.weight"}> : () -> tensor<5120x12288xf16>
    %524 = "mix.prim.reshape"(%523) <{shape = [1, 5120, 12288]}> : (tensor<5120x12288xf16>) -> tensor<1x5120x12288xf16>
    %525 = "mix.prim.batch_matmul"(%522, %524) : (tensor<1x40x5120xf16>, tensor<1x5120x12288xf16>) -> tensor<1x40x12288xf16>
    %526 = "mix.comp.silu"(%525) : (tensor<1x40x12288xf16>) -> tensor<1x40x12288xf16>
    %527 = "mix.comp.weight"() <{param_loc = "transformer.h.3.mlp.up_proj.weight"}> : () -> tensor<5120x12288xf16>
    %528 = "mix.prim.reshape"(%527) <{shape = [1, 5120, 12288]}> : (tensor<5120x12288xf16>) -> tensor<1x5120x12288xf16>
    %529 = "mix.prim.batch_matmul"(%522, %528) : (tensor<1x40x5120xf16>, tensor<1x5120x12288xf16>) -> tensor<1x40x12288xf16>
    %530 = "mix.prim.mul"(%526, %529) : (tensor<1x40x12288xf16>, tensor<1x40x12288xf16>) -> tensor<1x40x12288xf16>
    %531 = "mix.comp.weight"() <{param_loc = "transformer.h.3.mlp.down_proj.weight"}> : () -> tensor<12288x5120xf16>
    %532 = "mix.prim.reshape"(%531) <{shape = [1, 12288, 5120]}> : (tensor<12288x5120xf16>) -> tensor<1x12288x5120xf16>
    %533 = "mix.prim.batch_matmul"(%530, %532) : (tensor<1x40x12288xf16>, tensor<1x12288x5120xf16>) -> tensor<1x40x5120xf16>
    %534 = "mix.comp.weight"() <{param_loc = "transformer.h.3.mlp.down_proj.bias"}> : () -> tensor<5120xf16>
    %535 = "mix.prim.add"(%533, %534) : (tensor<1x40x5120xf16>, tensor<5120xf16>) -> tensor<1x40x5120xf16>
    %536 = "mix.prim.add"(%535, %513) : (tensor<1x40x5120xf16>, tensor<1x40x5120xf16>) -> tensor<1x40x5120xf16>
    %537 = "mix.comp.weight"() <{param_loc = "transformer.h.4.input_layernorm.weight"}> : () -> tensor<5120xf16>
    %538 = "mix.prim.constant"() <{value = dense<1.000000e+00> : tensor<1xf16>}> : () -> tensor<1xf16>
    %539 = "mix.prim.pow"(%536, %538) : (tensor<1x40x5120xf16>, tensor<1xf16>) -> tensor<1x40x5120xf16>
    %540 = "mix.comp.mean"(%539) <{dims = [2 : i32], keepDim = true}> : (tensor<1x40x5120xf16>) -> tensor<1x40x1xf16>
    %541 = "mix.prim.constant"() <{value = 1.013280e-06 : f16}> : () -> f16
    %542 = "mix.prim.add"(%540, %541) : (tensor<1x40x1xf16>, f16) -> tensor<1x40x1xf16>
    %543 = "mix.prim.rsqrt"(%542) : (tensor<1x40x1xf16>) -> tensor<1x40x1xf16>
    %544 = "mix.prim.mul"(%536, %543) : (tensor<1x40x5120xf16>, tensor<1x40x1xf16>) -> tensor<1x40x5120xf16>
    %545 = "mix.prim.mul"(%537, %544) : (tensor<5120xf16>, tensor<1x40x5120xf16>) -> tensor<1x40x5120xf16>
    %546 = "mix.comp.weight"() <{param_loc = "transformer.h.4.self_attention.query.weight"}> : () -> tensor<5120x5120xf16>
    %547 = "mix.comp.weight"() <{param_loc = "transformer.h.4.self_attention.key_value.weight"}> : () -> tensor<10240x5120xf16>
    %548 = "mix.comp.weight"() <{param_loc = "transformer.h.4.self_attention.dense.weight"}> : () -> tensor<5120x5120xf16>
    %549 = "mix.comp.weight"() <{param_loc = "transformer.h.4.self_attention.dense.bias"}> : () -> tensor<5120xf16>
    %550 = "mix.prim.transpose"(%545) <{dim1 = 0 : i32, dim2 = 1 : i32}> : (tensor<1x40x5120xf16>) -> tensor<40x1x5120xf16>
    %551 = "mix.prim.transpose"(%546) <{dim1 = 0 : i32, dim2 = 1 : i32}> : (tensor<5120x5120xf16>) -> tensor<5120x5120xf16>
    %552 = "mix.prim.reshape"(%550) <{shape = [40, 5120]}> : (tensor<40x1x5120xf16>) -> tensor<40x5120xf16>
    %553 = "mix.prim.matmul"(%552, %551) : (tensor<40x5120xf16>, tensor<5120x5120xf16>) -> tensor<40x5120xf16>
    %554 = "mix.prim.reshape"(%553) <{shape = [40, 1, 5120]}> : (tensor<40x5120xf16>) -> tensor<40x1x5120xf16>
    %555 = "mix.prim.reshape"(%554) <{shape = [40, 1, 32, 160]}> : (tensor<40x1x5120xf16>) -> tensor<40x1x32x160xf16>
    %556 = "mix.prim.transpose"(%547) <{dim1 = 0 : i32, dim2 = 1 : i32}> : (tensor<10240x5120xf16>) -> tensor<5120x10240xf16>
    %557 = "mix.prim.reshape"(%550) <{shape = [40, 5120]}> : (tensor<40x1x5120xf16>) -> tensor<40x5120xf16>
    %558 = "mix.prim.matmul"(%557, %556) : (tensor<40x5120xf16>, tensor<5120x10240xf16>) -> tensor<40x10240xf16>
    %559 = "mix.prim.reshape"(%558) <{shape = [40, 1, 10240]}> : (tensor<40x10240xf16>) -> tensor<40x1x10240xf16>
    %560 = "mix.prim.reshape"(%559) <{shape = [40, 1, 32, 320]}> : (tensor<40x1x10240xf16>) -> tensor<40x1x32x320xf16>
    %561 = "mix.prim.slice"(%560) <{dim = 3 : i64, end = 160 : i64, start = 0 : i64, step = 1 : i64}> : (tensor<40x1x32x320xf16>) -> tensor<40x1x32x160xf16>
    %562 = "mix.prim.slice"(%560) <{dim = 3 : i64, end = 320 : i64, start = 160 : i64, step = 1 : i64}> : (tensor<40x1x32x320xf16>) -> tensor<40x1x32x160xf16>
    %563 = "mix.prim.reshape"(%555) <{shape = [40, 32, -1]}> : (tensor<40x1x32x160xf16>) -> tensor<40x32x160xf16>
    %564 = "mix.prim.reshape"(%561) <{shape = [40, 32, -1]}> : (tensor<40x1x32x160xf16>) -> tensor<40x32x160xf16>
    %565 = "mix.prim.constant"() <{value = dense<[0, 1, 2, 3, 4, 5, 6, 7, 8, 9, 10, 11, 12, 13, 14, 15, 16, 17, 18, 19, 20, 21, 22, 23, 24, 25, 26, 27, 28, 29, 30, 31, 32, 33, 34, 35, 36, 37, 38, 39, 40, 41, 42, 43, 44, 45, 46, 47, 48, 49, 50, 51, 52, 53, 54, 55, 56, 57, 58, 59, 60, 61, 62, 63, 64, 65, 66, 67, 68, 69, 70, 71, 72, 73, 74, 75, 76, 77, 78, 79]> : tensor<80xi32>}> : () -> tensor<80xi32>
    %566 = "mix.prim.convert"(%565) <{element_ty = f16}> : (tensor<80xi32>) -> tensor<80xf16>
    %567 = "mix.prim.constant"() <{value = 160 : i32}> : () -> i32
    %568 = "mix.prim.div"(%566, %567) : (tensor<80xf16>, i32) -> tensor<80xf16>
    %569 = "mix.prim.constant"() <{value = 3.041600e+04 : f16}> : () -> f16
    %570 = "mix.prim.pow"(%569, %568) : (f16, tensor<80xf16>) -> tensor<80xf16>
    %571 = "mix.prim.reciprocal"(%570) : (tensor<80xf16>) -> tensor<80xf16>
    %572 = "mix.prim.constant"() <{value = 1.000000e+00 : f16}> : () -> f16
    %573 = "mix.prim.mul"(%572, %571) : (f16, tensor<80xf16>) -> tensor<80xf16>
    %574 = "mix.prim.constant"() <{value = dense<1.000000e+00> : tensor<40xf16>}> : () -> tensor<40xf16>
    %575 = "mix.prim.unsqueeze"(%574) <{axis = 1 : i32}> : (tensor<40xf16>) -> tensor<40x1xf16>
    %576 = "mix.prim.permute"(%575) <{dims = [0, 1]}> : (tensor<40x1xf16>) -> tensor<40x1xf16>
    %577 = "mix.prim.unsqueeze"(%573) <{axis = 1 : i32}> : (tensor<80xf16>) -> tensor<80x1xf16>
    %578 = "mix.prim.permute"(%577) <{dims = [1, 0]}> : (tensor<80x1xf16>) -> tensor<1x80xf16>
    %579 = "mix.prim.mul"(%576, %578) : (tensor<40x1xf16>, tensor<1x80xf16>) -> tensor<40x80xf16>
    %580 = "mix.prim.concat"(%579, %579) <{axis = 1 : i64}> : (tensor<40x80xf16>, tensor<40x80xf16>) -> tensor<40x160xf16>
    %581 = "mix.prim.cos"(%580) : (tensor<40x160xf16>) -> tensor<40x160xf16>
    %582 = "mix.prim.slice"(%581) <{dim = 0 : i64, end = 2147483647 : i64, start = 0 : i64, step = 1 : i64}> : (tensor<40x160xf16>) -> tensor<40x160xf16>
    %583 = "mix.prim.unsqueeze"(%582) <{axis = 1 : i32}> : (tensor<40x160xf16>) -> tensor<40x1x160xf16>
    %584 = "mix.prim.slice"(%583) <{dim = 2 : i64, end = 2147483647 : i64, start = 0 : i64, step = 1 : i64}> : (tensor<40x1x160xf16>) -> tensor<40x1x160xf16>
    %585 = "mix.prim.constant"() <{value = 1.000000e+00 : f16}> : () -> f16
    %586 = "mix.prim.mul"(%584, %585) : (tensor<40x1x160xf16>, f16) -> tensor<40x1x160xf16>
    %587 = "mix.prim.sin"(%580) : (tensor<40x160xf16>) -> tensor<40x160xf16>
    %588 = "mix.prim.slice"(%587) <{dim = 0 : i64, end = 2147483647 : i64, start = 0 : i64, step = 1 : i64}> : (tensor<40x160xf16>) -> tensor<40x160xf16>
    %589 = "mix.prim.unsqueeze"(%588) <{axis = 1 : i32}> : (tensor<40x160xf16>) -> tensor<40x1x160xf16>
    %590 = "mix.prim.slice"(%589) <{dim = 2 : i64, end = 2147483647 : i64, start = 0 : i64, step = 1 : i64}> : (tensor<40x1x160xf16>) -> tensor<40x1x160xf16>
    %591 = "mix.prim.constant"() <{value = 1.000000e+00 : f16}> : () -> f16
    %592 = "mix.prim.mul"(%590, %591) : (tensor<40x1x160xf16>, f16) -> tensor<40x1x160xf16>
    %593 = "mix.prim.slice"(%586) <{dim = 0 : i64, end = 40 : i64, start = 0 : i64, step = 1 : i64}> : (tensor<40x1x160xf16>) -> tensor<40x1x160xf16>
    %594 = "mix.prim.slice"(%592) <{dim = 0 : i64, end = 40 : i64, start = 0 : i64, step = 1 : i64}> : (tensor<40x1x160xf16>) -> tensor<40x1x160xf16>
    %595 = "mix.prim.mul"(%563, %593) : (tensor<40x32x160xf16>, tensor<40x1x160xf16>) -> tensor<40x32x160xf16>
    %596 = "mix.prim.slice"(%563) <{dim = 2 : i64, end = 80 : i64, start = 0 : i64, step = 1 : i64}> : (tensor<40x32x160xf16>) -> tensor<40x32x80xf16>
    %597 = "mix.prim.slice"(%563) <{dim = 2 : i64, end = 2147483647 : i64, start = 80 : i64, step = 1 : i64}> : (tensor<40x32x160xf16>) -> tensor<40x32x80xf16>
    %598 = "mix.prim.neg"(%597) : (tensor<40x32x80xf16>) -> tensor<40x32x80xf16>
    %599 = "mix.prim.concat"(%598, %596) <{axis = 2 : i64}> : (tensor<40x32x80xf16>, tensor<40x32x80xf16>) -> tensor<40x32x160xf16>
    %600 = "mix.prim.mul"(%599, %594) : (tensor<40x32x160xf16>, tensor<40x1x160xf16>) -> tensor<40x32x160xf16>
    %601 = "mix.prim.add"(%595, %600) : (tensor<40x32x160xf16>, tensor<40x32x160xf16>) -> tensor<40x32x160xf16>
    %602 = "mix.prim.mul"(%564, %593) : (tensor<40x32x160xf16>, tensor<40x1x160xf16>) -> tensor<40x32x160xf16>
    %603 = "mix.prim.slice"(%564) <{dim = 2 : i64, end = 80 : i64, start = 0 : i64, step = 1 : i64}> : (tensor<40x32x160xf16>) -> tensor<40x32x80xf16>
    %604 = "mix.prim.slice"(%564) <{dim = 2 : i64, end = 2147483647 : i64, start = 80 : i64, step = 1 : i64}> : (tensor<40x32x160xf16>) -> tensor<40x32x80xf16>
    %605 = "mix.prim.neg"(%604) : (tensor<40x32x80xf16>) -> tensor<40x32x80xf16>
    %606 = "mix.prim.concat"(%605, %603) <{axis = 2 : i64}> : (tensor<40x32x80xf16>, tensor<40x32x80xf16>) -> tensor<40x32x160xf16>
    %607 = "mix.prim.mul"(%606, %594) : (tensor<40x32x160xf16>, tensor<40x1x160xf16>) -> tensor<40x32x160xf16>
    %608 = "mix.prim.add"(%602, %607) : (tensor<40x32x160xf16>, tensor<40x32x160xf16>) -> tensor<40x32x160xf16>
    %609 = "mix.prim.reshape"(%601) <{shape = [40, 1, 32, 160]}> : (tensor<40x32x160xf16>) -> tensor<40x1x32x160xf16>
    %610 = "mix.prim.reshape"(%608) <{shape = [40, 1, 32, 160]}> : (tensor<40x32x160xf16>) -> tensor<40x1x32x160xf16>
    %611 = "mix.prim.reshape"(%609) <{shape = [40, 32, 160]}> : (tensor<40x1x32x160xf16>) -> tensor<40x32x160xf16>
    %612 = "mix.prim.reshape"(%610) <{shape = [40, 32, 160]}> : (tensor<40x1x32x160xf16>) -> tensor<40x32x160xf16>
    %613 = "mix.prim.transpose"(%611) <{dim1 = 0 : i32, dim2 = 1 : i32}> : (tensor<40x32x160xf16>) -> tensor<32x40x160xf16>
    %614 = "mix.prim.transpose"(%612) <{dim1 = 0 : i32, dim2 = 1 : i32}> : (tensor<40x32x160xf16>) -> tensor<32x40x160xf16>
    %615 = "mix.prim.transpose"(%614) <{dim1 = 1 : i32, dim2 = 2 : i32}> : (tensor<32x40x160xf16>) -> tensor<32x160x40xf16>
    %616 = "mix.prim.unsqueeze"(%613) <{axis = 3 : i32}> : (tensor<32x40x160xf16>) -> tensor<32x40x160x1xf16>
    %617 = "mix.prim.permute"(%616) <{dims = [0, 1, 3, 2]}> : (tensor<32x40x160x1xf16>) -> tensor<32x40x1x160xf16>
    %618 = "mix.prim.unsqueeze"(%615) <{axis = 3 : i32}> : (tensor<32x160x40xf16>) -> tensor<32x160x40x1xf16>
    %619 = "mix.prim.permute"(%618) <{dims = [0, 3, 2, 1]}> : (tensor<32x160x40x1xf16>) -> tensor<32x1x40x160xf16>
    %620 = "mix.prim.permute"(%617) <{dims = [0, 1, 3, 2]}> : (tensor<32x40x1x160xf16>) -> tensor<32x40x160x1xf16>
    %621 = "mix.prim.reshape"(%620) <{shape = [32, 40, 160]}> : (tensor<32x40x160x1xf16>) -> tensor<32x40x160xf16>
    %622 = "mix.prim.permute"(%619) <{dims = [0, 3, 2, 1]}> : (tensor<32x1x40x160xf16>) -> tensor<32x160x40x1xf16>
    %623 = "mix.prim.reshape"(%622) <{shape = [32, 160, 40]}> : (tensor<32x160x40x1xf16>) -> tensor<32x160x40xf16>
    %624 = "mix.prim.batch_matmul"(%621, %623) : (tensor<32x40x160xf16>, tensor<32x160x40xf16>) -> tensor<32x40x40xf16>
    %625 = "mix.prim.reshape"(%624) <{shape = [32, 40, 1, 40]}> : (tensor<32x40x40xf16>) -> tensor<32x40x1x40xf16>
    %626 = "mix.prim.permute"(%625) <{dims = [0, 1, 3, 2]}> : (tensor<32x40x1x40xf16>) -> tensor<32x40x40x1xf16>
    %627 = "mix.prim.reshape"(%626) <{shape = [32, 40, 40]}> : (tensor<32x40x40x1xf16>) -> tensor<32x40x40xf16>
    %628 = "mix.prim.constant"() <{value = 7.904050e-02 : f16}> : () -> f16
    %629 = "mix.prim.mul"(%627, %628) : (tensor<32x40x40xf16>, f16) -> tensor<32x40x40xf16>
    %630 = "mix.prim.reshape"(%629) <{shape = [1, 32, 40, 40]}> : (tensor<32x40x40xf16>) -> tensor<1x32x40x40xf16>
    %631 = "mix.prim.constant"() <{value = 0xFC00 : f16}> : () -> f16
    %632 = "mix.comp.masked_fill"(%630, %4, %631) : (tensor<1x32x40x40xf16>, tensor<1x1x40x40xi1>, f16) -> tensor<1x32x40x40xf16>
    %633 = "mix.comp.softmax"(%632) <{axis = -1 : si32}> : (tensor<1x32x40x40xf16>) -> tensor<1x32x40x40xf16>
    %634 = "mix.prim.reshape"(%633) <{shape = [32, 40, 40]}> : (tensor<1x32x40x40xf16>) -> tensor<32x40x40xf16>
    %635 = "mix.prim.reshape"(%562) <{shape = [40, 32, 160]}> : (tensor<40x1x32x160xf16>) -> tensor<40x32x160xf16>
    %636 = "mix.prim.transpose"(%635) <{dim1 = 0 : i32, dim2 = 1 : i32}> : (tensor<40x32x160xf16>) -> tensor<32x40x160xf16>
    %637 = "mix.prim.batch_matmul"(%634, %636) : (tensor<32x40x40xf16>, tensor<32x40x160xf16>) -> tensor<32x40x160xf16>
    %638 = "mix.prim.reshape"(%637) <{shape = [1, 32, 40, 160]}> : (tensor<32x40x160xf16>) -> tensor<1x32x40x160xf16>
    %639 = "mix.prim.permute"(%638) <{dims = [0, 2, 1, 3]}> : (tensor<1x32x40x160xf16>) -> tensor<1x40x32x160xf16>
    %640 = "mix.prim.reshape"(%639) <{shape = [1, 40, 5120]}> : (tensor<1x40x32x160xf16>) -> tensor<1x40x5120xf16>
    %641 = "mix.prim.reshape"(%640) <{shape = [40, 5120]}> : (tensor<1x40x5120xf16>) -> tensor<40x5120xf16>
    %642 = "mix.prim.transpose"(%548) <{dim1 = 0 : i32, dim2 = 1 : i32}> : (tensor<5120x5120xf16>) -> tensor<5120x5120xf16>
    %643 = "mix.prim.matmul"(%641, %642) : (tensor<40x5120xf16>, tensor<5120x5120xf16>) -> tensor<40x5120xf16>
    %644 = "mix.prim.add"(%643, %549) : (tensor<40x5120xf16>, tensor<5120xf16>) -> tensor<40x5120xf16>
    %645 = "mix.prim.reshape"(%644) <{shape = [1, 40, 5120]}> : (tensor<40x5120xf16>) -> tensor<1x40x5120xf16>
    %646 = "mix.prim.mul"(%536, %645) : (tensor<1x40x5120xf16>, tensor<1x40x5120xf16>) -> tensor<1x40x5120xf16>
    %647 = "mix.comp.weight"() <{param_loc = "transformer.h.4.post_attention_layernorm.weight"}> : () -> tensor<5120xf16>
    %648 = "mix.prim.constant"() <{value = dense<1.000000e+00> : tensor<1xf16>}> : () -> tensor<1xf16>
    %649 = "mix.prim.pow"(%646, %648) : (tensor<1x40x5120xf16>, tensor<1xf16>) -> tensor<1x40x5120xf16>
    %650 = "mix.comp.mean"(%649) <{dims = [2 : i32], keepDim = true}> : (tensor<1x40x5120xf16>) -> tensor<1x40x1xf16>
    %651 = "mix.prim.constant"() <{value = 1.013280e-06 : f16}> : () -> f16
    %652 = "mix.prim.add"(%650, %651) : (tensor<1x40x1xf16>, f16) -> tensor<1x40x1xf16>
    %653 = "mix.prim.rsqrt"(%652) : (tensor<1x40x1xf16>) -> tensor<1x40x1xf16>
    %654 = "mix.prim.mul"(%646, %653) : (tensor<1x40x5120xf16>, tensor<1x40x1xf16>) -> tensor<1x40x5120xf16>
    %655 = "mix.prim.mul"(%647, %654) : (tensor<5120xf16>, tensor<1x40x5120xf16>) -> tensor<1x40x5120xf16>
    %656 = "mix.comp.weight"() <{param_loc = "transformer.h.4.mlp.gate_proj.weight"}> : () -> tensor<5120x12288xf16>
    %657 = "mix.prim.reshape"(%656) <{shape = [1, 5120, 12288]}> : (tensor<5120x12288xf16>) -> tensor<1x5120x12288xf16>
    %658 = "mix.prim.batch_matmul"(%655, %657) : (tensor<1x40x5120xf16>, tensor<1x5120x12288xf16>) -> tensor<1x40x12288xf16>
    %659 = "mix.comp.silu"(%658) : (tensor<1x40x12288xf16>) -> tensor<1x40x12288xf16>
    %660 = "mix.comp.weight"() <{param_loc = "transformer.h.4.mlp.up_proj.weight"}> : () -> tensor<5120x12288xf16>
    %661 = "mix.prim.reshape"(%660) <{shape = [1, 5120, 12288]}> : (tensor<5120x12288xf16>) -> tensor<1x5120x12288xf16>
    %662 = "mix.prim.batch_matmul"(%655, %661) : (tensor<1x40x5120xf16>, tensor<1x5120x12288xf16>) -> tensor<1x40x12288xf16>
    %663 = "mix.prim.mul"(%659, %662) : (tensor<1x40x12288xf16>, tensor<1x40x12288xf16>) -> tensor<1x40x12288xf16>
    %664 = "mix.comp.weight"() <{param_loc = "transformer.h.4.mlp.down_proj.weight"}> : () -> tensor<12288x5120xf16>
    %665 = "mix.prim.reshape"(%664) <{shape = [1, 12288, 5120]}> : (tensor<12288x5120xf16>) -> tensor<1x12288x5120xf16>
    %666 = "mix.prim.batch_matmul"(%663, %665) : (tensor<1x40x12288xf16>, tensor<1x12288x5120xf16>) -> tensor<1x40x5120xf16>
    %667 = "mix.comp.weight"() <{param_loc = "transformer.h.4.mlp.down_proj.bias"}> : () -> tensor<5120xf16>
    %668 = "mix.prim.add"(%666, %667) : (tensor<1x40x5120xf16>, tensor<5120xf16>) -> tensor<1x40x5120xf16>
    %669 = "mix.prim.add"(%668, %646) : (tensor<1x40x5120xf16>, tensor<1x40x5120xf16>) -> tensor<1x40x5120xf16>
    %670 = "mix.comp.weight"() <{param_loc = "transformer.h.5.input_layernorm.weight"}> : () -> tensor<5120xf16>
    %671 = "mix.prim.constant"() <{value = dense<1.000000e+00> : tensor<1xf16>}> : () -> tensor<1xf16>
    %672 = "mix.prim.pow"(%669, %671) : (tensor<1x40x5120xf16>, tensor<1xf16>) -> tensor<1x40x5120xf16>
    %673 = "mix.comp.mean"(%672) <{dims = [2 : i32], keepDim = true}> : (tensor<1x40x5120xf16>) -> tensor<1x40x1xf16>
    %674 = "mix.prim.constant"() <{value = 1.013280e-06 : f16}> : () -> f16
    %675 = "mix.prim.add"(%673, %674) : (tensor<1x40x1xf16>, f16) -> tensor<1x40x1xf16>
    %676 = "mix.prim.rsqrt"(%675) : (tensor<1x40x1xf16>) -> tensor<1x40x1xf16>
    %677 = "mix.prim.mul"(%669, %676) : (tensor<1x40x5120xf16>, tensor<1x40x1xf16>) -> tensor<1x40x5120xf16>
    %678 = "mix.prim.mul"(%670, %677) : (tensor<5120xf16>, tensor<1x40x5120xf16>) -> tensor<1x40x5120xf16>
    %679 = "mix.comp.weight"() <{param_loc = "transformer.h.5.self_attention.query.weight"}> : () -> tensor<5120x5120xf16>
    %680 = "mix.comp.weight"() <{param_loc = "transformer.h.5.self_attention.key_value.weight"}> : () -> tensor<10240x5120xf16>
    %681 = "mix.comp.weight"() <{param_loc = "transformer.h.5.self_attention.dense.weight"}> : () -> tensor<5120x5120xf16>
    %682 = "mix.comp.weight"() <{param_loc = "transformer.h.5.self_attention.dense.bias"}> : () -> tensor<5120xf16>
    %683 = "mix.prim.transpose"(%678) <{dim1 = 0 : i32, dim2 = 1 : i32}> : (tensor<1x40x5120xf16>) -> tensor<40x1x5120xf16>
    %684 = "mix.prim.transpose"(%679) <{dim1 = 0 : i32, dim2 = 1 : i32}> : (tensor<5120x5120xf16>) -> tensor<5120x5120xf16>
    %685 = "mix.prim.reshape"(%683) <{shape = [40, 5120]}> : (tensor<40x1x5120xf16>) -> tensor<40x5120xf16>
    %686 = "mix.prim.matmul"(%685, %684) : (tensor<40x5120xf16>, tensor<5120x5120xf16>) -> tensor<40x5120xf16>
    %687 = "mix.prim.reshape"(%686) <{shape = [40, 1, 5120]}> : (tensor<40x5120xf16>) -> tensor<40x1x5120xf16>
    %688 = "mix.prim.reshape"(%687) <{shape = [40, 1, 32, 160]}> : (tensor<40x1x5120xf16>) -> tensor<40x1x32x160xf16>
    %689 = "mix.prim.transpose"(%680) <{dim1 = 0 : i32, dim2 = 1 : i32}> : (tensor<10240x5120xf16>) -> tensor<5120x10240xf16>
    %690 = "mix.prim.reshape"(%683) <{shape = [40, 5120]}> : (tensor<40x1x5120xf16>) -> tensor<40x5120xf16>
    %691 = "mix.prim.matmul"(%690, %689) : (tensor<40x5120xf16>, tensor<5120x10240xf16>) -> tensor<40x10240xf16>
    %692 = "mix.prim.reshape"(%691) <{shape = [40, 1, 10240]}> : (tensor<40x10240xf16>) -> tensor<40x1x10240xf16>
    %693 = "mix.prim.reshape"(%692) <{shape = [40, 1, 32, 320]}> : (tensor<40x1x10240xf16>) -> tensor<40x1x32x320xf16>
    %694 = "mix.prim.slice"(%693) <{dim = 3 : i64, end = 160 : i64, start = 0 : i64, step = 1 : i64}> : (tensor<40x1x32x320xf16>) -> tensor<40x1x32x160xf16>
    %695 = "mix.prim.slice"(%693) <{dim = 3 : i64, end = 320 : i64, start = 160 : i64, step = 1 : i64}> : (tensor<40x1x32x320xf16>) -> tensor<40x1x32x160xf16>
    %696 = "mix.prim.reshape"(%688) <{shape = [40, 32, -1]}> : (tensor<40x1x32x160xf16>) -> tensor<40x32x160xf16>
    %697 = "mix.prim.reshape"(%694) <{shape = [40, 32, -1]}> : (tensor<40x1x32x160xf16>) -> tensor<40x32x160xf16>
    %698 = "mix.prim.constant"() <{value = dense<[0, 1, 2, 3, 4, 5, 6, 7, 8, 9, 10, 11, 12, 13, 14, 15, 16, 17, 18, 19, 20, 21, 22, 23, 24, 25, 26, 27, 28, 29, 30, 31, 32, 33, 34, 35, 36, 37, 38, 39, 40, 41, 42, 43, 44, 45, 46, 47, 48, 49, 50, 51, 52, 53, 54, 55, 56, 57, 58, 59, 60, 61, 62, 63, 64, 65, 66, 67, 68, 69, 70, 71, 72, 73, 74, 75, 76, 77, 78, 79]> : tensor<80xi32>}> : () -> tensor<80xi32>
    %699 = "mix.prim.convert"(%698) <{element_ty = f16}> : (tensor<80xi32>) -> tensor<80xf16>
    %700 = "mix.prim.constant"() <{value = 160 : i32}> : () -> i32
    %701 = "mix.prim.div"(%699, %700) : (tensor<80xf16>, i32) -> tensor<80xf16>
    %702 = "mix.prim.constant"() <{value = 3.041600e+04 : f16}> : () -> f16
    %703 = "mix.prim.pow"(%702, %701) : (f16, tensor<80xf16>) -> tensor<80xf16>
    %704 = "mix.prim.reciprocal"(%703) : (tensor<80xf16>) -> tensor<80xf16>
    %705 = "mix.prim.constant"() <{value = 1.000000e+00 : f16}> : () -> f16
    %706 = "mix.prim.mul"(%705, %704) : (f16, tensor<80xf16>) -> tensor<80xf16>
    %707 = "mix.prim.constant"() <{value = dense<1.000000e+00> : tensor<40xf16>}> : () -> tensor<40xf16>
    %708 = "mix.prim.unsqueeze"(%707) <{axis = 1 : i32}> : (tensor<40xf16>) -> tensor<40x1xf16>
    %709 = "mix.prim.permute"(%708) <{dims = [0, 1]}> : (tensor<40x1xf16>) -> tensor<40x1xf16>
    %710 = "mix.prim.unsqueeze"(%706) <{axis = 1 : i32}> : (tensor<80xf16>) -> tensor<80x1xf16>
    %711 = "mix.prim.permute"(%710) <{dims = [1, 0]}> : (tensor<80x1xf16>) -> tensor<1x80xf16>
    %712 = "mix.prim.mul"(%709, %711) : (tensor<40x1xf16>, tensor<1x80xf16>) -> tensor<40x80xf16>
    %713 = "mix.prim.concat"(%712, %712) <{axis = 1 : i64}> : (tensor<40x80xf16>, tensor<40x80xf16>) -> tensor<40x160xf16>
    %714 = "mix.prim.cos"(%713) : (tensor<40x160xf16>) -> tensor<40x160xf16>
    %715 = "mix.prim.slice"(%714) <{dim = 0 : i64, end = 2147483647 : i64, start = 0 : i64, step = 1 : i64}> : (tensor<40x160xf16>) -> tensor<40x160xf16>
    %716 = "mix.prim.unsqueeze"(%715) <{axis = 1 : i32}> : (tensor<40x160xf16>) -> tensor<40x1x160xf16>
    %717 = "mix.prim.slice"(%716) <{dim = 2 : i64, end = 2147483647 : i64, start = 0 : i64, step = 1 : i64}> : (tensor<40x1x160xf16>) -> tensor<40x1x160xf16>
    %718 = "mix.prim.constant"() <{value = 1.000000e+00 : f16}> : () -> f16
    %719 = "mix.prim.mul"(%717, %718) : (tensor<40x1x160xf16>, f16) -> tensor<40x1x160xf16>
    %720 = "mix.prim.sin"(%713) : (tensor<40x160xf16>) -> tensor<40x160xf16>
    %721 = "mix.prim.slice"(%720) <{dim = 0 : i64, end = 2147483647 : i64, start = 0 : i64, step = 1 : i64}> : (tensor<40x160xf16>) -> tensor<40x160xf16>
    %722 = "mix.prim.unsqueeze"(%721) <{axis = 1 : i32}> : (tensor<40x160xf16>) -> tensor<40x1x160xf16>
    %723 = "mix.prim.slice"(%722) <{dim = 2 : i64, end = 2147483647 : i64, start = 0 : i64, step = 1 : i64}> : (tensor<40x1x160xf16>) -> tensor<40x1x160xf16>
    %724 = "mix.prim.constant"() <{value = 1.000000e+00 : f16}> : () -> f16
    %725 = "mix.prim.mul"(%723, %724) : (tensor<40x1x160xf16>, f16) -> tensor<40x1x160xf16>
    %726 = "mix.prim.slice"(%719) <{dim = 0 : i64, end = 40 : i64, start = 0 : i64, step = 1 : i64}> : (tensor<40x1x160xf16>) -> tensor<40x1x160xf16>
    %727 = "mix.prim.slice"(%725) <{dim = 0 : i64, end = 40 : i64, start = 0 : i64, step = 1 : i64}> : (tensor<40x1x160xf16>) -> tensor<40x1x160xf16>
    %728 = "mix.prim.mul"(%696, %726) : (tensor<40x32x160xf16>, tensor<40x1x160xf16>) -> tensor<40x32x160xf16>
    %729 = "mix.prim.slice"(%696) <{dim = 2 : i64, end = 80 : i64, start = 0 : i64, step = 1 : i64}> : (tensor<40x32x160xf16>) -> tensor<40x32x80xf16>
    %730 = "mix.prim.slice"(%696) <{dim = 2 : i64, end = 2147483647 : i64, start = 80 : i64, step = 1 : i64}> : (tensor<40x32x160xf16>) -> tensor<40x32x80xf16>
    %731 = "mix.prim.neg"(%730) : (tensor<40x32x80xf16>) -> tensor<40x32x80xf16>
    %732 = "mix.prim.concat"(%731, %729) <{axis = 2 : i64}> : (tensor<40x32x80xf16>, tensor<40x32x80xf16>) -> tensor<40x32x160xf16>
    %733 = "mix.prim.mul"(%732, %727) : (tensor<40x32x160xf16>, tensor<40x1x160xf16>) -> tensor<40x32x160xf16>
    %734 = "mix.prim.add"(%728, %733) : (tensor<40x32x160xf16>, tensor<40x32x160xf16>) -> tensor<40x32x160xf16>
    %735 = "mix.prim.mul"(%697, %726) : (tensor<40x32x160xf16>, tensor<40x1x160xf16>) -> tensor<40x32x160xf16>
    %736 = "mix.prim.slice"(%697) <{dim = 2 : i64, end = 80 : i64, start = 0 : i64, step = 1 : i64}> : (tensor<40x32x160xf16>) -> tensor<40x32x80xf16>
    %737 = "mix.prim.slice"(%697) <{dim = 2 : i64, end = 2147483647 : i64, start = 80 : i64, step = 1 : i64}> : (tensor<40x32x160xf16>) -> tensor<40x32x80xf16>
    %738 = "mix.prim.neg"(%737) : (tensor<40x32x80xf16>) -> tensor<40x32x80xf16>
    %739 = "mix.prim.concat"(%738, %736) <{axis = 2 : i64}> : (tensor<40x32x80xf16>, tensor<40x32x80xf16>) -> tensor<40x32x160xf16>
    %740 = "mix.prim.mul"(%739, %727) : (tensor<40x32x160xf16>, tensor<40x1x160xf16>) -> tensor<40x32x160xf16>
    %741 = "mix.prim.add"(%735, %740) : (tensor<40x32x160xf16>, tensor<40x32x160xf16>) -> tensor<40x32x160xf16>
    %742 = "mix.prim.reshape"(%734) <{shape = [40, 1, 32, 160]}> : (tensor<40x32x160xf16>) -> tensor<40x1x32x160xf16>
    %743 = "mix.prim.reshape"(%741) <{shape = [40, 1, 32, 160]}> : (tensor<40x32x160xf16>) -> tensor<40x1x32x160xf16>
    %744 = "mix.prim.reshape"(%742) <{shape = [40, 32, 160]}> : (tensor<40x1x32x160xf16>) -> tensor<40x32x160xf16>
    %745 = "mix.prim.reshape"(%743) <{shape = [40, 32, 160]}> : (tensor<40x1x32x160xf16>) -> tensor<40x32x160xf16>
    %746 = "mix.prim.transpose"(%744) <{dim1 = 0 : i32, dim2 = 1 : i32}> : (tensor<40x32x160xf16>) -> tensor<32x40x160xf16>
    %747 = "mix.prim.transpose"(%745) <{dim1 = 0 : i32, dim2 = 1 : i32}> : (tensor<40x32x160xf16>) -> tensor<32x40x160xf16>
    %748 = "mix.prim.transpose"(%747) <{dim1 = 1 : i32, dim2 = 2 : i32}> : (tensor<32x40x160xf16>) -> tensor<32x160x40xf16>
    %749 = "mix.prim.unsqueeze"(%746) <{axis = 3 : i32}> : (tensor<32x40x160xf16>) -> tensor<32x40x160x1xf16>
    %750 = "mix.prim.permute"(%749) <{dims = [0, 1, 3, 2]}> : (tensor<32x40x160x1xf16>) -> tensor<32x40x1x160xf16>
    %751 = "mix.prim.unsqueeze"(%748) <{axis = 3 : i32}> : (tensor<32x160x40xf16>) -> tensor<32x160x40x1xf16>
    %752 = "mix.prim.permute"(%751) <{dims = [0, 3, 2, 1]}> : (tensor<32x160x40x1xf16>) -> tensor<32x1x40x160xf16>
    %753 = "mix.prim.permute"(%750) <{dims = [0, 1, 3, 2]}> : (tensor<32x40x1x160xf16>) -> tensor<32x40x160x1xf16>
    %754 = "mix.prim.reshape"(%753) <{shape = [32, 40, 160]}> : (tensor<32x40x160x1xf16>) -> tensor<32x40x160xf16>
    %755 = "mix.prim.permute"(%752) <{dims = [0, 3, 2, 1]}> : (tensor<32x1x40x160xf16>) -> tensor<32x160x40x1xf16>
    %756 = "mix.prim.reshape"(%755) <{shape = [32, 160, 40]}> : (tensor<32x160x40x1xf16>) -> tensor<32x160x40xf16>
    %757 = "mix.prim.batch_matmul"(%754, %756) : (tensor<32x40x160xf16>, tensor<32x160x40xf16>) -> tensor<32x40x40xf16>
    %758 = "mix.prim.reshape"(%757) <{shape = [32, 40, 1, 40]}> : (tensor<32x40x40xf16>) -> tensor<32x40x1x40xf16>
    %759 = "mix.prim.permute"(%758) <{dims = [0, 1, 3, 2]}> : (tensor<32x40x1x40xf16>) -> tensor<32x40x40x1xf16>
    %760 = "mix.prim.reshape"(%759) <{shape = [32, 40, 40]}> : (tensor<32x40x40x1xf16>) -> tensor<32x40x40xf16>
    %761 = "mix.prim.constant"() <{value = 7.904050e-02 : f16}> : () -> f16
    %762 = "mix.prim.mul"(%760, %761) : (tensor<32x40x40xf16>, f16) -> tensor<32x40x40xf16>
    %763 = "mix.prim.reshape"(%762) <{shape = [1, 32, 40, 40]}> : (tensor<32x40x40xf16>) -> tensor<1x32x40x40xf16>
    %764 = "mix.prim.constant"() <{value = 0xFC00 : f16}> : () -> f16
    %765 = "mix.comp.masked_fill"(%763, %4, %764) : (tensor<1x32x40x40xf16>, tensor<1x1x40x40xi1>, f16) -> tensor<1x32x40x40xf16>
    %766 = "mix.comp.softmax"(%765) <{axis = -1 : si32}> : (tensor<1x32x40x40xf16>) -> tensor<1x32x40x40xf16>
    %767 = "mix.prim.reshape"(%766) <{shape = [32, 40, 40]}> : (tensor<1x32x40x40xf16>) -> tensor<32x40x40xf16>
    %768 = "mix.prim.reshape"(%695) <{shape = [40, 32, 160]}> : (tensor<40x1x32x160xf16>) -> tensor<40x32x160xf16>
    %769 = "mix.prim.transpose"(%768) <{dim1 = 0 : i32, dim2 = 1 : i32}> : (tensor<40x32x160xf16>) -> tensor<32x40x160xf16>
    %770 = "mix.prim.batch_matmul"(%767, %769) : (tensor<32x40x40xf16>, tensor<32x40x160xf16>) -> tensor<32x40x160xf16>
    %771 = "mix.prim.reshape"(%770) <{shape = [1, 32, 40, 160]}> : (tensor<32x40x160xf16>) -> tensor<1x32x40x160xf16>
    %772 = "mix.prim.permute"(%771) <{dims = [0, 2, 1, 3]}> : (tensor<1x32x40x160xf16>) -> tensor<1x40x32x160xf16>
    %773 = "mix.prim.reshape"(%772) <{shape = [1, 40, 5120]}> : (tensor<1x40x32x160xf16>) -> tensor<1x40x5120xf16>
    %774 = "mix.prim.reshape"(%773) <{shape = [40, 5120]}> : (tensor<1x40x5120xf16>) -> tensor<40x5120xf16>
    %775 = "mix.prim.transpose"(%681) <{dim1 = 0 : i32, dim2 = 1 : i32}> : (tensor<5120x5120xf16>) -> tensor<5120x5120xf16>
    %776 = "mix.prim.matmul"(%774, %775) : (tensor<40x5120xf16>, tensor<5120x5120xf16>) -> tensor<40x5120xf16>
    %777 = "mix.prim.add"(%776, %682) : (tensor<40x5120xf16>, tensor<5120xf16>) -> tensor<40x5120xf16>
    %778 = "mix.prim.reshape"(%777) <{shape = [1, 40, 5120]}> : (tensor<40x5120xf16>) -> tensor<1x40x5120xf16>
    %779 = "mix.prim.mul"(%669, %778) : (tensor<1x40x5120xf16>, tensor<1x40x5120xf16>) -> tensor<1x40x5120xf16>
    %780 = "mix.comp.weight"() <{param_loc = "transformer.h.5.post_attention_layernorm.weight"}> : () -> tensor<5120xf16>
    %781 = "mix.prim.constant"() <{value = dense<1.000000e+00> : tensor<1xf16>}> : () -> tensor<1xf16>
    %782 = "mix.prim.pow"(%779, %781) : (tensor<1x40x5120xf16>, tensor<1xf16>) -> tensor<1x40x5120xf16>
    %783 = "mix.comp.mean"(%782) <{dims = [2 : i32], keepDim = true}> : (tensor<1x40x5120xf16>) -> tensor<1x40x1xf16>
    %784 = "mix.prim.constant"() <{value = 1.013280e-06 : f16}> : () -> f16
    %785 = "mix.prim.add"(%783, %784) : (tensor<1x40x1xf16>, f16) -> tensor<1x40x1xf16>
    %786 = "mix.prim.rsqrt"(%785) : (tensor<1x40x1xf16>) -> tensor<1x40x1xf16>
    %787 = "mix.prim.mul"(%779, %786) : (tensor<1x40x5120xf16>, tensor<1x40x1xf16>) -> tensor<1x40x5120xf16>
    %788 = "mix.prim.mul"(%780, %787) : (tensor<5120xf16>, tensor<1x40x5120xf16>) -> tensor<1x40x5120xf16>
    %789 = "mix.comp.weight"() <{param_loc = "transformer.h.5.mlp.gate_proj.weight"}> : () -> tensor<5120x12288xf16>
    %790 = "mix.prim.reshape"(%789) <{shape = [1, 5120, 12288]}> : (tensor<5120x12288xf16>) -> tensor<1x5120x12288xf16>
    %791 = "mix.prim.batch_matmul"(%788, %790) : (tensor<1x40x5120xf16>, tensor<1x5120x12288xf16>) -> tensor<1x40x12288xf16>
    %792 = "mix.comp.silu"(%791) : (tensor<1x40x12288xf16>) -> tensor<1x40x12288xf16>
    %793 = "mix.comp.weight"() <{param_loc = "transformer.h.5.mlp.up_proj.weight"}> : () -> tensor<5120x12288xf16>
    %794 = "mix.prim.reshape"(%793) <{shape = [1, 5120, 12288]}> : (tensor<5120x12288xf16>) -> tensor<1x5120x12288xf16>
    %795 = "mix.prim.batch_matmul"(%788, %794) : (tensor<1x40x5120xf16>, tensor<1x5120x12288xf16>) -> tensor<1x40x12288xf16>
    %796 = "mix.prim.mul"(%792, %795) : (tensor<1x40x12288xf16>, tensor<1x40x12288xf16>) -> tensor<1x40x12288xf16>
    %797 = "mix.comp.weight"() <{param_loc = "transformer.h.5.mlp.down_proj.weight"}> : () -> tensor<12288x5120xf16>
    %798 = "mix.prim.reshape"(%797) <{shape = [1, 12288, 5120]}> : (tensor<12288x5120xf16>) -> tensor<1x12288x5120xf16>
    %799 = "mix.prim.batch_matmul"(%796, %798) : (tensor<1x40x12288xf16>, tensor<1x12288x5120xf16>) -> tensor<1x40x5120xf16>
    %800 = "mix.comp.weight"() <{param_loc = "transformer.h.5.mlp.down_proj.bias"}> : () -> tensor<5120xf16>
    %801 = "mix.prim.add"(%799, %800) : (tensor<1x40x5120xf16>, tensor<5120xf16>) -> tensor<1x40x5120xf16>
    %802 = "mix.prim.add"(%801, %779) : (tensor<1x40x5120xf16>, tensor<1x40x5120xf16>) -> tensor<1x40x5120xf16>
    %803 = "mix.comp.weight"() <{param_loc = "transformer.h.6.input_layernorm.weight"}> : () -> tensor<5120xf16>
    %804 = "mix.prim.constant"() <{value = dense<1.000000e+00> : tensor<1xf16>}> : () -> tensor<1xf16>
    %805 = "mix.prim.pow"(%802, %804) : (tensor<1x40x5120xf16>, tensor<1xf16>) -> tensor<1x40x5120xf16>
    %806 = "mix.comp.mean"(%805) <{dims = [2 : i32], keepDim = true}> : (tensor<1x40x5120xf16>) -> tensor<1x40x1xf16>
    %807 = "mix.prim.constant"() <{value = 1.013280e-06 : f16}> : () -> f16
    %808 = "mix.prim.add"(%806, %807) : (tensor<1x40x1xf16>, f16) -> tensor<1x40x1xf16>
    %809 = "mix.prim.rsqrt"(%808) : (tensor<1x40x1xf16>) -> tensor<1x40x1xf16>
    %810 = "mix.prim.mul"(%802, %809) : (tensor<1x40x5120xf16>, tensor<1x40x1xf16>) -> tensor<1x40x5120xf16>
    %811 = "mix.prim.mul"(%803, %810) : (tensor<5120xf16>, tensor<1x40x5120xf16>) -> tensor<1x40x5120xf16>
    %812 = "mix.comp.weight"() <{param_loc = "transformer.h.6.self_attention.query.weight"}> : () -> tensor<5120x5120xf16>
    %813 = "mix.comp.weight"() <{param_loc = "transformer.h.6.self_attention.key_value.weight"}> : () -> tensor<10240x5120xf16>
    %814 = "mix.comp.weight"() <{param_loc = "transformer.h.6.self_attention.dense.weight"}> : () -> tensor<5120x5120xf16>
    %815 = "mix.comp.weight"() <{param_loc = "transformer.h.6.self_attention.dense.bias"}> : () -> tensor<5120xf16>
    %816 = "mix.prim.transpose"(%811) <{dim1 = 0 : i32, dim2 = 1 : i32}> : (tensor<1x40x5120xf16>) -> tensor<40x1x5120xf16>
    %817 = "mix.prim.transpose"(%812) <{dim1 = 0 : i32, dim2 = 1 : i32}> : (tensor<5120x5120xf16>) -> tensor<5120x5120xf16>
    %818 = "mix.prim.reshape"(%816) <{shape = [40, 5120]}> : (tensor<40x1x5120xf16>) -> tensor<40x5120xf16>
    %819 = "mix.prim.matmul"(%818, %817) : (tensor<40x5120xf16>, tensor<5120x5120xf16>) -> tensor<40x5120xf16>
    %820 = "mix.prim.reshape"(%819) <{shape = [40, 1, 5120]}> : (tensor<40x5120xf16>) -> tensor<40x1x5120xf16>
    %821 = "mix.prim.reshape"(%820) <{shape = [40, 1, 32, 160]}> : (tensor<40x1x5120xf16>) -> tensor<40x1x32x160xf16>
    %822 = "mix.prim.transpose"(%813) <{dim1 = 0 : i32, dim2 = 1 : i32}> : (tensor<10240x5120xf16>) -> tensor<5120x10240xf16>
    %823 = "mix.prim.reshape"(%816) <{shape = [40, 5120]}> : (tensor<40x1x5120xf16>) -> tensor<40x5120xf16>
    %824 = "mix.prim.matmul"(%823, %822) : (tensor<40x5120xf16>, tensor<5120x10240xf16>) -> tensor<40x10240xf16>
    %825 = "mix.prim.reshape"(%824) <{shape = [40, 1, 10240]}> : (tensor<40x10240xf16>) -> tensor<40x1x10240xf16>
    %826 = "mix.prim.reshape"(%825) <{shape = [40, 1, 32, 320]}> : (tensor<40x1x10240xf16>) -> tensor<40x1x32x320xf16>
    %827 = "mix.prim.slice"(%826) <{dim = 3 : i64, end = 160 : i64, start = 0 : i64, step = 1 : i64}> : (tensor<40x1x32x320xf16>) -> tensor<40x1x32x160xf16>
    %828 = "mix.prim.slice"(%826) <{dim = 3 : i64, end = 320 : i64, start = 160 : i64, step = 1 : i64}> : (tensor<40x1x32x320xf16>) -> tensor<40x1x32x160xf16>
    %829 = "mix.prim.reshape"(%821) <{shape = [40, 32, -1]}> : (tensor<40x1x32x160xf16>) -> tensor<40x32x160xf16>
    %830 = "mix.prim.reshape"(%827) <{shape = [40, 32, -1]}> : (tensor<40x1x32x160xf16>) -> tensor<40x32x160xf16>
    %831 = "mix.prim.constant"() <{value = dense<[0, 1, 2, 3, 4, 5, 6, 7, 8, 9, 10, 11, 12, 13, 14, 15, 16, 17, 18, 19, 20, 21, 22, 23, 24, 25, 26, 27, 28, 29, 30, 31, 32, 33, 34, 35, 36, 37, 38, 39, 40, 41, 42, 43, 44, 45, 46, 47, 48, 49, 50, 51, 52, 53, 54, 55, 56, 57, 58, 59, 60, 61, 62, 63, 64, 65, 66, 67, 68, 69, 70, 71, 72, 73, 74, 75, 76, 77, 78, 79]> : tensor<80xi32>}> : () -> tensor<80xi32>
    %832 = "mix.prim.convert"(%831) <{element_ty = f16}> : (tensor<80xi32>) -> tensor<80xf16>
    %833 = "mix.prim.constant"() <{value = 160 : i32}> : () -> i32
    %834 = "mix.prim.div"(%832, %833) : (tensor<80xf16>, i32) -> tensor<80xf16>
    %835 = "mix.prim.constant"() <{value = 3.041600e+04 : f16}> : () -> f16
    %836 = "mix.prim.pow"(%835, %834) : (f16, tensor<80xf16>) -> tensor<80xf16>
    %837 = "mix.prim.reciprocal"(%836) : (tensor<80xf16>) -> tensor<80xf16>
    %838 = "mix.prim.constant"() <{value = 1.000000e+00 : f16}> : () -> f16
    %839 = "mix.prim.mul"(%838, %837) : (f16, tensor<80xf16>) -> tensor<80xf16>
    %840 = "mix.prim.constant"() <{value = dense<1.000000e+00> : tensor<40xf16>}> : () -> tensor<40xf16>
    %841 = "mix.prim.unsqueeze"(%840) <{axis = 1 : i32}> : (tensor<40xf16>) -> tensor<40x1xf16>
    %842 = "mix.prim.permute"(%841) <{dims = [0, 1]}> : (tensor<40x1xf16>) -> tensor<40x1xf16>
    %843 = "mix.prim.unsqueeze"(%839) <{axis = 1 : i32}> : (tensor<80xf16>) -> tensor<80x1xf16>
    %844 = "mix.prim.permute"(%843) <{dims = [1, 0]}> : (tensor<80x1xf16>) -> tensor<1x80xf16>
    %845 = "mix.prim.mul"(%842, %844) : (tensor<40x1xf16>, tensor<1x80xf16>) -> tensor<40x80xf16>
    %846 = "mix.prim.concat"(%845, %845) <{axis = 1 : i64}> : (tensor<40x80xf16>, tensor<40x80xf16>) -> tensor<40x160xf16>
    %847 = "mix.prim.cos"(%846) : (tensor<40x160xf16>) -> tensor<40x160xf16>
    %848 = "mix.prim.slice"(%847) <{dim = 0 : i64, end = 2147483647 : i64, start = 0 : i64, step = 1 : i64}> : (tensor<40x160xf16>) -> tensor<40x160xf16>
    %849 = "mix.prim.unsqueeze"(%848) <{axis = 1 : i32}> : (tensor<40x160xf16>) -> tensor<40x1x160xf16>
    %850 = "mix.prim.slice"(%849) <{dim = 2 : i64, end = 2147483647 : i64, start = 0 : i64, step = 1 : i64}> : (tensor<40x1x160xf16>) -> tensor<40x1x160xf16>
    %851 = "mix.prim.constant"() <{value = 1.000000e+00 : f16}> : () -> f16
    %852 = "mix.prim.mul"(%850, %851) : (tensor<40x1x160xf16>, f16) -> tensor<40x1x160xf16>
    %853 = "mix.prim.sin"(%846) : (tensor<40x160xf16>) -> tensor<40x160xf16>
    %854 = "mix.prim.slice"(%853) <{dim = 0 : i64, end = 2147483647 : i64, start = 0 : i64, step = 1 : i64}> : (tensor<40x160xf16>) -> tensor<40x160xf16>
    %855 = "mix.prim.unsqueeze"(%854) <{axis = 1 : i32}> : (tensor<40x160xf16>) -> tensor<40x1x160xf16>
    %856 = "mix.prim.slice"(%855) <{dim = 2 : i64, end = 2147483647 : i64, start = 0 : i64, step = 1 : i64}> : (tensor<40x1x160xf16>) -> tensor<40x1x160xf16>
    %857 = "mix.prim.constant"() <{value = 1.000000e+00 : f16}> : () -> f16
    %858 = "mix.prim.mul"(%856, %857) : (tensor<40x1x160xf16>, f16) -> tensor<40x1x160xf16>
    %859 = "mix.prim.slice"(%852) <{dim = 0 : i64, end = 40 : i64, start = 0 : i64, step = 1 : i64}> : (tensor<40x1x160xf16>) -> tensor<40x1x160xf16>
    %860 = "mix.prim.slice"(%858) <{dim = 0 : i64, end = 40 : i64, start = 0 : i64, step = 1 : i64}> : (tensor<40x1x160xf16>) -> tensor<40x1x160xf16>
    %861 = "mix.prim.mul"(%829, %859) : (tensor<40x32x160xf16>, tensor<40x1x160xf16>) -> tensor<40x32x160xf16>
    %862 = "mix.prim.slice"(%829) <{dim = 2 : i64, end = 80 : i64, start = 0 : i64, step = 1 : i64}> : (tensor<40x32x160xf16>) -> tensor<40x32x80xf16>
    %863 = "mix.prim.slice"(%829) <{dim = 2 : i64, end = 2147483647 : i64, start = 80 : i64, step = 1 : i64}> : (tensor<40x32x160xf16>) -> tensor<40x32x80xf16>
    %864 = "mix.prim.neg"(%863) : (tensor<40x32x80xf16>) -> tensor<40x32x80xf16>
    %865 = "mix.prim.concat"(%864, %862) <{axis = 2 : i64}> : (tensor<40x32x80xf16>, tensor<40x32x80xf16>) -> tensor<40x32x160xf16>
    %866 = "mix.prim.mul"(%865, %860) : (tensor<40x32x160xf16>, tensor<40x1x160xf16>) -> tensor<40x32x160xf16>
    %867 = "mix.prim.add"(%861, %866) : (tensor<40x32x160xf16>, tensor<40x32x160xf16>) -> tensor<40x32x160xf16>
    %868 = "mix.prim.mul"(%830, %859) : (tensor<40x32x160xf16>, tensor<40x1x160xf16>) -> tensor<40x32x160xf16>
    %869 = "mix.prim.slice"(%830) <{dim = 2 : i64, end = 80 : i64, start = 0 : i64, step = 1 : i64}> : (tensor<40x32x160xf16>) -> tensor<40x32x80xf16>
    %870 = "mix.prim.slice"(%830) <{dim = 2 : i64, end = 2147483647 : i64, start = 80 : i64, step = 1 : i64}> : (tensor<40x32x160xf16>) -> tensor<40x32x80xf16>
    %871 = "mix.prim.neg"(%870) : (tensor<40x32x80xf16>) -> tensor<40x32x80xf16>
    %872 = "mix.prim.concat"(%871, %869) <{axis = 2 : i64}> : (tensor<40x32x80xf16>, tensor<40x32x80xf16>) -> tensor<40x32x160xf16>
    %873 = "mix.prim.mul"(%872, %860) : (tensor<40x32x160xf16>, tensor<40x1x160xf16>) -> tensor<40x32x160xf16>
    %874 = "mix.prim.add"(%868, %873) : (tensor<40x32x160xf16>, tensor<40x32x160xf16>) -> tensor<40x32x160xf16>
    %875 = "mix.prim.reshape"(%867) <{shape = [40, 1, 32, 160]}> : (tensor<40x32x160xf16>) -> tensor<40x1x32x160xf16>
    %876 = "mix.prim.reshape"(%874) <{shape = [40, 1, 32, 160]}> : (tensor<40x32x160xf16>) -> tensor<40x1x32x160xf16>
    %877 = "mix.prim.reshape"(%875) <{shape = [40, 32, 160]}> : (tensor<40x1x32x160xf16>) -> tensor<40x32x160xf16>
    %878 = "mix.prim.reshape"(%876) <{shape = [40, 32, 160]}> : (tensor<40x1x32x160xf16>) -> tensor<40x32x160xf16>
    %879 = "mix.prim.transpose"(%877) <{dim1 = 0 : i32, dim2 = 1 : i32}> : (tensor<40x32x160xf16>) -> tensor<32x40x160xf16>
    %880 = "mix.prim.transpose"(%878) <{dim1 = 0 : i32, dim2 = 1 : i32}> : (tensor<40x32x160xf16>) -> tensor<32x40x160xf16>
    %881 = "mix.prim.transpose"(%880) <{dim1 = 1 : i32, dim2 = 2 : i32}> : (tensor<32x40x160xf16>) -> tensor<32x160x40xf16>
    %882 = "mix.prim.unsqueeze"(%879) <{axis = 3 : i32}> : (tensor<32x40x160xf16>) -> tensor<32x40x160x1xf16>
    %883 = "mix.prim.permute"(%882) <{dims = [0, 1, 3, 2]}> : (tensor<32x40x160x1xf16>) -> tensor<32x40x1x160xf16>
    %884 = "mix.prim.unsqueeze"(%881) <{axis = 3 : i32}> : (tensor<32x160x40xf16>) -> tensor<32x160x40x1xf16>
    %885 = "mix.prim.permute"(%884) <{dims = [0, 3, 2, 1]}> : (tensor<32x160x40x1xf16>) -> tensor<32x1x40x160xf16>
    %886 = "mix.prim.permute"(%883) <{dims = [0, 1, 3, 2]}> : (tensor<32x40x1x160xf16>) -> tensor<32x40x160x1xf16>
    %887 = "mix.prim.reshape"(%886) <{shape = [32, 40, 160]}> : (tensor<32x40x160x1xf16>) -> tensor<32x40x160xf16>
    %888 = "mix.prim.permute"(%885) <{dims = [0, 3, 2, 1]}> : (tensor<32x1x40x160xf16>) -> tensor<32x160x40x1xf16>
    %889 = "mix.prim.reshape"(%888) <{shape = [32, 160, 40]}> : (tensor<32x160x40x1xf16>) -> tensor<32x160x40xf16>
    %890 = "mix.prim.batch_matmul"(%887, %889) : (tensor<32x40x160xf16>, tensor<32x160x40xf16>) -> tensor<32x40x40xf16>
    %891 = "mix.prim.reshape"(%890) <{shape = [32, 40, 1, 40]}> : (tensor<32x40x40xf16>) -> tensor<32x40x1x40xf16>
    %892 = "mix.prim.permute"(%891) <{dims = [0, 1, 3, 2]}> : (tensor<32x40x1x40xf16>) -> tensor<32x40x40x1xf16>
    %893 = "mix.prim.reshape"(%892) <{shape = [32, 40, 40]}> : (tensor<32x40x40x1xf16>) -> tensor<32x40x40xf16>
    %894 = "mix.prim.constant"() <{value = 7.904050e-02 : f16}> : () -> f16
    %895 = "mix.prim.mul"(%893, %894) : (tensor<32x40x40xf16>, f16) -> tensor<32x40x40xf16>
    %896 = "mix.prim.reshape"(%895) <{shape = [1, 32, 40, 40]}> : (tensor<32x40x40xf16>) -> tensor<1x32x40x40xf16>
    %897 = "mix.prim.constant"() <{value = 0xFC00 : f16}> : () -> f16
    %898 = "mix.comp.masked_fill"(%896, %4, %897) : (tensor<1x32x40x40xf16>, tensor<1x1x40x40xi1>, f16) -> tensor<1x32x40x40xf16>
    %899 = "mix.comp.softmax"(%898) <{axis = -1 : si32}> : (tensor<1x32x40x40xf16>) -> tensor<1x32x40x40xf16>
    %900 = "mix.prim.reshape"(%899) <{shape = [32, 40, 40]}> : (tensor<1x32x40x40xf16>) -> tensor<32x40x40xf16>
    %901 = "mix.prim.reshape"(%828) <{shape = [40, 32, 160]}> : (tensor<40x1x32x160xf16>) -> tensor<40x32x160xf16>
    %902 = "mix.prim.transpose"(%901) <{dim1 = 0 : i32, dim2 = 1 : i32}> : (tensor<40x32x160xf16>) -> tensor<32x40x160xf16>
    %903 = "mix.prim.batch_matmul"(%900, %902) : (tensor<32x40x40xf16>, tensor<32x40x160xf16>) -> tensor<32x40x160xf16>
    %904 = "mix.prim.reshape"(%903) <{shape = [1, 32, 40, 160]}> : (tensor<32x40x160xf16>) -> tensor<1x32x40x160xf16>
    %905 = "mix.prim.permute"(%904) <{dims = [0, 2, 1, 3]}> : (tensor<1x32x40x160xf16>) -> tensor<1x40x32x160xf16>
    %906 = "mix.prim.reshape"(%905) <{shape = [1, 40, 5120]}> : (tensor<1x40x32x160xf16>) -> tensor<1x40x5120xf16>
    %907 = "mix.prim.reshape"(%906) <{shape = [40, 5120]}> : (tensor<1x40x5120xf16>) -> tensor<40x5120xf16>
    %908 = "mix.prim.transpose"(%814) <{dim1 = 0 : i32, dim2 = 1 : i32}> : (tensor<5120x5120xf16>) -> tensor<5120x5120xf16>
    %909 = "mix.prim.matmul"(%907, %908) : (tensor<40x5120xf16>, tensor<5120x5120xf16>) -> tensor<40x5120xf16>
    %910 = "mix.prim.add"(%909, %815) : (tensor<40x5120xf16>, tensor<5120xf16>) -> tensor<40x5120xf16>
    %911 = "mix.prim.reshape"(%910) <{shape = [1, 40, 5120]}> : (tensor<40x5120xf16>) -> tensor<1x40x5120xf16>
    %912 = "mix.prim.mul"(%802, %911) : (tensor<1x40x5120xf16>, tensor<1x40x5120xf16>) -> tensor<1x40x5120xf16>
    %913 = "mix.comp.weight"() <{param_loc = "transformer.h.6.post_attention_layernorm.weight"}> : () -> tensor<5120xf16>
    %914 = "mix.prim.constant"() <{value = dense<1.000000e+00> : tensor<1xf16>}> : () -> tensor<1xf16>
    %915 = "mix.prim.pow"(%912, %914) : (tensor<1x40x5120xf16>, tensor<1xf16>) -> tensor<1x40x5120xf16>
    %916 = "mix.comp.mean"(%915) <{dims = [2 : i32], keepDim = true}> : (tensor<1x40x5120xf16>) -> tensor<1x40x1xf16>
    %917 = "mix.prim.constant"() <{value = 1.013280e-06 : f16}> : () -> f16
    %918 = "mix.prim.add"(%916, %917) : (tensor<1x40x1xf16>, f16) -> tensor<1x40x1xf16>
    %919 = "mix.prim.rsqrt"(%918) : (tensor<1x40x1xf16>) -> tensor<1x40x1xf16>
    %920 = "mix.prim.mul"(%912, %919) : (tensor<1x40x5120xf16>, tensor<1x40x1xf16>) -> tensor<1x40x5120xf16>
    %921 = "mix.prim.mul"(%913, %920) : (tensor<5120xf16>, tensor<1x40x5120xf16>) -> tensor<1x40x5120xf16>
    %922 = "mix.comp.weight"() <{param_loc = "transformer.h.6.mlp.gate_proj.weight"}> : () -> tensor<5120x12288xf16>
    %923 = "mix.prim.reshape"(%922) <{shape = [1, 5120, 12288]}> : (tensor<5120x12288xf16>) -> tensor<1x5120x12288xf16>
    %924 = "mix.prim.batch_matmul"(%921, %923) : (tensor<1x40x5120xf16>, tensor<1x5120x12288xf16>) -> tensor<1x40x12288xf16>
    %925 = "mix.comp.silu"(%924) : (tensor<1x40x12288xf16>) -> tensor<1x40x12288xf16>
    %926 = "mix.comp.weight"() <{param_loc = "transformer.h.6.mlp.up_proj.weight"}> : () -> tensor<5120x12288xf16>
    %927 = "mix.prim.reshape"(%926) <{shape = [1, 5120, 12288]}> : (tensor<5120x12288xf16>) -> tensor<1x5120x12288xf16>
    %928 = "mix.prim.batch_matmul"(%921, %927) : (tensor<1x40x5120xf16>, tensor<1x5120x12288xf16>) -> tensor<1x40x12288xf16>
    %929 = "mix.prim.mul"(%925, %928) : (tensor<1x40x12288xf16>, tensor<1x40x12288xf16>) -> tensor<1x40x12288xf16>
    %930 = "mix.comp.weight"() <{param_loc = "transformer.h.6.mlp.down_proj.weight"}> : () -> tensor<12288x5120xf16>
    %931 = "mix.prim.reshape"(%930) <{shape = [1, 12288, 5120]}> : (tensor<12288x5120xf16>) -> tensor<1x12288x5120xf16>
    %932 = "mix.prim.batch_matmul"(%929, %931) : (tensor<1x40x12288xf16>, tensor<1x12288x5120xf16>) -> tensor<1x40x5120xf16>
    %933 = "mix.comp.weight"() <{param_loc = "transformer.h.6.mlp.down_proj.bias"}> : () -> tensor<5120xf16>
    %934 = "mix.prim.add"(%932, %933) : (tensor<1x40x5120xf16>, tensor<5120xf16>) -> tensor<1x40x5120xf16>
    %935 = "mix.prim.add"(%934, %912) : (tensor<1x40x5120xf16>, tensor<1x40x5120xf16>) -> tensor<1x40x5120xf16>
    %936 = "mix.comp.weight"() <{param_loc = "transformer.h.7.input_layernorm.weight"}> : () -> tensor<5120xf16>
    %937 = "mix.prim.constant"() <{value = dense<1.000000e+00> : tensor<1xf16>}> : () -> tensor<1xf16>
    %938 = "mix.prim.pow"(%935, %937) : (tensor<1x40x5120xf16>, tensor<1xf16>) -> tensor<1x40x5120xf16>
    %939 = "mix.comp.mean"(%938) <{dims = [2 : i32], keepDim = true}> : (tensor<1x40x5120xf16>) -> tensor<1x40x1xf16>
    %940 = "mix.prim.constant"() <{value = 1.013280e-06 : f16}> : () -> f16
    %941 = "mix.prim.add"(%939, %940) : (tensor<1x40x1xf16>, f16) -> tensor<1x40x1xf16>
    %942 = "mix.prim.rsqrt"(%941) : (tensor<1x40x1xf16>) -> tensor<1x40x1xf16>
    %943 = "mix.prim.mul"(%935, %942) : (tensor<1x40x5120xf16>, tensor<1x40x1xf16>) -> tensor<1x40x5120xf16>
    %944 = "mix.prim.mul"(%936, %943) : (tensor<5120xf16>, tensor<1x40x5120xf16>) -> tensor<1x40x5120xf16>
    %945 = "mix.comp.weight"() <{param_loc = "transformer.h.7.self_attention.query.weight"}> : () -> tensor<5120x5120xf16>
    %946 = "mix.comp.weight"() <{param_loc = "transformer.h.7.self_attention.key_value.weight"}> : () -> tensor<10240x5120xf16>
    %947 = "mix.comp.weight"() <{param_loc = "transformer.h.7.self_attention.dense.weight"}> : () -> tensor<5120x5120xf16>
    %948 = "mix.comp.weight"() <{param_loc = "transformer.h.7.self_attention.dense.bias"}> : () -> tensor<5120xf16>
    %949 = "mix.prim.transpose"(%944) <{dim1 = 0 : i32, dim2 = 1 : i32}> : (tensor<1x40x5120xf16>) -> tensor<40x1x5120xf16>
    %950 = "mix.prim.transpose"(%945) <{dim1 = 0 : i32, dim2 = 1 : i32}> : (tensor<5120x5120xf16>) -> tensor<5120x5120xf16>
    %951 = "mix.prim.reshape"(%949) <{shape = [40, 5120]}> : (tensor<40x1x5120xf16>) -> tensor<40x5120xf16>
    %952 = "mix.prim.matmul"(%951, %950) : (tensor<40x5120xf16>, tensor<5120x5120xf16>) -> tensor<40x5120xf16>
    %953 = "mix.prim.reshape"(%952) <{shape = [40, 1, 5120]}> : (tensor<40x5120xf16>) -> tensor<40x1x5120xf16>
    %954 = "mix.prim.reshape"(%953) <{shape = [40, 1, 32, 160]}> : (tensor<40x1x5120xf16>) -> tensor<40x1x32x160xf16>
    %955 = "mix.prim.transpose"(%946) <{dim1 = 0 : i32, dim2 = 1 : i32}> : (tensor<10240x5120xf16>) -> tensor<5120x10240xf16>
    %956 = "mix.prim.reshape"(%949) <{shape = [40, 5120]}> : (tensor<40x1x5120xf16>) -> tensor<40x5120xf16>
    %957 = "mix.prim.matmul"(%956, %955) : (tensor<40x5120xf16>, tensor<5120x10240xf16>) -> tensor<40x10240xf16>
    %958 = "mix.prim.reshape"(%957) <{shape = [40, 1, 10240]}> : (tensor<40x10240xf16>) -> tensor<40x1x10240xf16>
    %959 = "mix.prim.reshape"(%958) <{shape = [40, 1, 32, 320]}> : (tensor<40x1x10240xf16>) -> tensor<40x1x32x320xf16>
    %960 = "mix.prim.slice"(%959) <{dim = 3 : i64, end = 160 : i64, start = 0 : i64, step = 1 : i64}> : (tensor<40x1x32x320xf16>) -> tensor<40x1x32x160xf16>
    %961 = "mix.prim.slice"(%959) <{dim = 3 : i64, end = 320 : i64, start = 160 : i64, step = 1 : i64}> : (tensor<40x1x32x320xf16>) -> tensor<40x1x32x160xf16>
    %962 = "mix.prim.reshape"(%954) <{shape = [40, 32, -1]}> : (tensor<40x1x32x160xf16>) -> tensor<40x32x160xf16>
    %963 = "mix.prim.reshape"(%960) <{shape = [40, 32, -1]}> : (tensor<40x1x32x160xf16>) -> tensor<40x32x160xf16>
    %964 = "mix.prim.constant"() <{value = dense<[0, 1, 2, 3, 4, 5, 6, 7, 8, 9, 10, 11, 12, 13, 14, 15, 16, 17, 18, 19, 20, 21, 22, 23, 24, 25, 26, 27, 28, 29, 30, 31, 32, 33, 34, 35, 36, 37, 38, 39, 40, 41, 42, 43, 44, 45, 46, 47, 48, 49, 50, 51, 52, 53, 54, 55, 56, 57, 58, 59, 60, 61, 62, 63, 64, 65, 66, 67, 68, 69, 70, 71, 72, 73, 74, 75, 76, 77, 78, 79]> : tensor<80xi32>}> : () -> tensor<80xi32>
    %965 = "mix.prim.convert"(%964) <{element_ty = f16}> : (tensor<80xi32>) -> tensor<80xf16>
    %966 = "mix.prim.constant"() <{value = 160 : i32}> : () -> i32
    %967 = "mix.prim.div"(%965, %966) : (tensor<80xf16>, i32) -> tensor<80xf16>
    %968 = "mix.prim.constant"() <{value = 3.041600e+04 : f16}> : () -> f16
    %969 = "mix.prim.pow"(%968, %967) : (f16, tensor<80xf16>) -> tensor<80xf16>
    %970 = "mix.prim.reciprocal"(%969) : (tensor<80xf16>) -> tensor<80xf16>
    %971 = "mix.prim.constant"() <{value = 1.000000e+00 : f16}> : () -> f16
    %972 = "mix.prim.mul"(%971, %970) : (f16, tensor<80xf16>) -> tensor<80xf16>
    %973 = "mix.prim.constant"() <{value = dense<1.000000e+00> : tensor<40xf16>}> : () -> tensor<40xf16>
    %974 = "mix.prim.unsqueeze"(%973) <{axis = 1 : i32}> : (tensor<40xf16>) -> tensor<40x1xf16>
    %975 = "mix.prim.permute"(%974) <{dims = [0, 1]}> : (tensor<40x1xf16>) -> tensor<40x1xf16>
    %976 = "mix.prim.unsqueeze"(%972) <{axis = 1 : i32}> : (tensor<80xf16>) -> tensor<80x1xf16>
    %977 = "mix.prim.permute"(%976) <{dims = [1, 0]}> : (tensor<80x1xf16>) -> tensor<1x80xf16>
    %978 = "mix.prim.mul"(%975, %977) : (tensor<40x1xf16>, tensor<1x80xf16>) -> tensor<40x80xf16>
    %979 = "mix.prim.concat"(%978, %978) <{axis = 1 : i64}> : (tensor<40x80xf16>, tensor<40x80xf16>) -> tensor<40x160xf16>
    %980 = "mix.prim.cos"(%979) : (tensor<40x160xf16>) -> tensor<40x160xf16>
    %981 = "mix.prim.slice"(%980) <{dim = 0 : i64, end = 2147483647 : i64, start = 0 : i64, step = 1 : i64}> : (tensor<40x160xf16>) -> tensor<40x160xf16>
    %982 = "mix.prim.unsqueeze"(%981) <{axis = 1 : i32}> : (tensor<40x160xf16>) -> tensor<40x1x160xf16>
    %983 = "mix.prim.slice"(%982) <{dim = 2 : i64, end = 2147483647 : i64, start = 0 : i64, step = 1 : i64}> : (tensor<40x1x160xf16>) -> tensor<40x1x160xf16>
    %984 = "mix.prim.constant"() <{value = 1.000000e+00 : f16}> : () -> f16
    %985 = "mix.prim.mul"(%983, %984) : (tensor<40x1x160xf16>, f16) -> tensor<40x1x160xf16>
    %986 = "mix.prim.sin"(%979) : (tensor<40x160xf16>) -> tensor<40x160xf16>
    %987 = "mix.prim.slice"(%986) <{dim = 0 : i64, end = 2147483647 : i64, start = 0 : i64, step = 1 : i64}> : (tensor<40x160xf16>) -> tensor<40x160xf16>
    %988 = "mix.prim.unsqueeze"(%987) <{axis = 1 : i32}> : (tensor<40x160xf16>) -> tensor<40x1x160xf16>
    %989 = "mix.prim.slice"(%988) <{dim = 2 : i64, end = 2147483647 : i64, start = 0 : i64, step = 1 : i64}> : (tensor<40x1x160xf16>) -> tensor<40x1x160xf16>
    %990 = "mix.prim.constant"() <{value = 1.000000e+00 : f16}> : () -> f16
    %991 = "mix.prim.mul"(%989, %990) : (tensor<40x1x160xf16>, f16) -> tensor<40x1x160xf16>
    %992 = "mix.prim.slice"(%985) <{dim = 0 : i64, end = 40 : i64, start = 0 : i64, step = 1 : i64}> : (tensor<40x1x160xf16>) -> tensor<40x1x160xf16>
    %993 = "mix.prim.slice"(%991) <{dim = 0 : i64, end = 40 : i64, start = 0 : i64, step = 1 : i64}> : (tensor<40x1x160xf16>) -> tensor<40x1x160xf16>
    %994 = "mix.prim.mul"(%962, %992) : (tensor<40x32x160xf16>, tensor<40x1x160xf16>) -> tensor<40x32x160xf16>
    %995 = "mix.prim.slice"(%962) <{dim = 2 : i64, end = 80 : i64, start = 0 : i64, step = 1 : i64}> : (tensor<40x32x160xf16>) -> tensor<40x32x80xf16>
    %996 = "mix.prim.slice"(%962) <{dim = 2 : i64, end = 2147483647 : i64, start = 80 : i64, step = 1 : i64}> : (tensor<40x32x160xf16>) -> tensor<40x32x80xf16>
    %997 = "mix.prim.neg"(%996) : (tensor<40x32x80xf16>) -> tensor<40x32x80xf16>
    %998 = "mix.prim.concat"(%997, %995) <{axis = 2 : i64}> : (tensor<40x32x80xf16>, tensor<40x32x80xf16>) -> tensor<40x32x160xf16>
    %999 = "mix.prim.mul"(%998, %993) : (tensor<40x32x160xf16>, tensor<40x1x160xf16>) -> tensor<40x32x160xf16>
    %1000 = "mix.prim.add"(%994, %999) : (tensor<40x32x160xf16>, tensor<40x32x160xf16>) -> tensor<40x32x160xf16>
    %1001 = "mix.prim.mul"(%963, %992) : (tensor<40x32x160xf16>, tensor<40x1x160xf16>) -> tensor<40x32x160xf16>
    %1002 = "mix.prim.slice"(%963) <{dim = 2 : i64, end = 80 : i64, start = 0 : i64, step = 1 : i64}> : (tensor<40x32x160xf16>) -> tensor<40x32x80xf16>
    %1003 = "mix.prim.slice"(%963) <{dim = 2 : i64, end = 2147483647 : i64, start = 80 : i64, step = 1 : i64}> : (tensor<40x32x160xf16>) -> tensor<40x32x80xf16>
    %1004 = "mix.prim.neg"(%1003) : (tensor<40x32x80xf16>) -> tensor<40x32x80xf16>
    %1005 = "mix.prim.concat"(%1004, %1002) <{axis = 2 : i64}> : (tensor<40x32x80xf16>, tensor<40x32x80xf16>) -> tensor<40x32x160xf16>
    %1006 = "mix.prim.mul"(%1005, %993) : (tensor<40x32x160xf16>, tensor<40x1x160xf16>) -> tensor<40x32x160xf16>
    %1007 = "mix.prim.add"(%1001, %1006) : (tensor<40x32x160xf16>, tensor<40x32x160xf16>) -> tensor<40x32x160xf16>
    %1008 = "mix.prim.reshape"(%1000) <{shape = [40, 1, 32, 160]}> : (tensor<40x32x160xf16>) -> tensor<40x1x32x160xf16>
    %1009 = "mix.prim.reshape"(%1007) <{shape = [40, 1, 32, 160]}> : (tensor<40x32x160xf16>) -> tensor<40x1x32x160xf16>
    %1010 = "mix.prim.reshape"(%1008) <{shape = [40, 32, 160]}> : (tensor<40x1x32x160xf16>) -> tensor<40x32x160xf16>
    %1011 = "mix.prim.reshape"(%1009) <{shape = [40, 32, 160]}> : (tensor<40x1x32x160xf16>) -> tensor<40x32x160xf16>
    %1012 = "mix.prim.transpose"(%1010) <{dim1 = 0 : i32, dim2 = 1 : i32}> : (tensor<40x32x160xf16>) -> tensor<32x40x160xf16>
    %1013 = "mix.prim.transpose"(%1011) <{dim1 = 0 : i32, dim2 = 1 : i32}> : (tensor<40x32x160xf16>) -> tensor<32x40x160xf16>
    %1014 = "mix.prim.transpose"(%1013) <{dim1 = 1 : i32, dim2 = 2 : i32}> : (tensor<32x40x160xf16>) -> tensor<32x160x40xf16>
    %1015 = "mix.prim.unsqueeze"(%1012) <{axis = 3 : i32}> : (tensor<32x40x160xf16>) -> tensor<32x40x160x1xf16>
    %1016 = "mix.prim.permute"(%1015) <{dims = [0, 1, 3, 2]}> : (tensor<32x40x160x1xf16>) -> tensor<32x40x1x160xf16>
    %1017 = "mix.prim.unsqueeze"(%1014) <{axis = 3 : i32}> : (tensor<32x160x40xf16>) -> tensor<32x160x40x1xf16>
    %1018 = "mix.prim.permute"(%1017) <{dims = [0, 3, 2, 1]}> : (tensor<32x160x40x1xf16>) -> tensor<32x1x40x160xf16>
    %1019 = "mix.prim.permute"(%1016) <{dims = [0, 1, 3, 2]}> : (tensor<32x40x1x160xf16>) -> tensor<32x40x160x1xf16>
    %1020 = "mix.prim.reshape"(%1019) <{shape = [32, 40, 160]}> : (tensor<32x40x160x1xf16>) -> tensor<32x40x160xf16>
    %1021 = "mix.prim.permute"(%1018) <{dims = [0, 3, 2, 1]}> : (tensor<32x1x40x160xf16>) -> tensor<32x160x40x1xf16>
    %1022 = "mix.prim.reshape"(%1021) <{shape = [32, 160, 40]}> : (tensor<32x160x40x1xf16>) -> tensor<32x160x40xf16>
    %1023 = "mix.prim.batch_matmul"(%1020, %1022) : (tensor<32x40x160xf16>, tensor<32x160x40xf16>) -> tensor<32x40x40xf16>
    %1024 = "mix.prim.reshape"(%1023) <{shape = [32, 40, 1, 40]}> : (tensor<32x40x40xf16>) -> tensor<32x40x1x40xf16>
    %1025 = "mix.prim.permute"(%1024) <{dims = [0, 1, 3, 2]}> : (tensor<32x40x1x40xf16>) -> tensor<32x40x40x1xf16>
    %1026 = "mix.prim.reshape"(%1025) <{shape = [32, 40, 40]}> : (tensor<32x40x40x1xf16>) -> tensor<32x40x40xf16>
    %1027 = "mix.prim.constant"() <{value = 7.904050e-02 : f16}> : () -> f16
    %1028 = "mix.prim.mul"(%1026, %1027) : (tensor<32x40x40xf16>, f16) -> tensor<32x40x40xf16>
    %1029 = "mix.prim.reshape"(%1028) <{shape = [1, 32, 40, 40]}> : (tensor<32x40x40xf16>) -> tensor<1x32x40x40xf16>
    %1030 = "mix.prim.constant"() <{value = 0xFC00 : f16}> : () -> f16
    %1031 = "mix.comp.masked_fill"(%1029, %4, %1030) : (tensor<1x32x40x40xf16>, tensor<1x1x40x40xi1>, f16) -> tensor<1x32x40x40xf16>
    %1032 = "mix.comp.softmax"(%1031) <{axis = -1 : si32}> : (tensor<1x32x40x40xf16>) -> tensor<1x32x40x40xf16>
    %1033 = "mix.prim.reshape"(%1032) <{shape = [32, 40, 40]}> : (tensor<1x32x40x40xf16>) -> tensor<32x40x40xf16>
    %1034 = "mix.prim.reshape"(%961) <{shape = [40, 32, 160]}> : (tensor<40x1x32x160xf16>) -> tensor<40x32x160xf16>
    %1035 = "mix.prim.transpose"(%1034) <{dim1 = 0 : i32, dim2 = 1 : i32}> : (tensor<40x32x160xf16>) -> tensor<32x40x160xf16>
    %1036 = "mix.prim.batch_matmul"(%1033, %1035) : (tensor<32x40x40xf16>, tensor<32x40x160xf16>) -> tensor<32x40x160xf16>
    %1037 = "mix.prim.reshape"(%1036) <{shape = [1, 32, 40, 160]}> : (tensor<32x40x160xf16>) -> tensor<1x32x40x160xf16>
    %1038 = "mix.prim.permute"(%1037) <{dims = [0, 2, 1, 3]}> : (tensor<1x32x40x160xf16>) -> tensor<1x40x32x160xf16>
    %1039 = "mix.prim.reshape"(%1038) <{shape = [1, 40, 5120]}> : (tensor<1x40x32x160xf16>) -> tensor<1x40x5120xf16>
    %1040 = "mix.prim.reshape"(%1039) <{shape = [40, 5120]}> : (tensor<1x40x5120xf16>) -> tensor<40x5120xf16>
    %1041 = "mix.prim.transpose"(%947) <{dim1 = 0 : i32, dim2 = 1 : i32}> : (tensor<5120x5120xf16>) -> tensor<5120x5120xf16>
    %1042 = "mix.prim.matmul"(%1040, %1041) : (tensor<40x5120xf16>, tensor<5120x5120xf16>) -> tensor<40x5120xf16>
    %1043 = "mix.prim.add"(%1042, %948) : (tensor<40x5120xf16>, tensor<5120xf16>) -> tensor<40x5120xf16>
    %1044 = "mix.prim.reshape"(%1043) <{shape = [1, 40, 5120]}> : (tensor<40x5120xf16>) -> tensor<1x40x5120xf16>
    %1045 = "mix.prim.mul"(%935, %1044) : (tensor<1x40x5120xf16>, tensor<1x40x5120xf16>) -> tensor<1x40x5120xf16>
    %1046 = "mix.comp.weight"() <{param_loc = "transformer.h.7.post_attention_layernorm.weight"}> : () -> tensor<5120xf16>
    %1047 = "mix.prim.constant"() <{value = dense<1.000000e+00> : tensor<1xf16>}> : () -> tensor<1xf16>
    %1048 = "mix.prim.pow"(%1045, %1047) : (tensor<1x40x5120xf16>, tensor<1xf16>) -> tensor<1x40x5120xf16>
    %1049 = "mix.comp.mean"(%1048) <{dims = [2 : i32], keepDim = true}> : (tensor<1x40x5120xf16>) -> tensor<1x40x1xf16>
    %1050 = "mix.prim.constant"() <{value = 1.013280e-06 : f16}> : () -> f16
    %1051 = "mix.prim.add"(%1049, %1050) : (tensor<1x40x1xf16>, f16) -> tensor<1x40x1xf16>
    %1052 = "mix.prim.rsqrt"(%1051) : (tensor<1x40x1xf16>) -> tensor<1x40x1xf16>
    %1053 = "mix.prim.mul"(%1045, %1052) : (tensor<1x40x5120xf16>, tensor<1x40x1xf16>) -> tensor<1x40x5120xf16>
    %1054 = "mix.prim.mul"(%1046, %1053) : (tensor<5120xf16>, tensor<1x40x5120xf16>) -> tensor<1x40x5120xf16>
    %1055 = "mix.comp.weight"() <{param_loc = "transformer.h.7.mlp.gate_proj.weight"}> : () -> tensor<5120x12288xf16>
    %1056 = "mix.prim.reshape"(%1055) <{shape = [1, 5120, 12288]}> : (tensor<5120x12288xf16>) -> tensor<1x5120x12288xf16>
    %1057 = "mix.prim.batch_matmul"(%1054, %1056) : (tensor<1x40x5120xf16>, tensor<1x5120x12288xf16>) -> tensor<1x40x12288xf16>
    %1058 = "mix.comp.silu"(%1057) : (tensor<1x40x12288xf16>) -> tensor<1x40x12288xf16>
    %1059 = "mix.comp.weight"() <{param_loc = "transformer.h.7.mlp.up_proj.weight"}> : () -> tensor<5120x12288xf16>
    %1060 = "mix.prim.reshape"(%1059) <{shape = [1, 5120, 12288]}> : (tensor<5120x12288xf16>) -> tensor<1x5120x12288xf16>
    %1061 = "mix.prim.batch_matmul"(%1054, %1060) : (tensor<1x40x5120xf16>, tensor<1x5120x12288xf16>) -> tensor<1x40x12288xf16>
    %1062 = "mix.prim.mul"(%1058, %1061) : (tensor<1x40x12288xf16>, tensor<1x40x12288xf16>) -> tensor<1x40x12288xf16>
    %1063 = "mix.comp.weight"() <{param_loc = "transformer.h.7.mlp.down_proj.weight"}> : () -> tensor<12288x5120xf16>
    %1064 = "mix.prim.reshape"(%1063) <{shape = [1, 12288, 5120]}> : (tensor<12288x5120xf16>) -> tensor<1x12288x5120xf16>
    %1065 = "mix.prim.batch_matmul"(%1062, %1064) : (tensor<1x40x12288xf16>, tensor<1x12288x5120xf16>) -> tensor<1x40x5120xf16>
    %1066 = "mix.comp.weight"() <{param_loc = "transformer.h.7.mlp.down_proj.bias"}> : () -> tensor<5120xf16>
    %1067 = "mix.prim.add"(%1065, %1066) : (tensor<1x40x5120xf16>, tensor<5120xf16>) -> tensor<1x40x5120xf16>
    %1068 = "mix.prim.add"(%1067, %1045) : (tensor<1x40x5120xf16>, tensor<1x40x5120xf16>) -> tensor<1x40x5120xf16>
    %1069 = "mix.comp.weight"() <{param_loc = "transformer.h.8.input_layernorm.weight"}> : () -> tensor<5120xf16>
    %1070 = "mix.prim.constant"() <{value = dense<1.000000e+00> : tensor<1xf16>}> : () -> tensor<1xf16>
    %1071 = "mix.prim.pow"(%1068, %1070) : (tensor<1x40x5120xf16>, tensor<1xf16>) -> tensor<1x40x5120xf16>
    %1072 = "mix.comp.mean"(%1071) <{dims = [2 : i32], keepDim = true}> : (tensor<1x40x5120xf16>) -> tensor<1x40x1xf16>
    %1073 = "mix.prim.constant"() <{value = 1.013280e-06 : f16}> : () -> f16
    %1074 = "mix.prim.add"(%1072, %1073) : (tensor<1x40x1xf16>, f16) -> tensor<1x40x1xf16>
    %1075 = "mix.prim.rsqrt"(%1074) : (tensor<1x40x1xf16>) -> tensor<1x40x1xf16>
    %1076 = "mix.prim.mul"(%1068, %1075) : (tensor<1x40x5120xf16>, tensor<1x40x1xf16>) -> tensor<1x40x5120xf16>
    %1077 = "mix.prim.mul"(%1069, %1076) : (tensor<5120xf16>, tensor<1x40x5120xf16>) -> tensor<1x40x5120xf16>
    %1078 = "mix.comp.weight"() <{param_loc = "transformer.h.8.self_attention.query.weight"}> : () -> tensor<5120x5120xf16>
    %1079 = "mix.comp.weight"() <{param_loc = "transformer.h.8.self_attention.key_value.weight"}> : () -> tensor<10240x5120xf16>
    %1080 = "mix.comp.weight"() <{param_loc = "transformer.h.8.self_attention.dense.weight"}> : () -> tensor<5120x5120xf16>
    %1081 = "mix.comp.weight"() <{param_loc = "transformer.h.8.self_attention.dense.bias"}> : () -> tensor<5120xf16>
    %1082 = "mix.prim.transpose"(%1077) <{dim1 = 0 : i32, dim2 = 1 : i32}> : (tensor<1x40x5120xf16>) -> tensor<40x1x5120xf16>
    %1083 = "mix.prim.transpose"(%1078) <{dim1 = 0 : i32, dim2 = 1 : i32}> : (tensor<5120x5120xf16>) -> tensor<5120x5120xf16>
    %1084 = "mix.prim.reshape"(%1082) <{shape = [40, 5120]}> : (tensor<40x1x5120xf16>) -> tensor<40x5120xf16>
    %1085 = "mix.prim.matmul"(%1084, %1083) : (tensor<40x5120xf16>, tensor<5120x5120xf16>) -> tensor<40x5120xf16>
    %1086 = "mix.prim.reshape"(%1085) <{shape = [40, 1, 5120]}> : (tensor<40x5120xf16>) -> tensor<40x1x5120xf16>
    %1087 = "mix.prim.reshape"(%1086) <{shape = [40, 1, 32, 160]}> : (tensor<40x1x5120xf16>) -> tensor<40x1x32x160xf16>
    %1088 = "mix.prim.transpose"(%1079) <{dim1 = 0 : i32, dim2 = 1 : i32}> : (tensor<10240x5120xf16>) -> tensor<5120x10240xf16>
    %1089 = "mix.prim.reshape"(%1082) <{shape = [40, 5120]}> : (tensor<40x1x5120xf16>) -> tensor<40x5120xf16>
    %1090 = "mix.prim.matmul"(%1089, %1088) : (tensor<40x5120xf16>, tensor<5120x10240xf16>) -> tensor<40x10240xf16>
    %1091 = "mix.prim.reshape"(%1090) <{shape = [40, 1, 10240]}> : (tensor<40x10240xf16>) -> tensor<40x1x10240xf16>
    %1092 = "mix.prim.reshape"(%1091) <{shape = [40, 1, 32, 320]}> : (tensor<40x1x10240xf16>) -> tensor<40x1x32x320xf16>
    %1093 = "mix.prim.slice"(%1092) <{dim = 3 : i64, end = 160 : i64, start = 0 : i64, step = 1 : i64}> : (tensor<40x1x32x320xf16>) -> tensor<40x1x32x160xf16>
    %1094 = "mix.prim.slice"(%1092) <{dim = 3 : i64, end = 320 : i64, start = 160 : i64, step = 1 : i64}> : (tensor<40x1x32x320xf16>) -> tensor<40x1x32x160xf16>
    %1095 = "mix.prim.reshape"(%1087) <{shape = [40, 32, -1]}> : (tensor<40x1x32x160xf16>) -> tensor<40x32x160xf16>
    %1096 = "mix.prim.reshape"(%1093) <{shape = [40, 32, -1]}> : (tensor<40x1x32x160xf16>) -> tensor<40x32x160xf16>
    %1097 = "mix.prim.constant"() <{value = dense<[0, 1, 2, 3, 4, 5, 6, 7, 8, 9, 10, 11, 12, 13, 14, 15, 16, 17, 18, 19, 20, 21, 22, 23, 24, 25, 26, 27, 28, 29, 30, 31, 32, 33, 34, 35, 36, 37, 38, 39, 40, 41, 42, 43, 44, 45, 46, 47, 48, 49, 50, 51, 52, 53, 54, 55, 56, 57, 58, 59, 60, 61, 62, 63, 64, 65, 66, 67, 68, 69, 70, 71, 72, 73, 74, 75, 76, 77, 78, 79]> : tensor<80xi32>}> : () -> tensor<80xi32>
    %1098 = "mix.prim.convert"(%1097) <{element_ty = f16}> : (tensor<80xi32>) -> tensor<80xf16>
    %1099 = "mix.prim.constant"() <{value = 160 : i32}> : () -> i32
    %1100 = "mix.prim.div"(%1098, %1099) : (tensor<80xf16>, i32) -> tensor<80xf16>
    %1101 = "mix.prim.constant"() <{value = 3.041600e+04 : f16}> : () -> f16
    %1102 = "mix.prim.pow"(%1101, %1100) : (f16, tensor<80xf16>) -> tensor<80xf16>
    %1103 = "mix.prim.reciprocal"(%1102) : (tensor<80xf16>) -> tensor<80xf16>
    %1104 = "mix.prim.constant"() <{value = 1.000000e+00 : f16}> : () -> f16
    %1105 = "mix.prim.mul"(%1104, %1103) : (f16, tensor<80xf16>) -> tensor<80xf16>
    %1106 = "mix.prim.constant"() <{value = dense<1.000000e+00> : tensor<40xf16>}> : () -> tensor<40xf16>
    %1107 = "mix.prim.unsqueeze"(%1106) <{axis = 1 : i32}> : (tensor<40xf16>) -> tensor<40x1xf16>
    %1108 = "mix.prim.permute"(%1107) <{dims = [0, 1]}> : (tensor<40x1xf16>) -> tensor<40x1xf16>
    %1109 = "mix.prim.unsqueeze"(%1105) <{axis = 1 : i32}> : (tensor<80xf16>) -> tensor<80x1xf16>
    %1110 = "mix.prim.permute"(%1109) <{dims = [1, 0]}> : (tensor<80x1xf16>) -> tensor<1x80xf16>
    %1111 = "mix.prim.mul"(%1108, %1110) : (tensor<40x1xf16>, tensor<1x80xf16>) -> tensor<40x80xf16>
    %1112 = "mix.prim.concat"(%1111, %1111) <{axis = 1 : i64}> : (tensor<40x80xf16>, tensor<40x80xf16>) -> tensor<40x160xf16>
    %1113 = "mix.prim.cos"(%1112) : (tensor<40x160xf16>) -> tensor<40x160xf16>
    %1114 = "mix.prim.slice"(%1113) <{dim = 0 : i64, end = 2147483647 : i64, start = 0 : i64, step = 1 : i64}> : (tensor<40x160xf16>) -> tensor<40x160xf16>
    %1115 = "mix.prim.unsqueeze"(%1114) <{axis = 1 : i32}> : (tensor<40x160xf16>) -> tensor<40x1x160xf16>
    %1116 = "mix.prim.slice"(%1115) <{dim = 2 : i64, end = 2147483647 : i64, start = 0 : i64, step = 1 : i64}> : (tensor<40x1x160xf16>) -> tensor<40x1x160xf16>
    %1117 = "mix.prim.constant"() <{value = 1.000000e+00 : f16}> : () -> f16
    %1118 = "mix.prim.mul"(%1116, %1117) : (tensor<40x1x160xf16>, f16) -> tensor<40x1x160xf16>
    %1119 = "mix.prim.sin"(%1112) : (tensor<40x160xf16>) -> tensor<40x160xf16>
    %1120 = "mix.prim.slice"(%1119) <{dim = 0 : i64, end = 2147483647 : i64, start = 0 : i64, step = 1 : i64}> : (tensor<40x160xf16>) -> tensor<40x160xf16>
    %1121 = "mix.prim.unsqueeze"(%1120) <{axis = 1 : i32}> : (tensor<40x160xf16>) -> tensor<40x1x160xf16>
    %1122 = "mix.prim.slice"(%1121) <{dim = 2 : i64, end = 2147483647 : i64, start = 0 : i64, step = 1 : i64}> : (tensor<40x1x160xf16>) -> tensor<40x1x160xf16>
    %1123 = "mix.prim.constant"() <{value = 1.000000e+00 : f16}> : () -> f16
    %1124 = "mix.prim.mul"(%1122, %1123) : (tensor<40x1x160xf16>, f16) -> tensor<40x1x160xf16>
    %1125 = "mix.prim.slice"(%1118) <{dim = 0 : i64, end = 40 : i64, start = 0 : i64, step = 1 : i64}> : (tensor<40x1x160xf16>) -> tensor<40x1x160xf16>
    %1126 = "mix.prim.slice"(%1124) <{dim = 0 : i64, end = 40 : i64, start = 0 : i64, step = 1 : i64}> : (tensor<40x1x160xf16>) -> tensor<40x1x160xf16>
    %1127 = "mix.prim.mul"(%1095, %1125) : (tensor<40x32x160xf16>, tensor<40x1x160xf16>) -> tensor<40x32x160xf16>
    %1128 = "mix.prim.slice"(%1095) <{dim = 2 : i64, end = 80 : i64, start = 0 : i64, step = 1 : i64}> : (tensor<40x32x160xf16>) -> tensor<40x32x80xf16>
    %1129 = "mix.prim.slice"(%1095) <{dim = 2 : i64, end = 2147483647 : i64, start = 80 : i64, step = 1 : i64}> : (tensor<40x32x160xf16>) -> tensor<40x32x80xf16>
    %1130 = "mix.prim.neg"(%1129) : (tensor<40x32x80xf16>) -> tensor<40x32x80xf16>
    %1131 = "mix.prim.concat"(%1130, %1128) <{axis = 2 : i64}> : (tensor<40x32x80xf16>, tensor<40x32x80xf16>) -> tensor<40x32x160xf16>
    %1132 = "mix.prim.mul"(%1131, %1126) : (tensor<40x32x160xf16>, tensor<40x1x160xf16>) -> tensor<40x32x160xf16>
    %1133 = "mix.prim.add"(%1127, %1132) : (tensor<40x32x160xf16>, tensor<40x32x160xf16>) -> tensor<40x32x160xf16>
    %1134 = "mix.prim.mul"(%1096, %1125) : (tensor<40x32x160xf16>, tensor<40x1x160xf16>) -> tensor<40x32x160xf16>
    %1135 = "mix.prim.slice"(%1096) <{dim = 2 : i64, end = 80 : i64, start = 0 : i64, step = 1 : i64}> : (tensor<40x32x160xf16>) -> tensor<40x32x80xf16>
    %1136 = "mix.prim.slice"(%1096) <{dim = 2 : i64, end = 2147483647 : i64, start = 80 : i64, step = 1 : i64}> : (tensor<40x32x160xf16>) -> tensor<40x32x80xf16>
    %1137 = "mix.prim.neg"(%1136) : (tensor<40x32x80xf16>) -> tensor<40x32x80xf16>
    %1138 = "mix.prim.concat"(%1137, %1135) <{axis = 2 : i64}> : (tensor<40x32x80xf16>, tensor<40x32x80xf16>) -> tensor<40x32x160xf16>
    %1139 = "mix.prim.mul"(%1138, %1126) : (tensor<40x32x160xf16>, tensor<40x1x160xf16>) -> tensor<40x32x160xf16>
    %1140 = "mix.prim.add"(%1134, %1139) : (tensor<40x32x160xf16>, tensor<40x32x160xf16>) -> tensor<40x32x160xf16>
    %1141 = "mix.prim.reshape"(%1133) <{shape = [40, 1, 32, 160]}> : (tensor<40x32x160xf16>) -> tensor<40x1x32x160xf16>
    %1142 = "mix.prim.reshape"(%1140) <{shape = [40, 1, 32, 160]}> : (tensor<40x32x160xf16>) -> tensor<40x1x32x160xf16>
    %1143 = "mix.prim.reshape"(%1141) <{shape = [40, 32, 160]}> : (tensor<40x1x32x160xf16>) -> tensor<40x32x160xf16>
    %1144 = "mix.prim.reshape"(%1142) <{shape = [40, 32, 160]}> : (tensor<40x1x32x160xf16>) -> tensor<40x32x160xf16>
    %1145 = "mix.prim.transpose"(%1143) <{dim1 = 0 : i32, dim2 = 1 : i32}> : (tensor<40x32x160xf16>) -> tensor<32x40x160xf16>
    %1146 = "mix.prim.transpose"(%1144) <{dim1 = 0 : i32, dim2 = 1 : i32}> : (tensor<40x32x160xf16>) -> tensor<32x40x160xf16>
    %1147 = "mix.prim.transpose"(%1146) <{dim1 = 1 : i32, dim2 = 2 : i32}> : (tensor<32x40x160xf16>) -> tensor<32x160x40xf16>
    %1148 = "mix.prim.unsqueeze"(%1145) <{axis = 3 : i32}> : (tensor<32x40x160xf16>) -> tensor<32x40x160x1xf16>
    %1149 = "mix.prim.permute"(%1148) <{dims = [0, 1, 3, 2]}> : (tensor<32x40x160x1xf16>) -> tensor<32x40x1x160xf16>
    %1150 = "mix.prim.unsqueeze"(%1147) <{axis = 3 : i32}> : (tensor<32x160x40xf16>) -> tensor<32x160x40x1xf16>
    %1151 = "mix.prim.permute"(%1150) <{dims = [0, 3, 2, 1]}> : (tensor<32x160x40x1xf16>) -> tensor<32x1x40x160xf16>
    %1152 = "mix.prim.permute"(%1149) <{dims = [0, 1, 3, 2]}> : (tensor<32x40x1x160xf16>) -> tensor<32x40x160x1xf16>
    %1153 = "mix.prim.reshape"(%1152) <{shape = [32, 40, 160]}> : (tensor<32x40x160x1xf16>) -> tensor<32x40x160xf16>
    %1154 = "mix.prim.permute"(%1151) <{dims = [0, 3, 2, 1]}> : (tensor<32x1x40x160xf16>) -> tensor<32x160x40x1xf16>
    %1155 = "mix.prim.reshape"(%1154) <{shape = [32, 160, 40]}> : (tensor<32x160x40x1xf16>) -> tensor<32x160x40xf16>
    %1156 = "mix.prim.batch_matmul"(%1153, %1155) : (tensor<32x40x160xf16>, tensor<32x160x40xf16>) -> tensor<32x40x40xf16>
    %1157 = "mix.prim.reshape"(%1156) <{shape = [32, 40, 1, 40]}> : (tensor<32x40x40xf16>) -> tensor<32x40x1x40xf16>
    %1158 = "mix.prim.permute"(%1157) <{dims = [0, 1, 3, 2]}> : (tensor<32x40x1x40xf16>) -> tensor<32x40x40x1xf16>
    %1159 = "mix.prim.reshape"(%1158) <{shape = [32, 40, 40]}> : (tensor<32x40x40x1xf16>) -> tensor<32x40x40xf16>
    %1160 = "mix.prim.constant"() <{value = 7.904050e-02 : f16}> : () -> f16
    %1161 = "mix.prim.mul"(%1159, %1160) : (tensor<32x40x40xf16>, f16) -> tensor<32x40x40xf16>
    %1162 = "mix.prim.reshape"(%1161) <{shape = [1, 32, 40, 40]}> : (tensor<32x40x40xf16>) -> tensor<1x32x40x40xf16>
    %1163 = "mix.prim.constant"() <{value = 0xFC00 : f16}> : () -> f16
    %1164 = "mix.comp.masked_fill"(%1162, %4, %1163) : (tensor<1x32x40x40xf16>, tensor<1x1x40x40xi1>, f16) -> tensor<1x32x40x40xf16>
    %1165 = "mix.comp.softmax"(%1164) <{axis = -1 : si32}> : (tensor<1x32x40x40xf16>) -> tensor<1x32x40x40xf16>
    %1166 = "mix.prim.reshape"(%1165) <{shape = [32, 40, 40]}> : (tensor<1x32x40x40xf16>) -> tensor<32x40x40xf16>
    %1167 = "mix.prim.reshape"(%1094) <{shape = [40, 32, 160]}> : (tensor<40x1x32x160xf16>) -> tensor<40x32x160xf16>
    %1168 = "mix.prim.transpose"(%1167) <{dim1 = 0 : i32, dim2 = 1 : i32}> : (tensor<40x32x160xf16>) -> tensor<32x40x160xf16>
    %1169 = "mix.prim.batch_matmul"(%1166, %1168) : (tensor<32x40x40xf16>, tensor<32x40x160xf16>) -> tensor<32x40x160xf16>
    %1170 = "mix.prim.reshape"(%1169) <{shape = [1, 32, 40, 160]}> : (tensor<32x40x160xf16>) -> tensor<1x32x40x160xf16>
    %1171 = "mix.prim.permute"(%1170) <{dims = [0, 2, 1, 3]}> : (tensor<1x32x40x160xf16>) -> tensor<1x40x32x160xf16>
    %1172 = "mix.prim.reshape"(%1171) <{shape = [1, 40, 5120]}> : (tensor<1x40x32x160xf16>) -> tensor<1x40x5120xf16>
    %1173 = "mix.prim.reshape"(%1172) <{shape = [40, 5120]}> : (tensor<1x40x5120xf16>) -> tensor<40x5120xf16>
    %1174 = "mix.prim.transpose"(%1080) <{dim1 = 0 : i32, dim2 = 1 : i32}> : (tensor<5120x5120xf16>) -> tensor<5120x5120xf16>
    %1175 = "mix.prim.matmul"(%1173, %1174) : (tensor<40x5120xf16>, tensor<5120x5120xf16>) -> tensor<40x5120xf16>
    %1176 = "mix.prim.add"(%1175, %1081) : (tensor<40x5120xf16>, tensor<5120xf16>) -> tensor<40x5120xf16>
    %1177 = "mix.prim.reshape"(%1176) <{shape = [1, 40, 5120]}> : (tensor<40x5120xf16>) -> tensor<1x40x5120xf16>
    %1178 = "mix.prim.mul"(%1068, %1177) : (tensor<1x40x5120xf16>, tensor<1x40x5120xf16>) -> tensor<1x40x5120xf16>
    %1179 = "mix.comp.weight"() <{param_loc = "transformer.h.8.post_attention_layernorm.weight"}> : () -> tensor<5120xf16>
    %1180 = "mix.prim.constant"() <{value = dense<1.000000e+00> : tensor<1xf16>}> : () -> tensor<1xf16>
    %1181 = "mix.prim.pow"(%1178, %1180) : (tensor<1x40x5120xf16>, tensor<1xf16>) -> tensor<1x40x5120xf16>
    %1182 = "mix.comp.mean"(%1181) <{dims = [2 : i32], keepDim = true}> : (tensor<1x40x5120xf16>) -> tensor<1x40x1xf16>
    %1183 = "mix.prim.constant"() <{value = 1.013280e-06 : f16}> : () -> f16
    %1184 = "mix.prim.add"(%1182, %1183) : (tensor<1x40x1xf16>, f16) -> tensor<1x40x1xf16>
    %1185 = "mix.prim.rsqrt"(%1184) : (tensor<1x40x1xf16>) -> tensor<1x40x1xf16>
    %1186 = "mix.prim.mul"(%1178, %1185) : (tensor<1x40x5120xf16>, tensor<1x40x1xf16>) -> tensor<1x40x5120xf16>
    %1187 = "mix.prim.mul"(%1179, %1186) : (tensor<5120xf16>, tensor<1x40x5120xf16>) -> tensor<1x40x5120xf16>
    %1188 = "mix.comp.weight"() <{param_loc = "transformer.h.8.mlp.gate_proj.weight"}> : () -> tensor<5120x12288xf16>
    %1189 = "mix.prim.reshape"(%1188) <{shape = [1, 5120, 12288]}> : (tensor<5120x12288xf16>) -> tensor<1x5120x12288xf16>
    %1190 = "mix.prim.batch_matmul"(%1187, %1189) : (tensor<1x40x5120xf16>, tensor<1x5120x12288xf16>) -> tensor<1x40x12288xf16>
    %1191 = "mix.comp.silu"(%1190) : (tensor<1x40x12288xf16>) -> tensor<1x40x12288xf16>
    %1192 = "mix.comp.weight"() <{param_loc = "transformer.h.8.mlp.up_proj.weight"}> : () -> tensor<5120x12288xf16>
    %1193 = "mix.prim.reshape"(%1192) <{shape = [1, 5120, 12288]}> : (tensor<5120x12288xf16>) -> tensor<1x5120x12288xf16>
    %1194 = "mix.prim.batch_matmul"(%1187, %1193) : (tensor<1x40x5120xf16>, tensor<1x5120x12288xf16>) -> tensor<1x40x12288xf16>
    %1195 = "mix.prim.mul"(%1191, %1194) : (tensor<1x40x12288xf16>, tensor<1x40x12288xf16>) -> tensor<1x40x12288xf16>
    %1196 = "mix.comp.weight"() <{param_loc = "transformer.h.8.mlp.down_proj.weight"}> : () -> tensor<12288x5120xf16>
    %1197 = "mix.prim.reshape"(%1196) <{shape = [1, 12288, 5120]}> : (tensor<12288x5120xf16>) -> tensor<1x12288x5120xf16>
    %1198 = "mix.prim.batch_matmul"(%1195, %1197) : (tensor<1x40x12288xf16>, tensor<1x12288x5120xf16>) -> tensor<1x40x5120xf16>
    %1199 = "mix.comp.weight"() <{param_loc = "transformer.h.8.mlp.down_proj.bias"}> : () -> tensor<5120xf16>
    %1200 = "mix.prim.add"(%1198, %1199) : (tensor<1x40x5120xf16>, tensor<5120xf16>) -> tensor<1x40x5120xf16>
    %1201 = "mix.prim.add"(%1200, %1178) : (tensor<1x40x5120xf16>, tensor<1x40x5120xf16>) -> tensor<1x40x5120xf16>
    %1202 = "mix.comp.weight"() <{param_loc = "transformer.h.9.input_layernorm.weight"}> : () -> tensor<5120xf16>
    %1203 = "mix.prim.constant"() <{value = dense<1.000000e+00> : tensor<1xf16>}> : () -> tensor<1xf16>
    %1204 = "mix.prim.pow"(%1201, %1203) : (tensor<1x40x5120xf16>, tensor<1xf16>) -> tensor<1x40x5120xf16>
    %1205 = "mix.comp.mean"(%1204) <{dims = [2 : i32], keepDim = true}> : (tensor<1x40x5120xf16>) -> tensor<1x40x1xf16>
    %1206 = "mix.prim.constant"() <{value = 1.013280e-06 : f16}> : () -> f16
    %1207 = "mix.prim.add"(%1205, %1206) : (tensor<1x40x1xf16>, f16) -> tensor<1x40x1xf16>
    %1208 = "mix.prim.rsqrt"(%1207) : (tensor<1x40x1xf16>) -> tensor<1x40x1xf16>
    %1209 = "mix.prim.mul"(%1201, %1208) : (tensor<1x40x5120xf16>, tensor<1x40x1xf16>) -> tensor<1x40x5120xf16>
    %1210 = "mix.prim.mul"(%1202, %1209) : (tensor<5120xf16>, tensor<1x40x5120xf16>) -> tensor<1x40x5120xf16>
    %1211 = "mix.comp.weight"() <{param_loc = "transformer.h.9.self_attention.query.weight"}> : () -> tensor<5120x5120xf16>
    %1212 = "mix.comp.weight"() <{param_loc = "transformer.h.9.self_attention.key_value.weight"}> : () -> tensor<10240x5120xf16>
    %1213 = "mix.comp.weight"() <{param_loc = "transformer.h.9.self_attention.dense.weight"}> : () -> tensor<5120x5120xf16>
    %1214 = "mix.comp.weight"() <{param_loc = "transformer.h.9.self_attention.dense.bias"}> : () -> tensor<5120xf16>
    %1215 = "mix.prim.transpose"(%1210) <{dim1 = 0 : i32, dim2 = 1 : i32}> : (tensor<1x40x5120xf16>) -> tensor<40x1x5120xf16>
    %1216 = "mix.prim.transpose"(%1211) <{dim1 = 0 : i32, dim2 = 1 : i32}> : (tensor<5120x5120xf16>) -> tensor<5120x5120xf16>
    %1217 = "mix.prim.reshape"(%1215) <{shape = [40, 5120]}> : (tensor<40x1x5120xf16>) -> tensor<40x5120xf16>
    %1218 = "mix.prim.matmul"(%1217, %1216) : (tensor<40x5120xf16>, tensor<5120x5120xf16>) -> tensor<40x5120xf16>
    %1219 = "mix.prim.reshape"(%1218) <{shape = [40, 1, 5120]}> : (tensor<40x5120xf16>) -> tensor<40x1x5120xf16>
    %1220 = "mix.prim.reshape"(%1219) <{shape = [40, 1, 32, 160]}> : (tensor<40x1x5120xf16>) -> tensor<40x1x32x160xf16>
    %1221 = "mix.prim.transpose"(%1212) <{dim1 = 0 : i32, dim2 = 1 : i32}> : (tensor<10240x5120xf16>) -> tensor<5120x10240xf16>
    %1222 = "mix.prim.reshape"(%1215) <{shape = [40, 5120]}> : (tensor<40x1x5120xf16>) -> tensor<40x5120xf16>
    %1223 = "mix.prim.matmul"(%1222, %1221) : (tensor<40x5120xf16>, tensor<5120x10240xf16>) -> tensor<40x10240xf16>
    %1224 = "mix.prim.reshape"(%1223) <{shape = [40, 1, 10240]}> : (tensor<40x10240xf16>) -> tensor<40x1x10240xf16>
    %1225 = "mix.prim.reshape"(%1224) <{shape = [40, 1, 32, 320]}> : (tensor<40x1x10240xf16>) -> tensor<40x1x32x320xf16>
    %1226 = "mix.prim.slice"(%1225) <{dim = 3 : i64, end = 160 : i64, start = 0 : i64, step = 1 : i64}> : (tensor<40x1x32x320xf16>) -> tensor<40x1x32x160xf16>
    %1227 = "mix.prim.slice"(%1225) <{dim = 3 : i64, end = 320 : i64, start = 160 : i64, step = 1 : i64}> : (tensor<40x1x32x320xf16>) -> tensor<40x1x32x160xf16>
    %1228 = "mix.prim.reshape"(%1220) <{shape = [40, 32, -1]}> : (tensor<40x1x32x160xf16>) -> tensor<40x32x160xf16>
    %1229 = "mix.prim.reshape"(%1226) <{shape = [40, 32, -1]}> : (tensor<40x1x32x160xf16>) -> tensor<40x32x160xf16>
    %1230 = "mix.prim.constant"() <{value = dense<[0, 1, 2, 3, 4, 5, 6, 7, 8, 9, 10, 11, 12, 13, 14, 15, 16, 17, 18, 19, 20, 21, 22, 23, 24, 25, 26, 27, 28, 29, 30, 31, 32, 33, 34, 35, 36, 37, 38, 39, 40, 41, 42, 43, 44, 45, 46, 47, 48, 49, 50, 51, 52, 53, 54, 55, 56, 57, 58, 59, 60, 61, 62, 63, 64, 65, 66, 67, 68, 69, 70, 71, 72, 73, 74, 75, 76, 77, 78, 79]> : tensor<80xi32>}> : () -> tensor<80xi32>
    %1231 = "mix.prim.convert"(%1230) <{element_ty = f16}> : (tensor<80xi32>) -> tensor<80xf16>
    %1232 = "mix.prim.constant"() <{value = 160 : i32}> : () -> i32
    %1233 = "mix.prim.div"(%1231, %1232) : (tensor<80xf16>, i32) -> tensor<80xf16>
    %1234 = "mix.prim.constant"() <{value = 3.041600e+04 : f16}> : () -> f16
    %1235 = "mix.prim.pow"(%1234, %1233) : (f16, tensor<80xf16>) -> tensor<80xf16>
    %1236 = "mix.prim.reciprocal"(%1235) : (tensor<80xf16>) -> tensor<80xf16>
    %1237 = "mix.prim.constant"() <{value = 1.000000e+00 : f16}> : () -> f16
    %1238 = "mix.prim.mul"(%1237, %1236) : (f16, tensor<80xf16>) -> tensor<80xf16>
    %1239 = "mix.prim.constant"() <{value = dense<1.000000e+00> : tensor<40xf16>}> : () -> tensor<40xf16>
    %1240 = "mix.prim.unsqueeze"(%1239) <{axis = 1 : i32}> : (tensor<40xf16>) -> tensor<40x1xf16>
    %1241 = "mix.prim.permute"(%1240) <{dims = [0, 1]}> : (tensor<40x1xf16>) -> tensor<40x1xf16>
    %1242 = "mix.prim.unsqueeze"(%1238) <{axis = 1 : i32}> : (tensor<80xf16>) -> tensor<80x1xf16>
    %1243 = "mix.prim.permute"(%1242) <{dims = [1, 0]}> : (tensor<80x1xf16>) -> tensor<1x80xf16>
    %1244 = "mix.prim.mul"(%1241, %1243) : (tensor<40x1xf16>, tensor<1x80xf16>) -> tensor<40x80xf16>
    %1245 = "mix.prim.concat"(%1244, %1244) <{axis = 1 : i64}> : (tensor<40x80xf16>, tensor<40x80xf16>) -> tensor<40x160xf16>
    %1246 = "mix.prim.cos"(%1245) : (tensor<40x160xf16>) -> tensor<40x160xf16>
    %1247 = "mix.prim.slice"(%1246) <{dim = 0 : i64, end = 2147483647 : i64, start = 0 : i64, step = 1 : i64}> : (tensor<40x160xf16>) -> tensor<40x160xf16>
    %1248 = "mix.prim.unsqueeze"(%1247) <{axis = 1 : i32}> : (tensor<40x160xf16>) -> tensor<40x1x160xf16>
    %1249 = "mix.prim.slice"(%1248) <{dim = 2 : i64, end = 2147483647 : i64, start = 0 : i64, step = 1 : i64}> : (tensor<40x1x160xf16>) -> tensor<40x1x160xf16>
    %1250 = "mix.prim.constant"() <{value = 1.000000e+00 : f16}> : () -> f16
    %1251 = "mix.prim.mul"(%1249, %1250) : (tensor<40x1x160xf16>, f16) -> tensor<40x1x160xf16>
    %1252 = "mix.prim.sin"(%1245) : (tensor<40x160xf16>) -> tensor<40x160xf16>
    %1253 = "mix.prim.slice"(%1252) <{dim = 0 : i64, end = 2147483647 : i64, start = 0 : i64, step = 1 : i64}> : (tensor<40x160xf16>) -> tensor<40x160xf16>
    %1254 = "mix.prim.unsqueeze"(%1253) <{axis = 1 : i32}> : (tensor<40x160xf16>) -> tensor<40x1x160xf16>
    %1255 = "mix.prim.slice"(%1254) <{dim = 2 : i64, end = 2147483647 : i64, start = 0 : i64, step = 1 : i64}> : (tensor<40x1x160xf16>) -> tensor<40x1x160xf16>
    %1256 = "mix.prim.constant"() <{value = 1.000000e+00 : f16}> : () -> f16
    %1257 = "mix.prim.mul"(%1255, %1256) : (tensor<40x1x160xf16>, f16) -> tensor<40x1x160xf16>
    %1258 = "mix.prim.slice"(%1251) <{dim = 0 : i64, end = 40 : i64, start = 0 : i64, step = 1 : i64}> : (tensor<40x1x160xf16>) -> tensor<40x1x160xf16>
    %1259 = "mix.prim.slice"(%1257) <{dim = 0 : i64, end = 40 : i64, start = 0 : i64, step = 1 : i64}> : (tensor<40x1x160xf16>) -> tensor<40x1x160xf16>
    %1260 = "mix.prim.mul"(%1228, %1258) : (tensor<40x32x160xf16>, tensor<40x1x160xf16>) -> tensor<40x32x160xf16>
    %1261 = "mix.prim.slice"(%1228) <{dim = 2 : i64, end = 80 : i64, start = 0 : i64, step = 1 : i64}> : (tensor<40x32x160xf16>) -> tensor<40x32x80xf16>
    %1262 = "mix.prim.slice"(%1228) <{dim = 2 : i64, end = 2147483647 : i64, start = 80 : i64, step = 1 : i64}> : (tensor<40x32x160xf16>) -> tensor<40x32x80xf16>
    %1263 = "mix.prim.neg"(%1262) : (tensor<40x32x80xf16>) -> tensor<40x32x80xf16>
    %1264 = "mix.prim.concat"(%1263, %1261) <{axis = 2 : i64}> : (tensor<40x32x80xf16>, tensor<40x32x80xf16>) -> tensor<40x32x160xf16>
    %1265 = "mix.prim.mul"(%1264, %1259) : (tensor<40x32x160xf16>, tensor<40x1x160xf16>) -> tensor<40x32x160xf16>
    %1266 = "mix.prim.add"(%1260, %1265) : (tensor<40x32x160xf16>, tensor<40x32x160xf16>) -> tensor<40x32x160xf16>
    %1267 = "mix.prim.mul"(%1229, %1258) : (tensor<40x32x160xf16>, tensor<40x1x160xf16>) -> tensor<40x32x160xf16>
    %1268 = "mix.prim.slice"(%1229) <{dim = 2 : i64, end = 80 : i64, start = 0 : i64, step = 1 : i64}> : (tensor<40x32x160xf16>) -> tensor<40x32x80xf16>
    %1269 = "mix.prim.slice"(%1229) <{dim = 2 : i64, end = 2147483647 : i64, start = 80 : i64, step = 1 : i64}> : (tensor<40x32x160xf16>) -> tensor<40x32x80xf16>
    %1270 = "mix.prim.neg"(%1269) : (tensor<40x32x80xf16>) -> tensor<40x32x80xf16>
    %1271 = "mix.prim.concat"(%1270, %1268) <{axis = 2 : i64}> : (tensor<40x32x80xf16>, tensor<40x32x80xf16>) -> tensor<40x32x160xf16>
    %1272 = "mix.prim.mul"(%1271, %1259) : (tensor<40x32x160xf16>, tensor<40x1x160xf16>) -> tensor<40x32x160xf16>
    %1273 = "mix.prim.add"(%1267, %1272) : (tensor<40x32x160xf16>, tensor<40x32x160xf16>) -> tensor<40x32x160xf16>
    %1274 = "mix.prim.reshape"(%1266) <{shape = [40, 1, 32, 160]}> : (tensor<40x32x160xf16>) -> tensor<40x1x32x160xf16>
    %1275 = "mix.prim.reshape"(%1273) <{shape = [40, 1, 32, 160]}> : (tensor<40x32x160xf16>) -> tensor<40x1x32x160xf16>
    %1276 = "mix.prim.reshape"(%1274) <{shape = [40, 32, 160]}> : (tensor<40x1x32x160xf16>) -> tensor<40x32x160xf16>
    %1277 = "mix.prim.reshape"(%1275) <{shape = [40, 32, 160]}> : (tensor<40x1x32x160xf16>) -> tensor<40x32x160xf16>
    %1278 = "mix.prim.transpose"(%1276) <{dim1 = 0 : i32, dim2 = 1 : i32}> : (tensor<40x32x160xf16>) -> tensor<32x40x160xf16>
    %1279 = "mix.prim.transpose"(%1277) <{dim1 = 0 : i32, dim2 = 1 : i32}> : (tensor<40x32x160xf16>) -> tensor<32x40x160xf16>
    %1280 = "mix.prim.transpose"(%1279) <{dim1 = 1 : i32, dim2 = 2 : i32}> : (tensor<32x40x160xf16>) -> tensor<32x160x40xf16>
    %1281 = "mix.prim.unsqueeze"(%1278) <{axis = 3 : i32}> : (tensor<32x40x160xf16>) -> tensor<32x40x160x1xf16>
    %1282 = "mix.prim.permute"(%1281) <{dims = [0, 1, 3, 2]}> : (tensor<32x40x160x1xf16>) -> tensor<32x40x1x160xf16>
    %1283 = "mix.prim.unsqueeze"(%1280) <{axis = 3 : i32}> : (tensor<32x160x40xf16>) -> tensor<32x160x40x1xf16>
    %1284 = "mix.prim.permute"(%1283) <{dims = [0, 3, 2, 1]}> : (tensor<32x160x40x1xf16>) -> tensor<32x1x40x160xf16>
    %1285 = "mix.prim.permute"(%1282) <{dims = [0, 1, 3, 2]}> : (tensor<32x40x1x160xf16>) -> tensor<32x40x160x1xf16>
    %1286 = "mix.prim.reshape"(%1285) <{shape = [32, 40, 160]}> : (tensor<32x40x160x1xf16>) -> tensor<32x40x160xf16>
    %1287 = "mix.prim.permute"(%1284) <{dims = [0, 3, 2, 1]}> : (tensor<32x1x40x160xf16>) -> tensor<32x160x40x1xf16>
    %1288 = "mix.prim.reshape"(%1287) <{shape = [32, 160, 40]}> : (tensor<32x160x40x1xf16>) -> tensor<32x160x40xf16>
    %1289 = "mix.prim.batch_matmul"(%1286, %1288) : (tensor<32x40x160xf16>, tensor<32x160x40xf16>) -> tensor<32x40x40xf16>
    %1290 = "mix.prim.reshape"(%1289) <{shape = [32, 40, 1, 40]}> : (tensor<32x40x40xf16>) -> tensor<32x40x1x40xf16>
    %1291 = "mix.prim.permute"(%1290) <{dims = [0, 1, 3, 2]}> : (tensor<32x40x1x40xf16>) -> tensor<32x40x40x1xf16>
    %1292 = "mix.prim.reshape"(%1291) <{shape = [32, 40, 40]}> : (tensor<32x40x40x1xf16>) -> tensor<32x40x40xf16>
    %1293 = "mix.prim.constant"() <{value = 7.904050e-02 : f16}> : () -> f16
    %1294 = "mix.prim.mul"(%1292, %1293) : (tensor<32x40x40xf16>, f16) -> tensor<32x40x40xf16>
    %1295 = "mix.prim.reshape"(%1294) <{shape = [1, 32, 40, 40]}> : (tensor<32x40x40xf16>) -> tensor<1x32x40x40xf16>
    %1296 = "mix.prim.constant"() <{value = 0xFC00 : f16}> : () -> f16
    %1297 = "mix.comp.masked_fill"(%1295, %4, %1296) : (tensor<1x32x40x40xf16>, tensor<1x1x40x40xi1>, f16) -> tensor<1x32x40x40xf16>
    %1298 = "mix.comp.softmax"(%1297) <{axis = -1 : si32}> : (tensor<1x32x40x40xf16>) -> tensor<1x32x40x40xf16>
    %1299 = "mix.prim.reshape"(%1298) <{shape = [32, 40, 40]}> : (tensor<1x32x40x40xf16>) -> tensor<32x40x40xf16>
    %1300 = "mix.prim.reshape"(%1227) <{shape = [40, 32, 160]}> : (tensor<40x1x32x160xf16>) -> tensor<40x32x160xf16>
    %1301 = "mix.prim.transpose"(%1300) <{dim1 = 0 : i32, dim2 = 1 : i32}> : (tensor<40x32x160xf16>) -> tensor<32x40x160xf16>
    %1302 = "mix.prim.batch_matmul"(%1299, %1301) : (tensor<32x40x40xf16>, tensor<32x40x160xf16>) -> tensor<32x40x160xf16>
    %1303 = "mix.prim.reshape"(%1302) <{shape = [1, 32, 40, 160]}> : (tensor<32x40x160xf16>) -> tensor<1x32x40x160xf16>
    %1304 = "mix.prim.permute"(%1303) <{dims = [0, 2, 1, 3]}> : (tensor<1x32x40x160xf16>) -> tensor<1x40x32x160xf16>
    %1305 = "mix.prim.reshape"(%1304) <{shape = [1, 40, 5120]}> : (tensor<1x40x32x160xf16>) -> tensor<1x40x5120xf16>
    %1306 = "mix.prim.reshape"(%1305) <{shape = [40, 5120]}> : (tensor<1x40x5120xf16>) -> tensor<40x5120xf16>
    %1307 = "mix.prim.transpose"(%1213) <{dim1 = 0 : i32, dim2 = 1 : i32}> : (tensor<5120x5120xf16>) -> tensor<5120x5120xf16>
    %1308 = "mix.prim.matmul"(%1306, %1307) : (tensor<40x5120xf16>, tensor<5120x5120xf16>) -> tensor<40x5120xf16>
    %1309 = "mix.prim.add"(%1308, %1214) : (tensor<40x5120xf16>, tensor<5120xf16>) -> tensor<40x5120xf16>
    %1310 = "mix.prim.reshape"(%1309) <{shape = [1, 40, 5120]}> : (tensor<40x5120xf16>) -> tensor<1x40x5120xf16>
    %1311 = "mix.prim.mul"(%1201, %1310) : (tensor<1x40x5120xf16>, tensor<1x40x5120xf16>) -> tensor<1x40x5120xf16>
    %1312 = "mix.comp.weight"() <{param_loc = "transformer.h.9.post_attention_layernorm.weight"}> : () -> tensor<5120xf16>
    %1313 = "mix.prim.constant"() <{value = dense<1.000000e+00> : tensor<1xf16>}> : () -> tensor<1xf16>
    %1314 = "mix.prim.pow"(%1311, %1313) : (tensor<1x40x5120xf16>, tensor<1xf16>) -> tensor<1x40x5120xf16>
    %1315 = "mix.comp.mean"(%1314) <{dims = [2 : i32], keepDim = true}> : (tensor<1x40x5120xf16>) -> tensor<1x40x1xf16>
…
    %4637 = "mix.comp.weight"() <{param_loc = "transformer.h.34.post_attention_layernorm.weight"}> : () -> tensor<5120xf16>
    %4638 = "mix.prim.constant"() <{value = dense<1.000000e+00> : tensor<1xf16>}> : () -> tensor<1xf16>
    %4639 = "mix.prim.pow"(%4636, %4638) : (tensor<1x40x5120xf16>, tensor<1xf16>) -> tensor<1x40x5120xf16>
    %4640 = "mix.comp.mean"(%4639) <{dims = [2 : i32], keepDim = true}> : (tensor<1x40x5120xf16>) -> tensor<1x40x1xf16>
    %4641 = "mix.prim.constant"() <{value = 1.013280e-06 : f16}> : () -> f16
    %4642 = "mix.prim.add"(%4640, %4641) : (tensor<1x40x1xf16>, f16) -> tensor<1x40x1xf16>
    %4643 = "mix.prim.rsqrt"(%4642) : (tensor<1x40x1xf16>) -> tensor<1x40x1xf16>
    %4644 = "mix.prim.mul"(%4636, %4643) : (tensor<1x40x5120xf16>, tensor<1x40x1xf16>) -> tensor<1x40x5120xf16>
    %4645 = "mix.prim.mul"(%4637, %4644) : (tensor<5120xf16>, tensor<1x40x5120xf16>) -> tensor<1x40x5120xf16>
    %4646 = "mix.comp.weight"() <{param_loc = "transformer.h.34.mlp.gate_proj.weight"}> : () -> tensor<5120x12288xf16>
    %4647 = "mix.prim.reshape"(%4646) <{shape = [1, 5120, 12288]}> : (tensor<5120x12288xf16>) -> tensor<1x5120x12288xf16>
    %4648 = "mix.prim.batch_matmul"(%4645, %4647) : (tensor<1x40x5120xf16>, tensor<1x5120x12288xf16>) -> tensor<1x40x12288xf16>
    %4649 = "mix.comp.silu"(%4648) : (tensor<1x40x12288xf16>) -> tensor<1x40x12288xf16>
    %4650 = "mix.comp.weight"() <{param_loc = "transformer.h.34.mlp.up_proj.weight"}> : () -> tensor<5120x12288xf16>
    %4651 = "mix.prim.reshape"(%4650) <{shape = [1, 5120, 12288]}> : (tensor<5120x12288xf16>) -> tensor<1x5120x12288xf16>
    %4652 = "mix.prim.batch_matmul"(%4645, %4651) : (tensor<1x40x5120xf16>, tensor<1x5120x12288xf16>) -> tensor<1x40x12288xf16>
    %4653 = "mix.prim.mul"(%4649, %4652) : (tensor<1x40x12288xf16>, tensor<1x40x12288xf16>) -> tensor<1x40x12288xf16>
    %4654 = "mix.comp.weight"() <{param_loc = "transformer.h.34.mlp.down_proj.weight"}> : () -> tensor<12288x5120xf16>
    %4655 = "mix.prim.reshape"(%4654) <{shape = [1, 12288, 5120]}> : (tensor<12288x5120xf16>) -> tensor<1x12288x5120xf16>
    %4656 = "mix.prim.batch_matmul"(%4653, %4655) : (tensor<1x40x12288xf16>, tensor<1x12288x5120xf16>) -> tensor<1x40x5120xf16>
    %4657 = "mix.comp.weight"() <{param_loc = "transformer.h.34.mlp.down_proj.bias"}> : () -> tensor<5120xf16>
    %4658 = "mix.prim.add"(%4656, %4657) : (tensor<1x40x5120xf16>, tensor<5120xf16>) -> tensor<1x40x5120xf16>
    %4659 = "mix.prim.add"(%4658, %4636) : (tensor<1x40x5120xf16>, tensor<1x40x5120xf16>) -> tensor<1x40x5120xf16>
    %4660 = "mix.comp.weight"() <{param_loc = "transformer.h.35.input_layernorm.weight"}> : () -> tensor<5120xf16>
    %4661 = "mix.prim.constant"() <{value = dense<1.000000e+00> : tensor<1xf16>}> : () -> tensor<1xf16>
    %4662 = "mix.prim.pow"(%4659, %4661) : (tensor<1x40x5120xf16>, tensor<1xf16>) -> tensor<1x40x5120xf16>
    %4663 = "mix.comp.mean"(%4662) <{dims = [2 : i32], keepDim = true}> : (tensor<1x40x5120xf16>) -> tensor<1x40x1xf16>
    %4664 = "mix.prim.constant"() <{value = 1.013280e-06 : f16}> : () -> f16
    %4665 = "mix.prim.add"(%4663, %4664) : (tensor<1x40x1xf16>, f16) -> tensor<1x40x1xf16>
    %4666 = "mix.prim.rsqrt"(%4665) : (tensor<1x40x1xf16>) -> tensor<1x40x1xf16>
    %4667 = "mix.prim.mul"(%4659, %4666) : (tensor<1x40x5120xf16>, tensor<1x40x1xf16>) -> tensor<1x40x5120xf16>
    %4668 = "mix.prim.mul"(%4660, %4667) : (tensor<5120xf16>, tensor<1x40x5120xf16>) -> tensor<1x40x5120xf16>
    %4669 = "mix.comp.weight"() <{param_loc = "transformer.h.35.self_attention.query.weight"}> : () -> tensor<5120x5120xf16>
    %4670 = "mix.comp.weight"() <{param_loc = "transformer.h.35.self_attention.key_value.weight"}> : () -> tensor<10240x5120xf16>
    %4671 = "mix.comp.weight"() <{param_loc = "transformer.h.35.self_attention.dense.weight"}> : () -> tensor<5120x5120xf16>
    %4672 = "mix.comp.weight"() <{param_loc = "transformer.h.35.self_attention.dense.bias"}> : () -> tensor<5120xf16>
    %4673 = "mix.prim.transpose"(%4668) <{dim1 = 0 : i32, dim2 = 1 : i32}> : (tensor<1x40x5120xf16>) -> tensor<40x1x5120xf16>
    %4674 = "mix.prim.transpose"(%4669) <{dim1 = 0 : i32, dim2 = 1 : i32}> : (tensor<5120x5120xf16>) -> tensor<5120x5120xf16>
    %4675 = "mix.prim.reshape"(%4673) <{shape = [40, 5120]}> : (tensor<40x1x5120xf16>) -> tensor<40x5120xf16>
    %4676 = "mix.prim.matmul"(%4675, %4674) : (tensor<40x5120xf16>, tensor<5120x5120xf16>) -> tensor<40x5120xf16>
    %4677 = "mix.prim.reshape"(%4676) <{shape = [40, 1, 5120]}> : (tensor<40x5120xf16>) -> tensor<40x1x5120xf16>
    %4678 = "mix.prim.reshape"(%4677) <{shape = [40, 1, 32, 160]}> : (tensor<40x1x5120xf16>) -> tensor<40x1x32x160xf16>
    %4679 = "mix.prim.transpose"(%4670) <{dim1 = 0 : i32, dim2 = 1 : i32}> : (tensor<10240x5120xf16>) -> tensor<5120x10240xf16>
    %4680 = "mix.prim.reshape"(%4673) <{shape = [40, 5120]}> : (tensor<40x1x5120xf16>) -> tensor<40x5120xf16>
    %4681 = "mix.prim.matmul"(%4680, %4679) : (tensor<40x5120xf16>, tensor<5120x10240xf16>) -> tensor<40x10240xf16>
    %4682 = "mix.prim.reshape"(%4681) <{shape = [40, 1, 10240]}> : (tensor<40x10240xf16>) -> tensor<40x1x10240xf16>
    %4683 = "mix.prim.reshape"(%4682) <{shape = [40, 1, 32, 320]}> : (tensor<40x1x10240xf16>) -> tensor<40x1x32x320xf16>
    %4684 = "mix.prim.slice"(%4683) <{dim = 3 : i64, end = 160 : i64, start = 0 : i64, step = 1 : i64}> : (tensor<40x1x32x320xf16>) -> tensor<40x1x32x160xf16>
    %4685 = "mix.prim.slice"(%4683) <{dim = 3 : i64, end = 320 : i64, start = 160 : i64, step = 1 : i64}> : (tensor<40x1x32x320xf16>) -> tensor<40x1x32x160xf16>
    %4686 = "mix.prim.reshape"(%4678) <{shape = [40, 32, -1]}> : (tensor<40x1x32x160xf16>) -> tensor<40x32x160xf16>
    %4687 = "mix.prim.reshape"(%4684) <{shape = [40, 32, -1]}> : (tensor<40x1x32x160xf16>) -> tensor<40x32x160xf16>
    %4688 = "mix.prim.constant"() <{value = dense<[0, 1, 2, 3, 4, 5, 6, 7, 8, 9, 10, 11, 12, 13, 14, 15, 16, 17, 18, 19, 20, 21, 22, 23, 24, 25, 26, 27, 28, 29, 30, 31, 32, 33, 34, 35, 36, 37, 38, 39, 40, 41, 42, 43, 44, 45, 46, 47, 48, 49, 50, 51, 52, 53, 54, 55, 56, 57, 58, 59, 60, 61, 62, 63, 64, 65, 66, 67, 68, 69, 70, 71, 72, 73, 74, 75, 76, 77, 78, 79]> : tensor<80xi32>}> : () -> tensor<80xi32>
    %4689 = "mix.prim.convert"(%4688) <{element_ty = f16}> : (tensor<80xi32>) -> tensor<80xf16>
    %4690 = "mix.prim.constant"() <{value = 160 : i32}> : () -> i32
    %4691 = "mix.prim.div"(%4689, %4690) : (tensor<80xf16>, i32) -> tensor<80xf16>
    %4692 = "mix.prim.constant"() <{value = 3.041600e+04 : f16}> : () -> f16
    %4693 = "mix.prim.pow"(%4692, %4691) : (f16, tensor<80xf16>) -> tensor<80xf16>
    %4694 = "mix.prim.reciprocal"(%4693) : (tensor<80xf16>) -> tensor<80xf16>
    %4695 = "mix.prim.constant"() <{value = 1.000000e+00 : f16}> : () -> f16
    %4696 = "mix.prim.mul"(%4695, %4694) : (f16, tensor<80xf16>) -> tensor<80xf16>
    %4697 = "mix.prim.constant"() <{value = dense<1.000000e+00> : tensor<40xf16>}> : () -> tensor<40xf16>
    %4698 = "mix.prim.unsqueeze"(%4697) <{axis = 1 : i32}> : (tensor<40xf16>) -> tensor<40x1xf16>
    %4699 = "mix.prim.permute"(%4698) <{dims = [0, 1]}> : (tensor<40x1xf16>) -> tensor<40x1xf16>
    %4700 = "mix.prim.unsqueeze"(%4696) <{axis = 1 : i32}> : (tensor<80xf16>) -> tensor<80x1xf16>
    %4701 = "mix.prim.permute"(%4700) <{dims = [1, 0]}> : (tensor<80x1xf16>) -> tensor<1x80xf16>
    %4702 = "mix.prim.mul"(%4699, %4701) : (tensor<40x1xf16>, tensor<1x80xf16>) -> tensor<40x80xf16>
    %4703 = "mix.prim.concat"(%4702, %4702) <{axis = 1 : i64}> : (tensor<40x80xf16>, tensor<40x80xf16>) -> tensor<40x160xf16>
    %4704 = "mix.prim.cos"(%4703) : (tensor<40x160xf16>) -> tensor<40x160xf16>
    %4705 = "mix.prim.slice"(%4704) <{dim = 0 : i64, end = 2147483647 : i64, start = 0 : i64, step = 1 : i64}> : (tensor<40x160xf16>) -> tensor<40x160xf16>
    %4706 = "mix.prim.unsqueeze"(%4705) <{axis = 1 : i32}> : (tensor<40x160xf16>) -> tensor<40x1x160xf16>
    %4707 = "mix.prim.slice"(%4706) <{dim = 2 : i64, end = 2147483647 : i64, start = 0 : i64, step = 1 : i64}> : (tensor<40x1x160xf16>) -> tensor<40x1x160xf16>
    %4708 = "mix.prim.constant"() <{value = 1.000000e+00 : f16}> : () -> f16
    %4709 = "mix.prim.mul"(%4707, %4708) : (tensor<40x1x160xf16>, f16) -> tensor<40x1x160xf16>
    %4710 = "mix.prim.sin"(%4703) : (tensor<40x160xf16>) -> tensor<40x160xf16>
    %4711 = "mix.prim.slice"(%4710) <{dim = 0 : i64, end = 2147483647 : i64, start = 0 : i64, step = 1 : i64}> : (tensor<40x160xf16>) -> tensor<40x160xf16>
    %4712 = "mix.prim.unsqueeze"(%4711) <{axis = 1 : i32}> : (tensor<40x160xf16>) -> tensor<40x1x160xf16>
    %4713 = "mix.prim.slice"(%4712) <{dim = 2 : i64, end = 2147483647 : i64, start = 0 : i64, step = 1 : i64}> : (tensor<40x1x160xf16>) -> tensor<40x1x160xf16>
    %4714 = "mix.prim.constant"() <{value = 1.000000e+00 : f16}> : () -> f16
    %4715 = "mix.prim.mul"(%4713, %4714) : (tensor<40x1x160xf16>, f16) -> tensor<40x1x160xf16>
    %4716 = "mix.prim.slice"(%4709) <{dim = 0 : i64, end = 40 : i64, start = 0 : i64, step = 1 : i64}> : (tensor<40x1x160xf16>) -> tensor<40x1x160xf16>
    %4717 = "mix.prim.slice"(%4715) <{dim = 0 : i64, end = 40 : i64, start = 0 : i64, step = 1 : i64}> : (tensor<40x1x160xf16>) -> tensor<40x1x160xf16>
    %4718 = "mix.prim.mul"(%4686, %4716) : (tensor<40x32x160xf16>, tensor<40x1x160xf16>) -> tensor<40x32x160xf16>
    %4719 = "mix.prim.slice"(%4686) <{dim = 2 : i64, end = 80 : i64, start = 0 : i64, step = 1 : i64}> : (tensor<40x32x160xf16>) -> tensor<40x32x80xf16>
    %4720 = "mix.prim.slice"(%4686) <{dim = 2 : i64, end = 2147483647 : i64, start = 80 : i64, step = 1 : i64}> : (tensor<40x32x160xf16>) -> tensor<40x32x80xf16>
    %4721 = "mix.prim.neg"(%4720) : (tensor<40x32x80xf16>) -> tensor<40x32x80xf16>
    %4722 = "mix.prim.concat"(%4721, %4719) <{axis = 2 : i64}> : (tensor<40x32x80xf16>, tensor<40x32x80xf16>) -> tensor<40x32x160xf16>
    %4723 = "mix.prim.mul"(%4722, %4717) : (tensor<40x32x160xf16>, tensor<40x1x160xf16>) -> tensor<40x32x160xf16>
    %4724 = "mix.prim.add"(%4718, %4723) : (tensor<40x32x160xf16>, tensor<40x32x160xf16>) -> tensor<40x32x160xf16>
    %4725 = "mix.prim.mul"(%4687, %4716) : (tensor<40x32x160xf16>, tensor<40x1x160xf16>) -> tensor<40x32x160xf16>
    %4726 = "mix.prim.slice"(%4687) <{dim = 2 : i64, end = 80 : i64, start = 0 : i64, step = 1 : i64}> : (tensor<40x32x160xf16>) -> tensor<40x32x80xf16>
    %4727 = "mix.prim.slice"(%4687) <{dim = 2 : i64, end = 2147483647 : i64, start = 80 : i64, step = 1 : i64}> : (tensor<40x32x160xf16>) -> tensor<40x32x80xf16>
    %4728 = "mix.prim.neg"(%4727) : (tensor<40x32x80xf16>) -> tensor<40x32x80xf16>
    %4729 = "mix.prim.concat"(%4728, %4726) <{axis = 2 : i64}> : (tensor<40x32x80xf16>, tensor<40x32x80xf16>) -> tensor<40x32x160xf16>
    %4730 = "mix.prim.mul"(%4729, %4717) : (tensor<40x32x160xf16>, tensor<40x1x160xf16>) -> tensor<40x32x160xf16>
    %4731 = "mix.prim.add"(%4725, %4730) : (tensor<40x32x160xf16>, tensor<40x32x160xf16>) -> tensor<40x32x160xf16>
    %4732 = "mix.prim.reshape"(%4724) <{shape = [40, 1, 32, 160]}> : (tensor<40x32x160xf16>) -> tensor<40x1x32x160xf16>
    %4733 = "mix.prim.reshape"(%4731) <{shape = [40, 1, 32, 160]}> : (tensor<40x32x160xf16>) -> tensor<40x1x32x160xf16>
    %4734 = "mix.prim.reshape"(%4732) <{shape = [40, 32, 160]}> : (tensor<40x1x32x160xf16>) -> tensor<40x32x160xf16>
    %4735 = "mix.prim.reshape"(%4733) <{shape = [40, 32, 160]}> : (tensor<40x1x32x160xf16>) -> tensor<40x32x160xf16>
    %4736 = "mix.prim.transpose"(%4734) <{dim1 = 0 : i32, dim2 = 1 : i32}> : (tensor<40x32x160xf16>) -> tensor<32x40x160xf16>
    %4737 = "mix.prim.transpose"(%4735) <{dim1 = 0 : i32, dim2 = 1 : i32}> : (tensor<40x32x160xf16>) -> tensor<32x40x160xf16>
    %4738 = "mix.prim.transpose"(%4737) <{dim1 = 1 : i32, dim2 = 2 : i32}> : (tensor<32x40x160xf16>) -> tensor<32x160x40xf16>
    %4739 = "mix.prim.unsqueeze"(%4736) <{axis = 3 : i32}> : (tensor<32x40x160xf16>) -> tensor<32x40x160x1xf16>
    %4740 = "mix.prim.permute"(%4739) <{dims = [0, 1, 3, 2]}> : (tensor<32x40x160x1xf16>) -> tensor<32x40x1x160xf16>
    %4741 = "mix.prim.unsqueeze"(%4738) <{axis = 3 : i32}> : (tensor<32x160x40xf16>) -> tensor<32x160x40x1xf16>
    %4742 = "mix.prim.permute"(%4741) <{dims = [0, 3, 2, 1]}> : (tensor<32x160x40x1xf16>) -> tensor<32x1x40x160xf16>
    %4743 = "mix.prim.permute"(%4740) <{dims = [0, 1, 3, 2]}> : (tensor<32x40x1x160xf16>) -> tensor<32x40x160x1xf16>
    %4744 = "mix.prim.reshape"(%4743) <{shape = [32, 40, 160]}> : (tensor<32x40x160x1xf16>) -> tensor<32x40x160xf16>
    %4745 = "mix.prim.permute"(%4742) <{dims = [0, 3, 2, 1]}> : (tensor<32x1x40x160xf16>) -> tensor<32x160x40x1xf16>
    %4746 = "mix.prim.reshape"(%4745) <{shape = [32, 160, 40]}> : (tensor<32x160x40x1xf16>) -> tensor<32x160x40xf16>
    %4747 = "mix.prim.batch_matmul"(%4744, %4746) : (tensor<32x40x160xf16>, tensor<32x160x40xf16>) -> tensor<32x40x40xf16>
    %4748 = "mix.prim.reshape"(%4747) <{shape = [32, 40, 1, 40]}> : (tensor<32x40x40xf16>) -> tensor<32x40x1x40xf16>
    %4749 = "mix.prim.permute"(%4748) <{dims = [0, 1, 3, 2]}> : (tensor<32x40x1x40xf16>) -> tensor<32x40x40x1xf16>
    %4750 = "mix.prim.reshape"(%4749) <{shape = [32, 40, 40]}> : (tensor<32x40x40x1xf16>) -> tensor<32x40x40xf16>
    %4751 = "mix.prim.constant"() <{value = 7.904050e-02 : f16}> : () -> f16
    %4752 = "mix.prim.mul"(%4750, %4751) : (tensor<32x40x40xf16>, f16) -> tensor<32x40x40xf16>
    %4753 = "mix.prim.reshape"(%4752) <{shape = [1, 32, 40, 40]}> : (tensor<32x40x40xf16>) -> tensor<1x32x40x40xf16>
    %4754 = "mix.prim.constant"() <{value = 0xFC00 : f16}> : () -> f16
    %4755 = "mix.comp.masked_fill"(%4753, %4, %4754) : (tensor<1x32x40x40xf16>, tensor<1x1x40x40xi1>, f16) -> tensor<1x32x40x40xf16>
    %4756 = "mix.comp.softmax"(%4755) <{axis = -1 : si32}> : (tensor<1x32x40x40xf16>) -> tensor<1x32x40x40xf16>
    %4757 = "mix.prim.reshape"(%4756) <{shape = [32, 40, 40]}> : (tensor<1x32x40x40xf16>) -> tensor<32x40x40xf16>
    %4758 = "mix.prim.reshape"(%4685) <{shape = [40, 32, 160]}> : (tensor<40x1x32x160xf16>) -> tensor<40x32x160xf16>
    %4759 = "mix.prim.transpose"(%4758) <{dim1 = 0 : i32, dim2 = 1 : i32}> : (tensor<40x32x160xf16>) -> tensor<32x40x160xf16>
    %4760 = "mix.prim.batch_matmul"(%4757, %4759) : (tensor<32x40x40xf16>, tensor<32x40x160xf16>) -> tensor<32x40x160xf16>
    %4761 = "mix.prim.reshape"(%4760) <{shape = [1, 32, 40, 160]}> : (tensor<32x40x160xf16>) -> tensor<1x32x40x160xf16>
    %4762 = "mix.prim.permute"(%4761) <{dims = [0, 2, 1, 3]}> : (tensor<1x32x40x160xf16>) -> tensor<1x40x32x160xf16>
    %4763 = "mix.prim.reshape"(%4762) <{shape = [1, 40, 5120]}> : (tensor<1x40x32x160xf16>) -> tensor<1x40x5120xf16>
    %4764 = "mix.prim.reshape"(%4763) <{shape = [40, 5120]}> : (tensor<1x40x5120xf16>) -> tensor<40x5120xf16>
    %4765 = "mix.prim.transpose"(%4671) <{dim1 = 0 : i32, dim2 = 1 : i32}> : (tensor<5120x5120xf16>) -> tensor<5120x5120xf16>
    %4766 = "mix.prim.matmul"(%4764, %4765) : (tensor<40x5120xf16>, tensor<5120x5120xf16>) -> tensor<40x5120xf16>
    %4767 = "mix.prim.add"(%4766, %4672) : (tensor<40x5120xf16>, tensor<5120xf16>) -> tensor<40x5120xf16>
    %4768 = "mix.prim.reshape"(%4767) <{shape = [1, 40, 5120]}> : (tensor<40x5120xf16>) -> tensor<1x40x5120xf16>
    %4769 = "mix.prim.mul"(%4659, %4768) : (tensor<1x40x5120xf16>, tensor<1x40x5120xf16>) -> tensor<1x40x5120xf16>
    %4770 = "mix.comp.weight"() <{param_loc = "transformer.h.35.post_attention_layernorm.weight"}> : () -> tensor<5120xf16>
    %4771 = "mix.prim.constant"() <{value = dense<1.000000e+00> : tensor<1xf16>}> : () -> tensor<1xf16>
    %4772 = "mix.prim.pow"(%4769, %4771) : (tensor<1x40x5120xf16>, tensor<1xf16>) -> tensor<1x40x5120xf16>
    %4773 = "mix.comp.mean"(%4772) <{dims = [2 : i32], keepDim = true}> : (tensor<1x40x5120xf16>) -> tensor<1x40x1xf16>
    %4774 = "mix.prim.constant"() <{value = 1.013280e-06 : f16}> : () -> f16
    %4775 = "mix.prim.add"(%4773, %4774) : (tensor<1x40x1xf16>, f16) -> tensor<1x40x1xf16>
    %4776 = "mix.prim.rsqrt"(%4775) : (tensor<1x40x1xf16>) -> tensor<1x40x1xf16>
    %4777 = "mix.prim.mul"(%4769, %4776) : (tensor<1x40x5120xf16>, tensor<1x40x1xf16>) -> tensor<1x40x5120xf16>
    %4778 = "mix.prim.mul"(%4770, %4777) : (tensor<5120xf16>, tensor<1x40x5120xf16>) -> tensor<1x40x5120xf16>
    %4779 = "mix.comp.weight"() <{param_loc = "transformer.h.35.mlp.gate_proj.weight"}> : () -> tensor<5120x12288xf16>
    %4780 = "mix.prim.reshape"(%4779) <{shape = [1, 5120, 12288]}> : (tensor<5120x12288xf16>) -> tensor<1x5120x12288xf16>
    %4781 = "mix.prim.batch_matmul"(%4778, %4780) : (tensor<1x40x5120xf16>, tensor<1x5120x12288xf16>) -> tensor<1x40x12288xf16>
    %4782 = "mix.comp.silu"(%4781) : (tensor<1x40x12288xf16>) -> tensor<1x40x12288xf16>
    %4783 = "mix.comp.weight"() <{param_loc = "transformer.h.35.mlp.up_proj.weight"}> : () -> tensor<5120x12288xf16>
    %4784 = "mix.prim.reshape"(%4783) <{shape = [1, 5120, 12288]}> : (tensor<5120x12288xf16>) -> tensor<1x5120x12288xf16>
    %4785 = "mix.prim.batch_matmul"(%4778, %4784) : (tensor<1x40x5120xf16>, tensor<1x5120x12288xf16>) -> tensor<1x40x12288xf16>
    %4786 = "mix.prim.mul"(%4782, %4785) : (tensor<1x40x12288xf16>, tensor<1x40x12288xf16>) -> tensor<1x40x12288xf16>
    %4787 = "mix.comp.weight"() <{param_loc = "transformer.h.35.mlp.down_proj.weight"}> : () -> tensor<12288x5120xf16>
    %4788 = "mix.prim.reshape"(%4787) <{shape = [1, 12288, 5120]}> : (tensor<12288x5120xf16>) -> tensor<1x12288x5120xf16>
    %4789 = "mix.prim.batch_matmul"(%4786, %4788) : (tensor<1x40x12288xf16>, tensor<1x12288x5120xf16>) -> tensor<1x40x5120xf16>
    %4790 = "mix.comp.weight"() <{param_loc = "transformer.h.35.mlp.down_proj.bias"}> : () -> tensor<5120xf16>
    %4791 = "mix.prim.add"(%4789, %4790) : (tensor<1x40x5120xf16>, tensor<5120xf16>) -> tensor<1x40x5120xf16>
    %4792 = "mix.prim.add"(%4791, %4769) : (tensor<1x40x5120xf16>, tensor<1x40x5120xf16>) -> tensor<1x40x5120xf16>
    %4793 = "mix.comp.weight"() <{param_loc = "transformer.h.36.input_layernorm.weight"}> : () -> tensor<5120xf16>
    %4794 = "mix.prim.constant"() <{value = dense<1.000000e+00> : tensor<1xf16>}> : () -> tensor<1xf16>
    %4795 = "mix.prim.pow"(%4792, %4794) : (tensor<1x40x5120xf16>, tensor<1xf16>) -> tensor<1x40x5120xf16>
    %4796 = "mix.comp.mean"(%4795) <{dims = [2 : i32], keepDim = true}> : (tensor<1x40x5120xf16>) -> tensor<1x40x1xf16>
    %4797 = "mix.prim.constant"() <{value = 1.013280e-06 : f16}> : () -> f16
    %4798 = "mix.prim.add"(%4796, %4797) : (tensor<1x40x1xf16>, f16) -> tensor<1x40x1xf16>
    %4799 = "mix.prim.rsqrt"(%4798) : (tensor<1x40x1xf16>) -> tensor<1x40x1xf16>
    %4800 = "mix.prim.mul"(%4792, %4799) : (tensor<1x40x5120xf16>, tensor<1x40x1xf16>) -> tensor<1x40x5120xf16>
    %4801 = "mix.prim.mul"(%4793, %4800) : (tensor<5120xf16>, tensor<1x40x5120xf16>) -> tensor<1x40x5120xf16>
    %4802 = "mix.comp.weight"() <{param_loc = "transformer.h.36.self_attention.query.weight"}> : () -> tensor<5120x5120xf16>
    %4803 = "mix.comp.weight"() <{param_loc = "transformer.h.36.self_attention.key_value.weight"}> : () -> tensor<10240x5120xf16>
    %4804 = "mix.comp.weight"() <{param_loc = "transformer.h.36.self_attention.dense.weight"}> : () -> tensor<5120x5120xf16>
    %4805 = "mix.comp.weight"() <{param_loc = "transformer.h.36.self_attention.dense.bias"}> : () -> tensor<5120xf16>
    %4806 = "mix.prim.transpose"(%4801) <{dim1 = 0 : i32, dim2 = 1 : i32}> : (tensor<1x40x5120xf16>) -> tensor<40x1x5120xf16>
    %4807 = "mix.prim.transpose"(%4802) <{dim1 = 0 : i32, dim2 = 1 : i32}> : (tensor<5120x5120xf16>) -> tensor<5120x5120xf16>
    %4808 = "mix.prim.reshape"(%4806) <{shape = [40, 5120]}> : (tensor<40x1x5120xf16>) -> tensor<40x5120xf16>
    %4809 = "mix.prim.matmul"(%4808, %4807) : (tensor<40x5120xf16>, tensor<5120x5120xf16>) -> tensor<40x5120xf16>
    %4810 = "mix.prim.reshape"(%4809) <{shape = [40, 1, 5120]}> : (tensor<40x5120xf16>) -> tensor<40x1x5120xf16>
    %4811 = "mix.prim.reshape"(%4810) <{shape = [40, 1, 32, 160]}> : (tensor<40x1x5120xf16>) -> tensor<40x1x32x160xf16>
    %4812 = "mix.prim.transpose"(%4803) <{dim1 = 0 : i32, dim2 = 1 : i32}> : (tensor<10240x5120xf16>) -> tensor<5120x10240xf16>
    %4813 = "mix.prim.reshape"(%4806) <{shape = [40, 5120]}> : (tensor<40x1x5120xf16>) -> tensor<40x5120xf16>
    %4814 = "mix.prim.matmul"(%4813, %4812) : (tensor<40x5120xf16>, tensor<5120x10240xf16>) -> tensor<40x10240xf16>
    %4815 = "mix.prim.reshape"(%4814) <{shape = [40, 1, 10240]}> : (tensor<40x10240xf16>) -> tensor<40x1x10240xf16>
    %4816 = "mix.prim.reshape"(%4815) <{shape = [40, 1, 32, 320]}> : (tensor<40x1x10240xf16>) -> tensor<40x1x32x320xf16>
    %4817 = "mix.prim.slice"(%4816) <{dim = 3 : i64, end = 160 : i64, start = 0 : i64, step = 1 : i64}> : (tensor<40x1x32x320xf16>) -> tensor<40x1x32x160xf16>
    %4818 = "mix.prim.slice"(%4816) <{dim = 3 : i64, end = 320 : i64, start = 160 : i64, step = 1 : i64}> : (tensor<40x1x32x320xf16>) -> tensor<40x1x32x160xf16>
    %4819 = "mix.prim.reshape"(%4811) <{shape = [40, 32, -1]}> : (tensor<40x1x32x160xf16>) -> tensor<40x32x160xf16>
    %4820 = "mix.prim.reshape"(%4817) <{shape = [40, 32, -1]}> : (tensor<40x1x32x160xf16>) -> tensor<40x32x160xf16>
    %4821 = "mix.prim.constant"() <{value = dense<[0, 1, 2, 3, 4, 5, 6, 7, 8, 9, 10, 11, 12, 13, 14, 15, 16, 17, 18, 19, 20, 21, 22, 23, 24, 25, 26, 27, 28, 29, 30, 31, 32, 33, 34, 35, 36, 37, 38, 39, 40, 41, 42, 43, 44, 45, 46, 47, 48, 49, 50, 51, 52, 53, 54, 55, 56, 57, 58, 59, 60, 61, 62, 63, 64, 65, 66, 67, 68, 69, 70, 71, 72, 73, 74, 75, 76, 77, 78, 79]> : tensor<80xi32>}> : () -> tensor<80xi32>
    %4822 = "mix.prim.convert"(%4821) <{element_ty = f16}> : (tensor<80xi32>) -> tensor<80xf16>
    %4823 = "mix.prim.constant"() <{value = 160 : i32}> : () -> i32
    %4824 = "mix.prim.div"(%4822, %4823) : (tensor<80xf16>, i32) -> tensor<80xf16>
    %4825 = "mix.prim.constant"() <{value = 3.041600e+04 : f16}> : () -> f16
    %4826 = "mix.prim.pow"(%4825, %4824) : (f16, tensor<80xf16>) -> tensor<80xf16>
    %4827 = "mix.prim.reciprocal"(%4826) : (tensor<80xf16>) -> tensor<80xf16>
    %4828 = "mix.prim.constant"() <{value = 1.000000e+00 : f16}> : () -> f16
    %4829 = "mix.prim.mul"(%4828, %4827) : (f16, tensor<80xf16>) -> tensor<80xf16>
    %4830 = "mix.prim.constant"() <{value = dense<1.000000e+00> : tensor<40xf16>}> : () -> tensor<40xf16>
    %4831 = "mix.prim.unsqueeze"(%4830) <{axis = 1 : i32}> : (tensor<40xf16>) -> tensor<40x1xf16>
    %4832 = "mix.prim.permute"(%4831) <{dims = [0, 1]}> : (tensor<40x1xf16>) -> tensor<40x1xf16>
    %4833 = "mix.prim.unsqueeze"(%4829) <{axis = 1 : i32}> : (tensor<80xf16>) -> tensor<80x1xf16>
    %4834 = "mix.prim.permute"(%4833) <{dims = [1, 0]}> : (tensor<80x1xf16>) -> tensor<1x80xf16>
    %4835 = "mix.prim.mul"(%4832, %4834) : (tensor<40x1xf16>, tensor<1x80xf16>) -> tensor<40x80xf16>
    %4836 = "mix.prim.concat"(%4835, %4835) <{axis = 1 : i64}> : (tensor<40x80xf16>, tensor<40x80xf16>) -> tensor<40x160xf16>
    %4837 = "mix.prim.cos"(%4836) : (tensor<40x160xf16>) -> tensor<40x160xf16>
    %4838 = "mix.prim.slice"(%4837) <{dim = 0 : i64, end = 2147483647 : i64, start = 0 : i64, step = 1 : i64}> : (tensor<40x160xf16>) -> tensor<40x160xf16>
    %4839 = "mix.prim.unsqueeze"(%4838) <{axis = 1 : i32}> : (tensor<40x160xf16>) -> tensor<40x1x160xf16>
    %4840 = "mix.prim.slice"(%4839) <{dim = 2 : i64, end = 2147483647 : i64, start = 0 : i64, step = 1 : i64}> : (tensor<40x1x160xf16>) -> tensor<40x1x160xf16>
    %4841 = "mix.prim.constant"() <{value = 1.000000e+00 : f16}> : () -> f16
    %4842 = "mix.prim.mul"(%4840, %4841) : (tensor<40x1x160xf16>, f16) -> tensor<40x1x160xf16>
    %4843 = "mix.prim.sin"(%4836) : (tensor<40x160xf16>) -> tensor<40x160xf16>
    %4844 = "mix.prim.slice"(%4843) <{dim = 0 : i64, end = 2147483647 : i64, start = 0 : i64, step = 1 : i64}> : (tensor<40x160xf16>) -> tensor<40x160xf16>
    %4845 = "mix.prim.unsqueeze"(%4844) <{axis = 1 : i32}> : (tensor<40x160xf16>) -> tensor<40x1x160xf16>
    %4846 = "mix.prim.slice"(%4845) <{dim = 2 : i64, end = 2147483647 : i64, start = 0 : i64, step = 1 : i64}> : (tensor<40x1x160xf16>) -> tensor<40x1x160xf16>
    %4847 = "mix.prim.constant"() <{value = 1.000000e+00 : f16}> : () -> f16
    %4848 = "mix.prim.mul"(%4846, %4847) : (tensor<40x1x160xf16>, f16) -> tensor<40x1x160xf16>
    %4849 = "mix.prim.slice"(%4842) <{dim = 0 : i64, end = 40 : i64, start = 0 : i64, step = 1 : i64}> : (tensor<40x1x160xf16>) -> tensor<40x1x160xf16>
    %4850 = "mix.prim.slice"(%4848) <{dim = 0 : i64, end = 40 : i64, start = 0 : i64, step = 1 : i64}> : (tensor<40x1x160xf16>) -> tensor<40x1x160xf16>
    %4851 = "mix.prim.mul"(%4819, %4849) : (tensor<40x32x160xf16>, tensor<40x1x160xf16>) -> tensor<40x32x160xf16>
    %4852 = "mix.prim.slice"(%4819) <{dim = 2 : i64, end = 80 : i64, start = 0 : i64, step = 1 : i64}> : (tensor<40x32x160xf16>) -> tensor<40x32x80xf16>
    %4853 = "mix.prim.slice"(%4819) <{dim = 2 : i64, end = 2147483647 : i64, start = 80 : i64, step = 1 : i64}> : (tensor<40x32x160xf16>) -> tensor<40x32x80xf16>
    %4854 = "mix.prim.neg"(%4853) : (tensor<40x32x80xf16>) -> tensor<40x32x80xf16>
    %4855 = "mix.prim.concat"(%4854, %4852) <{axis = 2 : i64}> : (tensor<40x32x80xf16>, tensor<40x32x80xf16>) -> tensor<40x32x160xf16>
    %4856 = "mix.prim.mul"(%4855, %4850) : (tensor<40x32x160xf16>, tensor<40x1x160xf16>) -> tensor<40x32x160xf16>
    %4857 = "mix.prim.add"(%4851, %4856) : (tensor<40x32x160xf16>, tensor<40x32x160xf16>) -> tensor<40x32x160xf16>
    %4858 = "mix.prim.mul"(%4820, %4849) : (tensor<40x32x160xf16>, tensor<40x1x160xf16>) -> tensor<40x32x160xf16>
    %4859 = "mix.prim.slice"(%4820) <{dim = 2 : i64, end = 80 : i64, start = 0 : i64, step = 1 : i64}> : (tensor<40x32x160xf16>) -> tensor<40x32x80xf16>
    %4860 = "mix.prim.slice"(%4820) <{dim = 2 : i64, end = 2147483647 : i64, start = 80 : i64, step = 1 : i64}> : (tensor<40x32x160xf16>) -> tensor<40x32x80xf16>
    %4861 = "mix.prim.neg"(%4860) : (tensor<40x32x80xf16>) -> tensor<40x32x80xf16>
    %4862 = "mix.prim.concat"(%4861, %4859) <{axis = 2 : i64}> : (tensor<40x32x80xf16>, tensor<40x32x80xf16>) -> tensor<40x32x160xf16>
    %4863 = "mix.prim.mul"(%4862, %4850) : (tensor<40x32x160xf16>, tensor<40x1x160xf16>) -> tensor<40x32x160xf16>
    %4864 = "mix.prim.add"(%4858, %4863) : (tensor<40x32x160xf16>, tensor<40x32x160xf16>) -> tensor<40x32x160xf16>
    %4865 = "mix.prim.reshape"(%4857) <{shape = [40, 1, 32, 160]}> : (tensor<40x32x160xf16>) -> tensor<40x1x32x160xf16>
    %4866 = "mix.prim.reshape"(%4864) <{shape = [40, 1, 32, 160]}> : (tensor<40x32x160xf16>) -> tensor<40x1x32x160xf16>
    %4867 = "mix.prim.reshape"(%4865) <{shape = [40, 32, 160]}> : (tensor<40x1x32x160xf16>) -> tensor<40x32x160xf16>
    %4868 = "mix.prim.reshape"(%4866) <{shape = [40, 32, 160]}> : (tensor<40x1x32x160xf16>) -> tensor<40x32x160xf16>
    %4869 = "mix.prim.transpose"(%4867) <{dim1 = 0 : i32, dim2 = 1 : i32}> : (tensor<40x32x160xf16>) -> tensor<32x40x160xf16>
    %4870 = "mix.prim.transpose"(%4868) <{dim1 = 0 : i32, dim2 = 1 : i32}> : (tensor<40x32x160xf16>) -> tensor<32x40x160xf16>
    %4871 = "mix.prim.transpose"(%4870) <{dim1 = 1 : i32, dim2 = 2 : i32}> : (tensor<32x40x160xf16>) -> tensor<32x160x40xf16>
    %4872 = "mix.prim.unsqueeze"(%4869) <{axis = 3 : i32}> : (tensor<32x40x160xf16>) -> tensor<32x40x160x1xf16>
    %4873 = "mix.prim.permute"(%4872) <{dims = [0, 1, 3, 2]}> : (tensor<32x40x160x1xf16>) -> tensor<32x40x1x160xf16>
    %4874 = "mix.prim.unsqueeze"(%4871) <{axis = 3 : i32}> : (tensor<32x160x40xf16>) -> tensor<32x160x40x1xf16>
    %4875 = "mix.prim.permute"(%4874) <{dims = [0, 3, 2, 1]}> : (tensor<32x160x40x1xf16>) -> tensor<32x1x40x160xf16>
    %4876 = "mix.prim.permute"(%4873) <{dims = [0, 1, 3, 2]}> : (tensor<32x40x1x160xf16>) -> tensor<32x40x160x1xf16>
    %4877 = "mix.prim.reshape"(%4876) <{shape = [32, 40, 160]}> : (tensor<32x40x160x1xf16>) -> tensor<32x40x160xf16>
    %4878 = "mix.prim.permute"(%4875) <{dims = [0, 3, 2, 1]}> : (tensor<32x1x40x160xf16>) -> tensor<32x160x40x1xf16>
    %4879 = "mix.prim.reshape"(%4878) <{shape = [32, 160, 40]}> : (tensor<32x160x40x1xf16>) -> tensor<32x160x40xf16>
    %4880 = "mix.prim.batch_matmul"(%4877, %4879) : (tensor<32x40x160xf16>, tensor<32x160x40xf16>) -> tensor<32x40x40xf16>
    %4881 = "mix.prim.reshape"(%4880) <{shape = [32, 40, 1, 40]}> : (tensor<32x40x40xf16>) -> tensor<32x40x1x40xf16>
    %4882 = "mix.prim.permute"(%4881) <{dims = [0, 1, 3, 2]}> : (tensor<32x40x1x40xf16>) -> tensor<32x40x40x1xf16>
    %4883 = "mix.prim.reshape"(%4882) <{shape = [32, 40, 40]}> : (tensor<32x40x40x1xf16>) -> tensor<32x40x40xf16>
    %4884 = "mix.prim.constant"() <{value = 7.904050e-02 : f16}> : () -> f16
    %4885 = "mix.prim.mul"(%4883, %4884) : (tensor<32x40x40xf16>, f16) -> tensor<32x40x40xf16>
    %4886 = "mix.prim.reshape"(%4885) <{shape = [1, 32, 40, 40]}> : (tensor<32x40x40xf16>) -> tensor<1x32x40x40xf16>
    %4887 = "mix.prim.constant"() <{value = 0xFC00 : f16}> : () -> f16
    %4888 = "mix.comp.masked_fill"(%4886, %4, %4887) : (tensor<1x32x40x40xf16>, tensor<1x1x40x40xi1>, f16) -> tensor<1x32x40x40xf16>
    %4889 = "mix.comp.softmax"(%4888) <{axis = -1 : si32}> : (tensor<1x32x40x40xf16>) -> tensor<1x32x40x40xf16>
    %4890 = "mix.prim.reshape"(%4889) <{shape = [32, 40, 40]}> : (tensor<1x32x40x40xf16>) -> tensor<32x40x40xf16>
    %4891 = "mix.prim.reshape"(%4818) <{shape = [40, 32, 160]}> : (tensor<40x1x32x160xf16>) -> tensor<40x32x160xf16>
    %4892 = "mix.prim.transpose"(%4891) <{dim1 = 0 : i32, dim2 = 1 : i32}> : (tensor<40x32x160xf16>) -> tensor<32x40x160xf16>
    %4893 = "mix.prim.batch_matmul"(%4890, %4892) : (tensor<32x40x40xf16>, tensor<32x40x160xf16>) -> tensor<32x40x160xf16>
    %4894 = "mix.prim.reshape"(%4893) <{shape = [1, 32, 40, 160]}> : (tensor<32x40x160xf16>) -> tensor<1x32x40x160xf16>
    %4895 = "mix.prim.permute"(%4894) <{dims = [0, 2, 1, 3]}> : (tensor<1x32x40x160xf16>) -> tensor<1x40x32x160xf16>
    %4896 = "mix.prim.reshape"(%4895) <{shape = [1, 40, 5120]}> : (tensor<1x40x32x160xf16>) -> tensor<1x40x5120xf16>
    %4897 = "mix.prim.reshape"(%4896) <{shape = [40, 5120]}> : (tensor<1x40x5120xf16>) -> tensor<40x5120xf16>
    %4898 = "mix.prim.transpose"(%4804) <{dim1 = 0 : i32, dim2 = 1 : i32}> : (tensor<5120x5120xf16>) -> tensor<5120x5120xf16>
    %4899 = "mix.prim.matmul"(%4897, %4898) : (tensor<40x5120xf16>, tensor<5120x5120xf16>) -> tensor<40x5120xf16>
    %4900 = "mix.prim.add"(%4899, %4805) : (tensor<40x5120xf16>, tensor<5120xf16>) -> tensor<40x5120xf16>
    %4901 = "mix.prim.reshape"(%4900) <{shape = [1, 40, 5120]}> : (tensor<40x5120xf16>) -> tensor<1x40x5120xf16>
    %4902 = "mix.prim.mul"(%4792, %4901) : (tensor<1x40x5120xf16>, tensor<1x40x5120xf16>) -> tensor<1x40x5120xf16>
    %4903 = "mix.comp.weight"() <{param_loc = "transformer.h.36.post_attention_layernorm.weight"}> : () -> tensor<5120xf16>
    %4904 = "mix.prim.constant"() <{value = dense<1.000000e+00> : tensor<1xf16>}> : () -> tensor<1xf16>
    %4905 = "mix.prim.pow"(%4902, %4904) : (tensor<1x40x5120xf16>, tensor<1xf16>) -> tensor<1x40x5120xf16>
    %4906 = "mix.comp.mean"(%4905) <{dims = [2 : i32], keepDim = true}> : (tensor<1x40x5120xf16>) -> tensor<1x40x1xf16>
    %4907 = "mix.prim.constant"() <{value = 1.013280e-06 : f16}> : () -> f16
    %4908 = "mix.prim.add"(%4906, %4907) : (tensor<1x40x1xf16>, f16) -> tensor<1x40x1xf16>
    %4909 = "mix.prim.rsqrt"(%4908) : (tensor<1x40x1xf16>) -> tensor<1x40x1xf16>
    %4910 = "mix.prim.mul"(%4902, %4909) : (tensor<1x40x5120xf16>, tensor<1x40x1xf16>) -> tensor<1x40x5120xf16>
    %4911 = "mix.prim.mul"(%4903, %4910) : (tensor<5120xf16>, tensor<1x40x5120xf16>) -> tensor<1x40x5120xf16>
    %4912 = "mix.comp.weight"() <{param_loc = "transformer.h.36.mlp.gate_proj.weight"}> : () -> tensor<5120x12288xf16>
    %4913 = "mix.prim.reshape"(%4912) <{shape = [1, 5120, 12288]}> : (tensor<5120x12288xf16>) -> tensor<1x5120x12288xf16>
    %4914 = "mix.prim.batch_matmul"(%4911, %4913) : (tensor<1x40x5120xf16>, tensor<1x5120x12288xf16>) -> tensor<1x40x12288xf16>
    %4915 = "mix.comp.silu"(%4914) : (tensor<1x40x12288xf16>) -> tensor<1x40x12288xf16>
    %4916 = "mix.comp.weight"() <{param_loc = "transformer.h.36.mlp.up_proj.weight"}> : () -> tensor<5120x12288xf16>
    %4917 = "mix.prim.reshape"(%4916) <{shape = [1, 5120, 12288]}> : (tensor<5120x12288xf16>) -> tensor<1x5120x12288xf16>
    %4918 = "mix.prim.batch_matmul"(%4911, %4917) : (tensor<1x40x5120xf16>, tensor<1x5120x12288xf16>) -> tensor<1x40x12288xf16>
    %4919 = "mix.prim.mul"(%4915, %4918) : (tensor<1x40x12288xf16>, tensor<1x40x12288xf16>) -> tensor<1x40x12288xf16>
    %4920 = "mix.comp.weight"() <{param_loc = "transformer.h.36.mlp.down_proj.weight"}> : () -> tensor<12288x5120xf16>
    %4921 = "mix.prim.reshape"(%4920) <{shape = [1, 12288, 5120]}> : (tensor<12288x5120xf16>) -> tensor<1x12288x5120xf16>
    %4922 = "mix.prim.batch_matmul"(%4919, %4921) : (tensor<1x40x12288xf16>, tensor<1x12288x5120xf16>) -> tensor<1x40x5120xf16>
    %4923 = "mix.comp.weight"() <{param_loc = "transformer.h.36.mlp.down_proj.bias"}> : () -> tensor<5120xf16>
    %4924 = "mix.prim.add"(%4922, %4923) : (tensor<1x40x5120xf16>, tensor<5120xf16>) -> tensor<1x40x5120xf16>
    %4925 = "mix.prim.add"(%4924, %4902) : (tensor<1x40x5120xf16>, tensor<1x40x5120xf16>) -> tensor<1x40x5120xf16>
    %4926 = "mix.comp.weight"() <{param_loc = "transformer.h.37.input_layernorm.weight"}> : () -> tensor<5120xf16>
    %4927 = "mix.prim.constant"() <{value = dense<1.000000e+00> : tensor<1xf16>}> : () -> tensor<1xf16>
    %4928 = "mix.prim.pow"(%4925, %4927) : (tensor<1x40x5120xf16>, tensor<1xf16>) -> tensor<1x40x5120xf16>
    %4929 = "mix.comp.mean"(%4928) <{dims = [2 : i32], keepDim = true}> : (tensor<1x40x5120xf16>) -> tensor<1x40x1xf16>
    %4930 = "mix.prim.constant"() <{value = 1.013280e-06 : f16}> : () -> f16
    %4931 = "mix.prim.add"(%4929, %4930) : (tensor<1x40x1xf16>, f16) -> tensor<1x40x1xf16>
    %4932 = "mix.prim.rsqrt"(%4931) : (tensor<1x40x1xf16>) -> tensor<1x40x1xf16>
    %4933 = "mix.prim.mul"(%4925, %4932) : (tensor<1x40x5120xf16>, tensor<1x40x1xf16>) -> tensor<1x40x5120xf16>
    %4934 = "mix.prim.mul"(%4926, %4933) : (tensor<5120xf16>, tensor<1x40x5120xf16>) -> tensor<1x40x5120xf16>
    %4935 = "mix.comp.weight"() <{param_loc = "transformer.h.37.self_attention.query.weight"}> : () -> tensor<5120x5120xf16>
    %4936 = "mix.comp.weight"() <{param_loc = "transformer.h.37.self_attention.key_value.weight"}> : () -> tensor<10240x5120xf16>
    %4937 = "mix.comp.weight"() <{param_loc = "transformer.h.37.self_attention.dense.weight"}> : () -> tensor<5120x5120xf16>
    %4938 = "mix.comp.weight"() <{param_loc = "transformer.h.37.self_attention.dense.bias"}> : () -> tensor<5120xf16>
    %4939 = "mix.prim.transpose"(%4934) <{dim1 = 0 : i32, dim2 = 1 : i32}> : (tensor<1x40x5120xf16>) -> tensor<40x1x5120xf16>
    %4940 = "mix.prim.transpose"(%4935) <{dim1 = 0 : i32, dim2 = 1 : i32}> : (tensor<5120x5120xf16>) -> tensor<5120x5120xf16>
    %4941 = "mix.prim.reshape"(%4939) <{shape = [40, 5120]}> : (tensor<40x1x5120xf16>) -> tensor<40x5120xf16>
    %4942 = "mix.prim.matmul"(%4941, %4940) : (tensor<40x5120xf16>, tensor<5120x5120xf16>) -> tensor<40x5120xf16>
    %4943 = "mix.prim.reshape"(%4942) <{shape = [40, 1, 5120]}> : (tensor<40x5120xf16>) -> tensor<40x1x5120xf16>
    %4944 = "mix.prim.reshape"(%4943) <{shape = [40, 1, 32, 160]}> : (tensor<40x1x5120xf16>) -> tensor<40x1x32x160xf16>
    %4945 = "mix.prim.transpose"(%4936) <{dim1 = 0 : i32, dim2 = 1 : i32}> : (tensor<10240x5120xf16>) -> tensor<5120x10240xf16>
    %4946 = "mix.prim.reshape"(%4939) <{shape = [40, 5120]}> : (tensor<40x1x5120xf16>) -> tensor<40x5120xf16>
    %4947 = "mix.prim.matmul"(%4946, %4945) : (tensor<40x5120xf16>, tensor<5120x10240xf16>) -> tensor<40x10240xf16>
    %4948 = "mix.prim.reshape"(%4947) <{shape = [40, 1, 10240]}> : (tensor<40x10240xf16>) -> tensor<40x1x10240xf16>
    %4949 = "mix.prim.reshape"(%4948) <{shape = [40, 1, 32, 320]}> : (tensor<40x1x10240xf16>) -> tensor<40x1x32x320xf16>
    %4950 = "mix.prim.slice"(%4949) <{dim = 3 : i64, end = 160 : i64, start = 0 : i64, step = 1 : i64}> : (tensor<40x1x32x320xf16>) -> tensor<40x1x32x160xf16>
    %4951 = "mix.prim.slice"(%4949) <{dim = 3 : i64, end = 320 : i64, start = 160 : i64, step = 1 : i64}> : (tensor<40x1x32x320xf16>) -> tensor<40x1x32x160xf16>
    %4952 = "mix.prim.reshape"(%4944) <{shape = [40, 32, -1]}> : (tensor<40x1x32x160xf16>) -> tensor<40x32x160xf16>
    %4953 = "mix.prim.reshape"(%4950) <{shape = [40, 32, -1]}> : (tensor<40x1x32x160xf16>) -> tensor<40x32x160xf16>
    %4954 = "mix.prim.constant"() <{value = dense<[0, 1, 2, 3, 4, 5, 6, 7, 8, 9, 10, 11, 12, 13, 14, 15, 16, 17, 18, 19, 20, 21, 22, 23, 24, 25, 26, 27, 28, 29, 30, 31, 32, 33, 34, 35, 36, 37, 38, 39, 40, 41, 42, 43, 44, 45, 46, 47, 48, 49, 50, 51, 52, 53, 54, 55, 56, 57, 58, 59, 60, 61, 62, 63, 64, 65, 66, 67, 68, 69, 70, 71, 72, 73, 74, 75, 76, 77, 78, 79]> : tensor<80xi32>}> : () -> tensor<80xi32>
    %4955 = "mix.prim.convert"(%4954) <{element_ty = f16}> : (tensor<80xi32>) -> tensor<80xf16>
    %4956 = "mix.prim.constant"() <{value = 160 : i32}> : () -> i32
    %4957 = "mix.prim.div"(%4955, %4956) : (tensor<80xf16>, i32) -> tensor<80xf16>
    %4958 = "mix.prim.constant"() <{value = 3.041600e+04 : f16}> : () -> f16
    %4959 = "mix.prim.pow"(%4958, %4957) : (f16, tensor<80xf16>) -> tensor<80xf16>
    %4960 = "mix.prim.reciprocal"(%4959) : (tensor<80xf16>) -> tensor<80xf16>
    %4961 = "mix.prim.constant"() <{value = 1.000000e+00 : f16}> : () -> f16
    %4962 = "mix.prim.mul"(%4961, %4960) : (f16, tensor<80xf16>) -> tensor<80xf16>
    %4963 = "mix.prim.constant"() <{value = dense<1.000000e+00> : tensor<40xf16>}> : () -> tensor<40xf16>
    %4964 = "mix.prim.unsqueeze"(%4963) <{axis = 1 : i32}> : (tensor<40xf16>) -> tensor<40x1xf16>
    %4965 = "mix.prim.permute"(%4964) <{dims = [0, 1]}> : (tensor<40x1xf16>) -> tensor<40x1xf16>
    %4966 = "mix.prim.unsqueeze"(%4962) <{axis = 1 : i32}> : (tensor<80xf16>) -> tensor<80x1xf16>
    %4967 = "mix.prim.permute"(%4966) <{dims = [1, 0]}> : (tensor<80x1xf16>) -> tensor<1x80xf16>
    %4968 = "mix.prim.mul"(%4965, %4967) : (tensor<40x1xf16>, tensor<1x80xf16>) -> tensor<40x80xf16>
    %4969 = "mix.prim.concat"(%4968, %4968) <{axis = 1 : i64}> : (tensor<40x80xf16>, tensor<40x80xf16>) -> tensor<40x160xf16>
    %4970 = "mix.prim.cos"(%4969) : (tensor<40x160xf16>) -> tensor<40x160xf16>
    %4971 = "mix.prim.slice"(%4970) <{dim = 0 : i64, end = 2147483647 : i64, start = 0 : i64, step = 1 : i64}> : (tensor<40x160xf16>) -> tensor<40x160xf16>
    %4972 = "mix.prim.unsqueeze"(%4971) <{axis = 1 : i32}> : (tensor<40x160xf16>) -> tensor<40x1x160xf16>
    %4973 = "mix.prim.slice"(%4972) <{dim = 2 : i64, end = 2147483647 : i64, start = 0 : i64, step = 1 : i64}> : (tensor<40x1x160xf16>) -> tensor<40x1x160xf16>
    %4974 = "mix.prim.constant"() <{value = 1.000000e+00 : f16}> : () -> f16
    %4975 = "mix.prim.mul"(%4973, %4974) : (tensor<40x1x160xf16>, f16) -> tensor<40x1x160xf16>
    %4976 = "mix.prim.sin"(%4969) : (tensor<40x160xf16>) -> tensor<40x160xf16>
    %4977 = "mix.prim.slice"(%4976) <{dim = 0 : i64, end = 2147483647 : i64, start = 0 : i64, step = 1 : i64}> : (tensor<40x160xf16>) -> tensor<40x160xf16>
    %4978 = "mix.prim.unsqueeze"(%4977) <{axis = 1 : i32}> : (tensor<40x160xf16>) -> tensor<40x1x160xf16>
    %4979 = "mix.prim.slice"(%4978) <{dim = 2 : i64, end = 2147483647 : i64, start = 0 : i64, step = 1 : i64}> : (tensor<40x1x160xf16>) -> tensor<40x1x160xf16>
    %4980 = "mix.prim.constant"() <{value = 1.000000e+00 : f16}> : () -> f16
    %4981 = "mix.prim.mul"(%4979, %4980) : (tensor<40x1x160xf16>, f16) -> tensor<40x1x160xf16>
    %4982 = "mix.prim.slice"(%4975) <{dim = 0 : i64, end = 40 : i64, start = 0 : i64, step = 1 : i64}> : (tensor<40x1x160xf16>) -> tensor<40x1x160xf16>
    %4983 = "mix.prim.slice"(%4981) <{dim = 0 : i64, end = 40 : i64, start = 0 : i64, step = 1 : i64}> : (tensor<40x1x160xf16>) -> tensor<40x1x160xf16>
    %4984 = "mix.prim.mul"(%4952, %4982) : (tensor<40x32x160xf16>, tensor<40x1x160xf16>) -> tensor<40x32x160xf16>
    %4985 = "mix.prim.slice"(%4952) <{dim = 2 : i64, end = 80 : i64, start = 0 : i64, step = 1 : i64}> : (tensor<40x32x160xf16>) -> tensor<40x32x80xf16>
    %4986 = "mix.prim.slice"(%4952) <{dim = 2 : i64, end = 2147483647 : i64, start = 80 : i64, step = 1 : i64}> : (tensor<40x32x160xf16>) -> tensor<40x32x80xf16>
    %4987 = "mix.prim.neg"(%4986) : (tensor<40x32x80xf16>) -> tensor<40x32x80xf16>
    %4988 = "mix.prim.concat"(%4987, %4985) <{axis = 2 : i64}> : (tensor<40x32x80xf16>, tensor<40x32x80xf16>) -> tensor<40x32x160xf16>
    %4989 = "mix.prim.mul"(%4988, %4983) : (tensor<40x32x160xf16>, tensor<40x1x160xf16>) -> tensor<40x32x160xf16>
    %4990 = "mix.prim.add"(%4984, %4989) : (tensor<40x32x160xf16>, tensor<40x32x160xf16>) -> tensor<40x32x160xf16>
    %4991 = "mix.prim.mul"(%4953, %4982) : (tensor<40x32x160xf16>, tensor<40x1x160xf16>) -> tensor<40x32x160xf16>
    %4992 = "mix.prim.slice"(%4953) <{dim = 2 : i64, end = 80 : i64, start = 0 : i64, step = 1 : i64}> : (tensor<40x32x160xf16>) -> tensor<40x32x80xf16>
    %4993 = "mix.prim.slice"(%4953) <{dim = 2 : i64, end = 2147483647 : i64, start = 80 : i64, step = 1 : i64}> : (tensor<40x32x160xf16>) -> tensor<40x32x80xf16>
    %4994 = "mix.prim.neg"(%4993) : (tensor<40x32x80xf16>) -> tensor<40x32x80xf16>
    %4995 = "mix.prim.concat"(%4994, %4992) <{axis = 2 : i64}> : (tensor<40x32x80xf16>, tensor<40x32x80xf16>) -> tensor<40x32x160xf16>
    %4996 = "mix.prim.mul"(%4995, %4983) : (tensor<40x32x160xf16>, tensor<40x1x160xf16>) -> tensor<40x32x160xf16>
    %4997 = "mix.prim.add"(%4991, %4996) : (tensor<40x32x160xf16>, tensor<40x32x160xf16>) -> tensor<40x32x160xf16>
    %4998 = "mix.prim.reshape"(%4990) <{shape = [40, 1, 32, 160]}> : (tensor<40x32x160xf16>) -> tensor<40x1x32x160xf16>
    %4999 = "mix.prim.reshape"(%4997) <{shape = [40, 1, 32, 160]}> : (tensor<40x32x160xf16>) -> tensor<40x1x32x160xf16>
    %5000 = "mix.prim.reshape"(%4998) <{shape = [40, 32, 160]}> : (tensor<40x1x32x160xf16>) -> tensor<40x32x160xf16>
    %5001 = "mix.prim.reshape"(%4999) <{shape = [40, 32, 160]}> : (tensor<40x1x32x160xf16>) -> tensor<40x32x160xf16>
    %5002 = "mix.prim.transpose"(%5000) <{dim1 = 0 : i32, dim2 = 1 : i32}> : (tensor<40x32x160xf16>) -> tensor<32x40x160xf16>
    %5003 = "mix.prim.transpose"(%5001) <{dim1 = 0 : i32, dim2 = 1 : i32}> : (tensor<40x32x160xf16>) -> tensor<32x40x160xf16>
    %5004 = "mix.prim.transpose"(%5003) <{dim1 = 1 : i32, dim2 = 2 : i32}> : (tensor<32x40x160xf16>) -> tensor<32x160x40xf16>
    %5005 = "mix.prim.unsqueeze"(%5002) <{axis = 3 : i32}> : (tensor<32x40x160xf16>) -> tensor<32x40x160x1xf16>
    %5006 = "mix.prim.permute"(%5005) <{dims = [0, 1, 3, 2]}> : (tensor<32x40x160x1xf16>) -> tensor<32x40x1x160xf16>
    %5007 = "mix.prim.unsqueeze"(%5004) <{axis = 3 : i32}> : (tensor<32x160x40xf16>) -> tensor<32x160x40x1xf16>
    %5008 = "mix.prim.permute"(%5007) <{dims = [0, 3, 2, 1]}> : (tensor<32x160x40x1xf16>) -> tensor<32x1x40x160xf16>
    %5009 = "mix.prim.permute"(%5006) <{dims = [0, 1, 3, 2]}> : (tensor<32x40x1x160xf16>) -> tensor<32x40x160x1xf16>
    %5010 = "mix.prim.reshape"(%5009) <{shape = [32, 40, 160]}> : (tensor<32x40x160x1xf16>) -> tensor<32x40x160xf16>
    %5011 = "mix.prim.permute"(%5008) <{dims = [0, 3, 2, 1]}> : (tensor<32x1x40x160xf16>) -> tensor<32x160x40x1xf16>
    %5012 = "mix.prim.reshape"(%5011) <{shape = [32, 160, 40]}> : (tensor<32x160x40x1xf16>) -> tensor<32x160x40xf16>
    %5013 = "mix.prim.batch_matmul"(%5010, %5012) : (tensor<32x40x160xf16>, tensor<32x160x40xf16>) -> tensor<32x40x40xf16>
    %5014 = "mix.prim.reshape"(%5013) <{shape = [32, 40, 1, 40]}> : (tensor<32x40x40xf16>) -> tensor<32x40x1x40xf16>
    %5015 = "mix.prim.permute"(%5014) <{dims = [0, 1, 3, 2]}> : (tensor<32x40x1x40xf16>) -> tensor<32x40x40x1xf16>
    %5016 = "mix.prim.reshape"(%5015) <{shape = [32, 40, 40]}> : (tensor<32x40x40x1xf16>) -> tensor<32x40x40xf16>
    %5017 = "mix.prim.constant"() <{value = 7.904050e-02 : f16}> : () -> f16
    %5018 = "mix.prim.mul"(%5016, %5017) : (tensor<32x40x40xf16>, f16) -> tensor<32x40x40xf16>
    %5019 = "mix.prim.reshape"(%5018) <{shape = [1, 32, 40, 40]}> : (tensor<32x40x40xf16>) -> tensor<1x32x40x40xf16>
    %5020 = "mix.prim.constant"() <{value = 0xFC00 : f16}> : () -> f16
    %5021 = "mix.comp.masked_fill"(%5019, %4, %5020) : (tensor<1x32x40x40xf16>, tensor<1x1x40x40xi1>, f16) -> tensor<1x32x40x40xf16>
    %5022 = "mix.comp.softmax"(%5021) <{axis = -1 : si32}> : (tensor<1x32x40x40xf16>) -> tensor<1x32x40x40xf16>
    %5023 = "mix.prim.reshape"(%5022) <{shape = [32, 40, 40]}> : (tensor<1x32x40x40xf16>) -> tensor<32x40x40xf16>
    %5024 = "mix.prim.reshape"(%4951) <{shape = [40, 32, 160]}> : (tensor<40x1x32x160xf16>) -> tensor<40x32x160xf16>
    %5025 = "mix.prim.transpose"(%5024) <{dim1 = 0 : i32, dim2 = 1 : i32}> : (tensor<40x32x160xf16>) -> tensor<32x40x160xf16>
    %5026 = "mix.prim.batch_matmul"(%5023, %5025) : (tensor<32x40x40xf16>, tensor<32x40x160xf16>) -> tensor<32x40x160xf16>
    %5027 = "mix.prim.reshape"(%5026) <{shape = [1, 32, 40, 160]}> : (tensor<32x40x160xf16>) -> tensor<1x32x40x160xf16>
    %5028 = "mix.prim.permute"(%5027) <{dims = [0, 2, 1, 3]}> : (tensor<1x32x40x160xf16>) -> tensor<1x40x32x160xf16>
    %5029 = "mix.prim.reshape"(%5028) <{shape = [1, 40, 5120]}> : (tensor<1x40x32x160xf16>) -> tensor<1x40x5120xf16>
    %5030 = "mix.prim.reshape"(%5029) <{shape = [40, 5120]}> : (tensor<1x40x5120xf16>) -> tensor<40x5120xf16>
    %5031 = "mix.prim.transpose"(%4937) <{dim1 = 0 : i32, dim2 = 1 : i32}> : (tensor<5120x5120xf16>) -> tensor<5120x5120xf16>
    %5032 = "mix.prim.matmul"(%5030, %5031) : (tensor<40x5120xf16>, tensor<5120x5120xf16>) -> tensor<40x5120xf16>
    %5033 = "mix.prim.add"(%5032, %4938) : (tensor<40x5120xf16>, tensor<5120xf16>) -> tensor<40x5120xf16>
    %5034 = "mix.prim.reshape"(%5033) <{shape = [1, 40, 5120]}> : (tensor<40x5120xf16>) -> tensor<1x40x5120xf16>
    %5035 = "mix.prim.mul"(%4925, %5034) : (tensor<1x40x5120xf16>, tensor<1x40x5120xf16>) -> tensor<1x40x5120xf16>
    %5036 = "mix.comp.weight"() <{param_loc = "transformer.h.37.post_attention_layernorm.weight"}> : () -> tensor<5120xf16>
    %5037 = "mix.prim.constant"() <{value = dense<1.000000e+00> : tensor<1xf16>}> : () -> tensor<1xf16>
    %5038 = "mix.prim.pow"(%5035, %5037) : (tensor<1x40x5120xf16>, tensor<1xf16>) -> tensor<1x40x5120xf16>
    %5039 = "mix.comp.mean"(%5038) <{dims = [2 : i32], keepDim = true}> : (tensor<1x40x5120xf16>) -> tensor<1x40x1xf16>
    %5040 = "mix.prim.constant"() <{value = 1.013280e-06 : f16}> : () -> f16
    %5041 = "mix.prim.add"(%5039, %5040) : (tensor<1x40x1xf16>, f16) -> tensor<1x40x1xf16>
    %5042 = "mix.prim.rsqrt"(%5041) : (tensor<1x40x1xf16>) -> tensor<1x40x1xf16>
    %5043 = "mix.prim.mul"(%5035, %5042) : (tensor<1x40x5120xf16>, tensor<1x40x1xf16>) -> tensor<1x40x5120xf16>
    %5044 = "mix.prim.mul"(%5036, %5043) : (tensor<5120xf16>, tensor<1x40x5120xf16>) -> tensor<1x40x5120xf16>
    %5045 = "mix.comp.weight"() <{param_loc = "transformer.h.37.mlp.gate_proj.weight"}> : () -> tensor<5120x12288xf16>
    %5046 = "mix.prim.reshape"(%5045) <{shape = [1, 5120, 12288]}> : (tensor<5120x12288xf16>) -> tensor<1x5120x12288xf16>
    %5047 = "mix.prim.batch_matmul"(%5044, %5046) : (tensor<1x40x5120xf16>, tensor<1x5120x12288xf16>) -> tensor<1x40x12288xf16>
    %5048 = "mix.comp.silu"(%5047) : (tensor<1x40x12288xf16>) -> tensor<1x40x12288xf16>
    %5049 = "mix.comp.weight"() <{param_loc = "transformer.h.37.mlp.up_proj.weight"}> : () -> tensor<5120x12288xf16>
    %5050 = "mix.prim.reshape"(%5049) <{shape = [1, 5120, 12288]}> : (tensor<5120x12288xf16>) -> tensor<1x5120x12288xf16>
    %5051 = "mix.prim.batch_matmul"(%5044, %5050) : (tensor<1x40x5120xf16>, tensor<1x5120x12288xf16>) -> tensor<1x40x12288xf16>
    %5052 = "mix.prim.mul"(%5048, %5051) : (tensor<1x40x12288xf16>, tensor<1x40x12288xf16>) -> tensor<1x40x12288xf16>
    %5053 = "mix.comp.weight"() <{param_loc = "transformer.h.37.mlp.down_proj.weight"}> : () -> tensor<12288x5120xf16>
    %5054 = "mix.prim.reshape"(%5053) <{shape = [1, 12288, 5120]}> : (tensor<12288x5120xf16>) -> tensor<1x12288x5120xf16>
    %5055 = "mix.prim.batch_matmul"(%5052, %5054) : (tensor<1x40x12288xf16>, tensor<1x12288x5120xf16>) -> tensor<1x40x5120xf16>
    %5056 = "mix.comp.weight"() <{param_loc = "transformer.h.37.mlp.down_proj.bias"}> : () -> tensor<5120xf16>
    %5057 = "mix.prim.add"(%5055, %5056) : (tensor<1x40x5120xf16>, tensor<5120xf16>) -> tensor<1x40x5120xf16>
    %5058 = "mix.prim.add"(%5057, %5035) : (tensor<1x40x5120xf16>, tensor<1x40x5120xf16>) -> tensor<1x40x5120xf16>
    %5059 = "mix.comp.weight"() <{param_loc = "transformer.ln_f.weight"}> : () -> tensor<5120xf16>
    %5060 = "mix.prim.constant"() <{value = dense<1.000000e+00> : tensor<1xf16>}> : () -> tensor<1xf16>
    %5061 = "mix.prim.pow"(%5058, %5060) : (tensor<1x40x5120xf16>, tensor<1xf16>) -> tensor<1x40x5120xf16>
    %5062 = "mix.comp.mean"(%5061) <{dims = [2 : i32], keepDim = true}> : (tensor<1x40x5120xf16>) -> tensor<1x40x1xf16>
    %5063 = "mix.prim.constant"() <{value = 1.013280e-06 : f16}> : () -> f16
    %5064 = "mix.prim.add"(%5062, %5063) : (tensor<1x40x1xf16>, f16) -> tensor<1x40x1xf16>
    %5065 = "mix.prim.rsqrt"(%5064) : (tensor<1x40x1xf16>) -> tensor<1x40x1xf16>
    %5066 = "mix.prim.mul"(%5058, %5065) : (tensor<1x40x5120xf16>, tensor<1x40x1xf16>) -> tensor<1x40x5120xf16>
    %5067 = "mix.prim.mul"(%5059, %5066) : (tensor<5120xf16>, tensor<1x40x5120xf16>) -> tensor<1x40x5120xf16>
    %5068 = "mix.comp.weight"() <{param_loc = "lm_head.weight.weight"}> : () -> tensor<5120x120000xf16>
    %5069 = "mix.prim.reshape"(%5068) <{shape = [1, 5120, 120000]}> : (tensor<5120x120000xf16>) -> tensor<1x5120x120000xf16>
    %5070 = "mix.prim.batch_matmul"(%5067, %5069) : (tensor<1x40x5120xf16>, tensor<1x5120x120000xf16>) -> tensor<1x40x120000xf16>
    return %5070 : tensor<1x40x120000xf16>
  }
}
